model_weights/Tiny10/CIFAR10/in5-gn5/110000.pt (torch_old, 358762 bytes, 50 tensors)

conv1.weight f4 [16, 3, 3, 3]
00000000: 4e84 853d 07e4 f93d cbf8 d8bc 1a00 4d3e
00000010: 546e c03e f929 2f3e 5356 803c 94b7 173e
00000020: 02a7 9ebc 2ed0 3a3d 0051 f53d 8399 a6bc
00000030: 0c8e 203e 8c92 933e d337 e63d 40d9 87bd
00000040: 0120 adbc 2047 17be 1963 50bd eb61 13bb
00000050: 55d1 823d 9d35 3cbe 7f99 09be 9d0d acbd
00000060: 78ad 83be dd04 83be 4326 47be a907 133f
00000070: 7d7f b7be 0f20 b6bd 9485 523d 107d 90bf
00000080: 76ab 1fbf fea5 52be b299 6bbf b035 10bf
00000090: af5c 9c3e f23c 5f3e 2248 7b3e 3ba0 053e
000000a0: 47aa 23bd 6f54 0c3e f825 573c 4270 b73d
000000b0: 19d0 703e 2dac fdbe c67b 52bd ee7b ffbd
000000c0: 0df0 fbbd 5b0a f33e d5bf d23e 7d54 b83d
000000d0: b2d1 4f3f 70c2 413f 13f8 42be f17d e53d
000000e0: 636a 3b3e 69f2 9dbe 47d8 c6bd 0e7d b6bd
000000f0: 8524 05bf 951d b8be ec4a 15be 01e6 56bd
00000100: cfbb 3d3e f556 47bd a9a2 04bc 80e1 453e
00000110: 09e6 49be 98e4 9fbe 29cc f5bd ef17 70be
00000120: d2e5 963e f9c3 c93e f1a5 febd 385c fe3e
00000130: db47 233f f947 87bd 37c2 c63d b5b0 7c3e
00000140: 970b 41be 6230 e3bd 269d f83c a5b8 a8bd
00000150: 90b9 88bc 09c3 963d 9199 003d 1bba 8bbe
00000160: b913 39be 4344 93bd 6f5e c1bc 9aa1 e83d
00000170: c2e8 77bd 48b5 e53d 94a2 5c3e 55e6 833d
00000180: 4ff1 49be e739 9dbd 8182 8abd f019 5d3e
00000190: fb28 a63e 403e 083e fb6d 813e a2dd b23e
000001a0: 788a 0e3e d934 cabd 0eac 1c3d 7432 f2bc
000001b0: b9eb 703e cafb 2e3d fc21 1e3e 68e4 c23c
000001c0: 03dc 9cbe 7aef a6be 62b0 5ebe 4d01 22bf
000001d0: 3bcd 05bf 5ea8 e0be 0b2b 66be b302 acbd
000001e0: 0961 153e 41ef 563f 0ff0 7e3f ebd1 1d3e
000001f0: c08a 7a3f 96d7 9b3f 0521 263e c96e 98bd
00000200: 001a e23d 7443 febb 4234 00bf d998 28bf
00000210: df9f 283e 14af f5be b7a6 3bbf 2b3e 6f3c
00000220: 9d00 613e 8a0b 58bd 6133 163f 31ca 583e
00000230: 0817 80bf 29d6 0f3e e68c 453e 4273 98be
00000240: d6a3 ecbc 4765 ae3e 7bab 643d 767b 623f
00000250: 13b1 a83e 24a5 a8bf 3f1a 123f 3902 343e
00000260: 74d4 58bf e276 b5be f1a2 473d 97c5 bf3d
00000270: 2c6a 3a3f f840 5d3e 00d4 93bf afae 443f
00000280: 9a70 a33e 7793 39bf 6a70 023d b232 303f
00000290: 5d01 c13d d7e8 583e 06ee 883f 5b1d e73e
000002a0: 6f5f 90bd d4e4 033f 1836 d83d 6d2c 82be
000002b0: b63f 7d3d 75c2 1e3c c0e0 24bf 7dac 17bf
000002c0: 05a3 ebbe 4a12 3bbe ddb7 08bf b6d7 e3be
000002d0: 83ba bc3d d89f 7b3e 17ee a5be d5b2 bb3d
000002e0: 81b0 383e a8a9 04be deca bc3d 8963 70bc
000002f0: 7375 d7bd d103 6abf 2add 903c b308 733f
00000300: ad85 8dbf 07ff c3bd b59f 8e3f d0da 82bf
00000310: 8f8d babd e6e7 873f 8e88 6f3e 17ac cb3c
00000320: 6830 b9bd 34ef ae3e 5312 cbbd d744 d4be
00000330: d73d 253e e311 75bd b37e b6bd 824b 2b3f
00000340: 91c0 f03c 0430 27bf 74b4 863f e906 5b3d
00000350: a1a0 92bf dbb8 483f 675d 6e3d e4f7 2dbf
00000360: da0d 6fbd 171e 23bf 51f5 bb3c 869e 8bbe
00000370: 0ee4 dabe 456d eb3b 0eff f0bc 826d 9a3e
00000380: 929c 393f a671 183e 7663 21bf b760 02bf
00000390: 4181 a83d c9e8 51be 6fcd 09be 121c a53e
000003a0: 0fe2 2f3f 9ebc 7c3f 32a3 d83d 8de5 47bf
000003b0: ff54 0bbf fa17 113e 9dd0 b5be 8e81 b6be
000003c0: 59ed 063f 236a 1e3f f4e0 183f 3715 503f
000003d0: 8c61 d43f cd41 1a3f 1812 2fbb d6f8 2dbf
000003e0: 0ec6 b53e c482 4abd cfc3 23c0 153e 96be
000003f0: ec2c 23bf 5761 1cbf 6fc7 a1be 5cce c03e
0.06519376 0.12201696 -0.026485821 0.2001957 0.37584174 0.17105855 0.015666163 0.14816123
-0.019366745 0.045608692 0.1197834 -0.020336872 0.15679187 0.28822744 0.112411164 -0.06633234
-0.021133425 -0.14773226 -0.050875757 -0.0022488784 0.06387583 -0.18379827 -0.1343746 -0.08401034
-0.25718284 -0.25589648 -0.1944819 0.57433563 -0.35839453 -0.088928334 0.05139692 -1.1288166
-0.62371004 -0.20571133 -0.92031395 -0.5633192 0.30539462 0.21800593 0.24539235 0.13049404
-0.03995731 0.13704084 0.013131611 0.08956958 0.23516883 -0.49545422 -0.05138757 -0.124748096
-0.123016454 0.47468838 0.4116198 0.0900049 0.81179345 0.75687313 -0.19039945 0.11205662
0.18302302 -0.30849007 -0.097092204 -0.08910571 -0.5200885 -0.3596007 -0.14579362 -0.052465443
0.18528675 -0.048666913 -0.008095422 0.19324303 -0.19716658 -0.3122909 -0.12001831 -0.2344663
0.29472214 0.39407328 -0.124339946 0.49679732 0.6378152 -0.066055246 0.09705012 0.24676783
-0.18852077 -0.11093213 0.030348372 -0.08238343 -0.016690046 0.07361419 0.031396452 -0.27290425
-0.1807393 -0.07190754 -0.0236046 0.11358948 -0.06052471 0.11216217 0.21546394 0.06440417
-0.19720958 -0.076770596 -0.06763173 0.21591926 0.3245314 0.13304996 0.2527922 0.34934717
0.13920009 -0.09873361 0.03825002 -0.029565074 0.23527421 0.042720594 0.15442652 0.023790553
-0.30636606 -0.3260458 -0.21746972 -0.63283235 -0.5226628 -0.43878454 -0.22477357 -0.08398952
0.14587797 0.8395882 0.9958505 0.15412109 0.97867966 1.2175167 0.16223533 -0.074430056
0.11040115 -0.007759506 -0.5007974 -0.65858227 0.16467236 -0.47985137 -0.7330126 0.014602224
0.2197289 -0.05274538 0.5867215 0.2117088 -1.0007029 0.1404654 0.1929203 -0.29775435
-0.028886717 0.34061643 0.0558276 0.88469636 0.32947597 -1.3175397 0.570713 0.17578973
-0.8469918 -0.35442263 0.048739377 0.09363859 0.72818255 0.21606815 -1.1549072 0.76829046
0.31921846 -0.7249064 0.031845488 0.68827355 0.09424088 0.21182571 1.0697639 0.45139584
-0.070494525 0.5152104 0.105571926 -0.2542452 0.061828338 0.009689917 -0.6440544 -0.5924757
-0.46022812 -0.18268695 -0.53405553 -0.44500512 0.09215262 0.24572694 -0.3240821 0.09164969
0.18036081 -0.12955344 0.09218381 -0.0146721685 -0.105204485 -0.91412073 0.017683584 0.9493515
-1.105642 -0.09570127 1.1142489 -1.0223026 -0.091090314 1.0617645 0.23391935 0.024862332
-0.09042436 0.34166873 -0.099156044 -0.4145877 0.16136871 -0.05983151 -0.08910885 0.6691209
0.029388698 -0.6530764 1.052382 0.053473387 -1.145527 0.7840707 0.058194544 -0.67956376
-0.05836282 -0.6371779 0.022944124 -0.2726938 -0.42752117 0.007184657 -0.029418495 0.30161673
0.7250453 0.14887103 -0.6304239 -0.50928825 0.08227778 -0.20498957 -0.13457273 0.32247978
0.68704313 0.98725307 0.10578002 -0.7808464 -0.5442657 0.14169303 -0.35510722 -0.35645717
0.52705914 0.618807 0.5971825 0.8128237 1.6592269 0.60256654 -0.0026713666 -0.6795782
0.35502666 -0.049441114 -2.5588262 -0.2934424 -0.6374042 -0.6108603 -0.31597468 0.3765744

conv1.bias f4 [16]
00000000: 913f beba 00d7 7b3a 8c4f 1d3b 3366 07bb
00000010: 3b8c c5ba 7573 083b 6e3f 5ab9 5551 15bb
00000020: fcf0 563a cec9 eb3a e7fd ddba 6caa f13a
00000030: 92d4 213b 3dde 1d3b 9a86 c23a 810a 3239
-0.0014514794 0.00096069276 0.0024003712 -0.002066028 -0.0015071699 0.002082077 -0.0002081373 -0.0022784073
0.00081993616 0.001798922 -0.0016936631 0.001843763 0.0024693352 0.0024088763 0.001484114 0.00016979316

bn1.weight f4 [16]
00000000: d5f9 133f 3f10 183f e6bc 3c3f ef48 1c3f
00000010: 7ad0 f33e 50ae 643f 5afa ff3e 5d98 2b3f
00000020: 215c 1f3f 8eb4 703f b5f9 ed3e 37b7 633f
00000030: 75d1 003f 44d6 c43f 3c22 3b3f 0dfe a13f
0.5780309 0.5939979 0.73725736 0.6104879 0.47619992 0.8932848 0.4999569 0.6702936
0.6224995 0.94025505 0.46479574 0.8895144 0.50319606 1.5377889 0.7309911 1.2655655

bn1.bias f4 [16]
00000000: 5f52 80bf 4540 743e 4360 8abe e14f b7be
00000010: 515d 5c3e 9a22 d23e 8db2 713e 67d5 98bd
00000020: 0bfc f93e 4f3e ac3f a104 d93e 9899 cb3e
00000030: 37d4 c53e fd61 5cbf 658b 1cbf 49da f33f
-1.0025138 0.23852642 -0.27026567 -0.3580313 0.21519972 0.41042024 0.23603268 -0.07462578
0.48825106 1.3456515 0.42386344 0.3976562 0.3863847 -0.8608702 -0.611502 1.905099

bn1.running_mean f4 [16]
00000000: 91ec 54bd df13 07bd 3d84 463d f7e8 1bbe
00000010: f410 e2bc cadd 343c b601 ca3c 8998 d5bc
00000020: 5d50 0bbe 3e54 74bd 430a 23be bd26 2cbd
00000030: 0cab c8bd ec4f 633e 6c36 2abe 3316 253d
-0.05198342 -0.032977935 0.048465956 -0.15225588 -0.027595975 0.011039207 0.024659019 -0.026073711
-0.13604875 -0.059650652 -0.15921883 -0.04202913 -0.097982496 0.22198457 -0.16622323 0.040304374

bn1.running_var f4 [16]
00000000: 4af7 b03f a23a 8c40 45e7 3d40 7bf6 1140
00000010: 486f b83f dc1c 6041 1ce7 3540 8a30 903f
00000020: 3431 4a41 1a44 5a40 a292 3541 4741 1841
00000030: c1cc 6a40 ff75 8d40 dcc1 e63f f307 1040
1.3825467 4.3821573 2.9672406 2.280669 1.440896 14.007046 2.8422308 1.1264813
12.6370125 3.4104066 11.348299 9.515937 3.6687472 4.420654 1.8027911 2.2504852

conv2.weight f4 [16, 16, 3, 3]
00000000: 74cb ca3d 1a99 46bb 66bc f0bd 5e5d 633d
00000010: 8729 9fbc d809 cdbd caa3 923d 2357 c93c
00000020: 35e2 d4bc b7dc 92be f1bc 99be da24 1ebe
00000030: 0c4e 1fbd b383 6cbd 19e9 993d 7d78 213e
00000040: a0eb 3e3e 7906 8a3e f847 b23d 7a16 b9bc
00000050: e790 61be 394d e23d 9e82 063d bd93 3dbe
00000060: dd9a 13be fdcb 8bbd 5f43 c3bd 5c76 0c3d
00000070: e7ce 103c a89b 8dbd 46e1 eabc 536e 583c
00000080: bd25 163b bfbe a3bd 4ac1 163d 84f2 e13d
00000090: af13 a8bd ed21 e4bd 698f 143b 7633 fdbc
000000a0: 01c6 d7bd 59ad d0bc 033e e93d 6aa2 c4bc
000000b0: 8c08 073b 0e4e cabe 235d 89be 32e6 343e
000000c0: a997 24bf b8c5 35bf 9950 3dbf c14a a13d
000000d0: fec7 34be 0630 d3be d40b c93e 426f 4abd
000000e0: 3e8d d0be f0b1 b73e 27c7 33bd db43 cebe
000000f0: 0225 7f3e dc3e 19bd 7a6c 94be 7cc5 453e
00000100: 071b 0a3e 2d1a f23b 361a 8b3d b1aa 7c3e
00000110: a6ad 303e 615f ccbd 81b8 3d3e bb28 da3d
00000120: 26aa 6abe b817 64bd 37c9 853e ba73 013c
00000130: ac57 ccbd b088 843d 93f3 c83e 5ccf b1bd
00000140: 6632 a8be 8488 85be 3d1b e13c d95f bf3e
00000150: afc6 95be 35aa 63be 526d bd3e 3813 8f3e
00000160: 5c97 04bd e9d9 41be 3ce3 1c3e 9f71 e6bd
00000170: 4d4f afbe 3389 d7bc ef30 16b8 fab6 84bd
00000180: 7751 9dbe b096 3a3c 5b1d 7b3e 4f85 96bc
00000190: 1f42 e03d 316d 3f3c 0c41 093f a107 013f
000001a0: c1ff 063f f1d7 433e 7c8d 833e 590a ca3e
000001b0: b2a1 03be 4b4e e4bd e58f f1bd 4e5a 18bd
000001c0: 711c 79bd 9f15 013d ea5e 963e a266 4c3d
000001d0: 2894 40bc dcd0 6b3e e41e b23c 3ff2 38be
000001e0: 6e8c 903e 2cf6 bcbd 8372 8ebe a938 2b3e
000001f0: 48b4 18bd 5b3b acbe b325 1a3d 7300 a0bd
00000200: d24c 0cbe ec81 a0bd 63d0 b7bd 3739 2bbd
00000210: af82 6ebd 7d5c fdbb f4d0 b53c faa7 573e
00000220: 9fcd 95bd 78f5 32bd fdbd a2be 753b 083e
00000230: 0f1a bb3d f5b0 303d 259f afbc 449d bdbd
00000240: 8b1f 8c3d 8e1b 653d 6314 dc3c 8d29 823c
00000250: 704c 35bd d8c2 d5bd a0b1 163e 1644 cd3d
00000260: 97db 27bd 3bf2 afbd f741 ffbd 9638 dabd
00000270: 53f4 57be 47e2 27be c40d 01bd a206 813e
00000280: 6ce8 0b3e 25d9 233e b411 563e 52d1 1ebe
00000290: 440e 2c3e 2ccc e93d da67 e7bd 4e13 8ebd
000002a0: d3a4 303e b5b1 2dbe 999b 9abe 3731 3cbe
000002b0: cf83 2cbe 0d37 cf3c ce3e e7bc 2b72 89bd
000002c0: f4eb 433c 8c29 753e 4c5b fe3d dfda 073e
000002d0: 0153 6ebe e433 333c 6aaa 493e f5ad 9bbd
000002e0: 620f 23be 0f51 20bd c79e 193e 89cc 513d
000002f0: fa20 8b3c 24ef 993e de5e d0be 738d e4be
00000300: b653 033f 66f0 97bd f36d 77bd 4fbf 56bf
00000310: 7a53 af3e 3011 563e a594 123e cb87 88be
00000320: 9d81 583d ff2a 06ba bb1a 7fbe 43a2 a13b
00000330: 9945 213e 520e 20bd f233 c5bd 3b6d 483e
00000340: b667 1dbe 7af5 3fbe 4d30 193e 4ff9 ce3d
00000350: 6be3 873c 6439 8bbe adb0 083e 10f2 c3bb
00000360: e335 3dbd 24e7 2f3e 8748 e0bd 663e 4b3e
00000370: ef23 9b3e e0da 10be 9b9f 02bd 9825 cd3d
00000380: 6697 d5be 96fc e5be 471b 703f 80be 11bf
00000390: c195 323e 9966 edbe 46f4 b03e fe83 6d3e
000003a0: e697 28bf 21a3 633e 41af b43d b867 b83d
000003b0: b2c1 083e 3e7f 88bd f850 48be dc79 cabd
000003c0: 06a7 df3d 957e 69bd 63d8 e0bd a854 01be
000003d0: d3b6 2ebc d250 f53d 0cf6 d7be e19c 4abd
000003e0: 90ed b43e f49e a73e f52b db3d 8ff6 efbe
000003f0: add6 5bbc ac5c efbd 518e 7dbe cad3 123e
0.09902087 -0.0030303658 -0.11754684 0.055508964 -0.019428981 -0.10011643 0.071601465 0.024577683
-0.02598677 -0.28684017 -0.30026963 -0.15443745 -0.03889279 -0.057742786 0.07515163 0.15768619
0.18644571 0.26958063 0.08705133 -0.022593725 -0.22027932 0.11049885 0.03283941 -0.18513389
-0.14414544 -0.06826017 -0.095343344 0.034292564 0.008838392 -0.06914455 -0.028671872 0.013209897
0.0022910677 -0.07995366 0.03680543 0.11032584 -0.08206879 -0.11139283 0.0022668487 -0.030908328
-0.10535813 -0.025473284 0.11388781 -0.024003226 0.002060446 -0.39512676 -0.2682887 0.17665938
-0.64293915 -0.7100482 -0.7395111 0.07875586 -0.17654416 -0.41247576 0.39266837 -0.04942251
-0.4073276 0.35877943 -0.0438911 -0.40286145 0.24916461 -0.037413463 -0.2898901 0.19313616
0.13486873 0.0073883743 0.06792109 0.24674489 0.17253742 -0.099791296 0.18527414 0.106523
-0.22916469 -0.055686682 0.26130077 0.0079011265 -0.099776596 0.064713836 0.39248332 -0.08682129
-0.3285095 -0.26080716 0.027478809 0.37377813 -0.29253146 -0.22232898 0.36997467 0.2794435
-0.03237091 -0.18930782 0.15321058 -0.1125214 -0.3424019 -0.026310539 -3.580836e-05 -0.064802125
-0.30726215 0.011388466 0.24522917 -0.018374113 0.109501116 0.011683748 0.5361488 0.50402266
0.52734 0.19125344 0.25693882 0.3946102 -0.1285465 -0.11147746 -0.11795024 -0.037195496
-0.06081814 0.03151476 0.2936929 0.049902566 -0.011754073 0.23028892 0.021743245 -0.1806116
0.2823214 -0.09226641 -0.2782174 0.16720833 -0.037281305 -0.33639035 0.03763361 -0.07812586
-0.1370118 -0.07837281 -0.089752935 -0.04180261 -0.0582301 -0.0077319727 0.022194363 0.21060172
-0.0731461 -0.04369113 -0.31785575 0.13303931 0.0913583 0.04313751 -0.02143819 -0.09258512
0.06841954 0.05593448 0.02686519 0.015888954 -0.04426235 -0.10437554 0.14716196 0.10022752
-0.0409809 -0.08591124 -0.12463754 -0.10655324 -0.21089296 -0.16394912 -0.03150727 0.25200373
0.1366288 0.16000803 0.2090519 -0.15509537 0.16802317 0.11415896 -0.11299105 -0.06937276
0.17250375 -0.16962321 -0.30196837 -0.18378149 -0.16847156 0.025294805 -0.02822819 -0.06711229
0.011958111 0.2394163 0.12419757 0.13267086 -0.23273851 0.010937665 0.19693914 -0.07601539
-0.15923837 -0.039139803 0.15001975 0.05122045 0.016983498 0.30065262 -0.40697378 -0.44639167
0.5129961 -0.07418899 -0.06040759 -0.83885664 0.34243375 0.20904994 0.14314516 -0.26666102
0.052857984 -0.0005118101 -0.2491254 0.004932673 0.15749206 -0.039076157 -0.096290484 0.19572918
-0.15371594 -0.18745986 0.14959832 0.101061456 0.016587934 -0.27192223 0.13348646 -0.005979784
-0.04619397 0.17178017 -0.109513335 0.19848022 0.30300853 -0.14145994 -0.031890493 0.10016936
-0.4171707 -0.4491927 0.9379162 -0.56931305 0.17439939 -0.46367338 0.34561366 0.23194882
-0.6585678 0.22230197 0.088224895 0.09004158 0.13355139 -0.066648945 -0.19562137 -0.09886524
0.10920529 -0.057005484 -0.109787725 -0.1262995 -0.010663706 0.11978306 -0.42179906 -0.049466018
0.35337496 0.3273846 0.107017435 -0.46867797 -0.013417882 -0.11687598 -0.2476132 0.14338604

conv2.bias f4 [16]
00000000: 6cb0 85ba adae 063a 2f4b 66ba d600 e4b9
00000010: 5c0c 7739 e2d9 833a 689a 11ba 5ace cb39
00000020: 5bdb 8c3a f8d0 33ba a21b 643a d4fd 0e3a
00000030: d585 9539 94c3 d739 24df f4b9 1b6b 00b9
-0.0010199673 0.0005137723 -0.0008785007 -0.00043488172 0.0002356036 0.0010059441 -0.00055543194 0.0003887292
0.0010746525 -0.0006859447 0.00087016274 0.00054546935 0.00028519207 0.00041153713 -0.0004670556 -0.00012246931

bn2.weight f4 [16]
00000000: 173c 8e3f 3f65 a43f 392b 793f e57e ad3f
00000010: 837c 5d3f 5c4a 963f d9d1 c83f 5b0e 813f
00000020: a3bf 9a3f a4f5 a23f 3bb3 4b3f 74fb 813f
00000030: ca2a 553f a6b5 a03f f4da da3f b9eb 8f3f
1.1112088 1.2843398 0.9733158 1.355435 0.86518115 1.1741443 1.568904 1.0082506
1.2089733 1.2731214 0.7957036 1.0154862 0.83268416 1.2555435 1.7098069 1.1243812

bn2.bias f4 [16]
00000000: 5f67 54bd 88b9 98bd e7ef 103e 2189 a9bd
00000010: eef0 113f 3406 fcbe afcf 273d 0807 70bd
00000020: 2aba a1bd b381 25be 9934 293e 991b 513f
00000030: 6cae e03e a42e cc3c 3dc9 50bd bda3 7bbc
-0.051856395 -0.07457262 0.14154015 -0.082781084 0.57008255 -0.49223483 0.040969547 -0.058600456
-0.07896836 -0.16162758 0.1652397 0.81682736 0.43883073 0.024924584 -0.050973166 -0.0153588625

bn2.running_mean f4 [16]
00000000: 91d8 69bf e0a3 8dbf ab8a ebbe 3d23 23bf
00000010: ef9e bd3e cf04 b9bf d579 39bf e091 f0bf
00000020: 0ce2 9a3d 3855 6cbe ef76 25c0 21c7 00c0
00000030: 713e 25bf 8dfb 0bbf 5f7a 31bf 4cfc 1ebf
-0.9134608 -1.1065636 -0.46004233 -0.63725644 0.3703532 -1.4454592 -0.72451526 -1.8794518
0.07562646 -0.23079383 -2.5853841 -2.0121539 -0.64548403 -0.5468071 -0.6932735 -0.62103724

bn2.running_var f4 [16]
00000000: b228 b940 dedd 0741 95f9 2340 87a9 3441
00000010: 502e 3c40 bb58 c23f fafe b941 6b20 1140
00000020: 8412 c040 b657 ad40 9dd6 4340 cb8f 5e40
00000030: bbbc 8040 ed9d 1141 d467 d841 10e2 c140
5.7862177 8.491667 2.5621083 11.2913885 2.9403267 1.5183328 23.2495 2.2676036
6.00226 5.416957 3.059974 3.4775264 4.0230384 9.101056 27.050697 6.0588455

conv3.weight f4 [32, 16, 3, 3]
00000000: 490f 6f3d 6faa eebd e8c1 c1bc d77c ad3b
00000010: 0cf7 21be 335a fb3c c2fa a63d d251 1bbc
00000020: 326d ba3d 1d28 023d 3ba2 46bd 93f1 b5bd
00000030: 283d 08be 4998 88be 2a3a 4fbe 1a8c 11be
00000040: bf9d 75be ffc9 4dbe 97ea b5bd 5c82 81bd
00000050: ddc6 dfba c7e9 dcbd bcae 38bd 41ff 63bc
00000060: 581f 1dbe c8f7 dabd 0895 aebb 087d 07be
00000070: 5097 8dbd cf7d be3d b731 68be 109e aabe
00000080: b1fc 21bd ee69 423d aecb d4bd 4221 debd
00000090: 573b e3ba 3c25 493c 3389 bbbd 057d 1cbd
000000a0: 8c12 89bd 2c2f 81be efac 88bd d1e7 70bd
000000b0: 0170 48be eeed 20bd ab6e 65bd b3bb caba
000000c0: 2071 493e e022 ad3d 352b 3e3e 2e41 073e
000000d0: fa67 a73a 8c35 613e 5d2e b2bd 26ea 5cbe
000000e0: d671 13be 25ee a1be 7f0d 03bf e820 a2be
000000f0: 1cab 9cbd da06 adbe b59c 83be f685 94bc
00000100: e26f c8bd 264c bbbd a3be e93d 4de0 0e3e
00000110: 682b 453e 989b b63e e6d0 853e 266e 923e
00000120: 8c6d 0b3e e75e 863d b4dd 08bc c61d d33d
00000130: 5b05 293e ef88 713d 0375 9a3d 7805 3a3e
00000140: c1c9 0b3e 9365 e0bc 4b4c 193e 3095 873e
00000150: 5c84 d1bd c047 b23d 9ad1 8c3e 6e47 603c
00000160: 66c2 193e 010f 873c 8696 b7be 1f2e 93be
00000170: 7e84 25be 5e11 9dbe 7d45 d4bd 6a1f 00be
00000180: 9d95 72be ebb9 10be 6a56 83be e5a9 24bd
00000190: d979 64bc 3544 3abd 732e 81bd fa0c e7bd
000001a0: 6e87 bf3d 0b8f 02be 57d3 25bd d45d 093e
000001b0: 0bcb ea3c 8bf1 483e 2002 533e 128a 243d
000001c0: 8571 053e 472c ce3c da34 053d ce0c a13c
000001d0: c96a ebbd 1fc3 be3e 9b92 b83e 8e3c 413e
000001e0: 3321 6b3e 06f4 4a3e 9cd3 bd3d e7e2 a03e
000001f0: 5962 123e 740a a7bc 24af 3abd 8e9b 2d3d
00000200: 6923 003e 6868 24bd d60c 2b3d 25ba 33bd
00000210: e2a7 04bd 4343 583d 3147 e7bc e7aa bb3d
00000220: 2018 263d af2e f73c 7a0c 2b3e 5908 0f3d
00000230: a32d 3c3d 3869 fbbc 66a4 49be 182a 5fbd
00000240: 4717 223e 56a8 9b3e c5bb 243e 033e 83bd
00000250: dbac 47bb 2e46 86bd 9c68 30be b8d5 00be
00000260: c756 c53c 3325 043e ffe0 a23e 1989 723e
00000270: 43e8 223c c857 db3d e08c de3d 2604 f5bc
00000280: 5cfe c9bd fa7e 73bd fb6c 66bd cb9e 523c
00000290: c971 7f3e eedc f63d f4ae dd3d 1e42 ed3d
000002a0: 7e0d d13d 51a2 143e c09a 863d b295 463e
000002b0: 72dc a43e 3a7b 6c3e 6a7a 7f3d a00d 0c3e
000002c0: 65b1 953d fd6b 07be 142b 80bd 446a 393d
000002d0: b1e8 933e f8d7 493e ef75 5f3e beaf b03e
000002e0: b83f 4f3e 4db0 af3d c579 953e b207 543e
000002f0: 5c95 3e3e c7e7 923e e755 c73d be7a 0cbd
00000300: 6d5a be3b b20c 16be 4420 9dbd 69e0 a5be
00000310: 5b1e d0be 5f53 0fbe e197 973e ff1a f43e
00000320: ddcd b73e e7d5 dc3d b504 a73d 8c4c 3b3d
00000330: d068 4a3d f4f8 12be f951 febd 0927 9b3d
00000340: c144 98bd abcd 65be 403e 9abd d878 fdbd
00000350: a226 15be 93a3 1abe 3d41 f0bd db5b eabd
00000360: 1d6e 9d3d 686d 8c3d d748 47be 7515 e43d
00000370: f6fb 453d e1fd 82bd 9a5b fa3c 96a1 ce3d
00000380: 3384 5e3d ff0e 6f3b 4e7c ea3d c6f6 babb
00000390: 92ff 2f3e bf1e 413e ee4d d1b9 a772 f0bd
000003a0: ddfd 653c fa8b d73d 7a6d 97bd a7dd 5cbe
000003b0: e544 2ebe a957 9abe 55c1 c0be 99eb 91be
000003c0: 50fc bcbe 7b05 b1be c50b 0abe 5988 fdbd
000003d0: 011d 59bd 3af6 dd3d 6aff 4abe 159e 17be
000003e0: 22bc 83bd d810 69be b77a 70be 0648 19bd
000003f0: 5d83 ef3d 676e 513e eb44 0b3e af15 f63d
0.058364186 -0.116536014 -0.023652032 0.005294423 -0.15816897 0.030682659 0.08153297 -0.009479957
0.091028586 0.031776536 -0.04849456 -0.08883967 -0.1330458 -0.26678684 -0.20237032 -0.14213601
-0.23985957 -0.20096587 -0.08882635 -0.06323692 -0.0017072816 -0.10786777 -0.045088515 -0.013915838
-0.15343988 -0.10691792 -0.0053278245 -0.1323129 -0.06913626 0.0930134 -0.22675215 -0.33323717
-0.039547626 0.047464304 -0.10390411 -0.10846187 -0.001733641 0.012276944 -0.09157028 -0.038205165
-0.06692991 -0.25231302 -0.066736095 -0.058814827 -0.19573976 -0.039289407 -0.056013744 -0.0015467316
0.1967206 0.084539175 0.1857117 0.13208458 0.0012772076 0.21993083 -0.08700249 -0.21573696
-0.14398894 -0.31627002 -0.5119247 -0.3166573 -0.07649824 -0.3379429 -0.25705495 -0.018130284
-0.09786965 -0.091453835 0.11413314 0.13952751 0.1925484 0.35665584 0.2613594 0.28599662
0.13616008 0.0656107 -0.008353639 0.10308413 0.16505949 0.05896848 0.075418495 0.18166149
0.13651182 -0.027392184 0.1497051 0.2648101 -0.10230324 0.087050915 0.27503663 0.013688905
0.15015563 0.016486647 -0.35857028 -0.28746125 -0.16163823 -0.30677313 -0.10364816 -0.12511984
-0.23689885 -0.14133422 -0.25651866 -0.040201087 -0.013945066 -0.045475204 -0.063076876 -0.11281772
0.09352003 -0.12749879 -0.040484753 0.13414699 0.028661272 0.19623391 0.2060628 0.040170737
0.13031586 0.025167597 0.032521106 0.019659426 -0.11494977 0.3725824 0.3604935 0.18870756
0.22961883 0.1981965 0.09268877 0.31423113 0.14295329 -0.020390727 -0.045577183 0.042384677
0.12513508 -0.040138632 0.04176029 -0.043878693 -0.032386668 0.05279852 -0.028232189 0.091634564
0.04055035 0.030173628 0.16703978 0.03492007 0.04594196 -0.03068982 -0.1969162 -0.054483503
0.15829192 0.30401868 0.16087253 -0.06408312 -0.003046802 -0.065563545 -0.17227405 -0.12581527
0.02408923 0.12904815 0.31812283 0.23685111 0.009943071 0.10710102 0.108667135 -0.029909205
-0.09862968 -0.059447266 -0.056256276 0.012855242 0.2494575 0.12053858 0.10824385 0.115848765
0.102076516 0.14515044 0.06572485 0.19393042 0.32199436 0.23093882 0.062372603 0.13677073
0.07309226 -0.13224788 -0.062582165 0.04526736 0.28888467 0.19711292 0.21822332 0.3450908
0.2023915 0.085785486 0.29194465 0.2070606 0.18611664 0.28692457 0.097331814 -0.034296744
0.0058091194 -0.1465328 -0.0767217 -0.32397774 -0.4064816 -0.13996647 0.29608062 0.47676846
0.3589925 0.10782986 0.08155195 0.045727298 0.049416363 -0.1435278 -0.12417979 0.07575805
-0.07434989 -0.22441737 -0.075314045 -0.12376565 -0.14565518 -0.15101461 -0.11731193 -0.11443301
0.07687018 0.06856805 -0.1946138 0.11136905 0.04833599 -0.0639608 0.030561257 0.10089414
0.054325294 0.0036477444 0.114494905 -0.005705687 0.17187336 0.18859385 -0.0003992165 -0.11740618
0.0140375765 0.10524745 -0.07393928 -0.21568929 -0.17018469 -0.30145004 -0.376475 -0.2850006
-0.3691125 -0.34574494 -0.13481052 -0.12379522 -0.053006176 0.108379796 -0.19823995 -0.14806397
-0.06432368 -0.22760332 -0.23484312 -0.037422203 0.116949774 0.20452271 0.13600509 0.120158546

conv3.bias f4 [32]
00000000: d21b 24b9 6155 5a39 a29b 45ba 16ec 52b9
00000010: ceed 353a 7b4f 4f3a fee1 ee38 db6e 4e39
00000020: 3117 4bb9 a536 3aba ec03 2138 69ca 0e3a
00000030: a515 14ba f6b7 27ba eab7 3039 b221 20ba
00000040: a0b8 b738 18d3 79ba 308a 743a 9682 8739
00000050: af1e 3b3a a945 8cb7 dc8e 81ba 58d4 4ab9
00000060: 3175 7fb9 cafb 3f3a 79ac 5339 8f86 01ba
00000070: 0c27 6039 a0b8 803a 666e 83b9 6228 5aba
-0.00015650623 0.00020821906 -0.0007538145 -0.0002011511 0.0006940038 0.0007908267 0.00011390819 0.00019686988
-0.00019368228 -0.00071034796 3.8389044e-05 0.00054470316 -0.0005648977 -0.0006397957 0.00016853181 -0.00061085366
8.760509e-05 -0.00095300516 0.0009328453 0.000258465 0.0007138056 -1.6721739e-05 -0.0009884494 -0.00019343325
-0.00024362352 0.0007323591 0.00020186779 -0.000494101 0.00021376851 0.0009820648 -0.0002506852 -0.00083220575

bn3.weight f4 [32]
00000000: 22ff 703f a598 3e3f c09b 2e3f eb23 833f
00000010: eede 7f3f 4fdf 283f 7228 4f3f 4aaa aa3f
00000020: 663c 853f a89e 2d3f 2586 093f a131 6a3f
00000030: 9b7b 2d3f c10b ab3f 75a8 1c3f 6008 533f
00000040: 100f 3c3f 9bf4 713f 05d6 9a3f 6941 953f
00000050: d4ea 783f 8150 6c3f f681 6e3f 30ab 6b3f
00000060: 9feb 563f 53b3 a83f 8548 293f c922 483f
00000070: ebf2 393f 69f5 4f3f 41d8 7a3f e7a0 7f3f
0.941393 0.7445167 0.68206406 1.0245336 0.9994954 0.6596574 0.8092109 1.3333218
1.0409057 0.67820215 0.53720313 0.9148198 0.6776673 1.3362962 0.61194545 0.82434654
0.73460484 0.94513863 1.2096564 1.1660587 0.9723332 0.9231034 0.93167055 0.92058086
0.8395328 1.3179725 0.6612628 0.7817808 0.7263629 0.8123384 0.9798623 0.9985489

bn3.bias f4 [32]
00000000: 4258 a0be aa8f f9bd 23f1 e93d d503 3f3e
00000010: 487b 25be 6b41 9c3e 46a2 923d 01a3 6ebe
00000020: 5f8a 90be deae ecbc 8bd9 5f3f 4869 bfbd
00000030: aa3c 463f 447c 29be 6528 7a3e 5387 62be
00000040: 2c64 873e f777 3cbe 33a3 563e 4525 46bd
00000050: 2e78 a8be 9e66 c4be c9a7 bbbe 637f e4be
00000060: 939c 48be ff36 02be 257e 863e 49a3 e9bd
00000070: 21f0 9c3b 2acf a4bd b2f7 cebd 2e98 f3bd
-0.31317335 -0.12185605 0.11422946 0.18653806 -0.1616031 0.3051866 0.071598575 -0.23304369
-0.2823057 -0.028891977 0.8744132 -0.09346253 0.77436316 -0.1655131 0.24429472 -0.22121935
0.26443613 -0.18405138 0.20960693 -0.048375387 -0.3290419 -0.3835954 -0.36651447 -0.44628438
-0.19590978 -0.12716292 0.26268116 -0.11408097 0.004789368 -0.08047326 -0.10105838 -0.1189426

bn3.running_mean f4 [32]
00000000: 93f3 b0bf 5907 8e3f f51d a03f c5d8 19c0
00000010: ccd0 53bf bdac 24bf fb5b 8c3f 9b4a 7fc0
00000020: 8d07 ddbf e954 1c40 1cb2 263f 53d8 9f3f
00000030: 1e60 4ac0 752a 24c0 6aab b53f 0744 fbbf
00000040: 4965 f6bf 1102 a93e 8416 03c0 d510 debf
00000050: 1e86 a2bf 4d5f 88bf 4af6 023d 7ec0 39bf
00000060: 5cbd 99be e99f 42c0 93ff 123d bb46 d8be
00000070: 35e0 9b3f 41a9 8b3f 0754 3dbe 6dc3 13bf
-1.3824333 1.1095992 1.2509142 -2.4038556 -0.82740474 -0.6432608 1.096557 -3.9889286
-1.7267929 2.4426825 0.65115523 1.2487892 -3.1621165 -2.5650914 1.4192936 -1.9630135
-1.924966 0.3300939 -2.0482492 -1.7348887 -1.2697179 -1.0654083 0.03197316 -0.72559345
-0.30027282 -3.0410101 0.035888266 -0.42241463 1.2177798 1.0911027 -0.18489085 -0.5772007

bn3.running_var f4 [32]
00000000: 44c1 8940 0aaf 5940 164e 8040 4690 c040
00000010: 75bb b540 7d6b 8e40 4388 8a40 3eeb 1941
00000020: 1f32 a640 4022 4840 9e3b 6b40 f4e4 9240
00000030: 277f 0341 f0a0 1441 3a01 4d40 0a65 1140
00000040: 7513 9540 6e6f 9b40 3d27 0441 680b bd40
00000050: edd0 9a40 029f 2f40 b295 7f40 99c6 7e40
00000060: 25d4 1540 e519 3041 d195 8240 a4ea 6b40
00000070: 5786 5d40 1a0b aa40 e314 2041 8439 1b41
4.304842 3.4013085 4.009532 6.0176115 5.679133 4.450621 4.3291335 9.619932
5.1936183 3.1270905 3.6755137 4.5904484 8.218543 9.289291 3.2031999 2.271792
4.658625 4.8573523 8.25958 5.9076424 4.8380036 2.74408 3.9935117 3.9808714
2.3410733 11.006322 4.080788 3.6861963 3.4613245 5.313855 10.005099 9.701542

conv4.weight f4 [32, 32, 3, 3]
00000000: a827 29bd 5d4c 32ba 1784 253b 466a 153c
00000010: 3d64 c63c 1d0f 5abe ab8b d43d 3da6 ea3c
00000020: 605e 6a3b ac3a 46be c12b b7bd 5c20 44be
00000030: 216f 82be 7ba7 8abe db29 83be c91d 92be
00000040: 778d 67be 740e 05bd 3b14 90bb 069f b33c
00000050: 420b 73bb e967 92bd 1bc8 ac3d 9358 683d
00000060: 5163 0c3e 9458 183e 30a5 c03e 3118 c73d
00000070: 247a 263e 528d 163c 14bf 01be 111c 46be
00000080: 0403 97be f364 543e 2cbf 313e 328b e93b
00000090: 4cf7 6abe 4184 ff3b 76c6 0cbb c2f9 e03d
000000a0: 887e 853e 436f fabd 519a 9a3e 1afb 143e
000000b0: 4418 1cbe 2ab6 2ebe 5dcc 59be 37c4 543d
000000c0: 29fb 81bd 012f 493d d69a f23d bdb8 d93d
000000d0: 2383 b53d f506 da3d 40cf edbd 47db a13e
000000e0: 9782 9a3e 620a c3bd 04e9 003e 5edb 0e3e
000000f0: 277a 303d 7a5e c1bd b334 163e cf36 d1bd
00000100: 960c 26be 0ae8 3dbd f39c 9bbd b77e 4e3d
00000110: 541b a53c 6ecc 6ebd 78fd a5bc 9bb5 6fbe
00000120: 64ff 53bd 9175 dfbd 99c5 433e 04f2 dbbd
00000130: 5b6c 25be 7370 a13d 5cda 4c3e 9369 823e
00000140: 0016 873e 7883 b3be 5718 85be e4ca 86be
00000150: ed99 6ebe a60e 36be 4198 e1bd cfca 18be
00000160: 3446 e13c 9810 7e3d 849d 933e 5afb 8a3e
00000170: 149d 3d3e be49 003e 36eb 303c dcd3 61be
00000180: 9b39 933e f80d 763e 61f0 ecbc 5f50 953e
00000190: 45ab 0f3e 3c75 4fbe 0d4b 213e 5d7d 063e
000001a0: 3cb8 9abe 143b 7b3e 68b9 973d 5b17 173d
000001b0: 66f6 223f 496d 073e ff9a 943e e7fb 943e
000001c0: 05ee 143e 3fe2 9e3e 443f 873e 7614 7a3e
000001d0: 2810 7c3e 1350 26be 0f96 0bbe 0a6f b8bd
000001e0: 4ea4 17be 0b6b b8bd e203 6dbd 8739 90bd
000001f0: 40ea ebbd 621f 59bd c062 db3d 980b dabd
00000200: 0299 bfbc af80 873c 06c9 8cbd c5ee 373d
00000210: a246 863a 2f94 b63d c1af 6b3e 0bd5 80be
00000220: 651e 3b3d eeeb bc3d ae9c 57be 0736 8ebd
00000230: d740 1b3e fcaf 0ebe 933e bbbd 98a9 bf3d
00000240: 42c3 063e 7925 013e 33d3 083e fa1b f23d
00000250: 9f6b 90bc 5fa5 9bbd c786 8fbd 21ea 5abe
00000260: 6673 663d af10 a6bd 3329 bbbd 0620 12be
00000270: 0bf2 4bbd 16e9 70be a8a8 c4be 1b40 bbbd
00000280: 53d1 6bbe 86d2 9cbe 31fc 293e d663 363d
00000290: 939a 783e bfa0 03bc 788f 16be 1f9d 05be
000002a0: fe19 293e f4c2 433c e843 4dbe 30dd 5ebe
000002b0: 62be 3bbe 8067 40bd 88df 383c 3d4c 6a3d
000002c0: dc82 b63c 8f0c 303e ec6e ff3d 413d 663d
000002d0: a4c0 97bd 9f40 d4bb fbe9 ac3c e59b 673e
000002e0: 2fee 573e 6b83 6e3e f676 603e 3bc7 f33d
000002f0: 2bf0 8f3d 3c1d 6cbd ca0a 133e 2fbd fa3d
00000300: 6738 62bc bddf 5fbe ff54 1dbd 9d49 aabe
00000310: da3f 64be 187b 1c3e ced9 e73c cf1e 863d
00000320: 6ce2 1b3e 58bb 8b3d 5d53 093d 63b3 8f3e
00000330: b601 b9bd 501b 5d3d eef6 423d c4ab e1bd
00000340: bb15 dfbd 3f33 803e 85ec cb3c 4e0f 7f3d
00000350: c212 753d 1cee 973c da70 f4bd 67c5 81bd
00000360: aec1 203e e3b0 293e f9f1 af3b ed81 493d
00000370: 03b8 9b3d 85ad fcbd 0bbc dbbd 5bf9 023d
00000380: 1a8b a7bd 1b84 d7bc 5d8b 293d 2609 923e
00000390: 292f b0be 8362 39be 168b 0b3e c741 36bc
000003a0: e354 373e a994 cc3d 5c85 423e 8d3e 2d3e
000003b0: 0166 de3d 1eb5 3b3e ab4c e63d c8ca 7c3d
000003c0: d8f6 5c3e 675f 843d 4765 c93c ea9d 863e
000003d0: c83e fa3d 09f4 a13e 00ca 3a3e d3ea 6b3d
000003e0: c7fd 083d f88d ae3d 9012 bd3d e5ee 69bd
000003f0: 8192 ca3c ecbb d93d 58e1 8d3c 77bb 773e
-0.041297585 -0.000680154 0.0025255734 0.009119576 0.02421772 -0.21294828 0.10378202 0.028643722
0.0035761818 -0.19358319 -0.08943892 -0.19152969 -0.2547541 -0.27080902 -0.2561787 -0.2853835
-0.22612558 -0.032484487 -0.004396943 0.021926414 -0.0037085568 -0.071487255 0.084366046 0.056725096
0.13709761 0.1487754 0.37626028 0.09721411 0.1625753 0.009188967 -0.12670547 -0.19346644
-0.29494488 0.20741634 0.17358083 0.007127189 -0.22945899 0.0077977483 -0.0021480597 0.109851375
0.26073098 -0.12228253 0.3019586 0.14548913 -0.15243632 -0.17061678 -0.21269365 0.051944938
-0.06346733 0.049117092 0.11845939 0.10630939 0.08862903 0.10645858 -0.116117954 0.31612608
0.30177757 -0.09523465 0.12588888 0.1395087 0.043085244 -0.09441848 0.1466854 -0.10215532
-0.16215739 -0.046363868 -0.07598295 0.050413813 0.020154633 -0.058300428 -0.020262465 -0.2340912
-0.05175723 -0.10911096 0.19118346 -0.1073952 -0.16154616 0.07882776 0.20005172 0.25471172
0.26383972 -0.3506124 -0.25995132 -0.26326668 -0.23300906 -0.17779025 -0.11015368 -0.14921115
0.027499296 0.062027544 0.28831112 0.2714489 0.18516952 0.1252813 0.010798266 -0.22053474
0.28754887 0.24028766 -0.028923215 0.2916288 0.14030178 -0.20259565 0.15751286 0.1313376
-0.30218685 0.24534255 0.0740841 0.036887508 0.63657224 0.13225283 0.29024503 0.29098436
0.14543922 0.31031987 0.26415455 0.24421868 0.24615538 -0.16241483 -0.13631462 -0.09005554
-0.14808771 -0.09004792 -0.05786503 -0.070422225 -0.11519289 -0.053008445 0.107121944 -0.106467426
-0.02338839 0.016540853 -0.0687428 0.044905443 0.0010244439 0.089149825 0.23016264 -0.2516254
0.045683283 0.092246875 -0.21055862 -0.06943899 0.15161453 -0.1393432 -0.091427945 0.09358519
0.13160422 0.12611951 0.13361816 0.11821742 -0.017629443 -0.075999014 -0.070081286 -0.21378376
0.056262396 -0.08108651 -0.091387175 -0.14270028 -0.049791377 -0.23526415 -0.38409925 -0.091430865
-0.2302907 -0.30629367 0.1660011 0.044528805 0.24277715 -0.00803393 -0.14703166 -0.13048218
0.16513821 0.011948336 -0.20045435 -0.21764064 -0.18334344 -0.046973705 0.011283763 0.057201613
0.022279195 0.1719229 0.124723285 0.05621076 -0.0740979 -0.00647743 0.021107664 0.22618063
0.21086954 0.2329232 0.2192038 0.119032346 0.0702823 -0.057645068 0.14359584 0.12243115
-0.013807393 -0.21862693 -0.038411137 -0.33259287 -0.22289982 0.15281332 0.0283021 0.06548845
0.15223092 0.06822842 0.033526767 0.2806655 -0.090335295 0.053981125 0.04759877 -0.1101909
-0.10892817 0.25039098 0.024893055 0.062270455 0.059832342 0.018546157 -0.11935587 -0.0633648
0.15698883 0.16571383 0.0053694216 0.049196173 0.07603457 -0.12337784 -0.10729226 0.031976085
-0.081808284 -0.02630811 0.041392673 0.28522605 -0.3441098 -0.18103985 0.13627276 -0.011124081
0.17903475 0.09989292 0.18996185 0.16918392 0.108592995 0.1833081 0.11245092 0.061716825
0.21578538 0.06463509 0.024584426 0.26292354 0.12219006 0.31631497 0.1824112 0.057596993
0.033445146 0.08523172 0.09232056 -0.057112593 0.024728062 0.106315464 0.017319366 0.24192606

conv4.bias f4 [32]
00000000: e5f3 273a 71f4 69b9 a219 253a 4889 223a
00000010: d696 b5b8 4e6f 66b9 9952 97b9 2e7b fbb9
00000020: 9394 8cb9 9870 8e39 a530 2bb9 1f2c 9839
00000030: 7805 6fb9 7742 ea38 9e0d d6b9 dd9d 04ba
00000040: beac ffb9 53ad 6fb9 369a bdb9 7824 efb8
00000050: 9cbb fc39 a7da 19ba e64c 49b9 f9a7 a139
00000060: c98b 8837 8a18 20b8 ddb6 053a bf3e b4b9
00000070: 1f92 233a 8b96 cbb8 1eec 123a 30a3 8938
0.00064068876 -0.00022311673 0.000629807 0.0006200266 -8.658848e-05 -0.00021975974 -0.00028862504 -0.00047966227
-0.00026813577 0.0002716824 -0.00016325952 0.00029024572 -0.00022794853 0.000111703695 -0.00040827406 -0.0005058924
-0.00048766093 -0.00022857384 -0.00036163785 -0.00011403201 0.00048204965 -0.00058690686 -0.000191975 0.00030833462
1.6277556e-05 -3.8169826e-05 0.0005100796 -0.00034379025 0.000623973 -9.707835e-05 0.0005604642 6.563065e-05

bn4.weight f4 [32]
00000000: b8c5 1a3f 98cf 8f3f bfad 7a3f 8c8a 473f
00000010: 0920 763f e3bc 703f c339 803f e835 213f
00000020: 17c0 993f b454 843f 45eb 903f b9a5 553f
00000030: d18d 5d3f f98f 793f 9beb 663f 80ab 563f
00000040: 417b 913f 1385 783f f5c0 673f ecea 693f
00000050: c357 883f 314f 803f 3c6d 5f3f 3bee 493f
00000060: 5a15 853f 9e44 773f 06da 803f 50ad 5f3f
00000070: b9c1 7b3f fc4e 793f f1d5 393f 3b7d 873f
0.60457945 1.1235228 0.97921365 0.7794578 0.9614263 0.9403822 1.0017627 0.6297288
1.2011746 1.0338349 1.1321799 0.83456 0.8654452 0.9748531 0.90203255 0.8385544
1.1365739 0.97078055 0.90528804 0.9137409 1.0651783 1.0024167 0.87276053 0.78879136
1.0397141 0.96589077 1.0066535 0.8737383 0.9834247 0.97386146 0.72592074 1.0585092

bn4.bias f4 [32]
00000000: 5a27 a63e 8e32 e2be bdae 4fbe 98d2 fbbc
00000010: 240b d83d a14d 093c 4639 4cbe beab 3c3f
00000020: a83b 74bf c677 a3be a655 27be 57e3 d63d
00000030: b369 fc3d 0656 bdbe 21f7 83be 26ea 523e
00000040: 13bc 89be 0652 cdbe a6e1 943e 551a e53c
00000050: b565 85be 99a3 1fbe 9da2 57be 5312 dbbd
00000060: 693e 89be 3022 3d3d 7ee7 4ebe 85bb 8c3c
00000070: 2822 d0be 825b b1be abe3 ed3e 5b13 d0be
0.32451898 -0.44179195 -0.20281501 -0.030740067 0.10549 0.008380325 -0.19943723 0.7369956
-0.9540353 -0.31927317 -0.16341266 0.104925804 0.12324848 -0.36979693 -0.25774482 0.20597133
-0.26901302 -0.4010164 0.29078406 0.027966658 -0.2605416 -0.15589751 -0.21058126 -0.106968544
-0.26805428 0.046175182 -0.20205495 0.01717926 -0.4065106 -0.34640127 0.4646276 -0.40639767

bn4.running_mean f4 [32]
00000000: c9e5 7940 618e 52bf 2308 bfbe 3246 30bf
00000010: b88d 6c3f 4a45 ea3d 10af 03c0 b613 08be
00000020: 8fe4 04c0 983a d4be 0a6b 8ebf 0761 19be
00000030: 064a f1bf 8425 01c0 d474 1040 939f 733f
00000040: f6cc b0bf ddbb 8dbc c713 2bbf 8245 d1bd
00000050: a634 fbbf df70 2e3f c848 8dbe 4751 ccbf
00000060: a4f3 08bf 8117 d8be 0815 6bbf 0659 23bf
00000070: 3461 92bf 3860 0abf 8f06 943f bcf9 84be
3.90465 -0.822485 -0.37310895 -0.6885711 0.92403746 0.11438997 -2.05756 -0.13288769
-2.07645 -0.41450953 -1.1126416 -0.14978419 -1.8850715 -2.0179148 2.2571306 0.95165366
-1.3812549 -0.017301494 -0.6682705 -0.10218336 -1.9625442 0.6814098 -0.2759459 -1.5962304
-0.53496766 -0.42205432 -0.91828966 -0.63807714 -1.1435914 -0.5405307 1.1564502 -0.25971782

bn4.running_var f4 [32]
00000000: aef4 2d40 6cad 3040 e28b 5c40 2578 4240
00000010: 752e 6640 2e3c 4c40 adbf 6340 6ee6 7040
00000020: a694 1340 460d 2c40 ad25 9840 c159 4740
00000030: bc7e 7a40 5b11 3040 567c 2e40 25d4 5c40
00000040: 8600 8640 feda 1c40 34df 7e40 fb8c 8340
00000050: e8b7 5c40 4aaa 5240 7a1d 1340 db9a 1940
00000060: 79c1 4640 b584 6540 fa75 5740 0a03 5940
00000070: 0b8c 3140 ab66 3840 04f1 2340 4ece 4340
2.718059 2.7605848 3.4460378 3.038583 3.5965855 3.191173 3.558574 3.7640643
2.3059478 2.6883101 4.754599 3.1148531 3.9139853 2.7510593 2.7263389 3.4504483
4.187564 2.4508662 3.9823732 4.1109595 3.4487247 3.2916436 2.298674 2.4000766
3.1055586 3.5862248 3.3665757 3.3908105 2.7741725 2.8812664 2.5615854 3.0594668

conv5.weight f4 [32, 32, 3, 3]
00000000: adfc 873c 7929 2fbe e84b cebd 197e 843d
00000010: 3f5b 67bd 56ee e93d f358 143e c3e8 2bbe
00000020: d6c8 43be d086 f73d 31ec 9b3c 6f63 2b3d
00000030: 7a0b 67bd b60d 1abe 757f 3d3e 558b ceba
00000040: 9993 6bbd 1e24 9c3d d029 353d e8cd cf3c
00000050: 1b5b 9fbc a152 9c3d f443 273e 447f ecbd
00000060: 899b a6be 4ad8 ccbd 80ab 0c3e c37a 7d3e
00000070: 8cf4 5e3e d0a1 0e3d c736 4d3d d339 1abc
00000080: 8396 b2bd 66b3 a03e f9fb cb3e e3ca 22be
00000090: 8fcf cc3c b53f b9bd e4de a53d 4336 673c
000000a0: 0796 12be eca6 9bbe bb76 c13d 4b7e 033d
000000b0: d45d cfbd b49e 403e 9a21 acbd 55bc 213d
000000c0: 9455 c03d a585 fcbb d4a0 30bc 59d5 56be
000000d0: dadb acbe 34bd bfbe 6771 003d 3137 aa3d
000000e0: ae06 993d 468e 663e d762 483e 1e10 993d
000000f0: 74f1 d5be 3cc2 dcbe 484e 4c3d 8e7e 833e
00000100: ed60 b23d 5991 e2bd b361 473e 51d3 723d
00000110: e5d1 98bd ad8b 58be e8ba 72be 77b7 7ebe
00000120: 2279 a43d f9e8 e8bd c421 12be 24e8 e33d
00000130: 7324 9c3c 3eb7 39be 4e96 893e d68b d23e
00000140: 5640 36be c052 a4bd 7700 febd c025 3cbd
00000150: 7fb4 8abd 8561 8f3c dd3b a63d 0073 98be
00000160: 3ce2 7ebe 9490 2dbe 11df c13d c446 603e
00000170: 3a7a 353e e06e 44be d267 debd 321a 463d
00000180: ca47 30be 6b23 21bf d085 1abe 46d3 043e
00000190: daeb 83bd 5769 3dbe c1db 4ebd c83d ae3d
000001a0: 1491 60be 8be4 31be d66c 5c3c 4270 e1bd
000001b0: 3cd9 5abe 44dd 11bd 63f1 83bb 82ca 8fbd
000001c0: baa1 5f3d faa6 9f3d a936 d9bc 3649 153d
000001d0: ea34 b9bd 2101 e2bd e94a ec3b ac17 97bc
000001e0: e501 2b3e 7e7e 3b3d 20e2 49bd 9f6f ab3d
000001f0: 7954 d73d 1721 213e 825b 34bd d1dc 1ebe
00000200: 6f78 59be c368 47be 15ce 19be 4524 f13b
00000210: bfea c2bc 52f4 043e 3871 053e 629f 5b3d
00000220: b1ea 923c 6d4f 5dbd eafd 1f3e 6486 b23d
00000230: fc9b 833d 6aa8 aabd bfa6 b3bd cad4 623d
00000240: 92e2 333d ae74 58bc 8119 16be da5e 9fbd
00000250: 0c00 bf3d ee84 bdbd 5f7f c2be 3a81 9b3c
00000260: d710 e93d 8f77 01bd 4a01 2cbd b07b d83d
00000270: c603 8dbc de77 143d 3a30 283d eb8b b93d
00000280: 309a bc3d c7e4 a6bd 0ee5 d4bd 0028 b33d
00000290: 83c4 0e3e 1dcc 51be 6c0d 963c 0f0f 923d
000002a0: 7f5d eabe 1d06 16be d859 25be b546 f83d
000002b0: 5c77 2e3e 3c39 62bd fa79 823e f868 753e
000002c0: 13c0 d53d 73b5 97be 7532 b5be 1712 bdbe
000002d0: 9c6f 833d 9d39 a6bd 0e93 173e 81a7 6c3d
000002e0: 4172 283d a395 723e 0aac 603e dc4c 043f
000002f0: 1bb4 043f f60a 3cba f727 0ebd 82ef b8bb
00000300: 1e10 933d d10e 383d f186 163d d78d 603c
00000310: 32e4 74bd 7a15 0fbe b2c2 61bd 1c52 df3d
00000320: dba8 fc3d fb22 00bd e9cd 0abe 79a8 33bc
00000330: adaa 9dbe dbab 32be a024 073d 490b dcbd
00000340: 17d2 60bd 9b3a 20be 19a3 ebbd 6896 b23b
00000350: 422a 873d 937b 413e 6237 e93d 362b fc3d
00000360: 1b4e 013e 2653 223e 0f88 bfbc 93d9 5d3c
00000370: 047f ec3d e9f9 80bd 7224 bf3e 055a 353f
00000380: 3374 a93e 578a 333d 01be db3c 998c 9a3d
00000390: d3e8 6abd 8a0a bcbd f17d 83be b636 f83e
000003a0: b1ba 5f3e 9934 173e 6f6a 573e 9da2 ae3d
000003b0: 12b3 ccbd b13b b93d 58e3 7d3e 3caa d8bc
000003c0: 63fc 90be de6c 95be e2a8 e0bd 941e f53b
000003d0: 49b7 0f3e 3d19 b83d a35d bbbc 96f0 9cbd
000003e0: 8d6e abbd 3379 5b3d aed1 323d 0e07 753c
000003f0: 12e7 8c3d 8391 383e 330c 263e 8443 0e3e
0.016599977 -0.17105664 -0.10073072 0.06469364 -0.056483503 0.11422412 0.14487056 -0.1678801
-0.19119582 0.1208626 0.019033523 0.041842874 -0.05640743 -0.15044293 0.18505652 -0.0015758077
-0.057513807 0.07624076 0.04422933 0.025366738 -0.019452622 0.07632948 0.16334516 -0.115477115
-0.3254054 -0.10002191 0.13737297 0.24753861 0.21772975 0.034822285 0.050101068 -0.0094132
-0.08720114 0.3138687 0.39840677 -0.15897708 0.025001315 -0.09045354 0.08099154 0.014112058
-0.14315043 -0.3040079 0.09446474 0.032102864 -0.10125318 0.1881054 -0.084048465 0.039486248
0.09391323 -0.0077063614 -0.010780532 -0.20979823 -0.33761483 -0.37449038 0.03135815 0.08311308
0.07471977 0.2251521 0.19568954 0.07473777 -0.41785777 -0.4311694 0.049879342 0.2568249
0.087098934 -0.11062879 0.19470863 0.05928356 -0.07461909 -0.21147032 -0.23704112 -0.24874674
0.08030917 -0.11372561 -0.14270693 0.11128262 0.01906035 -0.18136308 0.26872486 0.4112231
-0.1779798 -0.08023596 -0.124024324 -0.04593444 -0.06772708 0.017502556 0.08116887 -0.29775238
-0.24890989 -0.16949683 0.09466375 0.21901995 0.17722407 -0.1918292 -0.10859646 0.048364826
-0.17214885 -0.6294467 -0.15090108 0.1297122 -0.064414695 -0.18497215 -0.050502542 0.085078776
-0.21930343 -0.17372338 0.013453683 -0.110077396 -0.21371931 -0.035611406 -0.0040265783 -0.07021047
0.054597594 0.0779552 -0.026515322 0.036446773 -0.09043296 -0.110353716 0.0072110784 -0.018443905
0.16699941 0.04577493 -0.049287915 0.083708994 0.10514159 0.15735279 -0.04403258 -0.15513922
-0.21237348 -0.19473557 -0.1502002 0.00735906 -0.023793576 0.12983826 0.13031471 0.053618796
0.017934175 -0.054030824 0.15624204 0.08717039 0.06426236 -0.08332904 -0.08772039 0.055378713
0.043917246 -0.013211412 -0.14658166 -0.077817634 0.09326181 -0.0925387 -0.379878 0.018982518
0.11380165 -0.03160816 -0.041993417 0.105704665 -0.017213713 0.036247127 0.041061617 0.0905989
0.092090964 -0.081491046 -0.10395251 0.08747864 0.13942151 -0.2048802 0.018316947 0.071317784
-0.45774457 -0.1465077 -0.16147554 0.12122861 0.1703772 -0.055230364 0.25483686 0.23965824
0.10437026 -0.29630622 -0.35390058 -0.36927864 0.06417772 -0.081164576 0.1480219 0.05777693
0.041124586 0.23689894 0.21940628 0.5167978 0.5183732 -0.0007173264 -0.034706082 -0.005643786
0.071808085 0.044936005 0.036749784 0.013705692 -0.059787937 -0.13973036 -0.055117317 0.10904333
0.12336894 -0.03128336 -0.13555111 -0.01096546 -0.30794278 -0.1744837 0.032993913 -0.1074434
-0.054887857 -0.15647356 -0.11505718 0.0054500587 0.06599857 0.18894796 0.113875166 0.12312929
0.12627451 0.15852031 -0.023380307 0.013540643 0.11547664 -0.062976666 0.37332493 0.70840484
0.33096465 0.043833103 0.026824 0.07546348 -0.057350945 -0.09181698 -0.25682023 0.4847924
0.21848561 0.14766158 0.21036695 0.0852711 -0.099950925 0.09044588 0.24793756 -0.026448362
-0.28317556 -0.29184622 -0.10969712 0.007480452 0.14034761 0.08989189 -0.022871798 -0.076630756
-0.08370695 0.05358238 0.043656997 0.014955295 0.06880011 0.18024258 0.16215591 0.13892943

conv5.bias f4 [32]
00000000: a276 e1b9 a03f 52b8 7a46 203a 8e27 22ba
00000010: 34c0 443a 5ebc 48b8 9970 ca36 b376 08ba
00000020: 390d 71b9 120f b738 3fe7 01ba b80c 4cba
00000030: 9863 f6b9 5f09 b6b9 ee62 2039 4b74 10b9
00000040: 4ceb b9b9 2b35 19b9 0937 34ba da55 50b8
00000050: 1912 313a e7b0 3e3a 6a7b 3bba 6e1b 253a
00000060: 87e1 303a 8440 b4b9 298f 3738 868f 203a
00000070: 0f1f eab8 78af 44ba 67a5 2eba acd7 bbb8
-0.00043003733 -5.0127157e-05 0.00061140175 -0.00061857037 0.0007505447 -4.7859146e-05 6.033177e-06 -0.0005205676
-0.00022988477 8.728927e-05 -0.0004955418 -0.00077838777 -0.0004699498 -0.00034720727 0.00015295643 -0.00013776233
-0.0003546126 -0.00014611024 -0.0006874656 -4.967102e-05 0.0006754711 0.00072742853 -0.0007151874 0.0006298338
0.00067474734 -0.00034380343 4.376393e-05 0.0006124902 -0.000111637746 -0.00075029535 -0.000666222 -8.957027e-05

bn5.weight f4 [32]
00000000: e9a0 8a3f c326 3f3f 8dd8 873f 0c3d 673f
00000010: ba03 2c3f b42f 853f 64b5 463f a322 633f
00000020: d0b7 683f fb98 463f 8705 793f 4b37 633f
00000030: e1d9 873f 5128 5c3f d5f0 7e3f 1cec 943f
00000040: b11e 4d3f c464 593f 473a 153f 25f8 853f
00000050: fdb0 243f 2ea9 293f 5d38 3f3f 7855 4b3f
00000060: e766 533f f971 213f 86fb 593f e397 413f
00000070: afaa 5c3f f747 5c3f da7f 613f 13e4 293f
1.0830356 0.7466852 1.0612961 0.90327525 0.67193186 1.0405183 0.7762053 0.88724726
0.90905476 0.7757718 0.9727406 0.88756245 1.0613366 0.8599902 0.9958623 1.1634555
0.80124956 0.8491938 0.5829205 1.0466353 0.6433256 0.6627377 0.7469538 0.7942729
0.8257889 0.63064533 0.8514942 0.75622386 0.8619794 0.8604731 0.8808571 0.6636364

bn5.bias f4 [32]
00000000: 4871 f7be a4d8 393e ef2a d1be 86d2 643e
00000010: 7f4d b53e aac5 07bf d217 a53d 305d 5e3e
00000020: 869b 76be 82ef 153f 1f10 543e d920 5abe
00000030: 4025 c3be 0e6c 8e3e f57d 7e3c b406 36bf
00000040: 3d2d 5bbc 5ba8 ad3e f5c4 153f 99af 86be
00000050: b41d 1b3f 26f9 e33e 5d8f 693e 61ed 4e3e
00000060: 465e a73d dc30 353f e8ac b03d 84e2 793e
00000070: cd46 febd 8266 d33c b4f6 8fbd 7f64 d13e
-0.48328614 0.18149048 -0.40853068 0.22345933 0.35410687 -0.53035986 0.08061184 0.21715236
-0.24082765 0.58568585 0.20709275 -0.21301593 -0.38114357 0.27816814 0.01553296 -0.7110398
-0.013377485 0.33917508 0.5850366 -0.26305845 0.605922 0.44526023 0.22808595 0.2020774
0.08172278 0.7077768 0.08626729 0.24402815 -0.12415848 0.025805715 -0.07029477 0.40896985

bn5.running_mean f4 [32]
00000000: d440 cdbe 63b6 32c0 4e9a d43f ec06 92bf
00000010: 623b 27c0 30b5 c1bf d92b d4bf 7b08 f43f
00000020: 9aca c4bf 0034 ff3e 6c00 5dc0 62a0 dabf
00000030: eba9 49c0 79ec 85c0 e128 9abf cbb8 14c0
00000040: 2328 08c0 b2ce 3c40 7dfe c73f 22dc 37c0
00000050: 0f66 df3f 6365 683f 9851 323e dacd 0dbf
00000060: 974a 1dbd 3093 05bf afad 733f 4c21 cdbf
00000070: 61e2 5dbe c9d0 4bc0 e8e2 35bf 262a d83e
-0.40088522 -2.792382 1.660959 -1.1408362 -2.6129994 -1.5133419 -1.6575881 1.9065088
-1.5374329 0.4984436 -3.4531507 -1.7080195 -3.150996 -4.1851163 -1.2043725 -2.3237789
-2.1274498 2.9501157 1.5624539 -2.8728108 1.7453021 0.90779704 0.17413938 -0.5539223
-0.038401213 -0.52177715 0.95186895 -1.6025786 -0.21668388 -3.1846182 -0.71049356 0.42219657

bn5.running_var f4 [32]
00000000: 6944 5740 0274 5840 94ba 4640 352e c040
00000010: 8c79 5440 064c 4740 7457 3f40 0f6c 8840
00000020: 3c9e 2a40 ed28 8940 b39e b040 c20a 4040
00000030: bccc 8040 d60c a640 a8a9 9840 8135 2840
00000040: 4f40 5d40 cfe1 8740 c4dd 3e40 5410 a040
00000050: 2aa1 5340 05a7 4c40 b2c7 2540 d2b2 6a40
00000060: 60e8 8540 57e3 8140 e245 5d40 07af 3c40
00000070: cad2 3140 f9b8 8340 2232 4c40 1789 6540
3.3635504 3.3820806 3.1051378 6.0056405 3.3199186 3.114015 2.9897127 4.2631907
2.6659079 4.286246 5.5193725 3.0006566 4.024992 5.189067 4.77071 2.6282656
3.45705 4.2463145 2.9822855 5.001993 3.3067117 3.197694 2.5903134 3.6671643
4.184616 4.0590014 3.4573903 2.9481828 2.7784905 4.1163297 3.1905599 3.5864923
