model_weights/Tiny10/CIFAR10/in3-gn3/110000.pt (torch_old, 358762 bytes, 50 tensors)

conv1.weight f4 [16, 3, 3, 3]
0	0xbe3fd9ac	-0.18735379
1	0x3e607077	0.21917902
2	0xbe88a71c	-0.26689994
3	0xbe564e1e	-0.20928237
4	0x3df44b73	0.11928453
5	0xbeaafed3	-0.3339754
6	0xbe937945	-0.2880346
7	0x3d0a069c	0.03369771
8	0xbe603208	-0.21894085
9	0x3d0c4c34	0.03425236
10	0x3ee24563	0.44193563
11	0xbdae38c2	-0.085069194
12	0x3ada341a	0.0016647608
13	0x3e68e148	0.22742188
14	0xbeb400c7	-0.35156843
15	0xbd9a4111	-0.07531942
16	0x3d7222d0	0.05911523
17	0xbec28698	-0.37993312
18	0x3e472fd2	0.19451836
19	0x3eff7356	0.49892682
20	0x3c6c0314	0.014405031
21	0x3c67cddd	0.014148203
22	0x3e4965b4	0.19667703
23	0xbea23a87	-0.31685278
24	0xbe0a9b61	-0.13535835
25	0xbd483aca	-0.04888419
26	0xbee5b608	-0.4486544
27	0x3f92282c	1.141851
28	0x3ef48fd2	0.47765976
29	0xbea35ece	-0.31908268
30	0x3f92aeda	1.145961
31	0x3c364132	0.011123942
32	0xbf95153c	-1.1647105
33	0x3f317b57	0.69328827
34	0xbf174541	-0.5909005
35	0xbfc748c9	-1.5569087
36	0xbe9d8fcd	-0.30773774
37	0xbeba09b5	-0.3633553
38	0x3d9aad6f	0.07552611
39	0xbe9e877d	-0.30962744
40	0x3ce50f60	0.027961433
41	0x3e9794b6	0.29605645
42	0x3e1456a1	0.14486171
43	0x3e834a17	0.25642464
44	0x3e529d5e	0.20567843
45	0xbf3c6b2f	-0.7360105
46	0xbeda9788	-0.42693734
47	0x3ea30a81	0.3184395
48	0xbf6cd2e5	-0.925093
49	0x3e9ae57a	0.30253202
50	0x3f812d42	1.0091937
51	0xbf22f9e4	-0.6366255
52	0x3ed6586e	0.41864341
53	0x3f512ee8	0.817122
54	0xbf0676b1	-0.5252486
55	0xbf4878eb	-0.78309506
56	0x3e8aa670	0.27080107
57	0x3e32011e	0.17383239
58	0x3f1e3b50	0.61809254
59	0x3f9ae428	1.2100878
60	0x3ea27109	0.31726864
61	0x3f4cac9c	0.7995088
62	0x3ebf0d68	0.37314916
63	0x3e4e1c34	0.20127946
64	0xbf65151c	-0.89485335
65	0xbeed70d8	-0.46375155
66	0xbebcfbd2	-0.36910874
67	0xbf6d023c	-0.92581534
68	0xbe013bc7	-0.1262046
69	0xbf4cdec1	-0.80027395
70	0xbf6690bb	-0.9006459
71	0xbebebd11	-0.3725362
72	0x3f134aad	0.5753582
73	0x3e3869a3	0.18009047
74	0xbe092102	-0.13391498
75	0x3f779473	0.9671089
76	0x3f5c95f9	0.8616634
77	0x3f010ad0	0.50407124
78	0xbd4c48d1	-0.04987413
79	0xbdd02dd1	-0.10164989
80	0xbebf11be	-0.37318224
81	0xbe8c42c1	-0.2739468
82	0xbee45b8a	-0.4460109
83	0x3db217fd	0.08695982
84	0x3e28fa35	0.16501696
85	0xbdc8adfc	-0.0979881
86	0x3e3d0af8	0.18461215
87	0xbdab35e0	-0.08359885
88	0xbeb21684	-0.34782803
89	0xbddd9be1	-0.10820747
90	0xbeaa288b	-0.33234057
91	0xbf07a9b4	-0.5299332
92	0x3d5ce459	0.053928707
93	0x3e9627c9	0.2932723
94	0xbd992b73	-0.074789904
95	0x3e37ea6f	0.17960523
96	0x3e8f4b97	0.27987358
97	0xbdc3159d	-0.09525607
98	0x3cb6fc18	0.022337005
99	0xbe813190	-0.25233126
100	0xbef03685	-0.46916595
101	0x3d32e7ca	0.043678083
102	0x3e8dd3bb	0.277006
103	0xbd013f77	-0.031554665
104	0x3e4ee304	0.20203787
105	0x3e141afe	0.14463422
106	0xbe04759c	-0.1293549
107	0x3d8ee25d	0.06976769
108	0x3e438bb7	0.19096266
109	0x3f46d636	0.7767061
110	0x3edc3e03	0.4301606
111	0xbe2c26b1	-0.16811635
112	0xbe4b97f0	-0.19882178
113	0xbe245d8e	-0.16051313
114	0xbde5a600	-0.112133026
115	0xbf3ce3b0	-0.73784924
116	0xbe478e9d	-0.19487996
117	0x3e91fac2	0.28511626
118	0x3f7078b6	0.9393419
119	0x3f4a3a96	0.78995645
120	0xbdcb8c91	-0.0993892
121	0xbe06232f	-0.13099359
122	0xbd899d17	-0.06719416
123	0xbdee7c19	-0.116447635
124	0xbf5552d2	-0.833295
125	0xbefce8b6	-0.49396294
126	0x3ea6fb6a	0.3261369
127	0x3f3c911a	0.7365891
128	0x3efe3962	0.49653155
129	0xbe131458	-0.1436323
130	0xbd9ddcd1	-0.07708133
131	0xbce29bfd	-0.027662272
132	0xbe94cfeb	-0.2906488
133	0xbf1151c3	-0.56765383
134	0xbe11c022	-0.14233449
135	0x3c4635b6	0.012097767
136	0x3f53c222	0.827181
137	0x3f50383e	0.8133582
138	0xbf3dc8ef	-0.74134725
139	0xbc002db5	-0.007823397
140	0x3f124010	0.57129
141	0xbf45d008	-0.77270555
142	0xbf49f0ae	-0.78882873
143	0xbdb47137	-0.088106565
144	0x3ded5209	0.115879126
145	0x3e0d803f	0.13818453
146	0xbda02109	-0.07818801
147	0xbe2491cc	-0.16071242
148	0xbdab6180	-0.08368206
149	0xbe39fcf5	-0.18162902
150	0x3e310d43	0.17290215
151	0xbc934ce9	-0.01798101
152	0xbd82e207	-0.063907675
153	0xbde93f91	-0.113890775
154	0xbed3a99b	-0.41340336
155	0xbf8a64ba	-1.0811989
156	0x3e7a15a2	0.24422315
157	0x3e6fd66a	0.23421636
158	0xbf3417f7	-0.7034907
159	0x3f4f25bb	0.8091695
160	0x3f759008	0.959229
161	0x3e8ae1fb	0.27125534
162	0xbc82ea12	-0.015980754
163	0xbe0cc676	-0.13747582
164	0xbcb75241	-0.022378089
165	0xbee5efd4	-0.44909537
166	0xbf0e585c	-0.55603576
167	0xbecd3b82	-0.40084463
168	0xbef98c81	-0.48740008
169	0xbf45bbc3	-0.77239627
170	0xbf164c82	-0.5871049
171	0x3b9e4f8d	0.0048312605
172	0xbd6a4275	-0.057192285
173	0xbd3fc2e0	-0.046816707
174	0xbc157eca	-0.009124467
175	0xbc56fc22	-0.013121637
176	0xbdcbfab5	-0.09959928
177	0x3da16d84	0.078822166
178	0x3c4f3f1e	0.012649326
179	0xbb32daac	-0.0027290983
180	0x3e06040f	0.13087486
181	0x3e42303e	0.18963715
182	0x3dad6f89	0.08468539
183	0x3ec10fd8	0.377074
184	0x3f18e304	0.597214
185	0x3ebcc335	0.3686768
186	0x3ecc0f6f	0.39855525
187	0x3f2f98ee	0.6859273
188	0x3f154747	0.58311886
189	0x3e67b94f	0.22629283
190	0xbe380767	-0.17971574
191	0xbeac4da7	-0.33652994
192	0x3ed305ce	0.41215366
193	0x3e6e262a	0.23256746
194	0xbe466a4c	-0.19376487
195	0x3f1978b9	0.59949833
196	0x3f190c4a	0.59784377
197	0x3c8f4cc6	0.017492663
198	0xbe159854	-0.1460889
199	0xbecce529	-0.40018585
200	0xbe7ed5d6	-0.2488626
201	0xbe83d108	-0.25745416
202	0xbe837451	-0.2567468
203	0xbe087022	-0.13324025
204	0x3e27b7b4	0.16378671
205	0x3e901891	0.28143743
206	0x3e7376ff	0.23775862
207	0x3e1e708e	0.15472624
208	0x3ece2f1b	0.40270314
209	0x3f3c20ea	0.7348772
210	0xbeb0c0fc	-0.34522235
211	0xbe0f4719	-0.13991965
212	0x3e5a578a	0.21322456
213	0xbed0370e	-0.40667003
214	0xbef94351	-0.4868417
215	0xbea0feb6	-0.3144433
216	0xbcdcf8c3	-0.026974088
217	0xbdad1d60	-0.084528685
218	0xbf2570f4	-0.6462548
219	0x3edf801e	0.43652433
220	0xbf49b558	-0.78792334
221	0xbef9525e	-0.48695654
222	0x3f2c626a	0.6733767
223	0x3fee1bb3	1.8602203
224	0xbf292d83	-0.6608507
225	0xbdedd643	-0.11613133
226	0x3f842238	1.0322943
227	0x3f8a6459	1.0811874
228	0xbfb14b04	-1.3851018
229	0xbf8e88f0	-1.113554
230	0x3f32cbad	0.69842035
231	0xbfc2deb0	-1.5224209
232	0x3ef5686a	0.47931224
233	0x3eeb65bd	0.45976058
234	0x3e7afdb1	0.24510838
235	0x3ef2bcf8	0.47409797
236	0xbec8f49c	-0.39249122
237	0x3f23dbad	0.64007074
238	0xbf0feda4	-0.56221986
239	0xbf07bcc7	-0.53022426
240	0x3e9fd7ea	0.31219417
241	0x3eada2b6	0.339132
242	0xbf0d7a2d	-0.5526455
243	0xbead903e	-0.3389911
244	0xbe73ff12	-0.2382777
245	0xbe94914e	-0.2901711
246	0xbdfaa140	-0.12237787
247	0x3e921122	0.28528696
248	0x3dc6cd3f	0.09707116
249	0x3dde44d9	0.108529754
250	0x3efe7a62	0.49702746
251	0x3ea8aea9	0.32945755
252	0xbe73d181	-0.23810388
253	0xbca46b5c	-0.020070724
254	0xbd68a15f	-0.05679452
255	0xbdedb3b9	-0.11606545

conv1.bias f4 [16]
0	0xbac6dd51	-0.0015172159
1	0xb9dd42fd	-0.00042202315
2	0x3aa9a8a3	0.0012943934
3	0xba9cbc55	-0.0011957983
4	0xbace5e5e	-0.0015744676
5	0xba80b0bc	-0.0009818296
6	0x3aad6a39	0.0013230509
7	0xbaf711ee	-0.0018849948
8	0xbae5850e	-0.0017510967
9	0x3aeb6a97	0.0017960843
10	0x3a0c9ebe	0.00053642306
11	0xba032152	-0.00050022185
12	0x3b172160	0.0023060665
13	0xbab183fb	-0.0013543362
14	0x39c14890	0.00036865892
15	0xb9ce8e4f	-0.0003939741

bn1.weight f4 [16]
0	0x3f74d10d	0.95631486
1	0x3f1e4e0e	0.6183785
2	0x3f053780	0.5203781
3	0x3f989981	1.1921846
4	0x3f246331	0.64213854
5	0x3f179d2c	0.592242
6	0x3ee7bf78	0.45263267
7	0x3eab06c6	0.33403605
8	0x3f807004	1.0034184
9	0x3f5149af	0.8175306
10	0x3fab1287	1.3365029
11	0x3f1df72b	0.61705273
12	0x3f7b4cd3	0.981641
13	0x3f588924	0.8458426
14	0x3f3a19d3	0.72695655
15	0x3f6fe363	0.9370634

bn1.bias f4 [16]
0	0xbef4b037	-0.4779069
1	0xbda31a62	-0.079640165
2	0x3f1e0e7b	0.61740845
3	0xbf564af3	-0.83708113
4	0x3ed9b987	0.4252436
5	0xbd1b8a2a	-0.03797356
6	0x3e810652	0.25200135
7	0x3e8183b1	0.25295785
8	0x3fb2a240	1.3955765
9	0xbf7f4e30	-0.9972868
10	0x3ffa11ed	1.953672
11	0xbe7e6a6f	-0.24845289
12	0xbed9badf	-0.42525384
13	0x3ed08994	0.40729964
14	0x3f127b70	0.572196
15	0x3f0873bf	0.53301615

bn1.running_mean f4 [16]
0	0x3e94e613	0.29081783
1	0xbc491cf5	-0.01227497
2	0x3d8623ae	0.06549774
3	0x3e79a152	0.24377945
4	0xbd69ff28	-0.0571281
5	0x3b5ae70e	0.003340188
6	0xbc5c9c2a	-0.013464967
7	0xbd7191bb	-0.05897687
8	0x3d1439e3	0.036188018
9	0xbd210cae	-0.039318733
10	0xbd7f1348	-0.062274247
11	0xbe104d0a	-0.14091888
12	0x3ebdaf60	0.37047863
13	0xbcd905a0	-0.02649194
14	0xbe00c07d	-0.12573428
15	0xbd1f9d2b	-0.038968246

bn1.running_var f4 [16]
0	0x408913c1	4.2836614
1	0x3fa3db48	1.2801294
2	0x40760373	3.8439605
3	0x4071ab99	3.7760985
4	0x41744e32	15.269091
5	0x3f7d5ffb	0.9897458
6	0x40e243de	7.0707846
7	0x3f80d3ca	1.0064633
8	0x401576b4	2.33537
9	0x3f5222f9	0.82084614
10	0x4013eea3	2.3114402
11	0x3fd1d726	1.6393783
12	0x40c0736d	6.01409
13	0x410026d0	8.009476
14	0x41333fcf	11.203078
15	0x417b8cd6	15.721884

conv2.weight f4 [16, 16, 3, 3]
0	0x3d970652	0.073742524
1	0x3e102b3d	0.14078994
2	0xbe0b5ce3	-0.13609652
3	0x3e82415b	0.25440487
4	0x3d99b056	0.075043365
5	0xbe196e50	-0.14983487
6	0x3ccac944	0.024754174
7	0x3d926934	0.07148972
8	0xbcb719ee	-0.022351231
9	0x3d9f4b50	0.077780366
10	0xbdda89d1	-0.10670818
11	0xbe759b71	-0.23985077
12	0x3e5a55af	0.21321748
13	0xbc9d322d	-0.019188965
14	0x3e385eef	0.18004964
15	0x3e3c412f	0.1838424
16	0x3d8b2699	0.06794471
17	0xbd8b00a2	-0.0678723
18	0xbd62f267	-0.055406954
19	0xbe0dc0ef	-0.1384313
20	0x3e52feaf	0.20604967
21	0xbe475929	-0.19467606
22	0x3daf9c57	0.08574741
23	0x3dcf3a9e	0.10118602
24	0x3e354607	0.17702495
25	0x3ec941b1	0.3930793
26	0xbefb50b9	-0.49085024
27	0x3d893b5d	0.06700776
28	0xbe79fe68	-0.24413455
29	0xbe70ee97	-0.23528515
30	0xbd94803b	-0.072510205
31	0xbd50fb57	-0.051020946
32	0x3e042bb9	0.12907304
33	0xbd43511e	-0.04768478
34	0xbe71f0c4	-0.23627001
35	0xbe1df355	-0.15424855
36	0x3de015a7	0.1094163
37	0x3e77ce31	0.2419975
38	0xbe6b1067	-0.22955476
39	0x3e94440a	0.2895816
40	0xbe28a07b	-0.16467468
41	0xbedfb39b	-0.43691716
42	0xbe81b702	-0.25334936
43	0xbf0348cd	-0.5128296
44	0xbe17a747	-0.14809905
45	0xbe6db71d	-0.23214383
46	0x3dd2091b	0.10255643
47	0x3d385d58	0.045010895
48	0xbe79cb92	-0.24394062
49	0xbda16331	-0.078802474
50	0xbe0ccb50	-0.13749433
51	0xbdcdc738	-0.100477636
52	0x3bbebfd4	0.0058212075
53	0xbde64931	-0.11244429
54	0x3e8ba008	0.27270532
55	0x3d3c2394	0.045932367
56	0xbe8a8c0a	-0.27059966
57	0x3d9720d8	0.07379311
58	0xbdd1d75a	-0.10246153
59	0xbe7dd356	-0.2478765
60	0xbb283d51	-0.0025671313
61	0xbbe97e29	-0.007125635
62	0x3d3a3635	0.045461852
63	0xbea022ec	-0.31276643
64	0xbe5b6a51	-0.21427275
65	0x3e459ee3	0.19298892
66	0xbe328f29	-0.17437424
67	0xbdbaec9c	-0.09127161
68	0x3e06f614	0.13179809
69	0xbd6b5c0c	-0.05746083
70	0xbe079859	-0.1324171
71	0xbdc9ad45	-0.09847502
72	0xbe9247eb	-0.28570494
73	0xbe906415	-0.28201357
74	0x3e7b60e5	0.24548681
75	0x3b88dd07	0.004176739
76	0x3f179f82	0.59227765
77	0x3e311eaa	0.17296854
78	0x3e98ff3f	0.29882237
79	0xbbf5658b	-0.0074889115
80	0xbf11565f	-0.56772417
81	0x3e1c5d02	0.15269855
82	0x3d14dc03	0.036342632
83	0x3c8f3023	0.017479008
84	0x3c8d6234	0.017258741
85	0x3d0df82d	0.034660507
86	0x3d9b9ac8	0.075978816
87	0xbe1092c3	-0.14118485
88	0xbbd3c4a7	-0.006462652
89	0x3d4a4230	0.049379528
90	0xbf4dadfa	-0.8034359
91	0x3da95998	0.08269042
92	0x3e30e618	0.17275274
93	0x3e950460	0.291049
94	0x3fa6cbe9	1.3030978
95	0xbebf58d5	-0.3737246
96	0x3f0033a9	0.5007883
97	0xbedf9b4c	-0.4367317
98	0xbf1f36f6	-0.6219324
99	0x3e68a55d	0.22719331
100	0x3e65bf76	0.22436318
101	0x3dba06e5	0.09083346
102	0x3e4af6b3	0.19820671
103	0xbd5ed9c1	-0.054406885
104	0xbdb278b9	-0.08714432
105	0x3e47c417	0.19508396
106	0xbda9dd99	-0.082942195
107	0xbe65d7d4	-0.22445613
108	0xbdfc3f71	-0.12316788
109	0x3e9376f1	0.28801683
110	0x3e335ff6	0.17517075
111	0x3f018922	0.50599873
112	0x3e25ea41	0.16202642
113	0xbe8ee5de	-0.2790975
114	0x3d506025	0.05087294
115	0xbeb84a99	-0.35994413
116	0xbe9fa6d7	-0.31181976
117	0x3e57c85f	0.2107253
118	0x3eeb5714	0.45964873
119	0xbddbc966	-0.10731773
120	0x3e78a43e	0.24281403
121	0x3e659ca0	0.22423029
122	0xbedb7ebd	-0.4287013
123	0xbcda4506	-0.026644241
124	0xbe8071a8	-0.25086713
125	0xbedaff05	-0.4277269
126	0xbefeab8a	-0.4974025
127	0xbeccd4de	-0.40006155
128	0x3d76a02d	0.06021135
129	0xbe8cb1af	-0.27479312
130	0x3eb5d14f	0.35511252
131	0x3e846873	0.25860938
132	0x3e04a999	0.12955321
133	0x3e0f4c19	0.13993873
134	0xbe1f5692	-0.15560368
135	0xbf287ecd	-0.6581848
136	0xbf0da232	-0.55325615
137	0xbdea727e	-0.11447619
138	0xbec18838	-0.3779924
139	0x3edd0482	0.43167502
140	0x3f271575	0.65267116
141	0x3efc7b7d	0.49312964
142	0x3e8065a8	0.25077558
143	0xbe818c24	-0.2530223
144	0x3dcfac77	0.10140317
145	0xbe20d5f2	-0.15706614
146	0x3e3fff21	0.18749668
147	0x3e273949	0.16330446
148	0xbe76b169	-0.24091114
149	0x3eb9fb99	0.36324766
150	0x3dc70bcd	0.09719048
151	0xbecba2b6	-0.39772576
152	0x3e7ff33b	0.24995129
153	0x3d7a23ea	0.061069407
154	0xbd2045c0	-0.03912902
155	0xbe2e0b57	-0.16996513
156	0x3e571891	0.21005465
157	0x3da2a4ed	0.07941613
158	0x3e265efd	0.16247173
159	0x3e5d40fc	0.21606821
160	0x3cd575ab	0.026057085
161	0xbc19cf5f	-0.00938782
162	0xbe1db086	-0.1539937
163	0x3a8a1bb4	0.0010536821
164	0x3e75bf3d	0.23998733
165	0xbe45a582	-0.19301417
166	0x3dc37ffd	0.09545896
167	0x3bf5c942	0.0075007984
168	0xbe8982aa	-0.268575
169	0x3e8f6ec3	0.28014192
170	0x3ca58a59	0.02020757
171	0x3dc12d11	0.09432424
172	0x3dbc3f6b	0.091917835
173	0xbc9c7d8b	-0.019102832
174	0xbbe1187a	-0.006869373
175	0xbb5404d1	-0.0032351504
176	0xbe800a76	-0.2500798
177	0x3d40ad1a	0.047040083
178	0x3e379d91	0.179312
179	0xbe2b0d78	-0.16704357
180	0xbd338156	-0.043824516
181	0xbdf1f12d	-0.11813579
182	0xbc6eddd1	-0.014579252
183	0x3d5ebd19	0.054379556
184	0xbc433bcf	-0.011916115
185	0xbb3681d3	-0.0027848377
186	0xbcdc91e0	-0.026925027
187	0x3e2713db	0.16316168
188	0xbdf216bf	-0.11820745
189	0xbc91361e	-0.017726
190	0x3dd88fb1	0.10574282
191	0x3d3e7567	0.046498682
192	0xbdb91d51	-0.09038795
193	0x3cf7240c	0.030168556
194	0xbdd74ef3	-0.10513105
195	0xbcfbd955	-0.03074328
196	0xbb8eea29	-0.00436141
197	0x3cec87bb	0.028873315
198	0x3e408797	0.18801723
199	0x3e03e4c6	0.12880239
200	0x3c69a470	0.014260396
201	0x3dc0ea67	0.09419709
202	0x3d7cbc77	0.06170317
203	0xbdb2270d	-0.086988546
204	0xbd325a41	-0.043543104
205	0xbd8f5800	-0.069992065
206	0xbe5919e8	-0.21201289
207	0xbd07d435	-0.03316136
208	0x3d2487d3	0.040168595
209	0x3e64ef10	0.2235682
210	0xbe105c8e	-0.14097807
211	0xbd4e84d7	-0.050419655
212	0x3db5157e	0.0884199
213	0xbd6aca67	-0.057321932
214	0xbd5bdcb2	-0.05367727
215	0xbc11a373	-0.008889067
216	0x3ee43188	0.4456904
217	0xbf367a0e	-0.7127999
218	0x3ec920e1	0.39282897
219	0x3ec79cbe	0.38986772
220	0xbf17d3bb	-0.5930745
221	0x3ea6fc0d	0.32614174
222	0x3eb93adf	0.36177728
223	0xbf555305	-0.833298
224	0x3ece6d87	0.40317938
225	0x3cebce75	0.02878497
226	0x3de0d854	0.10978761
227	0xbe1df854	-0.15426761
228	0x3c3f71ad	0.011684817
229	0x3c723b8d	0.014784706
230	0xbe94b140	-0.2904148
231	0x3e46622d	0.19373389
232	0x3df09148	0.1174646
233	0xbe5d2d35	-0.21599276
234	0xbe0b4167	-0.13599168
235	0x3effc451	0.49954465
236	0xbe19db4a	-0.15025058
237	0xbf59b8a4	-0.85047364
238	0x3fc120c9	1.508813
239	0xbf67f2d9	-0.9060493
240	0xbf3c3e5b	-0.73532647
241	0x3fbc36fc	1.470428
242	0xbf41852d	-0.75593835
243	0x3c4c064c	0.012452673
244	0xbd5b3162	-0.053513892
245	0xbd54b9d6	-0.05193504
246	0x3d961810	0.07328808
247	0x3c86a571	0.01643631
248	0xbddb33e0	-0.10703254
249	0x3d8624ec	0.06550011
250	0x3d7f5c3e	0.06234383
251	0xbdffb778	-0.12486166
252	0xbd8a8e3d	-0.06765411
253	0x3bbf60d9	0.0058404026
254	0xbd5b9b26	-0.053614758
255	0xbdeaaec4	-0.11459115

conv2.bias f4 [16]
0	0x3a8488c2	0.0010111558
1	0x39ff9160	0.00048745703
2	0xba8e9ccd	-0.001088047
3	0x39b4cb64	0.00034483813
4	0xb98ac44c	-0.00026467664
5	0xba8da1f7	-0.0010805716
6	0xba6178b9	-0.0008601058
7	0x3a2132a0	0.00061492063
8	0xba7e95d9	-0.000971166
9	0xba847614	-0.0010105991
10	0x38d4bd9f	0.000101442674
11	0xba5d0083	-0.0008430557
12	0xba0f8787	-0.0005475212
13	0xba3399a3	-0.0006851202
14	0xba4fff24	-0.0007934442
15	0xb9675b38	-0.00022063858

bn2.weight f4 [16]
0	0x3fc0f6ff	1.5075377
1	0x3fdca763	1.7238582
2	0x3f35fa74	0.71085286
3	0x3f516ec2	0.8180963
4	0x3f982964	1.1887631
5	0x3fb48624	1.4103436
6	0x3f9a4a86	1.2053993
7	0x3f5a209c	0.8520601
8	0x3fac1a8b	1.34456
9	0x3f8f63ee	1.1202371
10	0x3f72d777	0.94860023
11	0x3f3c26bc	0.73496604
12	0x3f752011	0.95752054
13	0x3fdaae8c	1.7084517
14	0x3fa1da68	1.2644777
15	0x3fb26f19	1.3940154

bn2.bias f4 [16]
0	0xbe4c5065	-0.19952543
1	0xbcb31070	-0.021858424
2	0x3ea4cf5c	0.32189453
3	0x3f9e837e	1.2383878
4	0x3b8bc7cd	0.0042657615
5	0xbe1af4fa	-0.15132514
6	0xbc3f5d22	-0.011679919
7	0x3e9a04b9	0.30081728
8	0xbe34350a	-0.17598358
9	0xbebb869e	-0.36626142
10	0x3ebeb4c0	0.37247276
11	0x3f1046e9	0.563582
12	0x3d6f229f	0.058382627
13	0xbd292035	-0.04129048
14	0x3d3bfcbf	0.045895334
15	0xbbc99a95	-0.006152461

bn2.running_mean f4 [16]
0	0xbf52ca1e	-0.82339656
1	0x3e67379e	0.2257981
2	0x3fc886b8	1.5666113
3	0x3e20f5d6	0.15718779
4	0x3ed9d283	0.4254342
5	0xbfc24930	-1.5178585
6	0x3e926cc9	0.2859862
7	0x3d72f624	0.05931677
8	0xc00a82f4	-2.1642427
9	0xbfe3af06	-1.7787788
10	0x3ddbfffe	0.10742186
11	0x3f7c3cfc	0.98530555
12	0xbeb7a4db	-0.35867962
13	0xbf707cb9	-0.9394031
14	0xc0237bd9	-2.554434
15	0xbf690617	-0.9102492

bn2.running_var f4 [16]
0	0x41562c69	13.385842
1	0x41f772b2	30.931004
2	0x400fda42	2.2476964
3	0x40d2f90a	6.5929003
4	0x41103b76	9.014517
5	0x41288ff9	10.53515
6	0x41064e59	8.394128
7	0x40586835	3.3813603
8	0x4100f8e9	8.060769
9	0x4010d0fc	2.2627554
10	0x40032e49	2.0497
11	0x40844470	4.133354
12	0x401d4131	2.457104
13	0x41cd33a5	25.650217
14	0x410af221	8.6841135
15	0x414612e9	12.379617

conv3.weight f4 [32, 16, 3, 3]
0	0xbd24d80f	-0.040245112
1	0x3d499c20	0.049221158
2	0x3de2fe9d	0.1108372
3	0xbe1e5fdd	-0.15466256
4	0x3db0f3bd	0.086402394
5	0x3e11987c	0.14218324
6	0xbdd981d8	-0.10620469
7	0xbc841c17	-0.016126676
8	0x3b754806	0.0037426963
9	0x3d5b4ad4	0.05353816
10	0xbd424a0b	-0.047433894
11	0xbddfc0c2	-0.109254375
12	0x3b8ba617	0.004261743
13	0xbe3124d6	-0.17299208
14	0xbde6ce7f	-0.11269855
15	0xbd836167	-0.064150624
16	0xbe807638	-0.25090194
17	0xbe08efea	-0.1337277
18	0xbe331a2c	-0.17490453
19	0xbe559767	-0.20858537
20	0xbe3fb6c8	-0.1872207
21	0x3dd65fc3	0.10467484
22	0x3d1a9853	0.037742924
23	0xbe4a9ff7	-0.19787584
24	0x3e9b64a9	0.30350235
25	0x3e643654	0.2228635
26	0xbdcb0af6	-0.099142
27	0xbdc990a9	-0.09842045
28	0xbdbed295	-0.09317509
29	0xbc3397b2	-0.01096146
30	0xbd232923	-0.039834153
31	0xbdb2f764	-0.08738592
32	0x3d9b43ed	0.07581315
33	0x3d57a27d	0.052645195
34	0xbd777a1f	-0.060419198
35	0x3df8dc60	0.12151408
36	0x3da89c91	0.08232988
37	0x3cdbf773	0.026851391
38	0xbde51712	-0.11186041
39	0x3d141a78	0.036158055
40	0xbe0b9d4e	-0.13634226
41	0xbdcf349a	-0.10117455
42	0xbc0a1497	-0.008427761
43	0xbe150451	-0.14552428
44	0xbe037cff	-0.12840651
45	0x3e14f476	0.1454638
46	0xbd2a32b2	-0.041552253
47	0xbe3a8d83	-0.18218045
48	0x3e168c4b	0.14701955
49	0xbd3416bf	-0.043967005
50	0xbe695009	-0.22784437
51	0x3de549a2	0.11195685
52	0x3d66bee1	0.05633438
53	0xbdb04c1e	-0.08608268
54	0x3e88d230	0.2672286
55	0x3e8f50e2	0.27991396
56	0xbaa38db8	-0.0012478149
57	0x3e73ad56	0.23796591
58	0x3e862ac6	0.2620451
59	0x3d4172d7	0.04722866
60	0x3d0f39ad	0.034967113
61	0x3d29a3a8	0.04141584
62	0xbca4033e	-0.020021077
63	0xbe1028c3	-0.1407805
64	0xbe8e8820	-0.2783823
65	0xbe03dbc7	-0.12876807
66	0xbdfcdc21	-0.12346674
67	0xbe57cdab	-0.2107455
68	0xbdb9837e	-0.09058283
69	0xbe246e47	-0.16057692
70	0xbe4cedbf	-0.20012568
71	0x3d1e5d33	0.0386631
72	0xbe27a99a	-0.16373292
73	0x3d31f853	0.04344971
74	0x3e9984b2	0.2998405
75	0xbd1c0eef	-0.03810018
76	0x3e11263a	0.14174739
77	0x3e327c7a	0.17430297
78	0xbe173f8d	-0.14770336
79	0x3c753079	0.01496517
80	0x3dbbdbe7	0.091728024
81	0xbe6b37ca	-0.229705
82	0xbd5ac69e	-0.053412072
83	0x3c3e39df	0.011610477
84	0xbe7fa691	-0.24965884
85	0xbe0ffe75	-0.14061911
86	0x3dc94c3a	0.09828992
87	0xbeada59c	-0.33915412
88	0xbe897abc	-0.2685145
89	0xbc024e6e	-0.007953269
90	0xbe4f737a	-0.20258895
91	0x3c62ff13	0.01385476
92	0x3e889e81	0.2668343
93	0xbea48772	-0.32134587
94	0xbd70b369	-0.05876485
95	0x3e9e1d24	0.30881608
96	0xbefa07e1	-0.48834136
97	0xbe9fd753	-0.31218967
98	0x3e4cec56	0.2001203
99	0x3ca845ef	0.02054116
100	0xbe789951	-0.24277236
101	0xbf14f415	-0.5818494
102	0x3e34e561	0.17665626
103	0x3c6470e1	0.013942928
104	0xbe045646	-0.12923536
105	0x3e616d78	0.22014415
106	0x3e52473d	0.20534988
107	0x3e24fcf9	0.16112126
108	0x3e44b80e	0.19210836
109	0x3d4bb6b7	0.049734797
110	0xbdbde36c	-0.09271893
111	0x3dbcc497	0.09217184
112	0x3e156d93	0.1459258
113	0x3d48e97f	0.049050804
114	0x3e0399fd	0.1285171
115	0x3e3d5ca3	0.1849237
116	0x3e353443	0.17695718
117	0x3dcaa1a7	0.09894114
118	0x3de367bd	0.11103771
119	0x3cb8dfa7	0.022567583
120	0x3e1e4a5a	0.1545805
121	0x3e933479	0.2875097
122	0x3e29a350	0.16566205
123	0x3e703bd1	0.23460318
124	0x3e511f78	0.2042216
125	0x3e2c72c8	0.1684066
126	0x3b187a88	0.0023266394
127	0xbdacb95c	-0.08433792
128	0xbe1f8d2c	-0.15581197
129	0xbce6cb5c	-0.028173141
130	0xbd524910	-0.05133921
131	0xbd997b0d	-0.07494173
132	0x3d3a987d	0.04555558
133	0x3d7040a6	0.058655404
134	0x3d6ebe2b	0.058286827
135	0x3ec9e528	0.39432645
136	0x3f1ed9de	0.6205119
137	0x3eb551d5	0.35413995
138	0x3e96b9ef	0.2943873
139	0x3f14270b	0.57872075
140	0x3e7c8a9b	0.24662249
141	0x3e859457	0.26089737
142	0x3ebd36a0	0.36955738
143	0x3ddae819	0.106888
144	0xbd580028	-0.052734524
145	0xbe37bb9f	-0.17942666
146	0xbe2513b3	-0.16120796
147	0xbb9ce00a	-0.0047874497
148	0xbe112db0	-0.14177585
149	0xbe4c746e	-0.1996629
150	0x3bff185a	0.0077848854
151	0xbbefaa7a	-0.0073140236
152	0xbd863c8f	-0.065545194
153	0xbd4379a5	-0.04772343
154	0xbd960667	-0.0732544
155	0xbdb2af68	-0.08724862
156	0x3df114e3	0.11771562
157	0x3e3e1293	0.18561773
158	0x3d0478e7	0.032341864
159	0x3e8ac366	0.27102202
160	0x3e887a98	0.26656032
161	0x3d880374	0.06641284
162	0xbe7918aa	-0.24325815
163	0x3cb59604	0.02216626
164	0x3d4228d9	0.047402237
165	0xbdfed508	-0.12442976
166	0x3dbfd19d	0.093661524
167	0x3d95c60e	0.073131666
168	0xbe300412	-0.17189053
169	0x3d2e646b	0.042576235
170	0x3ddecf2d	0.108793594
171	0xbe1611b3	-0.14655189
172	0x3e2d9058	0.16949594
173	0x3ee7bd53	0.4526163
174	0xbdd74716	-0.105116054
175	0x3de12837	0.109939985
176	0x3e9559d8	0.29170108
177	0x3ab04987	0.0013449647
178	0x3dc1461c	0.094372004
179	0xbcde08a0	-0.027103722
180	0x3e93f201	0.28895572
181	0x3e51ecff	0.20500563
182	0x3e810a16	0.25203007
183	0x3e62e2be	0.22156808
184	0x3e5e6d37	0.2172135
185	0x3e85f22f	0.26161334
186	0x3e309e36	0.17247853
187	0x3d8628f5	0.06550781
188	0x3c66e440	0.014092505
189	0xbe219628	-0.15779936
190	0xbe2df18c	-0.16986674
191	0xbd2e8091	-0.04260308
192	0xbe077c28	-0.13230956
193	0xbd888d07	-0.06667524
194	0xbcac9544	-0.02106727
195	0xbe0b4a06	-0.13602456
196	0xbddac608	-0.10682303
197	0xbd0ca561	-0.034337405
198	0xbe08e50a	-0.13368621
199	0xbdbb49ab	-0.091449104
200	0xbd3b5769	-0.045737658
201	0xbde51cc4	-0.11187127
202	0xbe0b52fa	-0.13605872
203	0xbd52dc94	-0.05147989
204	0xbd2c8058	-0.042114586
205	0xbd8a91ed	-0.067661144
206	0xbcb9109d	-0.02259093
207	0x3e6f21fa	0.23352805
208	0x3ac6ce7d	0.001516774
209	0xbdbe4fb4	-0.09292546
210	0x3c5fa42d	0.013649982
211	0xbd813972	-0.06309785
212	0xba849e5f	-0.0010117999
213	0xbe7f3dff	-0.24925993
214	0xbe49e0b0	-0.19714618
215	0xbd0c71d0	-0.034288228
216	0xbe3769da	-0.17911473
217	0xbe617fdf	-0.22021435
218	0xbe2ba0ad	-0.16760512
219	0xbda6b123	-0.08139255
220	0xbe5845c7	-0.21120368
221	0xbe212963	-0.15738444
222	0x3b878146	0.0041352836
223	0xbe82d44d	-0.25552598
224	0xbea163c7	-0.31521437
225	0xbe8550e0	-0.26038265
226	0xbe24960d	-0.16072865
227	0xbe411d9e	-0.18858954
228	0x3d18b09e	0.03727781
229	0x3d997f37	0.074949674
230	0xbc2c6ff7	-0.010524741
231	0x3e6a6fdd	0.22894235
232	0x3e5f59ec	0.21811646
233	0x3d60ed91	0.05491406
234	0xbbc93973	-0.0061408817
235	0x3dee6f6c	0.11642346
236	0x3d10c7d3	0.035346817
237	0x3de9ea06	0.114215896
238	0x3e793519	0.24336661
239	0x3e75e16a	0.2401177
240	0x3e41962f	0.18904947
241	0x3e1a0f49	0.15044893
242	0x3da6dd3e	0.08147667
243	0x3c9b2ce1	0.018942298
244	0xbd3a1341	-0.04542852
245	0x3bda8347	0.0066684815
246	0xbca426b2	-0.020037983
247	0xbce74188	-0.02822949
248	0x3cbd572b	0.023112854
249	0xbe4fede2	-0.20305589
250	0xbd40e895	-0.047096808
251	0xbd1c2c5f	-0.038128253
252	0x3e7ce840	0.24697971
253	0x3d7f5685	0.06233837
254	0x3e9c131d	0.30483332
255	0x3e402701	0.18764879

conv3.bias f4 [32]
0	0xba783e65	-0.0009469747
1	0xb8df47aa	-0.00010646817
2	0xba4d17fa	-0.0007823702
3	0xb9fe8d7b	-0.00048552066
4	0x39d323e1	0.00040271788
5	0xba3d9449	-0.0007231874
6	0xb9a61943	-0.0003168081
7	0x3a2f196d	0.0006679509
8	0x3909ecf9	0.00013153617
9	0xba9058dc	-0.001101281
10	0xb929a3bc	-0.00016178092
11	0xb95e8a37	-0.00021223059
12	0xba02d094	-0.0004990187
13	0xb9f4beb7	-0.000466814
14	0x3a1bb67e	0.0005939974
15	0x3a39a4db	0.00070817553
16	0xba79966b	-0.000952101
17	0x3772bd21	1.4468359e-05
18	0xb94848dd	-0.0001910063
19	0x39bbfa61	0.00035853966
20	0xba624a7e	-0.0008632316
21	0x39b45f13	0.0003440311
22	0xba86c8cf	-0.0010283234
23	0x38a6674b	7.934737e-05
24	0x3953d397	0.00020201351
25	0x391c7720	0.00014921697
26	0x3a2da07e	0.00066233415
27	0xba549e54	-0.0008110751
28	0x3a02facb	0.00049964775
29	0xba50bbbf	-0.00079625467
30	0xba148a72	-0.0005666382
31	0xb7c4d5fb	-2.3464663e-05

bn3.weight f4 [32]
0	0x3f1bf22b	0.60916394
1	0x3f6fb6af	0.9363813
2	0x3f7ef4b3	0.9959213
3	0x3f5440be	0.8291129
4	0x3f61f6fb	0.8826749
5	0x3f20e246	0.62845266
6	0x3f47ecfc	0.78095984
7	0x3f845980	1.0339813
8	0x3f2e9d10	0.6820841
9	0x3fd18c0b	1.6370863
10	0x3f54df35	0.83153087
11	0x3f6d1a95	0.92618686
12	0x3f77d627	0.96811146
13	0x3f3dfdcd	0.74215394
14	0x3f48b15b	0.7839562
15	0x3f858217	1.0430325
16	0x3fc8e6f3	1.569548
17	0x3f1b9b6d	0.60784036
18	0x3f9c1f5e	1.2197073
19	0x3f9fbd05	1.2479559
20	0x3f2ed34e	0.68291175
21	0x3f471a38	0.7777438
22	0x3f4eca04	0.80777
23	0x3f56ac0f	0.8385629
24	0x3f390856	0.72278345
25	0x3f46263a	0.7740208
26	0x3f5d5a0b	0.8646552
27	0x3f460288	0.7734761
28	0x3fc31e5f	1.5243644
29	0x3f72ecd6	0.9489263
30	0x3f2257e1	0.6341534
31	0x3f2a7f4f	0.6660051

bn3.bias f4 [32]
0	0x3e5c952a	0.21541277
1	0xbe4d3f42	-0.20043662
2	0xbec875bf	-0.39152333
3	0xbdd1cb2e	-0.102438316
4	0xbe6b0893	-0.2295249
5	0x3e7f9228	0.24958098
6	0x3dad51bc	0.08462855
7	0xbebc1a5b	-0.36738858
8	0x3e599d46	0.21251401
9	0xbf26fad7	-0.652265
10	0x3dfad141	0.12246943
11	0x3e4ec3d0	0.20191884
12	0xbe4b72dc	-0.19868034
13	0x3e656ba8	0.22404349
14	0xbd0591ad	-0.03260963
15	0xbf040732	-0.5157348
16	0xbf4370c4	-0.7634394
17	0x3f0edf17	0.5580916
18	0x3e4d7307	0.2006341
19	0xbe38ff3e	-0.18066117
20	0x3d1f7002	0.03892518
21	0xbe929b74	-0.28634226
22	0x3dd45397	0.10367506
23	0xbc73632d	-0.014855188
24	0xbe4e3d14	-0.20140487
25	0xbcf3a75a	-0.029742885
26	0x3e773d25	0.24144419
27	0x3d667771	0.056266252
28	0xbea1226a	-0.31471568
29	0xbec85c3d	-0.39132872
30	0x3edd901f	0.43274018
31	0x3ea61af5	0.32442442

bn3.running_mean f4 [32]
0	0x3f4fee1f	0.8122272
1	0x3f802087	1.0009927
2	0xc075b53c	-3.8391867
3	0xbf5c8a71	-0.86148745
4	0xbe585348	-0.2112552
5	0xc06a8449	-3.664324
6	0xc06dbca9	-3.71464
7	0xc0184526	-2.3792205
8	0xc02d3da4	-2.7068872
9	0xc08a720e	-4.3264227
10	0xbebb759e	-0.36613172
11	0xbd4e2b64	-0.05033435
12	0xc01d37ac	-2.456523
13	0x3ec89d29	0.39182404
14	0xbffa65f8	-1.9562368
15	0xc0db7f93	-6.859323
16	0xc04fb10e	-3.2451816
17	0xbfa54222	-1.2910807
18	0xc0792f4e	-3.8935122
19	0xc06e127c	-3.7198782
20	0xc06cba65	-3.6988766
21	0xbf0f4b70	-0.55974483
22	0xc0963436	-4.6938734
23	0xbf72f223	-0.9490072
24	0x400b87d0	2.1801643
25	0xc0319e06	-2.77527
26	0xbf53e0de	-0.82764995
27	0xc00c71b4	-2.19444
28	0xbfcda3b2	-1.6065581
29	0xc00566d1	-2.0844004
30	0xbe45b382	-0.19306758
31	0xbfcc382d	-1.5954643

bn3.running_var f4 [32]
0	0x40902c15	4.505381
1	0x408e3150	4.4435196
2	0x40b8ab50	5.770912
3	0x408d356e	4.412772
4	0x40303467	2.7531984
5	0x40b373f3	5.607904
6	0x40a9a8e2	5.3018656
7	0x409b243f	4.8481746
8	0x40caf276	6.3420973
9	0x4118ecef	9.557845
10	0x40748281	3.8204653
11	0x40c22c9c	6.0679455
12	0x4082d45f	4.088424
13	0x407fefe2	3.9990163
14	0x408b072f	4.344627
15	0x40ce64c7	6.449802
16	0x40d6cf23	6.7127852
17	0x409d768f	4.9207225
18	0x4173d439	15.239312
19	0x411a6969	9.650735
20	0x404802c7	3.1251695
21	0x4096314b	4.693517
22	0x4093ea95	4.6223855
23	0x40a980de	5.296981
24	0x40999d46	4.8004484
25	0x40392904	2.8931284
26	0x40b6c3e6	5.7114134
27	0x4088f2f6	4.2796583
28	0x4157b890	13.482559
29	0x4090b482	4.5220346
30	0x407e13e0	3.969963
31	0x4086198c	4.1906185

conv4.weight f4 [32, 32, 3, 3]
0	0xbbe7d964	-0.0070754755
1	0xbe9a1123	-0.300912
2	0x3d09adf4	0.03361316
3	0x3cce26eb	0.025165042
4	0xbe523fe6	-0.20532188
5	0x3d12c1c2	0.035829313
6	0x3d09fb8d	0.033687163
7	0x3d03b07b	0.032150727
8	0x3e231c90	0.15928864
9	0xbdf8f2d5	-0.121556915
10	0x3e0b887d	0.13626285
11	0xbe6078f5	-0.21921141
12	0x3c8262f8	0.015916333
13	0xbd38c4c8	-0.04510954
14	0xbef30715	-0.4746634
15	0x3e72352f	0.236531
16	0x3da0fb6c	0.07860455
17	0xbe5e7c71	-0.21727158
18	0x3e10e902	0.14151385
19	0x3dde2dbd	0.10848568
20	0xbd695945	-0.0569699
21	0x3d82f52d	0.0639442
22	0xbca66374	-0.020311095
23	0xbe9a9cb6	-0.30197686
24	0x3d30c066	0.043152235
25	0x3d81cdda	0.06338091
26	0xbdd7a501	-0.10529519
27	0xbe5628b7	-0.20913969
28	0xbdf3082c	-0.11866793
29	0xbd8856bc	-0.06657168
30	0xbb98d022	-0.0046634832
31	0xbe445578	-0.19173229
32	0x3de66c02	0.112510696
33	0xbe92d494	-0.2867781
34	0xbdd20c32	-0.10256232
35	0x3d445633	0.04793377
36	0x3ddfcb22	0.109274164
37	0x3c37cbfb	0.011218066
38	0xbe3f427e	-0.18677709
39	0xbb90618a	-0.004406159
40	0x3d329a88	0.043604404
41	0xbe465529	-0.19368424
42	0x3d84f770	0.064925075
43	0x3e2f1a49	0.1709987
44	0xbd70990b	-0.058739703
45	0x3e536501	0.20643999
46	0xbd74c449	-0.059757505
47	0xbc8ace19	-0.016943978
48	0xbcc37dd7	-0.023863716
49	0xbd1b4656	-0.037908874
50	0x3e270efd	0.16314311
51	0xbe7a7f5a	-0.24462643
52	0xbcc6d5c0	-0.024271846
53	0x3e135a98	0.14390028
54	0xbe1bbe77	-0.15209375
55	0xbdd61c73	-0.10454645
56	0xbe23a96a	-0.15982595
57	0x3c736605	0.014855866
58	0x3de52387	0.11188417
59	0xbd370abe	-0.04468798
60	0x3e222ebe	0.15838143
61	0x3e65b896	0.22433695
62	0x3e1bda47	0.15219985
63	0xbe1a1615	-0.15047486
64	0x3d97e88b	0.07417401
65	0x3e5282ed	0.20557757
66	0xbe07f77b	-0.13278
67	0xbdbc2a8c	-0.09187803
68	0x3e1bfeb3	0.15233879
69	0xbe12f974	-0.14352971
70	0x3d0cbfbc	0.03436254
71	0x3e9ee549	0.31034306
72	0xbde162c4	-0.11005166
73	0x3d97a6f4	0.07404891
74	0x3d5156a8	0.051108032
75	0x3cbce8f0	0.023060292
76	0x3e87b234	0.26503146
77	0xbdb1f9e1	-0.08690239
78	0x3d4f28b0	0.050575912
79	0x3ebf2dfc	0.3733977
80	0x3d7e0487	0.062016036
81	0x3d86f798	0.065901935
82	0xbdb804ca	-0.089852884
83	0xbd9644a5	-0.07337312
84	0xbdab19ed	-0.08354554
85	0xbc0db8ae	-0.008649988
86	0x3e282536	0.16420445
87	0xbed9979b	-0.42498478
88	0x3c48ca9e	0.012255339
89	0x3e41b524	0.18916756
90	0x3e676936	0.22598729
91	0x3da49ac2	0.0803733
92	0xbe5a5907	-0.21323024
93	0x3d2db321	0.04240716
94	0x3cc3943a	0.02387439
95	0xbe8ee6aa	-0.27910358
96	0xbce9a28e	-0.028519895
97	0xbd1fa45c	-0.038975105
98	0xbe97712e	-0.29578537
99	0x3efe90b7	0.49719784
100	0x3de2af75	0.11068622
101	0xbe93cd41	-0.28867534
102	0x3ea23912	0.31684166
103	0x3dc1d890	0.09465134
104	0xbedee685	-0.43535247
105	0x3e9e5921	0.30927375
106	0xbdc743cd	-0.09729729
107	0xbf082f31	-0.5319701
108	0xbd5bff8d	-0.05371051
109	0xbd6fbf5e	-0.05853211
110	0x3e3149a1	0.17313243
111	0xbdb8c899	-0.09022636
112	0xbc4ada46	-0.012381142
113	0x3dbd68cd	0.09248505
114	0x3e30aa9b	0.17252581
115	0xbc3e0c2a	-0.01159958
116	0x3da79b07	0.08183866
117	0x3cc2d5ea	0.023783643
118	0xbe8b0016	-0.27148503
119	0xbd31db1c	-0.04342185
120	0x3e680f63	0.2266212
121	0xbdd53c99	-0.10411949
122	0x3df418d9	0.11918802
123	0x3d525291	0.051348273
124	0xbe6fbbda	-0.23411503
125	0x3e739a7d	0.23789401
126	0x3d73c6d0	0.059515774
127	0xbce00110	-0.027344257
128	0x3e8d0899	0.27545622
129	0xbd9ff6e1	-0.0781076
130	0xbcc72eb4	-0.024314262
131	0x3e4150bd	0.18878455
132	0xbd65a2f2	-0.0560636
133	0x3d1b1c98	0.037869066
134	0x3e7340f8	0.23755252
135	0xbcd8cc65	-0.02646465
136	0x3ddede8b	0.108822905
137	0x3e300f6a	0.1719338
138	0xbde96de5	-0.11397914
139	0x3d9f7979	0.07786841
140	0x3e28b29f	0.16474389
141	0xbe33427b	-0.17505829
142	0x3dfa532d	0.12222896
143	0x3dfa5c21	0.122246034
144	0x3e6de02b	0.23230045
145	0x3dca95e1	0.098918684
146	0xbe87326d	-0.2640566
147	0x3e40b299	0.1881813
148	0x39059108	0.00012737897
149	0xbeb31704	-0.34978497
150	0x3e0aaf54	0.13543445
151	0xbe0002ed	-0.12501116
152	0xbeee1ff9	-0.46508768
153	0x3e509f1a	0.20373192
154	0xbbb6165d	-0.005556865
155	0x3de32ea9	0.11092884
156	0x3c984cff	0.018591402
157	0x3c9d520d	0.019204164
158	0x3e53c7fb	0.20681755
159	0xbe8c53dc	-0.2740773
160	0xbdf12c77	-0.11776059
161	0x3db9eec9	0.09078748
162	0xbe67430f	-0.22584175
163	0xbed6a2bf	-0.4192104
164	0x3e28b3d3	0.16474847
165	0xbe2c7e22	-0.16844991
166	0x3da441e0	0.08020377
167	0x3ebdafad	0.37048092
168	0xbefccc07	-0.4937441
169	0xbc6f051c	-0.0145886205
170	0x3eab7218	0.33485484
171	0x3e2ece4e	0.17070886
172	0x3e37bcc6	0.17943105
173	0xbe9b075b	-0.3027905
174	0x3cb743d2	0.022371206
175	0xbd07a737	-0.033118453
176	0xbd4ebfc1	-0.05047584
177	0x3c954374	0.01822064
178	0xbd5838f5	-0.052788693
179	0xbdfc3e04	-0.12316516
180	0x3e2ba937	0.16763769
181	0x3d4f2692	0.050573893
182	0x3e700978	0.23441112
183	0x3ca9c500	0.02072382
184	0x3d8be09e	0.06829952
185	0x3dce0adf	0.10060667
186	0xbd3da268	-0.04629746
187	0x3d9cbe80	0.076535225
188	0xbbd82280	-0.0065959096
189	0x3db389ac	0.08766493
190	0x3e70d1e0	0.23517561
191	0xbd8553cb	-0.06510123
192	0x3e290f82	0.16509822
193	0x3e81207c	0.25220096
194	0x3df0a787	0.11750703
195	0x3e1db3b0	0.15400577
196	0x3dfa5bb2	0.12224521
197	0x3ca5b1f1	0.02022645
198	0xbc05cbc5	-0.008166258
199	0xbe047887	-0.12936603
200	0x3e88f2a0	0.26747608
201	0xbdc28cd1	-0.09499515
202	0xbe2a35f6	-0.16622147
203	0x3eb16378	0.346462
204	0xbec03c06	-0.37545794
205	0xbd7fd68a	-0.06246046
206	0x3e844269	0.25831917
207	0x3d9e00ff	0.07715034
208	0x3d376231	0.044771377
209	0x3d8c05c4	0.06837037
210	0x3d9115d4	0.070842415
211	0x3dd470ed	0.103731014
212	0x3d0f0902	0.0349207
213	0xbd560bf8	-0.052257508
214	0xbd2c166f	-0.04201358
215	0xbdefc1f4	-0.117069155
216	0xbd91ef80	-0.07125759
217	0x3e4e682d	0.20156927
218	0xbe66cbe2	-0.22538713
219	0x3d4511e9	0.048112784
220	0x39e8be5d	0.0004439232
221	0xbe8136d2	-0.25237137
222	0x3dabdd92	0.083918706
223	0x3dcc292b	0.0996879
224	0xbe492529	-0.19643082
225	0xbdf158dc	-0.11784527
226	0xbde25cd0	-0.11052859
227	0x3e0134d0	0.12617803
228	0xbd162c32	-0.03666324
229	0x3c66d772	0.014089452
230	0x3d614ba3	0.055003773
231	0xbe9515b4	-0.2911812
232	0xbd5db276	-0.05412527
233	0x3d105b1a	0.03524313
234	0x3eca5178	0.3951528
235	0x3e1fc3bd	0.15602012
236	0xbf21d5f5	-0.632171
237	0x3e668d2d	0.22514792
238	0x3cca6c4a	0.02470984
239	0xbf09bdd1	-0.5380526
240	0x3e74cd35	0.23906405
241	0x3e9ba4fd	0.30399314
242	0xbe8391fb	-0.25697312
243	0xbdbd734b	-0.09250506
244	0x3e7a423f	0.24439333
245	0x3d00a6d2	0.031409092
246	0xbe99e9e5	-0.3006126
247	0xba8e32dc	-0.0010848898
248	0x3e13e9f9	0.14444722
249	0xbe847e90	-0.2587781
250	0x3d2968eb	0.041359823
251	0x3e2a7ac1	0.1664839
252	0x3df87625	0.12131909
253	0x3e381c2e	0.179795
254	0xbeba3348	-0.3636725
255	0x3e2b35c7	0.16719733

conv4.bias f4 [32]
0	0xb9881bc2	-0.00025960623
1	0x38e61a0a	0.00010972105
2	0x38c2d47f	9.290221e-05
3	0xb9cfc9b7	-0.00039632406
4	0xb9a7ac52	-0.0003198111
5	0x3a1f6ac8	0.00060812803
6	0xb9c50f30	-0.00037586084
7	0x3a151f44	0.0005688558
8	0xb9e7846a	-0.0004415841
9	0x3809a848	3.282007e-05
10	0xba31d148	-0.00067831995
11	0x399b666e	0.0002964022
12	0x3823b450	3.9030157e-05
13	0x39627b9e	0.0002159909
14	0x39eff182	0.0004576557
15	0xba29cbd3	-0.00064772106
16	0x38fa5674	0.00011937032
17	0x38f80445	0.00011826357
18	0x39d0101e	0.0003968486
19	0x398f6106	0.00027347374
20	0x379c2cb4	1.8617466e-05
21	0x384d66b7	4.897147e-05
22	0xba034574	-0.0005007603
23	0xb9a6c309	-0.000318073
24	0xba082740	-0.0005193837
25	0x3a1e14e8	0.0006030337
26	0x39524b67	0.0002005525
27	0x3a041c9b	0.0005039663
28	0xba473a18	-0.0007599904
29	0xb9ab28e6	-0.00032646133
30	0x3a0b5d6d	0.0005316351
31	0xb90843fe	-0.000129953

bn4.weight f4 [32]
0	0x3f86dda5	1.053639
1	0x3f7e71e0	0.9939251
2	0x3f3b9687	0.7327656
3	0x3fa331e3	1.2749599
4	0x3f4956bf	0.7864799
5	0x3f802adb	1.0013078
6	0x3f56db98	0.83928823
7	0x3f651814	0.89489865
8	0x3fa187bc	1.2619548
9	0x3f60ec95	0.87860996
10	0x3f8710d2	1.0552008
11	0x3f3bf275	0.73416835
12	0x3f3e9520	0.74446297
13	0x3f1e83f4	0.61920094
14	0x3f5fd38b	0.87432164
15	0x3f4c963a	0.7991673
16	0x3f2cf056	0.67554224
17	0x3f4475e1	0.7674237
18	0x3f7906a1	0.9727574
19	0x3f678469	0.90436417
20	0x3f4f1c3f	0.80902475
21	0x3f84faf5	1.0389086
22	0x3f75deba	0.9604298
23	0x3f85c54a	1.0450833
24	0x3f5e0677	0.86728615
25	0x3f910cca	1.1332028
26	0x3f35835a	0.7090355
27	0x3f6a7626	0.9158653
28	0x3f5cdff3	0.8627922
29	0x3f80ae5c	1.005321
30	0x3f840ce9	1.031644
31	0x3f3725a6	0.7154182

bn4.bias f4 [32]
0	0xbd601584	-0.05470802
1	0xbe6b4651	-0.22976042
2	0x3ee1419e	0.43995374
3	0xbf80e87c	-1.0070949
4	0x3e08af57	0.13348137
5	0xbe1cea00	-0.15323639
6	0x39a6dafd	0.00031825146
7	0xbe1f38fd	-0.15549083
8	0xbf993a61	-1.1970941
9	0x3e089c2c	0.13340825
10	0xbee72201	-0.4514313
11	0x3dc01d1a	0.09380551
12	0x3d964133	0.073366545
13	0x3eeccdb5	0.46250692
14	0x3cc051c2	0.023476485
15	0x3e2f498e	0.17117903
16	0x3dce9496	0.10086934
17	0x3e36c7dd	0.1784968
18	0xbd2f48b0	-0.04279393
19	0xbd3d5929	-0.046227608
20	0x3c8e6537	0.017382247
21	0xbe9bf828	-0.30462766
22	0x3e0d45ff	0.13796233
23	0xbe90d9b8	-0.28291106
24	0x3d92ab6e	0.07161604
25	0xbe6dd0b2	-0.23224142
26	0x3e9d762b	0.30754218
27	0xbead2f6e	-0.33825248
28	0xbd8256d8	-0.063642204
29	0xbe954e22	-0.29161173
30	0xbee91ca9	-0.45529678
31	0x3e800fed	0.2501215

bn4.running_mean f4 [32]
0	0x3f5e6d30	0.86885357
1	0x3e33398b	0.1750242
2	0x3f55e35f	0.83550066
3	0xbf0fd418	-0.56183004
4	0xbfc5d6f0	-1.5456219
5	0xbf7f190d	-0.996476
6	0x3f019306	0.50614965
7	0x3dddc825	0.1082919
8	0x3f004249	0.50101143
9	0xbf24ed50	-0.6442461
10	0x3ebd8b89	0.3702052
11	0xbf8f9429	-1.121709
12	0xc006a91c	-2.1040716
13	0x3fe5b8c3	1.794701
14	0xbe4bfdc6	-0.19921026
15	0xbf5be0ed	-0.85890085
16	0x3f360bb1	0.7111159
17	0xbfd1c0b0	-1.6386929
18	0xbf8b0b6b	-1.086286
19	0xbf5dd402	-0.86651623
20	0xbf7ce4d2	-0.9878665
21	0xbfbd195c	-1.4773364
22	0x3fcd09de	1.6018636
23	0xbfa9aec5	-1.325646
24	0x3fa9912b	1.3247427
25	0xbf043201	-0.516388
26	0xbf2a337d	-0.66484815
27	0xbf9d8dd0	-1.2308903
28	0xbf9fbe4d	-1.247995
29	0x3e3da6d1	0.18520667
30	0xbf9f4259	-1.2442123
31	0x3f3fea59	0.7496696

bn4.running_var f4 [32]
0	0x4067a0c5	3.6191876
1	0x402d5802	2.7084966
2	0x4062e222	3.545052
3	0x400148b7	2.0200632
4	0x403b2111	2.9238932
5	0x403004cc	2.7502928
6	0x400faf7a	2.2450852
7	0x401cb9d0	2.448841
8	0x3fc98644	1.57441
9	0x4020ae6a	2.5106454
10	0x401b7d1b	2.4295108
11	0x40026f4f	2.0380437
12	0x400182dc	2.023612
13	0x40476d2f	3.116039
14	0x4037325c	2.8624487
15	0x4061719d	3.5225594
16	0x3feadfab	1.8349508
17	0x3ff716f3	1.9303879
18	0x4052f45d	3.2961648
19	0x4035c2e0	2.8400192
20	0x4057b1aa	3.3702188
21	0x4038a5a6	2.8851104
22	0x400df6db	2.2181919
23	0x40458fc2	3.0868993
24	0x403d02b9	2.9532912
25	0x4076cf0e	3.8563876
26	0x405e36fb	3.4721057
27	0x4004d20a	2.0753198
28	0x401e5afc	2.4743032
29	0x4022b82c	2.542491
30	0x4015c163	2.3399284
31	0x4020571b	2.5053165

conv5.weight f4 [32, 32, 3, 3]
0	0xbe6cdcaa	-0.23131052
1	0xbdc79108	-0.097444594
2	0xbd264ce1	-0.04060066
3	0x3e1b8c72	0.15190294
4	0x3e9af2bc	0.30263317
5	0x3e20c2a3	0.15699248
6	0x3e657130	0.22406459
7	0x3eb797ee	0.358581
8	0x3ed6cb7b	0.41952118
9	0xbdaa3f61	-0.0831287
10	0xbe076302	-0.13221362
11	0x3e2e3f9f	0.17016457
12	0x3d8e19e3	0.06938531
13	0xbde86392	-0.113471165
14	0xbc3b305e	-0.011425106
15	0xbdb8651d	-0.09003661
16	0xbed0cb82	-0.40780264
17	0xbe8cbf3c	-0.2748965
18	0x3df50e03	0.11965563
19	0x3e24a51e	0.16078612
20	0xbdb247d0	-0.087051034
21	0x3e0fceb4	0.14043695
22	0x3e962949	0.29328373
23	0x3e99fe9e	0.3007707
24	0x3e2295ac	0.15877408
25	0x3e883b81	0.26607898
26	0x3e156a3b	0.14591305
27	0x3e5254cb	0.20540158
28	0x3dad1c58	0.08452672
29	0xbe5720d3	-0.21008615
30	0x3ee18597	0.44047233
31	0x3e5a9aa6	0.21348056
32	0x3dbbc6a7	0.09168749
33	0x3dc8367e	0.097760186
34	0x3c47a65b	0.012185658
35	0x3e02fc10	0.12791467
36	0x3e094c60	0.13408041
37	0x3e755325	0.23957498
38	0x3e6cda6f	0.23130201
39	0x3d66bf54	0.05633481
40	0xbdd5c06d	-0.10437093
41	0x3ddc1fb6	0.10748236
42	0x3bb78ce1	0.005601511
43	0xbd715e77	-0.05892798
44	0x3e43bd8e	0.19115278
45	0xbd12a776	-0.035804234
46	0xbd4ebf59	-0.050475452
47	0xbc7523c0	-0.014962137
48	0x3da2240b	0.07917031
49	0xbb715081	-0.0036821666
50	0x3df9dbbf	0.12200116
51	0xbe8344c4	-0.25638402
52	0xbe9fe57e	-0.31229776
53	0x3e0a4988	0.13504612
54	0x3d856844	0.06514028
55	0xbe269ed5	-0.16271527
56	0xbe3ddb42	-0.18540671
57	0x3d84201d	0.064514376
58	0xbe3180ac	-0.1733424
59	0xbe80ed32	-0.25180966
60	0xbe7620a7	-0.24035893
61	0xbe7dcb79	-0.2478465
62	0xbe8c4809	-0.27398708
63	0x3dd8a81e	0.10578941
64	0xbcf58b3a	-0.029973615
65	0xbd18d652	-0.037313767
66	0xbc6d03ba	-0.0144662205
67	0xbde6174a	-0.11234911
68	0xbd361a44	-0.044458643
69	0xbeb8ef71	-0.3612018
70	0xbd93cbf0	-0.07216632
71	0x3d190d57	0.037366237
72	0x3dc47ebc	0.09594485
73	0x3e53fd1f	0.20702027
74	0x3e0bf621	0.1366811
75	0x3d85af9e	0.06527637
76	0xbd022a54	-0.03177865
77	0x3da3068f	0.07960235
78	0xbd8eac0a	-0.069664076
79	0xbe92eded	-0.28697148
80	0xbe0942c3	-0.13404374
81	0xbccc9fa7	-0.024978472
82	0x3b98e3c0	0.004665822
83	0xbe3201e5	-0.17383535
84	0x3c4a7a99	0.012358331
85	0x3cb89259	0.022530722
86	0x3b04d49c	0.0020268327
87	0x3e0068c7	0.1253997
88	0x3e62ed39	0.22160806
89	0x3ec97437	0.39346477
90	0xbe0128f0	-0.12613273
91	0xbe2fb04f	-0.171571
92	0xbdf89f49	-0.12139756
93	0x3e0275ca	0.12740245
94	0xbb87f0b7	-0.0041485685
95	0x3cc298ec	0.02375456
96	0xbdca78fe	-0.09886359
97	0xbe317a76	-0.17331871
98	0xbd304a05	-0.04303934
99	0xbe02d8f9	-0.12778081
100	0xbbbe4794	-0.0058068726
101	0x3d83447d	0.064095475
102	0xbded58ba	-0.11589189
103	0x3dfcbef9	0.12341113
104	0x3d9ffffa	0.078124955
105	0xbcadccd4	-0.021215834
106	0x3cf048df	0.029331623
107	0xbe98348d	-0.29727593
108	0x3d47f8b1	0.048821155
109	0x3dc6055e	0.096689925
110	0x3d9ea6c8	0.07746655
111	0x3c883226	0.016625475
112	0x3ba78641	0.00511244
113	0xbcd3b34d	-0.025842333
114	0xbd257108	-0.040390998
115	0xbe24cc8d	-0.16093655
116	0xbe82a117	-0.25513527
117	0x3d3c548d	0.04597907
118	0x3a06b4c3	0.000513863
119	0xbd9c1838	-0.07621807
120	0xbdb5ee29	-0.08883316
121	0xbe3484bd	-0.1762876
122	0xbe513d34	-0.20433503
123	0x3e86bac5	0.2631437
124	0x3bf21b91	0.00738854
125	0xbe21c71c	-0.1579861
126	0xbd61429b	-0.05499516
127	0xbda5d451	-0.08097137
128	0x3cac9ffb	0.021072378
129	0xbe12eec6	-0.14348897
130	0xbe26f09b	-0.16302721
131	0x3cb50f4a	0.022102017
132	0x3ec24cb7	0.37949154
133	0x3dacd3b6	0.08438818
134	0x3dbf1850	0.09330809
135	0x3e6516e6	0.22372016
136	0x3eadc9c3	0.33942994
137	0x3e70de95	0.23522408
138	0x3deab431	0.1146015
139	0x3d917add	0.071035124
140	0x3d14d0d3	0.036331963
141	0xbe3310d5	-0.1748689
142	0xbe7b2b9e	-0.24528357
143	0xbd574dfa	-0.0525646
144	0xbe00370f	-0.12521003
145	0xbd7a245b	-0.061069828
146	0x3e14c9fa	0.14530173
147	0x3d989ddd	0.07451985
148	0x3d200229	0.03906456
149	0x3d975fae	0.07391296
150	0xbe58ce46	-0.21172437
151	0xbe2bf1ff	-0.16791533
152	0xbdff3c4f	-0.12462675
153	0x3d01326e	0.031542234
154	0xbe2019c4	-0.15634829
155	0xbe36144a	-0.17781177
156	0xbd9f8472	-0.07788934
157	0xbdd684f8	-0.104745805
158	0xbde53e5c	-0.11193535
159	0x3e4a7aeb	0.19773452
160	0x3d6581df	0.056032058
161	0xbe3a5981	-0.18198206
162	0x3db55a41	0.08855105
163	0xbde4f717	-0.11179941
164	0xbe3c9f17	-0.18420063
165	0xbec6d981	-0.38837817
166	0xbed237c3	-0.41058168
167	0xbe35d056	-0.17755255
168	0x3e15e97c	0.14639848
169	0x3dca0f46	0.098661944
170	0x3eccc136	0.39991158
171	0xbd352ef2	-0.044234224
172	0xbded42dd	-0.11585019
173	0xbe6b6938	-0.22989357
174	0xbbea517f	-0.0071508284
175	0xbd1c3113	-0.03813274
176	0xbe302d99	-0.17204894
177	0x3cf64ab4	0.030064918
178	0xbd8a98bc	-0.06767413
179	0x3cbce9f5	0.023060778
180	0x3e5a4b88	0.21317875
181	0xbd888dba	-0.06667657
182	0xbb3f1ddf	-0.0029162092
183	0xbd4d9418	-0.05019006
184	0xbdcb29b5	-0.09920064
185	0x3ddd99c9	0.10820348
186	0xbdac9ea3	-0.08428695
187	0x3d6f3427	0.058399346
188	0x3e422b79	0.18961896
189	0xbddef153	-0.10885873
190	0xbddc86d4	-0.10767904
191	0xbd2347c5	-0.039863367
192	0x3e0b1670	0.13582778
193	0xbdb55e68	-0.08855897
194	0x3da0da0d	0.0785409
195	0x3d1f4059	0.038879726
196	0xbe16b893	-0.14718847
197	0xbd9504ed	-0.0727633
198	0xbe5078c3	-0.20358567
199	0x3d0e338c	0.034717128
200	0x3e850981	0.25983813
201	0xbe0b4617	-0.13600956
202	0xbdbc4b4c	-0.09194049
203	0xbda93ea4	-0.08263901
204	0xbe0783ea	-0.13233915
205	0xbdee948c	-0.11649427
206	0xbe4a2d86	-0.19743928
207	0xbd17f23d	-0.03709625
208	0x3d225945	0.039635915
209	0x3e5a1107	0.21295558
210	0xbe983fe9	-0.2973626
211	0xbdc7f620	-0.097637415
212	0xbbf0081c	-0.0073251855
213	0x3ea41fdc	0.32055557
214	0xbcbcf25f	-0.02306479
215	0xbe2c99fa	-0.16855612
216	0xbce75889	-0.028240459
217	0x3e0cc3ac	0.13746518
218	0x3e56a8b3	0.20962791
219	0x3c81fe67	0.015868379
220	0x3bbf99e3	0.005847202
221	0xbd6f9b55	-0.058497746
222	0xbd8245fd	-0.063610055
223	0xbe3ae021	-0.18249561
224	0xbe1a809b	-0.15088122
225	0xbdbb1b49	-0.091360636
226	0xbeaec55c	-0.34134948
227	0xbe0606b4	-0.13088495
228	0x3e34fb01	0.17673875
229	0x3e016478	0.12635982
230	0x3ddb160a	0.10697563
231	0xbe0ed6ee	-0.13949177
232	0x3d24e7a9	0.04025999
233	0x3e4fca0f	0.20291923
234	0x3d64467a	0.055731274
235	0x3e39b8ef	0.18136953
236	0x3d591299	0.05299625
237	0xbd8ddbb7	-0.06926673
238	0x3c17cd5d	0.009265271
239	0x3d3a4f63	0.045485865
240	0x3e2cea01	0.1688614
241	0x3e4bcac5	0.19901569
242	0x3e49d44c	0.19709891
243	0x3d4bcdab	0.049756687
244	0x3bdc4ff2	0.0067233974
245	0x3e85be7f	0.261219
246	0x3e2ad4c4	0.16682726
247	0x3dc22330	0.09479368
248	0x3e0e184b	0.13876455
249	0xbd91f9b8	-0.07127708
250	0xbdd9fcba	-0.10643907
251	0x3d49a250	0.04922706
252	0x3df734eb	0.1207064
253	0xbcdf5861	-0.027263822
254	0x3e115b1f	0.14194916
255	0x3d9892ca	0.07449873

conv5.bias f4 [32]
0	0x3a27519c	0.0006382705
1	0xba0c91da	-0.000536231
2	0x3a3a6a8a	0.00071112125
3	0x3a07ebab	0.00051849586
4	0xb7678ba1	-1.3801183e-05
5	0xba2927d7	-0.0006452775
6	0xb8d7dd89	-0.00010293263
7	0x3a1d595b	0.000600239
8	0x39072fb1	0.0001289237
9	0x3a1be414	0.0005946767
10	0x38999a5c	7.32436e-05
11	0xb6a02231	-4.772352e-06
12	0xb9ed2d1f	-0.0004523778
13	0xb9c98360	-0.0003843559
14	0xba3b7868	-0.0007151426
15	0x3a435ca6	0.00074524654
16	0x3a46a5f6	0.00075778307
17	0xb9fb8b3d	-0.0004797819
18	0xba2130f1	-0.00061489554
19	0xb79517d2	-1.7773276e-05
20	0x3a4a7a19	0.00077238824
21	0xba12cac3	-0.0005599672
22	0x3a327822	0.00068080623
23	0xb8eb6826	-0.000112250724
24	0xb8bfe8c7	-9.150948e-05
25	0x3882211c	6.20505e-05
26	0x38803315	6.1130304e-05
27	0xb9b0d298	-0.0003372624
28	0x39822d83	0.0002482944
29	0x3a35bb61	0.00069325237
30	0x3a04e82b	0.0005069996
31	0x39ad67e3	0.00033074533

bn5.weight f4 [32]
0	0x3f80e706	1.0070503
1	0x3f8a7df9	1.0819694
2	0x3f755a95	0.9584134
3	0x3f331d99	0.6996704
4	0x3f2d454d	0.6768387
5	0x3f6c657c	0.9234235
6	0x3f9ffd89	1.2499248
7	0x3f3d17d3	0.7386448
8	0x3f801157	1.0005292
9	0x3f67c06a	0.90527976
10	0x3f582ed4	0.84446454
11	0x3f21227a	0.6294323
12	0x3f6c77b3	0.92370147
13	0x3f5257f9	0.82165486
14	0x3f2cfe8d	0.67575914
15	0x3f338dfc	0.70138526
16	0x3f4e4722	0.8057729
17	0x3f88b40a	1.0679944
18	0x3f4cd69f	0.80014986
19	0x3f90ae87	1.1303262
20	0x3f4f5649	0.80991036
21	0x3f4f258b	0.8091666
22	0x3f73f65c	0.9529779
23	0x3f42fe3e	0.7616919
24	0x3f465032	0.7746612
25	0x3f35ccb7	0.71015495
26	0x3f53e2af	0.82767767
27	0x3f5db515	0.86604434
28	0x3f55fc6f	0.8358831
29	0x3f45adc8	0.77218294
30	0x3f4e3d23	0.8056204
31	0x3f4ce46e	0.80036056

bn5.bias f4 [32]
0	0xbec18edf	-0.37804314
1	0xbf0934a7	-0.53595966
2	0x3ecc9f40	0.39965248
3	0x3ed701c9	0.4199355
4	0x3eead2d7	0.45863983
5	0xbe11164e	-0.14168665
6	0xbf2cdbe0	-0.67523
7	0x3ea9f122	0.33191782
8	0x3ce5b9df	0.028042732
9	0xbdb75a1c	-0.08952734
10	0x3dcea7c9	0.10090596
11	0x3f21f1d0	0.632596
12	0xbd291779	-0.04128215
13	0x3f09e34f	0.5386247
14	0x3f0581c7	0.5215115
15	0x3edaf353	0.42763767
16	0x3e043034	0.12909013
17	0xbec43cfb	-0.38327774
18	0x3e3b5fd7	0.18298279
19	0xbf3bc306	-0.7334446
20	0x3e8d9ced	0.27658787
21	0x3db0c827	0.08631926
22	0xbde93d12	-0.11388601
23	0x3e82d0e2	0.2554999
24	0x3e40b786	0.18820009
25	0x3ebc61ce	0.3679337
26	0x3df7daa0	0.12102246
27	0x3c684758	0.014177166
28	0x3d65dd5d	0.05611931
29	0x3eb3b782	0.35100943
30	0x3f075289	0.52860314
31	0x3e2d91be	0.16950127

bn5.running_mean f4 [32]
0	0x3f677051	0.90405756
1	0x3f9f8c7a	1.2464745
2	0xbf8af63e	-1.0856397
3	0x3eb5646e	0.35428184
4	0x3fe00655	1.7501932
5	0xbd2c38c4	-0.042046323
6	0xc042f3bb	-3.0461261
7	0xbfc15e32	-1.5106871
8	0xc003d409	-2.0598166
9	0x3e2276ef	0.15865682
10	0x3f480b9a	0.781427
11	0xbf86b1b3	-1.052298
12	0x3ebb1f86	0.36547488
13	0x4042d2a9	3.0441077
14	0xbf4ba072	-0.79541695
15	0x40b84b8a	5.759221
16	0xbf96cf55	-1.1782023
17	0x3f6cb422	0.9246236
18	0xbdae78e5	-0.085191526
19	0xc053b88a	-3.3081384
20	0x3f63bf84	0.88964105
21	0xbf455543	-0.77083224
22	0x3cc46b0f	0.02397683
23	0xbdb61924	-0.08891514
24	0x3f74122b	0.9534022
25	0xbf41e165	-0.7573455
26	0xbd0c048e	-0.03418403
27	0xbf8c77d5	-1.097407
28	0x3f9e6f91	1.2377797
29	0xc07bb3ef	-3.9328573
30	0xc06697d6	-3.6030173
31	0x3fc22543	1.5167621

bn5.running_var f4 [32]
0	0x406306d8	3.5472927
1	0x404de0a6	3.2168365
2	0x4079e53c	3.9046164
3	0x406a6bcd	3.6628296
4	0x4067eb9f	3.6237562
5	0x40707af9	3.7575057
6	0x40815bab	4.04244
7	0x4072fa7e	3.7965388
8	0x40a47272	5.1389704
9	0x407450aa	3.8174233
10	0x40854d28	4.1656685
11	0x404f5829	3.2397559
12	0x40388967	2.8833864
13	0x408f300b	4.4746146
14	0x408443c8	4.133274
15	0x407063f7	3.7561014
16	0x40543ce8	3.3162174
17	0x40374744	2.8637247
18	0x404c2fbc	3.1904135
19	0x402da9c1	2.713486
20	0x407872a9	3.8819983
21	0x4040b931	3.0113032
22	0x40723fca	3.7851434
23	0x4086cdb2	4.2126093
24	0x4062a8db	3.5415561
25	0x408b4f2c	4.3534145
26	0x40353510	2.8313637
27	0x404f1de1	3.2361987
28	0x40320b88	2.7819538
29	0x40a984aa	5.2974443
30	0x4087627d	4.2307725
31	0x40642d30	3.565258
