model_weights/Tiny10/CIFAR10/in4-gn4/110000.pt (torch_old, 358762 bytes, 50 tensors)

conv1.weight f4 [16, 3, 3, 3]
000000 b1 ca ad 3e 9e ec 19 bd d4 f9 b9 3e 0e 71 15 3e
       0.33943704 -0.03757917 0.36323416 0.14593908
000010 40 a8 81 bf df 3b 3e bf 57 08 89 be 19 87 f9 3e
       -1.0129471 -0.74310106 -0.26764175 0.48735884
000020 22 cc e5 be 3a 28 11 3f 03 d3 4f bd af 4a 8b 3d
       -0.44882303 0.56702006 -0.050738346 0.06801354
000030 75 71 b1 3e bf 47 09 bf 4f ed 11 bf 97 a0 b6 3e
       0.34656873 -0.536251 -0.5700273 0.35669395
000040 70 f7 b9 3f fe 06 59 3e dd 44 6d be 51 cd df be
       1.4528637 0.21194074 -0.231708 -0.4371133
000050 ba 0e d2 3e 45 3c 2f bf 80 ad 5c bf e7 8c 2a 3e
       0.4102686 -0.6845134 -0.8620224 0.16655312
000060 86 fc fa be b5 f6 45 3f fc 31 1b 3f c6 cc 29 be
       -0.49020785 0.7732957 0.60623145 -0.16582021
000070 4c 5c 3c bf 58 81 87 3e 3b 4b 9a bf c4 72 99 3f
       -0.73578334 0.2646587 -1.2054209 1.1988149
000080 6b b2 c2 3e dc ec 66 bf a3 d2 f2 bd a5 57 b5 3f
       0.38026747 -0.9020517 -0.11856582 1.4167372
000090 46 10 13 3f c1 f4 19 be 4e ac e5 be 4a 59 2a 3f
       0.57446706 -0.15034772 -0.4485802 0.66542494
0000a0 9c b8 a1 3f 73 3b 85 bf 42 84 95 bd 9a 08 43 bf
       1.2634463 -1.0408767 -0.07300617 -0.76185
0000b0 4c bf d8 be 8c 04 6c be 65 03 a7 be 61 a1 9d 3e
       -0.42333448 -0.2304861 -0.32619777 0.30787185
0000c0 20 63 cd 3e 3b f6 6e 3f ec 62 57 bf c9 43 7b 3e
       0.4011469 0.9334447 -0.8413532 0.24537577
0000d0 48 22 98 bc 23 f0 9d be f9 a3 cc bd 64 37 86 3f
       -0.018571034 -0.30847272 -0.09992213 1.0485654
0000e0 ef 52 93 3f cd 57 cb be 9c 08 3c 3f 6e 86 8b 3f
       1.1509684 -0.39715424 0.73450637 1.09004
0000f0 68 3c 2d bf 34 27 b2 bf 07 c8 ba bf 69 51 b8 be
       -0.676703 -1.3918214 -1.4592294 -0.3599961
000100 6d f2 52 bf 04 85 fc be e7 ac ac 3b 7a 6a 75 3e
       -0.8240116 -0.49320233 0.005269635 0.23966399
000110 04 0a 17 3f f5 e0 bc 3e b1 60 f1 3e 26 a6 63 3e
       0.5899966 0.3689038 0.47144082 0.2223135
000120 a5 12 dc 3e 23 8b 66 bf 9a 57 65 bf dc 54 36 3e
       0.42982975 -0.90056056 -0.89586794 0.17805809
000130 f9 e4 a1 be 8e fc 9f be 3e 90 ca 3e 51 63 4b 3f
       -0.31620005 -0.3124737 0.39563173 0.7944842
000140 d6 cb d5 3e 22 b6 32 be 5d 61 a6 be fd d5 61 be
       0.41757077 -0.1745229 -0.32496157 -0.22054286
000150 b1 60 a9 be dd 12 f4 be da 42 0b bf 77 14 e7 bd
       -0.33081582 -0.47670642 -0.5439888 -0.112832
000160 0b 17 13 bf a4 5f f9 be b3 25 b7 3c e3 8c 18 3f
       -0.57457036 -0.4870578 0.022356844 0.59589976
000170 06 28 0d 3f 62 66 2a 3f ac df c0 3f 04 70 8b 3f
       0.55139196 0.66562474 1.5068259 1.089356
000180 95 61 8f 3e c5 59 52 3f fc eb 2d 3f 29 2d ec 3d
       0.28004137 0.8216823 0.6793821 0.11532051
000190 65 4c df be 40 3e 56 be cb c7 ac be 88 bc 5a bf
       -0.43612972 -0.20922184 -0.3374618 -0.85443926
0001a0 47 da 27 bf 94 bf b3 b9 93 f9 f8 be 2d d5 99 be
       -0.6556744 -0.00034284277 -0.4862791 -0.30045453
0001b0 7a b5 1a 3d 53 43 8d bd 4c 32 5a be 24 9f 49 3e
       0.037770726 -0.06897607 -0.21308249 0.19689614
0001c0 65 17 d6 3e 0c f7 10 3e 6a 42 c4 3e b7 54 49 3f
       0.41814724 0.14156741 0.3833192 0.7864489
0001d0 b3 02 35 3e 79 08 17 3e 39 c6 db bd 31 ce 86 3d
       0.17676811 0.14749326 -0.10731167 0.06582297
0001e0 7e 75 dd be 3b 17 56 bf b9 07 00 bf 7e 3f c9 be
       -0.43253702 -0.83629197 -0.50011784 -0.39306253
0001f0 7c 61 39 bf 00 90 22 bf e9 02 1d 3e eb 14 29 3d
       -0.72414374 -0.63500977 0.15333141 0.041279715
000200 b0 da 48 3e 33 2e 5f 3e 0b 44 8f 3d f3 cf c0 3e
       0.19614673 0.21794967 0.069954 0.37658653
000210 52 aa 14 3e bf b8 44 3e d5 14 a1 3e 8b d0 f6 bd
       0.14518097 0.192111 0.31461206 -0.12051495
000220 7d 8e 8b 3e 2f a7 3b 3e d1 5a 82 3d 30 93 c7 3d
       0.27257147 0.18325494 0.06364978 0.09744871
000230 84 8e 60 3d 25 18 36 3e 00 ea cb 3c 8a e5 7f bd
       0.054823413 0.17782648 0.024891853 -0.062474765
000240 1f 77 02 be 7c e9 3b be 9f 2f 69 be b7 70 3c be
       -0.12740754 -0.18350786 -0.22772072 -0.18402372
000250 80 d2 14 bf b4 71 f5 be 0f ee 27 3e 34 29 88 be
       -0.581337 -0.4793831 0.16399406 -0.26593935
000260 6a 53 8a be 50 63 de 3d 29 99 49 3e 51 e1 aa 3d
       -0.27016765 0.10858786 0.19687332 0.08343757
000270 b3 c2 08 3d b8 98 0b be 14 99 33 be 86 b4 97 bc
       0.033388805 -0.13632476 -0.17538863 -0.018518697
000280 ba 64 78 be 38 9d aa be 65 4e 86 3d d2 e0 9c 3e
       -0.24257174 -0.33323073 0.06557921 0.30640274
000290 12 0c 3b be 0c 37 a4 bc c3 39 99 3e 83 c4 87 3d
       -0.18266323 -0.02004578 0.2992688 0.066292785
0002a0 4e b9 81 be 15 7c 59 bf 65 72 db bd f6 54 47 be
       -0.2533669 -0.8495496 -0.107151784 -0.19466004
0002b0 13 a5 7f 3e 5f 2d 17 be c9 d6 42 3d a3 ab 27 3f
       0.24965315 -0.14763401 0.047568116 0.6549627
0002c0 d1 93 cc 3e 79 2a 3c be f2 de 04 bf 2a 5c 8e 3e
       0.39956525 -0.18375577 -0.5190269 0.2780469
0002d0 0c 15 58 bd 13 e4 93 3e 03 3c 18 be 8b 8a a3 3d
       -0.052754447 0.28884944 -0.14866643 0.07985409
0002e0 c4 81 1d 3f a3 a2 b6 3e b6 11 ce be 90 6a 46 bf
       0.6152613 0.35670957 -0.40247887 -0.7750635
0002f0 5d 63 26 be 1d de 25 bf 15 26 71 bf 41 85 4b be
       -0.16248842 -0.6479204 -0.94198734 -0.19875051
000300 de 5c 63 be d1 ce 23 be 25 0a 67 3e 79 68 c9 3e
       -0.22203395 -0.15996863 0.22562464 0.3933752
000310 da ad 66 3f 43 2e 4a 3f 6e 6f 28 be d2 34 25 bf
       0.90109026 0.7897684 -0.16448757 -0.6453372
000320 25 c1 9c be 09 d3 6a 3e 31 9d 85 bd df e8 2f be
       -0.30616108 0.22932066 -0.065241225 -0.17178677
000330 b5 9e de 3e 6c 33 1f 3f 62 f8 6c 3e 0d 69 b8 bd
       0.4348046 0.6218784 0.23141626 -0.09004412
000340 ba a4 37 bf 49 74 05 bf da 78 e6 3e c1 49 9c bd
       -0.7173573 -0.5213056 0.45014077 -0.07631255
000350 a7 98 ac be 35 58 07 3f 77 fe e2 3e a6 90 35 3d
       -0.33710214 0.5286897 0.44334766 0.0443274
000360 e7 fa f7 3d 9c b4 30 3d 3a db 51 bd 49 e4 01 bf
       0.12108403 0.043140993 -0.05123446 -0.5073896
000370 7d 91 b9 bb 88 e7 ce 3e e5 73 02 bf 04 c4 1b bd
       -0.0056630955 0.4041102 -0.5095809 -0.038028732
000380 9f 0c 28 3f 85 71 63 be f8 0b 17 be 72 a1 07 3d
       0.6564426 -0.22211273 -0.1475066 0.03311295
000390 f5 a0 49 bf c8 3b 85 bd d3 ff 38 3f 52 e7 18 bf
       -0.78761226 -0.06505543 0.72265357 -0.59727967
0003a0 80 7d 34 3b 69 17 7b 3f a5 3b bc be a0 94 53 be
       0.0027540624 0.98082596 -0.36764255 -0.20662165
0003b0 f1 99 25 3e d0 3d 78 bf 6f 24 ab bd 85 07 66 3f
       0.16172005 -0.9696932 -0.083565585 0.89855224
0003c0 a5 85 39 bf 00 77 4a 3d 10 ce 9c 3f f4 27 2e be
       -0.7246955 0.049429893 1.2250385 -0.17007428
0003d0 b5 20 8a bd 8d 80 84 bd 09 87 b7 bd 25 b7 90 bd
       -0.067445196 -0.064698316 -0.08961303 -0.07066182
0003e0 cf a6 e5 3d 07 ee 04 bd c7 f2 bd bd f5 68 d2 3d
       0.11213457 -0.032453563 -0.09274822 0.10273925
0003f0 94 ee ef bc 43 12 16 3e c7 41 c1 3d 0a 36 0f bc
       -0.029288568 0.14655404 0.09436374 -0.008740911

conv1.bias f4 [16]
000000 f8 86 00 b8 6c f8 cd ba c7 93 80 39 5b 7b 18 bb
       -3.0643278e-05 -0.0015714294 0.00024524165 -0.0023266885
000010 06 6e c2 ba ec f9 82 ba 80 14 e8 3a 0a be 1d 3b
       -0.0014833815 -0.0009992695 0.0017706305 0.002406957
000020 0e 08 c3 3a 4e 62 e8 3a 45 33 bf b9 94 a7 c7 ba
       0.001487972 0.0017729492 -0.00036468558 -0.0015232437
000030 e8 63 dd 3a 27 62 21 3b 51 72 6b 39 02 bd a0 3a
       0.0016890736 0.0024625154 0.00022453933 0.001226336

bn1.weight f4 [16]
000000 e8 2a 5f 3f 41 00 4b 3f 0b 85 35 3f 73 d7 3c 3f
       0.87174845 0.7929726 0.7090613 0.7376625
000010 5a c0 44 3f fe 38 20 3f 2f 0f 96 3f 11 bf 38 3f
       0.76856005 0.62586963 1.1723384 0.72166544
000020 bb 12 4c 3f 89 37 02 3f 4a a8 08 3f 43 07 51 3f
       0.7971608 0.5086599 0.5338179 0.81651706
000030 88 95 90 3f 46 34 b6 3f 6c cb 5b 3f f3 db fc 3e
       1.1295633 1.4234703 0.8585727 0.49386558

bn1.bias f4 [16]
000000 51 47 ff 3e 61 b5 64 3f 10 b6 8c 3f b9 78 02 3e
       0.49859098 0.8933926 1.0993061 0.12741365
000010 8b 5d d5 be a7 36 48 3d 51 c3 25 bf a1 68 37 3f
       -0.4167293 0.048880246 -0.64751154 0.71644026
000020 fc 2a c3 3e c2 90 2d be 4d f3 3a 3e f3 b9 8e 3e
       0.38118732 -0.16949752 0.18256874 0.27876243
000030 e2 3b 79 3f ae cc 9b bf ac 41 0b bf e8 a5 c4 3e
       0.97357 -1.2171838 -0.5439708 0.38407826

bn1.running_mean f4 [16]
000000 7e f4 77 bd 54 2d 52 3d f0 8c 82 bc 3d 69 80 bd
       -0.0605359 0.05131276 -0.015936345 -0.062700726
000010 f1 48 c0 3c 63 fd e0 3e 5b ff b4 3d ee 10 61 bd
       0.023472281 0.4394332 0.08837768 -0.054947786
000020 c1 2f 13 bd b7 27 73 be 6c 6c ad bd 8e 3d 40 ba
       -0.035934214 -0.23745619 -0.084679455 -0.0007333391
000030 80 27 9f bc 02 ca b6 3e 4f 5d 3a be 24 c2 23 3e
       -0.019428015 0.35700995 -0.18199657 0.15992028

bn1.running_var f4 [16]
000000 57 28 65 40 20 f4 bf 3f be 33 d6 3f 42 76 70 40
       3.5805871 1.4996376 1.673454 3.757218
000010 8b 75 a4 3f 56 84 d2 40 58 ba 63 40 38 ce 72 41
       1.2848371 6.5786543 3.5582485 15.175346
000020 0a 67 82 41 f0 be 48 40 1b 3d ac 40 c7 75 41 41
       16.300312 3.136654 5.382459 12.091254
000030 0e 88 0e 40 a4 9d a6 40 8b 62 7f 40 23 d7 ba 40
       2.227054 5.2067432 3.9903896 5.838762

conv2.weight f4 [16, 16, 3, 3]
000000 36 e0 86 be ef 38 7e be 0a 5e a2 3d 76 57 39 be
       -0.26342934 -0.24826406 0.07928093 -0.1809977
000010 51 d9 f3 be ef 5c 37 bd c1 b2 60 3e 3f 61 06 be
       -0.47626737 -0.044766363 0.21943189 -0.13123034
000020 33 6e d8 3d f4 ce d3 3e 71 28 3c 3e e5 04 00 be
       0.10567894 0.4136883 0.18374802 -0.12501867
000030 50 72 39 3e 80 dc 93 3e 3f 1b cb be 21 53 06 3e
       0.18110013 0.28879166 -0.39669225 0.13117649
000040 5a c6 6e be 8f 07 d2 be 6b bb 45 be 62 18 4d be
       -0.23317853 -0.41021392 -0.19309776 -0.20028833
000050 36 9c 11 be 78 01 91 3c 60 6a c0 bd b8 d5 49 be
       -0.14219746 0.017700896 -0.093952894 -0.19710433
000060 83 1c a7 3e 90 ee 5d 3e 59 9c e9 3d 96 08 23 bd
       0.3263894 0.21673036 0.11406774 -0.03980311
000070 98 8e a7 be 66 26 80 be bd 41 33 3d 68 bd 94 be
       -0.32725978 -0.25029296 0.043763865 -0.29050756
000080 bd e6 65 be 27 ef bc 3e a6 2c c9 3b 48 dc d3 3d
       -0.22451301 0.3690121 0.0061393557 0.1034475
000090 82 aa 6b bd 1d be 34 3c 18 67 07 be 25 ba fc bd
       -0.057535656 0.011031655 -0.13222921 -0.12340192
0000a0 6d 80 90 bd 9a 16 2e be 34 bf b9 bc fa 66 03 bd
       -0.07055745 -0.1700081 -0.02267418 -0.032080628
0000b0 df ba d7 bd da ef f9 bc 2e 13 83 bc af cd 44 be
       -0.1053369 -0.030509878 -0.016000357 -0.19219087
0000c0 b8 2d 98 3d 9f 0e b6 3d 7a 58 f9 bd 9c 98 81 bb
       0.07430595 0.088895075 -0.12175079 -0.00395496
0000d0 0a bd e9 ba 2a b6 2b be 68 d2 ed 3c b0 d9 e6 3d
       -0.0017832827 -0.16768709 0.029030994 0.11271989
0000e0 5e ee 1b 3e c9 b0 dd bd 2e dd 2e be 7a cf e2 3d
       0.15227649 -0.10824735 -0.17076561 0.11074729
0000f0 0b c7 6b bd 5d 0f 12 be 07 c9 e1 bd 1d 01 2d be
       -0.05756287 -0.14263673 -0.11024671 -0.16894956
000100 1f 09 ec bd eb 83 39 3e 74 40 b0 be 73 7c a8 be
       -0.11525177 0.18116729 -0.34424174 -0.32907447
000110 1c 39 35 bd 76 e5 a0 be ea 4b a8 be 6f db bb bd
       -0.044243917 -0.31425065 -0.32870418 -0.09172713
000120 00 71 bd 3c 01 12 e7 bd 9a 53 cb be 19 1c a3 3d
       0.023125172 -0.11282731 -0.3971222 0.079643436
000130 95 36 ac 3d a2 8e 93 3d f4 e6 e0 3d 8d a5 c3 3e
       0.08408848 0.072049394 0.10981551 0.38212243
000140 e0 ff 8c 3e fc 10 47 3e c6 13 3a 3e 4c 19 91 3d
       0.27538967 0.19440073 0.18171605 0.07084903
000150 3f b3 6f 3e 55 29 82 3e 0b 41 1f 3e c6 20 10 3e
       0.2340822 0.2542216 0.15552156 0.14075002
000160 68 0a 47 3e e9 ec 0e 3e df e2 2f 3e 3f f2 5b 3e
       0.19437563 0.13957562 0.17176388 0.21479128
000170 b1 f3 b8 3d dc 85 c9 3d 8f 2e e5 3d 46 b1 5a 3d
       0.090308554 0.09839985 0.11190521 0.053391717
000180 8f 00 2a 3e 1a 46 20 3e 28 5f 39 3e 71 9f 94 3d
       0.16601776 0.15651742 0.18102705 0.072569735
000190 ba 8c 7b 3e 1b ed c6 3e 41 38 8b 3d cc 82 4b bd
       0.24565402 0.38852772 0.06797839 -0.049685284
0001a0 df 4c 24 3d 93 3c 9d 3d 6f 97 54 be db 38 89 be
       0.040112372 0.07677569 -0.20760892 -0.2680119
0001b0 ce 3e 9e bd f1 62 c3 bd 2f f3 43 3e b5 c7 88 3c
       -0.07726823 -0.09540356 0.19135736 0.01669679
0001c0 4b d8 8d be 3e da 69 3e f3 98 03 3e 03 56 62 3e
       -0.2770408 0.22837159 0.12851314 0.22103123
0001d0 e6 13 67 be 77 55 d1 3d 23 35 a7 3d 24 0d d7 3d
       -0.22566184 0.10221379 0.08164432 0.10500553
0001e0 07 5a cf bd 6b b5 21 bc 96 34 27 3d aa 74 79 be
       -0.10124593 -0.009869914 0.040821634 -0.2436091
0001f0 58 3a 1d be 69 2c d1 bd 6c 82 43 3e b0 04 53 3d
       -0.15354288 -0.10213549 0.19092721 0.051518142
000200 85 4f 43 bd ed 8a 2a 3e f8 d8 0c 3d a0 77 98 bd
       -0.047683258 0.16654558 0.034386605 -0.07444692
000210 ae 3f 40 bd d2 19 f7 bd 5e bc 22 be f4 fe e6 bd
       -0.04693573 -0.12065472 -0.15892169 -0.11279097
000220 d5 59 53 be 3d 79 08 be c0 ea 03 be f2 6a 4f be
       -0.20639737 -0.13327499 -0.12882519 -0.2025564
000230 3c d5 21 be 8d 88 2e bd 5c e8 ac bd 84 4e b2 bd
       -0.15803999 -0.042610694 -0.084427565 -0.08706382
000240 a9 65 9a 3d 52 b2 16 3e 4e c6 c9 b9 c1 48 9a bd
       0.075389214 0.14716461 -0.00038485456 -0.07533408
000250 2c 23 53 3d 32 29 d4 ba 37 81 35 3d 0f e4 c4 bd
       0.051547214 -0.0016186594 0.044312682 -0.09613811
000260 9f 14 28 be 44 57 8d be 56 88 ca bd c3 ef a8 3e
       -0.16414116 -0.2760564 -0.09889285 0.32995424
000270 2f 2b 28 be 1e 8b 17 bf 2b a0 24 3e 4d 6f 9e 3e
       -0.16422723 -0.5919665 0.16076724 0.3094429
000280 34 96 c2 be 6d 9c 83 bd ab eb 24 bf 31 b1 4b 3e
       -0.3800522 -0.0642632 -0.644221 0.19891812
000290 a5 80 ce 3e 17 f1 4c bf d9 f4 e9 be 0a fa 0d 3f
       0.40332523 -0.80055374 -0.45694616 0.55459654
0002a0 89 70 d4 3e d0 a7 37 bf 4b f8 13 be 6f 57 a0 be
       0.41492108 -0.71740437 -0.14450185 -0.31316707
0002b0 9d 08 c2 bb ef 62 04 3f 98 12 ff bd c7 48 36 be
       -0.005921437 0.5171346 -0.12454718 -0.178012
0002c0 32 84 2c 3e 4a 58 7e 3e 9e 31 68 be a8 2d 88 be
       0.16847304 0.24838367 -0.22675177 -0.26597333
0002d0 7e 1b d1 bd a6 52 a5 bd 4b 40 24 be a9 ec 90 3c
       -0.10210322 -0.080724046 -0.16040151 0.017690973
0002e0 b8 6c 0d ba 79 ea 40 be b4 8a 2b 3e 36 6e 77 3e
       -0.00053949235 -0.18839444 0.1675213 0.24163136
0002f0 6e 53 69 bc 4b 7a 6b bd 33 8b c6 bd 0d af 8d bc
       -0.014241083 -0.057489675 -0.09694519 -0.017295385
000300 af b7 11 3c 2d 7d 63 be ae dc 6a be af 3b 9c 3e
       0.008893891 -0.2221572 -0.22935745 0.30514285
000310 43 a9 76 3d cf a4 67 bd 7e 1b ca bd 1f cc 7a 3e
       0.060220014 -0.056553658 -0.09868525 0.24491929
000320 ea b9 8f bd 1c 44 b6 be 42 a8 9a bd dd 9e ec bd
       -0.07017882 -0.35598838 -0.07551624 -0.11553738
000330 63 44 1b bd ea c4 f4 bd 38 00 7e bb f3 21 24 3e
       -0.037907016 -0.11951621 -0.0038757455 0.16028576
000340 10 19 03 3d bd c5 2b be c4 09 8a bd 9d 1f 13 be
       0.032006323 -0.1677465 -0.06740144 -0.14367528
000350 f9 c1 6c 3d 00 95 b9 3d 4a cd a2 be ec af 9f bd
       0.057802174 0.090616226 -0.31797248 -0.07797226
000360 44 74 81 bd 2c 47 2c 3e 4d c6 30 be c4 36 eb 3d
       -0.06321004 0.16824025 -0.17263146 0.11485055
000370 9a 19 e8 3d e2 a7 37 bd ea b1 ef 3c bd e4 1f 3e
       0.11333008 -0.04483784 0.02925964 0.156146
000380 09 36 11 3d fe 1e 1d 3d 5b a4 d4 3d 07 8e a5 3d
       0.035451923 0.038359635 0.10382911 0.0808373
000390 11 4c 67 bc ea 2a 8a 3d 99 48 a1 3d 5e 0f 1d bd
       -0.014117257 0.067464665 0.07875175 -0.038344733
0003a0 22 93 81 bc 7c 77 34 3d 07 05 3e bd 78 20 3a 3e
       -0.015817229 0.04405926 -0.046391513 0.18176448
0003b0 c9 b1 8d 3d 8b e1 ef be 94 de 26 be f3 0c d8 3d
       0.069186755 -0.46851763 -0.16295844 0.10549345
0003c0 46 ba c8 be 58 27 a3 be bf bf 5c 3d de 01 72 be
       -0.39204615 -0.31865954 0.0538938 -0.23633525
0003d0 3f 42 78 3e 42 78 b4 3d ce 72 49 be b6 fa 21 3b
       0.24244021 0.08812 -0.19672701 0.0024716086
0003e0 19 8c fe 3d 18 4a 19 3e 80 86 ea bd 70 32 44 be
       0.12429065 0.14969671 -0.11451435 -0.19159865
0003f0 3a 20 50 be c8 58 44 be 0e d2 48 3e db 4a 3d 3c
       -0.20324793 -0.19174492 0.1961138 0.0115534915

conv2.bias f4 [16]
000000 f3 71 dc 39 46 19 af 39 92 8e a9 39 ee 65 78 ba
       0.0004204657 0.0003339743 0.00032340415 -0.0009475638
000010 cd 68 f3 b9 e5 61 fb b9 64 97 23 b8 3b 6f 5f b9
       -0.00046426654 -0.00047947388 -3.9003222e-05 -0.00021308374
000020 85 74 bf b9 18 10 c8 39 55 bb 89 39 ca 3c c9 39
       -0.00036517173 0.00038158963 0.0002627025 0.00038383
000030 ab 79 d1 39 74 2c a6 b9 76 48 cb 39 a8 41 8b ba
       0.00039954236 -0.00031695107 0.00038773165 -0.0010624425

bn2.weight f4 [16]
000000 32 4a 29 3f 37 eb 7c 3f 5c 36 61 3f 4e f9 62 3f
       0.6612884 0.9879641 0.8797357 0.8866166
000010 66 4b 93 3f c7 93 35 3f 88 41 43 3f 54 9f 88 3f
       1.1507385 0.70928615 0.7627187 1.0673623
000020 33 15 85 3f 36 0f 90 3f fe 97 80 3f 38 18 72 3f
       1.0397094 1.1254642 1.0046384 0.94568205
000030 9e 6c 81 3f 71 61 77 3f 54 d3 8a 3f b2 ee 6f 3f
       1.0111272 0.9663306 1.0845742 0.93723595

bn2.bias f4 [16]
000000 0b 5e 05 3f 82 b3 d2 be 7c 30 2e 3f af 54 44 bd
       0.52096623 -0.4115258 0.6804273 -0.047932323
000010 f4 5e 70 bd ce 2d 41 3e a6 9a 8d 3e 18 83 81 bc
       -0.058684304 0.1886513 0.2765705 -0.01580958
000020 d5 25 55 3f 7d 33 27 3f 2a 8f 1d 3f 5e d0 33 be
       0.8326085 0.6531294 0.61546576 -0.17559955
000030 81 96 6a be ba 69 82 bd b1 60 29 3f 20 48 59 bd
       -0.22908975 -0.06367822 0.66163164 -0.0530473

bn2.running_mean f4 [16]
000000 28 da d9 bf 71 d1 36 c0 84 54 4d c0 93 97 a7 bf
       -1.7019701 -2.8565333 -3.2082834 -1.3093132
000010 f3 0d 0e bf 72 75 b1 3e ad 4e 4d c0 50 84 06 3e
       -0.55490035 0.34659916 -3.207927 0.1313641
000020 cc 50 ea bf ce ee cd 3d a6 8c b8 bf 26 9d 2e bf
       -1.8305907 0.10055314 -1.4417922 -0.6820854
000030 8a d3 64 bf 23 48 f3 3d 8f c2 ac bf 87 d7 5c be
       -0.89385283 0.11878993 -1.3496875 -0.21566592

bn2.running_var f4 [16]
000000 bc 40 69 40 e1 89 eb 3f c3 99 a2 40 db b4 6e 40
       3.644576 1.8401452 5.0812697 3.7297885
000010 62 0a 26 41 30 51 02 40 b5 07 5f 40 bd 79 18 41
       10.377535 2.0362053 3.4848454 9.529721
000020 e1 a1 ab 40 7b 69 bd 40 3b e4 5f 40 37 02 51 40
       5.3635106 5.919126 3.498305 3.2657602
000030 24 84 60 40 11 6b 4e 40 e3 46 47 40 a7 6a 8e 40
       3.5080652 3.2252848 3.1137016 4.450519

conv3.weight f4 [32, 16, 3, 3]
000000 54 b8 7b be 81 0b 0d 3e 26 72 e5 3d 20 47 59 3d
       -0.24582034 0.1377392 0.11203413 0.053046346
000010 19 a4 f4 3d 1b ff 4a 3e 62 06 0e 3e 56 ca d4 3d
       0.11945362 0.19823878 0.13869622 0.10390155
000020 a2 36 a9 3d dd b2 a3 bc e4 15 ad bd af 16 0c be
       0.082623735 -0.01998275 -0.08451441 -0.13680528
000030 59 0a 10 be 8a 1e aa be ff 00 7b be 2a 8d 84 be
       -0.14066447 -0.33226424 -0.24512099 -0.2588895
000040 23 60 b5 be ae 32 49 be 19 f0 68 3d 13 e8 fa 3e
       -0.3542491 -0.19648239 0.0568696 0.49005184
000050 ab 39 20 3f 76 87 00 3f 0b 31 9a 3e ba 39 25 3e
       0.62587994 0.50206697 0.30115542 0.16135302
000060 a1 91 ca 3e c1 6e 1c 3d a3 56 7b be ca 25 3a 3e
       0.3956423 0.03819156 -0.24544768 0.18178478
000070 a5 b5 5d 3e 19 06 cd 3d e4 24 ff 3d f0 b8 96 3d
       0.21651323 0.10010929 0.12458208 0.07359493
000080 7a 9d 3f bd 84 49 5b 3d 04 55 3c bd 92 7f b7 bd
       -0.04678104 0.053536907 -0.045979515 -0.08959879
000090 3e 2c 19 be ef 56 bf bd d5 09 1f bd ee 39 dc bd
       -0.14958283 -0.09342753 -0.038827736 -0.10753237
0000a0 3e 4d 33 3e 0b 59 36 3d 6f 65 51 3e d7 4d 56 3e
       0.17509934 0.04451851 0.2044885 0.20928131
0000b0 ea db ee 3d 8c 57 1d 3d dc 80 59 bc 6d a9 36 3d
       0.11663039 0.03841357 -0.013275351 0.04459517
0000c0 56 43 e8 3d 79 c7 31 3e 3f f8 9f 3e 6d 7a 2d bd
       0.11340968 0.17361249 0.31244084 -0.042353082
0000d0 d8 5c 52 bb 55 13 11 3d 42 25 17 3e e8 7e 9c bd
       -0.0032098796 0.035418827 0.14760306 -0.07641393
0000e0 6f 61 c7 bd e3 66 bb bd 04 94 7c be 56 34 09 bd
       -0.09735381 -0.091504835 -0.24665838 -0.033497177
0000f0 f0 cd da bd 28 2a 74 bd e6 33 9e 3c d7 c5 8b bd
       -0.10683811 -0.059610516 0.019311856 -0.06824844
000100 94 40 f0 bc be a2 0f 3e d5 07 1d 3e 72 b6 6c 3c
       -0.029327668 0.14026925 0.15335019 0.014447795
000110 cc 43 3a 3d ad 59 8d 3c 52 68 42 3b 74 3d f4 bd
       0.045474812 0.017254675 0.002966423 -0.11925784
000120 e3 ec 70 3e f8 5e 98 3e 46 0c 46 3e 07 31 4c 3e
       0.23527865 0.29759955 0.1934062 0.19940577
000130 8d 34 86 3d 3f 81 59 bd b7 90 aa 3d 68 3d 1f be
       0.06552992 -0.053101774 0.083283834 -0.15550768
000140 54 80 da bd da a8 a4 3e fb 9d 78 3e b7 ff 08 3e
       -0.10669008 0.32160074 0.24279015 0.13378797
000150 79 6e 94 3e 05 9d 11 be af e1 9a be c1 ee 71 be
       0.28990534 -0.14220054 -0.30250308 -0.23626234
000160 70 af d1 be 0a 4b 9a be 13 f9 ac 3d 29 5e 9d 3d
       -0.4095416 -0.30135375 0.08445945 0.07683975
000170 a7 5e a7 3d a7 97 ba 3e 0b 3e 96 3e 7d 74 0d 3e
       0.081723504 0.36443827 0.2934421 0.13813968
000180 4d c0 88 3d 3a 36 a6 bd 78 67 6b be 3a 7f 22 3c
       0.066773035 -0.08115812 -0.22988689 0.0099180285
000190 66 9a a9 3d 86 8f 21 3d cf 30 83 3a 14 69 ed 3d
       0.08281402 0.039443515 0.0010009053 0.11592308
0001a0 ee be ec 3d f8 b3 4f 3d ab a9 09 bd 0b 2b 0a 3d
       0.115598544 0.05070874 -0.033609074 0.033732455
0001b0 ce e5 18 3e ac 37 11 bd 00 4f 9d bb e4 8e 80 bc
       0.14931414 -0.035453483 -0.0048006773 -0.015693136
0001c0 b5 8b 3a 3d 53 cb ff ba de 7d 33 3d f6 d5 1d 3e
       0.04554339 -0.0019515551 0.04382121 0.15413651
0001d0 99 12 e3 3d 3a 39 f6 bd f9 74 b8 3d 42 66 6a 3e
       0.110875316 -0.12022634 0.09006686 0.22890571
0001e0 03 21 21 3e b7 29 ca 3d 00 88 70 bd be e0 9a 3e
       0.15735249 0.09871238 -0.05872345 0.3024959
0001f0 32 c9 69 bd 22 0c 8a be 22 f9 9e be 4f 0f 4c 3d
       -0.05707664 -0.26962382 -0.31049448 0.049819287
000200 65 e7 a9 3e 67 ed 45 be d8 20 51 3e 85 86 5c 3e
       0.33184353 -0.19328843 0.20422685 0.2153569
000210 15 11 e4 3d 17 21 65 3e 4b bd 5f bb 95 70 00 be
       0.11136071 0.22375904 -0.0034139927 -0.12542947
000220 d8 17 62 3d 8a 86 e8 3d 81 d8 ac bd c9 c7 2f 3d
       0.05519852 0.11353786 -0.08439732 0.04291514
000230 8a 9e e4 3c ca 65 f1 bd 15 4c 0e be 53 33 12 be
       0.027907629 -0.11786993 -0.1389621 -0.14277391
000240 90 14 2f 3d e5 eb 8e 3d bf fd bf 3d 44 35 7b bc
       0.04274422 0.06978587 0.0937457 -0.015332524
000250 11 db 6c bc 1e 59 3e bc 16 00 2a be 90 1c e5 bd
       -0.014456526 -0.011617927 -0.16601595 -0.111870885
000260 2f b5 91 bd 6c 4c e6 bd 93 48 db bd f4 ec e6 3d
       -0.07114636 -0.11245045 -0.10707202 0.11275664
000270 e8 cb ee 3b ae 03 21 3d 46 d3 da 3d ab ab 3b bc
       0.007287491 0.03931015 0.106848285 -0.011454503
000280 89 ce d0 3d 94 48 f4 3d db ca 2e be 20 b9 ae bd
       0.101956435 0.11927906 -0.1706957 -0.085314035
000290 ee f7 c1 3d e0 df 85 be 96 ea cf bd fa 40 04 3d
       0.09471117 -0.26147366 -0.101521656 0.03228853
0002a0 cf b9 15 be d3 28 79 bd 09 f2 78 3d 55 28 14 be
       -0.14621662 -0.06082995 0.060777698 -0.1446851
0002b0 c9 d6 1e be c3 8f fc bd 15 ed 6e bd 63 01 f5 bd
       -0.15511622 -0.12332108 -0.058331568 -0.11963155
0002c0 dc 5a 35 be 2c 5d 0f 3d 24 c0 4c bc fa 3d e7 bc
       -0.17710441 0.035000965 -0.012496982 -0.028227795
0002d0 aa 13 55 bd 7a 38 e9 bd 75 91 bd 39 20 0f d6 3d
       -0.052020706 -0.11387725 0.00036157263 0.104521036
0002e0 69 31 0a 3e 57 d1 86 bd bf ad 7f 3d 6d 9c a7 3d
       0.13495411 -0.06582897 0.062421557 0.08184133
0002f0 13 48 0e be 8b 3e b3 3d b2 9c e4 3d 97 9b 82 3d
       -0.13894682 0.087521635 0.111627 0.06377333
000300 3d dd 41 3d 11 ca 80 3c 13 19 0a bd de d0 06 3e
       0.04733013 0.015721353 -0.03371532 0.13165614
000310 dd e6 c0 3c 3e 3e 92 bd fc 07 ab bd 2e b2 43 3e
       0.023547584 -0.07140778 -0.08351132 0.19110939
000320 dc 26 29 3e c2 5e 9d bd ad 92 b9 3d c1 6a 3a 3e
       0.1651873 -0.07684089 0.09061179 0.18204786
000330 ea e6 d2 bd 7e 1d c0 bd bb 21 2d 3c 64 dd 10 bc
       -0.102979496 -0.09380625 0.010567124 -0.008841846
000340 40 19 56 3a e7 db 4f 3e c5 52 2a 3c cb fb 40 3b
       0.00081672147 0.2029873 0.01039571 0.0029446955
000350 bf 17 40 3e c6 2e 60 3d 70 63 08 3e ea 8f 57 3e
       0.18759058 0.054732107 0.13319182 0.21050993
000360 24 a2 0e 3e 20 bc 19 3e e5 aa c7 3d 1a dc 6a be
       0.13929039 0.1501317 0.097493924 -0.22935525
000370 50 c1 d8 bd 86 8c 76 bd c5 ab 99 be 6a 0b ab be
       -0.105837464 -0.060192607 -0.30013862 -0.33407146
000380 9f 4c 8e be dc 01 ff 3d a1 27 14 3e f3 5f af 3d
       -0.27792832 0.124515265 0.14468242 0.08563223
000390 f4 24 23 3c 3d da 5e be 29 68 19 bd 37 37 f3 bd
       0.009957541 -0.21762939 -0.03745285 -0.11875766
0003a0 91 6f 48 be 08 e5 1e be ab c1 d3 3c 48 9b c9 3d
       -0.19573809 -0.15517056 0.025849184 0.09844071
0003b0 f2 d3 0c 3e 7d f4 f3 bd 80 e2 a1 3c 0a 06 39 3e
       0.13752726 -0.11911867 0.019761324 0.1806871
0003c0 8f 8c de bd 47 58 b3 3c a8 d5 08 3e 0f d9 18 be
       -0.10866653 0.02189268 0.13362753 -0.14926551
0003d0 3f 50 93 be 75 99 6b be da 91 b5 be 2c 6c 10 bf
       -0.2877216 -0.23007758 -0.35462838 -0.5641506
0003e0 85 70 eb be 20 17 d0 be da 0d c9 be 73 7e 97 be
       -0.45984283 -0.40642643 -0.3926838 -0.2958866
0003f0 31 40 07 3b 75 03 b9 bd 46 1c 73 bc cc b7 56 bd
       0.0020637626 -0.090338625 -0.014838284 -0.052421376

conv3.bias f4 [32]
000000 40 bf e3 39 f0 97 77 ba c6 39 7b 39 1e 67 7a ba
       0.00043439306 -0.00094449427 0.00023958748 -0.0009552109
000010 fe 07 c4 39 d5 59 69 3a c5 b0 67 ba 4a 7e e8 b8
       0.00037389988 0.00089016306 -0.00088382914 -0.00011086145
000020 47 52 15 3a d6 77 99 38 25 bd d6 39 44 1a cd b9
       0.0005696159 7.31793e-05 0.00040958184 -0.00039120216
000030 33 f6 12 3a 18 82 7f 3a fc 98 52 b9 75 da 43 3a
       0.00056061446 0.00097468635 -0.00020084152 0.00074712123
000040 bc d7 5f ba 1d 6b c9 b9 7a bb d6 b9 55 3e c2 39
       -0.0008538922 -0.00038417513 -0.00040956942 0.00037049004
000050 41 1f 8e ba 84 b5 9f 39 82 47 86 39 45 c4 83 3a
       -0.0010843055 0.00030462083 0.0002561175 0.0010053
000060 a4 95 72 39 a5 37 63 3a 7f c4 05 b7 18 35 78 b9
       0.00023134664 0.00086676545 -7.973168e-06 -0.00023670902
000070 ca 3c 54 39 f0 32 37 3a f9 88 3a ba ce d3 d5 39
       0.00020240541 0.0006988486 -0.00071157474 0.00040784333

bn3.weight f4 [32]
000000 2a ba 78 3f 59 06 38 3f 10 db 89 3f b0 1b 45 3f
       0.97159064 0.71884686 1.0769978 0.7699537
000010 7f 6d 78 3f aa 12 a0 3f 91 0f 7a 3f db 45 3a 3f
       0.9704208 1.2505696 0.9768 0.7276284
000020 1e 4f 6b 3f ae 2d 6b 3f 78 b3 84 3f 77 be 7f 3f
       0.919176 0.91866577 1.036727 0.999
000030 1b d5 46 3f 5b bb 47 3f 64 55 88 3f d0 5c 2b 3f
       0.77668923 0.78020257 1.0651059 0.66938496
000040 80 43 72 3f 72 14 93 3f c3 f9 73 3f cd a4 76 3f
       0.94634247 1.1490614 0.9530298 0.96345216
000050 86 c2 5c 3f 22 72 66 3f d3 28 33 3f 3a fb 96 3f
       0.8623432 0.900179 0.6998417 1.1795418
000060 7a b7 35 3f ea bf 6f 3f a3 8b a7 3f 50 7a 7a 3f
       0.7098309 0.9365221 1.3089489 0.97842884
000070 4a 1c 29 3f 00 5e 54 3f 4b 85 3b 3f 83 a3 7f 3f
       0.6605879 0.8295593 0.73250264 0.99858874

bn3.bias f4 [32]
000000 23 0c 94 bb da 94 07 3f d3 58 13 bc 72 64 d9 bd
       -0.0045180484 0.52961504 -0.008993345 -0.106148615
000010 16 b5 f7 bd 41 aa fb bd 6e fe fa bd 9f 7f b1 3c
       -0.12095086 -0.12288333 -0.1225556 0.0216673
000020 03 4a 30 be 1e da 4a bd e3 b7 2f bd 76 b9 3b bc
       -0.17215733 -0.04952442 -0.042899977 -0.011457792
000030 a9 90 6e bc 51 d3 08 be 55 77 22 bd 31 41 a1 bc
       -0.014560857 -0.13361861 -0.039664585 -0.019684406
000040 3b 98 bc bd 20 c4 0a bd 2b c2 82 bd 1b 37 a8 bd
       -0.09208723 -0.033878446 -0.06384691 -0.082136355
000050 65 a6 59 bd 0f d6 08 3e 5a 6e c8 3e cb ad ab bd
       -0.0531372 0.13362907 0.39146692 -0.08382758
000060 53 e7 50 3e d9 c0 96 be 4e 38 40 3c fb ac fa bc
       0.20400743 -0.29444006 0.011732174 -0.030600062
000070 ee 85 de 3e b8 d5 a8 bd e8 2e 06 3d 80 88 30 be
       0.43461555 -0.082438886 0.032759577 -0.1723957

bn3.running_mean f4 [32]
000000 d4 6f 80 40 fa 3f 45 c0 24 2c df 3e b7 85 ad 3e
       4.013651 -3.0820298 0.43588364 0.3389108
000010 b6 31 4a bf 92 30 31 bf 97 e1 06 bf 41 9e 6b 3f
       -0.789821 -0.6921474 -0.5268797 0.9203835
000020 d4 ae 30 bf a5 4b 66 bf b3 d6 9b be 05 42 76 3f
       -0.69016767 -0.89959174 -0.3043724 0.9619449
000030 ac 91 d6 3e f2 24 14 c0 b4 5e e3 3f df 58 60 3d
       0.41908014 -2.314755 1.7763276 0.054772254
000040 8c 35 11 c0 40 ca 28 3d 72 c7 dd bd 9f 39 7e bf
       -2.2688932 0.041208506 -0.10829057 -0.9930667
000050 8c 21 a4 3e cf fd 06 40 d2 48 13 3f 02 a7 64 bf
       0.32056844 2.1092412 0.5753299 -0.89317334
000060 6f 08 5b 3e a4 5a 0b 3e 2f b1 60 c0 f9 cc a1 bf
       0.21389936 0.13608795 -3.5108144 -1.2640678
000070 95 95 b1 3f d6 64 df be 99 74 35 40 3c 60 04 c0
       1.3873774 -0.4363162 2.8352416 -2.0683737

bn3.running_var f4 [32]
000000 33 09 a7 40 91 e2 4c 40 24 4d b3 40 5a 4f ef 3f
       5.219873 3.2013285 5.6031666 1.8696091
000010 a4 b6 5e 40 19 eb 24 41 41 0b 5a 40 ba e0 00 40
       3.4798975 10.307397 3.406937 2.0137162
000020 45 8c 45 40 7a d4 86 40 8b b4 87 40 bb b6 81 40
       3.0866864 4.213437 4.240789 4.053556
000030 60 a9 35 40 3d 9b 06 40 0e e1 6d 40 df f1 a4 3f
       2.8384628 2.103225 3.7168612 1.2886313
000040 6c 5a 7d 40 ab 7e dc 40 1e d6 71 40 4e 1e 69 40
       3.958644 6.8904624 3.7786937 3.6424747
000050 a8 60 50 40 4d 1c 55 40 4d 9c 58 40 12 e7 1e 41
       3.2558994 3.3298523 3.3845398 9.931414
000060 55 1e 12 40 d0 cd f3 3f dc a9 cd 40 ef 4d 85 40
       2.2831013 1.9047184 6.426985 4.1657634
000070 68 e7 29 40 21 5b 24 40 37 28 12 40 bc 95 6d 40
       2.654749 2.568062 2.2837045 3.712264

conv4.weight f4 [32, 32, 3, 3]
000000 ab 96 6f be 60 44 fb 3d e5 74 0d 3d 95 39 ed bd
       -0.23397319 0.12268901 0.034535307 -0.115832485
000010 ac 3e 1b bd 57 7d 8e bd 6f c9 28 3d 71 14 d6 bc
       -0.037901565 -0.069575004 0.041207727 -0.026132794
000020 06 37 cb bd 4e da c5 bc 7d 64 ae bc e8 56 ad bc
       -0.09922604 -0.024151947 -0.02128815 -0.021159604
000030 be 70 42 be 9c 02 dc 3c 68 db 99 3e 2d d9 14 be
       -0.1898832 0.026856713 0.30050206 -0.14535971
000040 d5 75 37 3b 5f b9 8d 3e 2b 7e fd 3d 61 ac a8 3d
       0.0027993817 0.2768049 0.1237758 0.08236004
000050 c5 da d2 bd 03 7c b9 3e 51 a7 ea bd e0 70 f2 be
       -0.10295633 0.36227426 -0.11457694 -0.47351742
000060 64 5d 00 3f bf 7f f2 3c c1 e9 ce be 67 b6 14 be
       0.501425 0.02960193 -0.40412715 -0.14522706
000070 10 d0 57 bd e3 6d 9a 3d 02 f7 c4 3d ae 0b 70 bd
       -0.05268866 0.075404905 0.096174255 -0.05860489
000080 84 b5 15 be 22 b4 7b 3e a8 d4 1a be c8 a3 80 be
       -0.14620024 0.24580434 -0.15120184 -0.25124955
000090 6e cf 04 be fb 65 b6 3d 38 3a 9d 3e 9d 33 0d be
       -0.12969753 0.0890617 0.3070848 -0.1378922
0000a0 37 99 53 3d c2 88 bb 3d ac 62 35 be 49 f5 85 3d
       0.05165979 0.09156944 -0.17713422 0.06540925
0000b0 6b b2 53 3e 4b b5 89 3c 06 db 07 3e c1 6c b2 3e
       0.2067353 0.01681008 0.13267145 0.34848598
0000c0 e5 5a 05 be 14 a9 16 bd ba 6e 90 3e 1b 2d ee bd
       -0.13022955 -0.03678234 0.28209478 -0.11629697
0000d0 80 c1 81 3d 7d 43 9f 3e 2e ce 64 3e bf 71 de bc
       0.06335735 0.31106177 0.22344276 -0.027153848
0000e0 3a 7f 82 be 8e 3b 85 3e b8 bc 3d be 0f 36 cd be
       -0.2548769 0.26022 -0.18529022 -0.40080306
0000f0 6c 0c 83 3e 9b e5 d7 bd 75 84 b5 be 61 9a f6 3c
       0.25595415 -0.10541841 -0.3545262 0.03010291
000100 56 46 4f bd 76 c5 01 bd 1a 3e 31 3e 46 c2 4a bd
       -0.050604187 -0.031682454 0.17308846 -0.04950168
000110 4d 7a b7 3c 89 ea 60 3e d6 b4 ba 3c 44 ef bf bd
       0.022397185 0.21964468 0.022791307 -0.09371808
000120 f5 1d e3 bc 4f 5d 47 3e f2 e4 06 bd 7e 57 9a bd
       -0.027724246 0.19469188 -0.032933183 -0.07536219
000130 8a a0 bd 3d 7f 70 50 3e a6 ff 58 be d5 67 03 bb
       0.09259136 0.20355414 -0.21191272 -0.0020050902
000140 d1 f5 c6 3e 85 ab 4f 3e d1 68 17 bd f2 c4 96 bd
       0.38859418 0.20280273 -0.036965195 -0.07361783
000150 cd d2 59 3e ea 6d c3 bd 0b ea 98 be ac 27 bd 3e
       0.2127182 -0.09542449 -0.2986606 0.3694433
000160 23 34 c7 bd cb f3 8d be 32 79 fe bd bb e3 36 3c
       -0.09726741 -0.27725062 -0.1242546 0.011162694
000170 34 62 0c 3e 64 b9 e8 bd 0e 7b e0 3d 63 96 4b 3e
       0.13709337 -0.113634855 0.10960971 0.19881587
000180 a6 1b 5b be d3 2e be 3c 01 98 74 3e 70 d3 a9 3d
       -0.21397266 0.023215687 0.2388611 0.08292282
000190 ca 8d 79 bd 2b 6b 7b 3b 3b ce 14 3e d5 42 3a be
       -0.060926236 0.0038363438 0.14531796 -0.18189557
0001a0 96 d0 79 be d8 9f c3 3e 41 fb 51 be 73 4d 4d be
       -0.24395975 0.3820789 -0.20506002 -0.20049076
0001b0 1d a8 03 be 09 bb 2c 3d 16 0f a2 3d e6 3c ac bd
       -0.12857099 0.042170558 0.07913034 -0.08410053
0001c0 5e 0e d2 bd cb 6a b3 3c 2b 4d 57 bd 49 48 c0 bd
       -0.102566466 0.021901509 -0.052563827 -0.09388787
0001d0 b1 18 20 be 1a 1e ee 3b 1c 71 e4 3d 56 56 44 be
       -0.15634419 0.007266772 0.111543864 -0.1917356
0001e0 6f ba 83 3e 9d c2 2d 3e f8 f4 d1 be c4 78 db 3e
       0.25728175 0.1696877 -0.4100721 0.42865574
0001f0 2f 4b 29 3e 80 94 af be 6c e6 35 be 78 9f b9 3d
       0.16532587 -0.34292984 -0.1776368 0.090636194
000200 65 65 f3 3d 40 c2 0f bd c8 5a 05 3d 04 cb 80 3e
       0.11884574 -0.03509736 0.03255728 0.2515489
000210 a2 a8 15 be f3 45 9f bd b7 d7 94 3e 41 e7 05 3c
       -0.1461511 -0.07777014 0.29070827 0.008172811
000220 e8 7d 6f 3b 9e c1 fa bc bf c0 3a 3e 0e a6 d6 3d
       0.0036543552 -0.030609902 0.1823759 0.10480891
000230 77 49 00 be 51 82 e9 3d c9 23 a9 bd dc ea aa be
       -0.12528025 0.11401809 -0.082587786 -0.33382308
000240 8d fb 97 3c 23 05 d1 bd 8f 1b 69 b9 1c 73 be bd
       0.018552566 -0.10206058 -0.00022230878 -0.09299299
000250 97 24 17 bd d6 1b a7 bd f8 fe 2f be 3e 2a 48 3d
       -0.03690013 -0.08159606 -0.17187107 0.04886841
000260 72 7c ff 3d 22 96 66 3e 42 42 80 bc 83 3c 57 be
       0.12474908 0.22518209 -0.015656594 -0.21019177
000270 b2 75 01 3f 53 a1 9d bd 2f 5c 30 bf f8 1d e0 3e
       0.50570214 -0.07696786 -0.6889066 0.43772864
000280 1f f2 a4 3d 8f 62 97 be 47 33 a4 be 43 c9 45 bd
       0.080539934 -0.29567382 -0.32070372 -0.04828764
000290 b1 ed 56 3d 5f f9 59 bd 85 0d 21 be e6 47 12 be
       0.052472774 -0.053216334 -0.15727814 -0.1428524
0002a0 23 52 ea bc c3 c4 37 3a bf a2 32 be d2 0d aa be
       -0.028603619 0.0007010216 -0.17444895 -0.3321367
0002b0 8f c2 1c be 52 df 8d bc 48 6c 08 be f6 66 80 bd
       -0.15308593 -0.017318401 -0.13322556 -0.06269638
0002c0 6b c7 0e be 39 31 2d bd ee 72 62 bc cf 96 e2 bd
       -0.1394326 -0.04228327 -0.013821347 -0.11063921
0002d0 6f a2 15 be 4b 35 7a bd 2a 0b 5d 3d 28 6c be bd
       -0.14612745 -0.06108598 0.053965725 -0.09297973
0002e0 67 b5 ca bd 3e a1 62 3d ba 8e 72 bd 5d d9 24 bd
       -0.09897881 0.055329554 -0.059218146 -0.040246356
0002f0 2a ff d5 bd ff f4 0c be 09 9f 0b bd e7 9e f3 3c
       -0.10449059 -0.13765334 -0.034087215 0.029738856
000300 1c 0a 9e bd a4 25 e6 3d f3 17 2c be af e9 e2 bd
       -0.07716772 0.11237648 -0.16806011 -0.11079728
000310 74 50 6f 3e 9c 3a 4c be d2 b6 27 3d e9 94 ef bd
       0.23370534 -0.19944233 0.040945835 -0.11698324
000320 df 07 3c 3e 61 7a bd bd 0d 9f 9e be 79 37 8c 3d
       0.18362378 -0.092518575 -0.3098072 0.06846518
000330 7f ea a6 bc 53 6c 8e be 64 32 8a 3e 79 32 36 bc
       -0.020375488 -0.2781702 0.2699157 -0.011120432
000340 1e 5b f3 3d b8 5e b9 3d f7 81 f7 bd 88 ae 55 3e
       0.118826136 0.09051269 -0.12085336 0.2086736
000350 1d 0a c2 3d ee 5f 86 be 5b 86 6c 3e 21 f7 80 3e
       0.09474585 -0.26245064 0.23098128 0.25188544
000360 a1 f6 27 3e e0 78 fb 3d 05 42 d0 bd af 1c b0 3c
       0.16402675 0.122789145 -0.10168842 0.021498052
000370 5c dd c1 3c 67 c4 91 be 99 d9 86 3d 8a c4 4f bd
       0.023665123 -0.28470156 0.06584472 -0.050724544
000380 4f 70 80 be 23 e5 23 3e cd 9b 1b bc 9d 10 83 be
       -0.25085685 0.16005377 -0.009497595 -0.25598612
000390 dc 1f f9 3d 96 24 84 bc 44 a4 2e be 2c 5f f1 3c
       0.1216428 -0.016130727 -0.1705485 0.029464327
0003a0 7a 3a a6 bc 92 48 d8 be 2d d9 19 3f 7e 99 70 3d
       -0.020291556 -0.42242867 0.6009701 0.05874013
0003b0 57 55 32 bf ca c7 d9 3e 37 d1 15 be 09 78 ef be
       -0.6966147 0.4253524 -0.1463059 -0.46771267
0003c0 90 eb b7 3e c0 11 04 be e7 25 fd be e8 86 04 3d
       0.35921907 -0.12897396 -0.4944298 0.03235522
0003d0 ba e1 b7 bc ca 6c 22 3d ce f0 c8 b9 ae f6 d3 bd
       -0.022446502 0.03965453 -0.00038326386 -0.10349785
0003e0 71 b2 1d be 6b 94 be 3c d5 aa 99 3c 32 f8 28 be
       -0.15400101 0.02326413 0.018758217 -0.16500929
0003f0 a8 a2 9a bc 2b 64 bb 3d 91 80 7e be c6 f5 5b 3d
       -0.018876389 0.09149965 -0.24853732 0.053701185

conv4.bias f4 [32]
000000 e0 61 e5 b9 95 15 09 ba 5d 28 d8 b9 95 3f 05 3a
       -0.00043751206 -0.0005229351 -0.00041228803 0.0005083022
000010 80 24 26 ba 49 94 4c 39 ea 0c e0 39 f1 2f fa b9
       -0.00063378364 0.00019510197 0.0004273423 -0.00047719435
000020 78 6f 4a 39 63 08 29 38 bc e1 a8 38 74 3d d0 b9
       0.00019305747 4.030055e-05 8.0529106e-05 -0.00039718638
000030 a4 75 e4 b9 07 5e da 39 02 85 0d ba 5f 43 a6 38
       -0.00043575198 0.00041650256 -0.0005398543 7.928046e-05
000040 ec 1b 68 38 3a 1a 47 3a 3b 75 7e b9 7a d6 c8 39
       5.5339115e-05 0.00075951556 -0.00024267 0.0003830677
000050 a2 c3 01 ba 17 ab 39 ba b0 d2 d5 b9 ed 17 5f 39
       -0.0004950111 -0.00070826843 -0.000407835 0.0002127585
000060 c8 76 19 3a 34 4e 39 3a 67 a5 b7 39 d8 e1 43 3a
       0.00058541866 0.0007068843 0.00035027714 0.0007472313
000070 db b6 47 3a dc fa 8a b9 2a 1d b9 b9 ee 44 2d ba
       0.0007618495 -0.00026508316 -0.0003530768 -0.00066096976

bn4.weight f4 [32]
000000 9a a8 87 3f ff 4d 88 3f 82 9b 5e 3f 00 f4 83 3f
       1.0598328 1.0648803 0.86956036 1.0308838
000010 da cf 80 3f 83 3e 15 3f 25 9a 39 3f f9 4c 66 3f
       1.0063431 0.5829851 0.7250083 0.899612
000020 21 13 2a 3f cf 5a 8e 3f de e1 8e 3f 71 8d 85 3f
       0.6643544 1.1121463 1.1162679 1.043379
000030 f3 56 44 3f eb e7 4b 3f ca 6b 89 3f 0f 8e 95 3f
       0.76695174 0.79650754 1.073602 1.1683978
000040 12 94 73 3f e3 6a 40 3f fa 48 35 3f 41 9f 92 3f
       0.9514781 0.75163096 0.7081448 1.145485
000050 ac 5c 6d 3f d1 3b 88 3f 5e f6 4a 3f be 8f 63 3f
       0.9271953 1.0643255 0.79282176 0.8889121
000060 00 84 48 3f 55 a6 92 3f 35 99 88 3f ae bb 4b 3f
       0.78326416 1.145701 1.0671755 0.7958325
000070 24 ea 49 3f d5 af 4a 3f 41 70 8f 3f 64 bc 4b 3f
       0.78872895 0.7917455 1.1206132 0.79584336

bn4.bias f4 [32]
000000 5d d7 54 be 47 dd ac 3d f6 35 05 be 22 9f c2 be
       -0.2078528 0.08440643 -0.13008866 -0.38012034
000010 6e e7 df be eb 38 ac 3e 45 a4 c0 3e 0c 31 50 be
       -0.43731254 0.33637175 0.37625328 -0.2033121
000020 f9 d1 8b 3e fd 55 ed bd 94 01 e3 be 97 a6 0f be
       0.27308634 -0.115886666 -0.44337142 -0.14028393
000030 37 3c b6 3d 40 70 88 3e 7c 19 71 bf c9 22 f0 be
       0.08898204 0.2664814 -0.9417951 -0.4690154
000040 da 4a 9d be 01 53 9d 3c b7 45 09 3f 11 55 8f be
       -0.3072117 0.019204618 0.53622 -0.27994588
000050 ce ad 3c 3e cd d8 65 be 8a ec 1c 3e b3 cb 5c 3e
       0.18425676 -0.22445984 0.15324607 0.2156208
000060 a3 61 aa 3e cc 4a 06 bf 40 70 9a be b4 6e de bc
       0.33277616 -0.5245788 -0.30163765 -0.027152397
000070 4e ea fc 3d ee f5 29 3d a9 09 0d bf e9 e4 92 3d
       0.123493776 0.041494302 -0.55092865 0.071725674

bn4.running_mean f4 [32]
000000 7d 13 b5 bf b6 8c 8d bc b6 a8 45 bf ca 0a 9b bf
       -1.4146572 -0.01727901 -0.7721056 -1.2112668
000010 8a d8 30 bf cd dc bc 3d fe 9a 20 c0 af 4d 4a 3f
       -0.6908041 0.09221802 -2.50946 0.79024786
000020 29 f4 ce be 75 16 1e c0 1f 2e 65 bf be 16 e6 be
       -0.40420654 -2.4701207 -0.895235 -0.44939226
000030 01 97 81 bf b4 8f f7 3e a3 1a 86 be c5 87 91 3e
       -1.0124208 0.48351824 -0.26192197 0.28423896
000040 91 2f 71 3e 05 24 34 3f 64 78 7d bf 0b c8 b8 bf
       0.23553301 0.7036746 -0.99011827 -1.4436048
000050 26 f1 17 c0 34 a2 ae bf 67 da 9e be 16 c0 f2 bf
       -2.3740935 -1.364325 -0.31026003 -1.896487
000060 b5 a0 80 bf a7 46 d2 bf c2 b7 d0 bf e4 83 d0 bf
       -1.0049044 -1.6427811 -1.6306078 -1.629025
000070 d8 80 10 3d 71 f1 a9 bf 56 df ea bf 4f 74 62 3f
       0.035279125 -1.3276807 -1.8349407 0.8845872

bn4.running_var f4 [32]
000000 97 bb 80 40 4e 2e 90 40 e3 88 79 40 2c d1 47 40
       4.022899 4.5056524 3.89898 3.1221418
000010 e1 f2 5e 40 26 39 8d 40 9c a7 77 40 e2 cb 5a 40
       3.4835742 4.413226 3.869605 3.418694
000020 48 60 34 40 04 ef 8c 40 d2 68 7b 40 07 0f 4e 40
       2.8183765 4.4041767 3.9282727 3.2196672
000030 2d 65 46 40 e8 ef 88 40 ff 07 0d 40 7a 9f 57 40
       3.0999253 4.2792854 2.203613 3.3691087
000040 67 a4 45 40 0e b6 63 40 bf f0 9d 40 a8 b6 a9 40
       3.0881593 3.5579867 4.935638 5.303547
000050 00 6b cf 40 84 ca 82 40 d8 d2 51 40 6c 39 81 40
       6.4818115 4.087221 3.278494 4.0382595
000060 74 b4 86 40 3d 08 4d 40 8b b8 6a 40 f2 0e 20 40
       4.209528 3.2036278 3.6675136 2.5009122
000070 db 33 33 40 ff 3b 37 40 48 fa 43 40 de 0d 89 40
       2.80004 2.8630369 3.062151 4.282943

conv5.weight f4 [32, 32, 3, 3]
000000 62 9c 03 be 2b 29 85 3c 92 13 b5 3e d2 d8 7c 3c
       -0.12852624 0.016254982 0.35366493 0.015432553
000010 0b 94 0e 3e 5e 11 4c 3e 67 84 c7 bd 3e ea db 3b
       0.13923661 0.199285 -0.097420506 0.0067112735
000020 bb df 19 be 1b be eb 3d 02 2f 21 3e 77 0a d1 3e
       -0.15026753 0.11510869 0.15740588 0.40828297
000030 6f 6f d2 bd 98 e1 39 ba ee a0 f3 3d 5a 62 a5 bb
       -0.102751605 -0.0007090806 0.11895929 -0.005047125
000040 02 26 d6 3b ec 53 5b 3e de 45 a6 bd 7f 15 d3 bd
       0.0065352926 0.21418732 -0.08118795 -0.103068344
000050 2f 8e 19 bd 78 f8 28 be fd 10 19 be 06 1e eb bd
       -0.037489112 -0.16501033 -0.14947887 -0.11480336
000060 c6 44 cf bd bf b8 7c 3d e1 a4 6c 3d d4 5e 3c 3e
       -0.10120539 0.061699625 0.05777443 0.18395549
000070 c8 dc 12 3d f0 1b 62 bd af 84 1e 3e 66 62 f3 3d
       0.035855085 -0.055202425 0.15480302 0.118840024
000080 cc 41 0f 3d a2 e9 93 3c 64 c7 a8 bd dc 99 4b 3c
       0.03497486 0.01805574 -0.08241156 0.01242682
000090 55 2d 09 3e 38 11 f9 3d b1 dc de 3d 61 ac c5 3d
       0.13396199 0.12161487 0.10881937 0.09652019
0000a0 60 7a da 3b 2b 17 83 3d d0 95 dc bd af eb de bd
       0.0066674203 0.06400903 -0.10770762 -0.10884797
0000b0 0f 7e 3e bd 09 60 43 3e 87 0a f0 3d ba 24 5b 3d
       -0.046506938 0.19079603 0.11720758 0.053501822
0000c0 26 9d 0b bd bf 43 cf bc e9 62 a0 bd 3a 9c c1 bd
       -0.034085415 -0.025300859 -0.078313656 -0.09453626
0000d0 9d ff 79 bd d8 48 8a be 45 67 ca be c3 dc 19 be
       -0.061034787 -0.270087 -0.39531913 -0.1502562
0000e0 ad fc bc bc 87 27 35 be ae d8 a2 3b 6b 71 8c bd
       -0.023069704 -0.1769086 0.004969678 -0.0685757
0000f0 41 00 3e be 6b eb 50 bd 06 27 a5 be 5e 99 8a 3b
       -0.18554784 -0.051005762 -0.32256335 0.0042297086
000100 c3 9a 0e 3e fa 7b 28 3e f2 4e 02 be 6c d5 84 bd
       0.13926224 0.16453543 -0.12725428 -0.064860195
000110 d4 9a 34 bd 11 7e 93 bd 58 ef e9 bd ea fd 25 be
       -0.044092968 -0.0720178 -0.11422604 -0.16210142
000120 44 a1 a0 3c 79 6d 02 3e 07 6b c7 3e 4d 6b bb bd
       0.019608147 0.12737073 0.38948843 -0.091513254
000130 07 4a 3d 3b 80 95 ab 3d 70 b9 9e be 1c ba 0e be
       0.0028883235 0.08378124 -0.31000853 -0.13938183
000140 a7 fe 88 bd 99 ea 06 3d 54 87 2d 3c 20 d1 62 be
       -0.06689196 0.032938574 0.010591347 -0.22150087
000150 0a 4e 47 3d 3e 85 76 bd 0d dd 90 bd 6f f7 e4 bc
       0.04865841 -0.060185663 -0.07073412 -0.027950017
000160 d4 d8 7f 3c e6 ca 82 bd d4 a0 96 bc bf 17 fc 3c
       0.015615661 -0.06386356 -0.018387236 0.030773042
000170 3b 21 89 bb a5 9c 9e bd d9 94 46 3d 64 7a 18 3d
       -0.0041848696 -0.07744721 0.048481796 0.037226096
000180 ee 25 3c be 19 34 81 be bc dd 27 be 55 95 79 3c
       -0.18373844 -0.2523506 -0.16393179 0.015233357
000190 9f 5e 06 3e a0 c4 ce 3d e8 c5 75 bd f8 7b 62 3c
       0.13122033 0.10096097 -0.06000319 0.013823502
0001a0 78 26 86 bc ed f0 b2 3d fe 48 a2 bc d6 53 98 bc
       -0.016375765 0.08737359 -0.019810196 -0.018594664
0001b0 cd 0f 72 3e a7 e1 86 3c 75 37 a8 bd d4 3a 12 3e
       0.2363884 0.016465021 -0.082137026 0.14280254
0001c0 62 ea 08 3d 92 9e 5e 3c 63 b1 f2 bc 2f 2f e6 bc
       0.03342665 0.013587611 -0.0296256 -0.02809867
0001d0 02 e1 3f bd 51 b5 8b 3d fa 71 c7 3c e9 a8 c8 bc
       -0.046845444 0.06821693 0.02434634 -0.024494605
0001e0 c5 ac bb 3d 6e 83 3a 3d 2a 92 04 bc 30 ce b6 3d
       0.091638125 0.045535497 -0.008091489 0.08926046
0001f0 cd 31 06 3d 71 7e c1 3a a6 42 70 3d b4 ac 07 3d
       0.032762337 0.0014762414 0.05865731 0.033123687
000200 fc b2 bc 3d b2 49 c6 3d 05 cf d4 bc 5b 4e f9 bd
       0.09213826 0.09682025 -0.02597762 -0.12173148
000210 5c e6 86 3c 37 e3 18 bd 01 d0 fe bd 7b 37 54 3e
       0.016467266 -0.037326064 -0.12442017 0.20724289
000220 92 4f fc 3b 4e 6e 8d bd 26 36 be 3d 95 5c 42 bd
       0.007699915 -0.069058046 0.09287672 -0.047451574
000230 f1 96 2c 3e 1f 4e f6 bc f0 a1 02 be c8 38 cc 3d
       0.16854455 -0.030066548 -0.12757087 0.09971768
000240 90 19 8a bc 2a 42 47 be 27 ed 45 be b6 24 69 be
       -0.016857892 -0.19458833 -0.19328748 -0.2276791
000250 fd b4 4e be c9 90 61 bd c8 6c 2e be 8a 58 4c be
       -0.20186229 -0.05506972 -0.17033684 -0.1995565
000260 94 78 df bd c6 9b 01 be 23 cb 22 be 97 d6 7f 3d
       -0.1091167 -0.12657079 -0.15897803 0.06246051
000270 9b 97 80 bd 7b 2f 7a bd d4 2a d8 3b 8f 4c d3 bd
       -0.062789164 -0.061080437 0.0065969024 -0.10317337
000280 c9 bb 10 bc fa 08 a1 3d 0d 4d 11 be e8 bb b2 bd
       -0.008833834 0.0786304 -0.14189549 -0.087272465
000290 15 29 02 be fd fe e8 3c 00 66 2e 3d e9 1c b0 ba
       -0.12710984 0.0284419 0.042577744 -0.001343635
0002a0 d7 27 a0 3d b9 aa e8 3c 41 5d 3c 3d 58 dd 23 be
       0.07820099 0.02840172 0.04598737 -0.16002405
0002b0 ca c1 ce bd c9 b8 15 be 1f 4a 72 3d 62 a3 0e be
       -0.10095556 -0.14621271 0.05915272 -0.13929513
0002c0 a3 7e ca bd 8d a7 34 3e 23 a2 ce bc 2e a5 46 be
       -0.09887435 0.1764204 -0.025223797 -0.19398949
0002d0 b4 a5 15 be 3e df 9b be d3 8a 04 bf 55 91 a1 bd
       -0.14613992 -0.30443758 -0.5177433 -0.07889048
0002e0 71 d0 d2 bd ed ef 70 be 35 57 43 be 0c 5f 0f be
       -0.10293663 -0.23529024 -0.19076236 -0.14001101
0002f0 a1 05 f2 be cd d0 4d be 2b 09 b1 3d 4c a1 19 bd
       -0.4726992 -0.20099182 0.08644327 -0.03750734
000300 53 2c 88 bd b9 00 2c 3d 73 92 2e 3d de 65 af 3d
       -0.06649079 0.041992877 0.042620134 0.085643515
000310 35 b8 29 be 8f 23 06 be 8f 72 ec bd 64 1f 0b be
       -0.16574176 -0.13099502 -0.11545288 -0.13586193
000320 f0 b2 0e be 54 55 d1 bd 09 4a 54 be fa 51 86 be
       -0.13935447 -0.10221353 -0.20731367 -0.26234418
000330 5d 20 0f 3e 68 90 91 bd 10 75 71 be a8 ff 3a 3e
       0.1397719 -0.071076214 -0.23579812 0.18261588
000340 10 8c cd bb 54 e6 64 3d 9a 04 26 be 13 04 a3 bd
       -0.0062728003 0.05588372 -0.16212693 -0.079597615
000350 ee 36 b2 3d e5 2e eb be 2e ff 22 bd af d2 b8 3d
       0.08701883 -0.45934215 -0.03979414 0.0902456
000360 ff 57 e1 ba 84 cc d7 bd a0 81 37 be 18 f8 18 be
       -0.0017192363 -0.10537055 -0.17920542 -0.1493839
000370 2a 9d e3 bd 75 d2 04 bd 6b d8 62 be fc ac 23 3d
       -0.11113961 -0.03242727 -0.2215287 0.039959893
000380 b6 fb 1a 3e 2f 7d 87 be f5 9c 39 be 2b 11 a4 be
       0.15135083 -0.26462695 -0.1812628 -0.32044348
000390 13 93 35 bd 89 b8 de bd b2 b5 36 be 57 58 41 3d
       -0.044329714 -0.10875041 -0.17842749 0.047203388
0003a0 c4 fc 3f be 2d 24 87 be 4a 74 4f bd 87 49 0d be
       -0.18748766 -0.26394787 -0.05064801 -0.1379758
0003b0 26 b7 20 be 25 fc e0 bd 9b 22 88 bd 2d f3 7f bd
       -0.15694866 -0.10985593 -0.066472255 -0.06248777
0003c0 6a 11 56 be 27 97 4f bd 9a 11 61 bd f7 be 5d be
       -0.2090508 -0.05068126 -0.054948427 -0.21654879
0003d0 34 ed 3c 3d 3e ad b4 3d b2 c5 c6 bd 7f 91 c9 b9
       0.046124652 0.08822106 -0.09705676 -0.0003844611
0003e0 1a 8c 77 bb c3 9d 66 3d 3e a8 85 3d ef c4 83 3d
       -0.0037772716 0.056302797 0.0652623 0.064340465
0003f0 b4 05 70 bd 12 16 70 3d 7a ed 89 3e e9 99 56 bb
       -0.05859919 0.058614798 0.26938993 -0.0032745546

conv5.bias f4 [32]
000000 7d 72 49 b9 32 d0 1f 38 80 ef 07 3a 11 00 0c b9
       -0.00019211504 3.810245e-05 0.00051855296 -0.00013351465
000010 8c 86 00 39 68 47 04 b9 db 18 18 b9 0e a8 48 b8
       0.00012257154 -0.00012615102 -0.00014505109 -4.784023e-05
000020 ca d3 4b 3a 7e bf a4 b9 b6 7c 44 3a 11 76 d0 b8
       0.00077753945 -0.0003142319 0.000749539 -9.9402045e-05
000030 13 3c 37 b8 8a 45 3a 3a ae 8c 2d b9 ff 55 e0 39
       -4.368655e-05 0.0007105699 -0.00016550973 0.00042788681
000040 d1 25 8d 39 8e 2f 26 ba 9f 06 b9 b9 c6 ef 63 39
       0.0002692179 -0.00063394837 -0.00035290883 0.0002173773
000050 1e 1f a0 39 41 54 88 39 a4 13 17 b9 f4 7d 49 ba
       0.00030540762 0.00026002715 -0.00014407799 -0.000768631
000060 99 35 d1 b9 f2 94 ae 39 53 38 58 39 92 c0 05 ba
       -0.0003990352 0.0003329884 0.00020620348 -0.00051022426
000070 ec d0 1a 38 23 6b ce 39 7d 87 06 3a bb a5 1c 38
       3.6911035e-05 0.00039371205 0.00051318837 3.7347647e-05

bn5.weight f4 [32]
000000 48 21 71 3f 75 37 4b 3f 33 ba 36 3f 14 65 93 3f
       0.9419141 0.79381496 0.7137787 1.1515222
000010 bf 8a 6e 3f f5 02 5e 3f 54 4a 3b 3f c9 43 85 3f
       0.9318046 0.8672326 0.7316029 1.0411311
000020 a4 24 44 3f 5f c8 7e 3f 09 20 6a 3f 4d e1 22 3f
       0.7661841 0.9952449 0.9145513 0.6362503
000030 f6 f9 8c 3f aa f3 5b 3f d0 dc 51 3f e9 55 86 3f
       1.1013782 0.85918677 0.8197756 1.0494968
000040 0b 2b 7a 3f b6 42 43 3f e6 b2 51 3f c1 49 60 3f
       0.9772193 0.7627367 0.819136 0.8761254
000050 1b c2 33 3f c3 ee 74 3f 42 39 89 3f 32 13 67 3f
       0.70218056 0.9567682 1.0720599 0.90263665
000060 9b f8 44 3f 6c 5a 4a 3f be 1e 33 3f 94 2c 55 3f
       0.7694184 0.7904422 0.69968784 0.83271146
000070 7d ff 36 3f 96 d6 32 3f 4e f6 7c 3f 41 2f 5a 3f
       0.71483594 0.6985868 0.9881333 0.85228354
