model_weights/Tiny10/CIFAR10/in14-gn14/110000.pt (torch_old, 358762 bytes, 50 tensors)

conv1.weight f4 [16, 3, 3, 3]
00000000: ee2c 3abc 45a0 6abd ce95 f9bd 1301 bcbc
00000010: b342 85bd 10dd 1abe e056 86be 9a20 ddbe
00000020: 8f0b d8be 2ccf debd d5db 2bbd ae02 29be
00000030: bf58 87bd 2404 8e3d 68a3 a5bd 73c7 8dbe
00000040: b635 a0be fbdb bcbe 759c 83bc fdd3 773e
00000050: fe87 053e 37a5 c43e 7346 343f 6e4e 043f
00000060: 7bd6 573e a0ee b13e 20df 693e c2bb 4cbf
00000070: 2adf a5bf a49d 77bf 8a50 203e 6f29 8d3d
00000080: 1c1d e6bd 86dc 853f 9abf ab3f a568 1d3f
00000090: 97b5 2e3e 5e49 3a3e e1b9 a03e c1ca a6bc
000000a0: c10d 713c 3e7b e53d 3607 65be 1700 b1be
000000b0: d23d 87be 7efd 213f 29d6 603f e5d8 133f
000000c0: b096 98bd e378 de3d c3ee 6d3e bcf0 5abf
000000d0: b205 8bbf 39f1 dabe 329c b83d 36dc 893d
000000e0: f04e cfbe 6ca7 373f 8dbd 103f 4d2a b73d
000000f0: fd6e e2bd df55 61bd 1592 bcbe d861 86be
00000100: 5169 ddbd ac57 7abe fc51 5c3d abe7 9d3d
00000110: fbb0 e93c 1ac8 e1be bee1 94be c358 8cbe
00000120: e305 89be a6c6 0bbe f002 88be 05fc 273e
00000130: ffc4 2c3e 68fd f23d 13cd e3bc 7c61 5f3d
00000140: 0f6f 5b3d 35e6 5b3e 9e9a 45be 1cce 35be
00000150: 15aa f7bd a6f4 04bf 76fe b3be e478 4cbe
00000160: 5324 1fbf cfe9 f1be d34d dbbd 9f8b 69be
00000170: fe97 99be 7f07 f6bb 5db3 a9bd 216b 2dbe
00000180: 1b80 133e fb46 debd 4166 8ebe 9776 3ebe
00000190: f03b 5d3e 888f 4b3e eff0 6c3e 5885 3d3f
000001a0: 25b0 1d3f 1207 e73e af2b 323f 6862 f43e
000001b0: 72ca 39be 1893 65bc 68ea 133e 281a 70bf
000001c0: 2caa 27be 343c 713f aabc 54bf bacc 8ebc
000001d0: 0397 723f cb7f 17bd 46da 06bd bac2 3f3d
000001e0: a5b6 7ebf 0c15 e0bd d59a 903f db40 5fbf
000001f0: bcae 393c 1441 883f b5a8 293e d883 63bc
00000200: f4b0 2cbe bdbe 47bf fcf0 ebbd 4620 723f
00000210: 9369 27bf 55f7 4bbe 700d 203f efca 863f
00000220: 67a4 163f 3b63 16bf 62cb 803f c3a1 233e
00000230: 1bad 6cbf b147 dc3e 7e38 bbbe 9b5c bdbf
00000240: 7b84 75be 0b8e e0be 7f4c 8fbd a419 81be
00000250: 32d2 4dbe 8615 963e 408e c73e 1a8a bd3e
00000260: c72f f93d b160 4bbf 900a 0fbf 1039 053f
00000270: 0150 94bf 8d83 25be fd38 a73f aa72 2ebf
00000280: 9993 b63e cc66 8f3f 2d46 d2bc 11da 5bbe
00000290: 2826 943e b017 c0be 6a79 66be 0f4b 833f
000002a0: ccdd 703d 8772 efbd a9e7 2b3f 2a1f a03e
000002b0: e701 ecbe d5ee 9dbd 7d1c 95be 4f9f 89bf
000002c0: 9e22 083e eba9 283e 349d 77bf 009a 41be
000002d0: 045c 5cbe f66b abbd 9e91 19be 36bf 2c3e
000002e0: 6fb8 8e3e 403d 5d3f 05dd d13e dbbe 3fbc
000002f0: cfce d53e fdb8 be3d a5eb 073f dd7e 85be
00000300: 1a5a 5b3f 139b a73f 663a 713e 9c5d 003f
00000310: f578 1d3f 3992 14bf fd27 24bf 2eed 3dbf
00000320: 23cb c7bd be7f 25bf ef86 48bf 93bf a9bd
00000330: 7005 4cbe e1a1 d4be 65a9 7cbd 2ad5 a43e
00000340: efd7 2c3e 8717 afbd 92bf a23e 787c a33e
00000350: 4f75 af3e 9294 8dbe c8bb b3bd c0c7 3fbd
00000360: c16f 813e d11f c53e 95fa 683e c95f b63c
00000370: 3abe c5bc 8693 f23d 84ac 37bd 2a19 8fbe
00000380: 95ed a2be 6714 f63e f67f 293f e91a 023f
00000390: 6c75 40be 9cb4 71be 4d87 003c 1352 eabe
000003a0: 3aa3 32bf 731a fabe 1f7b 893e 32f3 2d3f
000003b0: 760b 183f b351 c3be e380 97bd c47a 613e
000003c0: f808 38bf fd38 08bf ea05 40be 1a0e ae3d
000003d0: c39f 1cbf 76f4 f2be 537e 103d ed18 a3be
000003e0: 51c7 d2be 86ba 753e 3e04 1f3f a117 fb3e
000003f0: e928 e5bd 8a61 30bf eda2 2abf ee34 51bc
-0.011363251 -0.05728175 -0.12186776 -0.022949731 -0.065068625 -0.15123391 -0.26238155 -0.43188936
-0.42196319 -0.10879359 -0.041957695 -0.16504928 -0.06608724 0.069343835 -0.08087808 -0.2769123
-0.31290978 -0.36886582 -0.016065815 0.24201961 0.13040158 0.384073 0.70419997 0.51682174
0.21077912 0.3475237 0.22839022 -0.79973996 -1.2958729 -0.96724916 0.15655723 0.068926685
-0.11236021 1.0457923 1.3417847 0.614878 0.17061459 0.1819205 0.31391814 -0.020360352
0.014712752 0.11205147 -0.22366032 -0.3457038 -0.26414353 0.63277423 0.8782678 0.5775283
-0.07450616 0.10862901 0.23235612 -0.8552358 -1.0861113 -0.42762163 0.09014167 0.06731455
-0.40489912 0.7173984 0.5653923 0.08943615 -0.110563256 -0.055013534 -0.36830202 -0.26246524
-0.10811103 -0.24447507 0.053789124 0.07710203 0.028526774 -0.44097978 -0.29078478 -0.2741147
-0.26762304 -0.13649997 -0.2656474 0.16404732 0.16872023 0.1186474 -0.027807748 0.054536328
0.05357271 0.21474536 -0.19297263 -0.17754406 -0.120929874 -0.51935804 -0.35155076 -0.19967991
-0.621648 -0.47248694 -0.10708203 -0.22807167 -0.29998773 -0.007508218 -0.08286164 -0.16935398
0.14404337 -0.10853382 -0.2781239 -0.18599926 0.21604896 0.19878972 0.23138784 0.7403159
0.615969 0.45122582 0.69597906 0.47731328 -0.18143633 -0.014012121 0.14444888 -0.9378991
-0.16373509 0.9423249 -0.8310038 -0.017431606 0.94761676 -0.036987107 -0.032923006 0.046816565
-0.99497443 -0.109415144 1.1297251 -0.87208337 0.011333164 1.064486 0.16568263 -0.0138864145
-0.16864377 -0.7802542 -0.115205735 0.94580495 -0.6539547 -0.19918568 0.62520504 1.053068
0.5884461 -0.58745164 1.0062068 0.15979676 -0.9245164 0.43023446 -0.36566538 -1.4793886
-0.23976319 -0.4385837 -0.06997012 -0.25214875 -0.20099714 0.29313296 0.38975716 0.37019426
0.12167316 -0.79444414 -0.5587549 0.52040195 -1.1586915 -0.16163464 1.3064266 -0.68143713
0.35659483 1.1203246 -0.025668228 -0.21469904 0.2893536 -0.37518072 -0.22507253 1.0257281
0.058805272 -0.11691766 0.6715036 0.31273776 -0.460952 -0.07711569 -0.29123297 -1.0751742
0.13294455 0.16471069 -0.9672425 -0.18906403 -0.21519476 -0.08370201 -0.14996955 0.16869816
0.27875087 0.86421585 0.40988937 -0.011703218 0.41759345 0.093126275 0.5309394 -0.26073352
0.8568436 1.30942 0.23557433 0.50142837 0.6151269 -0.5803562 -0.6412352 -0.7419003
-0.09755542 -0.64648044 -0.7833089 -0.08288493 -0.19923949 -0.41529754 -0.061684985 0.3219388
0.16879247 -0.08549409 0.31786782 0.319309 0.34269187 -0.27652413 -0.08776051 -0.046821356
0.25280574 0.38500836 0.2275184 0.02226247 -0.024138559 0.11844544 -0.044842258 -0.27948886
-0.31821886 0.4806244 0.6621088 0.5082231 -0.18794793 -0.23604053 0.007844758 -0.45765743
-0.69780314 -0.48848304 0.26851746 0.6794921 0.5939249 -0.3814827 -0.0739763 0.22019488
-0.71888685 -0.5321196 -0.18752256 0.084987834 -0.6118128 -0.47452134 0.035276722 -0.31854954
-0.4116769 0.23996934 0.6211585 0.49041465 -0.111894436 -0.6889883 -0.66654855 -0.012768967

conv1.bias f4 [16]
00000000: ff3c 32b9 1b9c 243b b58c c8b9 ebb4 bab9
00000010: c50f 4eba f2af bcba 328d 8f3a 9dcc dc3a
00000020: 9241 9f36 3df9 4dba dec3 adb9 d2da c339
00000030: e67e a5ba 2876 a539 275f abba 6a79 98ba
-0.00016998126 0.002511746 -0.00038251808 -0.0003561148 -0.0007860626 -0.0014395698 0.0010952114 0.0016845647
4.7462026e-06 -0.0007857269 -0.00033143064 0.00037356332 -0.001262632 0.00031559286 -0.0013074622 -0.0011632864

bn1.weight f4 [16]
00000000: e291 143f 797f 283f c423 873f 1f30 fb3e
00000010: eeee 833f 0059 3a3f 3f2d 343f dcf6 093f
00000020: bf71 5e3f ba81 573f e45a 8b3f 8420 483f
00000030: 08da bd3f 536f 243f 934a d43f a180 153f
0.580351 0.6581951 1.055779 0.4906015 1.030729 0.72792053 0.7038154 0.538923
0.8689231 0.8418232 1.0887113 0.78174615 1.4832163 0.6423237 1.6585258 0.583994

bn1.bias f4 [16]
00000000: 8c89 92bd 8254 eb3c 1eac 5cbf c629 a33e
00000010: dfa6 ba3c 5696 86bd f598 173f efd8 033f
00000020: 0106 823d 9db9 f13e 3702 9ebb 86b3 ccbe
00000030: f3b4 82bf 5a79 c63a 9dab 1640 db07 573e
-0.07155141 0.02872682 -0.8620013 0.31867808 0.022784648 -0.06571643 0.5921777 0.5150289
0.063488014 0.47211924 -0.0048220414 -0.39980716 -1.0211471 0.0015142367 2.3542244 0.2099909

bn1.running_mean f4 [16]
00000000: bc7a f43d ef80 1e3d 6a01 723e f28f e83d
00000010: 813c ef3b 0ea9 e13c 1160 1fbd 45fc 86bd
00000020: a30f a63d 0f08 a5bd f892 513c 38eb 5cbe
00000030: 9fb3 843e 08a5 b4bb 9ed7 74bd 83b7 483e
0.11937472 0.03869718 0.23633352 0.113555804 0.007300914 0.027546432 -0.038909975 -0.06591085
0.08108451 -0.08058178 0.012791388 -0.21574104 0.2591829 -0.0055128373 -0.05977594 0.19601254

bn1.running_var f4 [16]
00000000: 81fa 6040 ebd5 a03f accf 1640 4705 b540
00000010: e629 a841 588a c33f a966 6740 9275 4840
00000020: ea01 4a41 bfc5 9d41 805e a241 53eb 6f40
00000030: e6ac 8e40 2b7b 8b3f 3511 4440 4d97 f63f
3.5152895 1.2565283 2.3564253 5.656894 21.020458 1.5276594 3.6156409 3.132176
12.625467 19.721556 20.296143 3.748738 4.458606 1.0896963 3.0635502 1.9264923

conv2.weight f4 [16, 16, 3, 3]
00000000: 229e b73d 12aa 333e 1414 fc3d 4781 a83c
00000010: 6f7c f83d b55c 2b3d aab4 07bd 6cfc 2d3d
00000020: bcbc 18bd d467 273e 725e d13b 7f40 44bd
00000030: 53ab 12bd c471 75bd 548e efbd 0ac2 eebc
00000040: 1896 dabd 7aeb 6ebc a4ce a43b 46e6 a83d
00000050: 1aff 413e aa63 04be e943 f13a 66ce 2f3e
00000060: 8a88 d6be a35d 4dbe bc84 0e3c 0cc9 b5bd
00000070: 3718 5d3b 53a1 ecbc 8f57 13be a3a3 28bc
00000080: 9551 febc 5a5e 57be d4de 2abd d7a0 64bd
00000090: ab08 e23d 5920 7dbd 509b 49bf 00c8 573e
000000a0: f6a8 85be 0250 74bf f822 203e b5ec 9cbe
000000b0: 7888 83bf e1ba b43d 119b febd d0df ebbd
000000c0: cd64 883c 130d 1ebe 3aea 54bd 90b1 ad3e
000000d0: f362 b83d 54d9 6abe 20f9 ba3e 99bd 953d
000000e0: f9eb 2bbe e469 713e f049 89bd 73b2 01bf
000000f0: b072 9a3e f593 223e 8055 9abe 51fb e83d
00000100: c76f e3bd 3175 d7bd be54 a2bc 49c2 c9bd
00000110: 5fa2 dbbd eacd 61bb 14b1 76bc c6df 0f3d
00000120: 64c3 023e 4e1f c53d e440 9b3e 7eec 713e
00000130: ee94 9dbd e275 f3bc f67d 63be 2a8a a8be
00000140: b693 19bf fcf5 9d3e 2aad c43e 9e2c 463e
00000150: 17ef 04bf cf49 a0be e2e5 c1bd 50bf 1abf
00000160: 85fd ccbe e98c 1b3e 72bb 33bf f6b6 89bd
00000170: bf96 643e 19a5 54bf be6b 69be c149 a23e
00000180: 86cf 4ebf 3fad 96be 408b c0bd 8a68 633d
00000190: 59e9 41bd 4b52 453d dcba 1e3e 72b6 4b3d
000001a0: 9f78 933b 3c4e 9e3d d1b3 9cbd 8c8c 17be
000001b0: 1c2e 6e3e 5eb3 9a3d 073c ab3d d81b 18bc
000001c0: 6e8f 78bd e6ce 263e 5209 9b3d bb90 95bd
000001d0: e3cf 393e 8d5f 0f3e dc38 ee3d b7dd afbd
000001e0: 0323 633d 503d 573e 4cc9 6b3d b066 7fbe
000001f0: e612 4abd 38cf 39be bcca 89bd 56aa 5b3e
00000200: 5f4b 62bc 3927 9ebd 682c 0ebe d8f2 cabd
00000210: 6de5 913c 07a9 143e b60d 963d 4a2a fd3d
00000220: 9479 753c c20b cabd 00ce 573e fc67 083c
00000230: 9d30 21be 4dfc a43e 9873 ad3d 7569 f6bc
00000240: 1df6 0e3e 8367 abbc 3674 16be 859c 6a3d
00000250: aa75 c9bd 40b1 2fbe 7178 25bd da6c c2bd
00000260: ca15 ebbd a215 24be e1d2 903e 34fc 093f
00000270: f88e 553d 81eb 8a3e 91d7 0a3e 2101 65bd
00000280: bf71 87bd 1578 7abe e716 c13e 88ea 5e3e
00000290: 2525 0a3e de0a 4c3d b476 fdbd f3f9 3cbe
000002a0: 0218 3fbd e264 b8bd e487 b8bd d6c4 8f3e
000002b0: 8a00 543e 9076 093e 9eb1 b03a 44fd 04be
000002c0: dcf6 27be 7e18 84bd d8a7 32be 2599 2ebe
000002d0: 6a5b 45bd 1727 bfbd 1efe bcbd 9a20 02be
000002e0: 3d67 003e 2a40 503e f2de 8abe 375b c03d
000002f0: 40ae cf3e ea82 b93d 58e8 553e d17a b03e
00000300: 2cac 493c 7628 1b3d c4bd 84bd ac5a de3c
00000310: 8fd8 52be 82c8 bbbe d895 1cbe 61c9 1dbe
00000320: 22da 163e f02e 3dbe a613 24be 4380 b63c
00000330: d492 823b 068e 043e e04a fd3d 6289 a3bd
00000340: e895 ebbd df22 41be 4a1f b9bd f5d4 31be
00000350: 5730 82be cfc7 043d a5ac 5abc 11b3 82bd
00000360: f0e3 4d3e 3981 803d 5b79 d3bd e6ae 43bc
00000370: a22f 09be cccf 9cbe c540 8dbd 0d9e 33be
00000380: 6409 c9be c1de 843d a801 123e 6003 c43e
00000390: e0f7 4bbe 200b 29bc da81 8c3c a580 cd3d
000003a0: ccea b93e cbb6 fc3e 13a8 483e 07cc 3cbb
000003b0: 2e0a 0fbd d621 0a3d 781f 323d 6e10 743d
000003c0: 3e15 46be 6ab8 8ebe 1572 843d 4dfc 3abd
000003d0: f296 60bd 1af6 dbbd 481b fcbd 3e62 5cbd
000003e0: ab12 5ebb 72fd 82be b00e 7ebe 02a0 8abe
000003f0: 5f1d 0b3f 51e1 e03e 3896 8e3e 7902 273e
0.08965708 0.17545345 0.12308517 0.020569457 0.12133109 0.04183646 -0.03313128 0.042477056
-0.037289366 0.16348201 0.0063894326 -0.04791307 -0.03580792 -0.05992295 -0.11697069 -0.02914526
-0.10673159 -0.014582509 0.0050295163 0.08247046 0.1894497 -0.12928644 0.001840708 0.17168579
-0.41901046 -0.20055251 0.0086986385 -0.08876237 0.0033736357 -0.02888552 -0.1438887 -0.01029292
-0.03104476 -0.21032086 -0.04171641 -0.05581745 0.110368095 -0.061798427 -0.78752613 0.21072388
-0.2610547 -0.9543458 0.1563834 -0.30649343 -1.0276022 0.08824707 -0.1243192 -0.11517298
0.016649628 -0.15434675 -0.05198119 0.33924532 0.09003248 -0.22934467 0.36518192 0.073115535
-0.16789235 0.2357555 -0.067035556 -0.50662917 0.30165625 0.15876754 -0.30143356 0.1137606
-0.11105304 -0.10520399 -0.019815799 -0.0985151 -0.10724329 -0.003445501 -0.015056867 0.035125516
0.12769848 0.096251115 0.30322945 0.23625371 -0.07694422 -0.029719297 -0.22216019 -0.3291791
-0.59991014 0.30851734 0.38413364 0.19352958 -0.5192732 -0.3130631 -0.09467675 -0.6044817
-0.4003717 0.15190472 -0.70207894 -0.0672435 0.2232313 -0.8306442 -0.22795007 0.31696895
-0.80785406 -0.2942905 -0.0940156 0.055519618 -0.04734168 0.048174184 0.15500969 0.04973454
0.004500463 0.07729766 -0.07651485 -0.14799708 0.23259777 0.07553743 0.08361059 -0.009283982
-0.06068366 0.16289863 0.07570137 -0.07302996 0.18145709 0.14001293 0.11631939 -0.085872106
0.05545331 0.21019483 0.05756502 -0.24941516 -0.04933443 -0.18145454 -0.06728122 0.21451697
-0.013811915 -0.07722325 -0.13884127 -0.099096 0.017809594 0.14517604 0.07326834 0.123615816
0.0149826 -0.09865524 0.21074677 0.008325573 -0.15741201 0.3222374 0.084693134 -0.030079583
0.13961072 -0.020923382 -0.14692768 0.057278175 -0.09836896 -0.1715746 -0.040398065 -0.09493418
-0.11478765 -0.16023877 0.28285888 0.53900456 0.0521383 0.271328 0.13558795 -0.05590928
-0.06613492 -0.2445987 0.37712786 0.21769154 0.13490732 0.04981505 -0.123761564 -0.18454723
-0.046653755 -0.09003617 -0.09010294 0.2807986 0.2070333 0.13424134 0.0013480668 -0.12987238
-0.16402763 -0.06449984 -0.1744684 -0.17050608 -0.048182882 -0.09333628 -0.092281565 -0.12707749
0.12539382 0.20336977 -0.2712322 0.09392398 0.4056263 0.09058173 0.20889413 0.344687
0.012309115 0.037880383 -0.064815074 0.027142845 -0.20590423 -0.36676413 -0.15291536 -0.15408851
0.14731649 -0.18474936 -0.1602312 0.022277957 0.0039847884 0.12944803 0.12367797 -0.07985188
-0.11503202 -0.18860959 -0.09039171 -0.17366393 -0.25427505 0.032417115 -0.013346826 -0.063818105
0.20106483 0.06274647 -0.10325881 -0.0119435545 -0.13397077 -0.30627286 -0.068971194 -0.1754076
-0.39264977 0.064877994 0.14258444 0.38283825 -0.19918776 -0.010317594 0.017151762 0.100343026
0.36311948 0.4935821 0.19595365 -0.0028808133 -0.034921817 0.033723675 0.043487042 0.05958598
-0.19344041 -0.27875072 0.06467072 -0.04565077 -0.054831453 -0.107402995 -0.12309891 -0.05380463
-0.0033885639 -0.25583988 -0.2481029 -0.270752 0.5434169 0.43921903 0.27848983 0.16309537

conv2.bias f4 [16]
00000000: 23a4 1c3a 234d bab8 d794 b639 4fbf dab8
00000010: 167e 6ab9 a911 9e39 98b0 403a f53b a5b9
00000020: 9426 423a e926 47ba 2dea 53ba 7036 763a
00000030: 2086 5739 d5c8 5db9 d247 e639 52db 193a
0.0005975386 -8.883539e-05 0.0003482464 -0.00010430684 -0.0002236295 0.00030149266 0.0007350533 -0.00031515924
0.0007406261 -0.00075970456 -0.0008083906 0.0009392267 0.00020553963 -0.00021151018 0.0004392253 0.0005869168

bn2.weight f4 [16]
00000000: c3a9 af3f 2f93 723f 18a2 803f 6b44 7e3f
00000010: d15c a93f 7ebb 433f 5de5 7a3f 5aa4 4f3f
00000020: f962 cd3f 031d de3f 6d8e 833f 1f2b 373f
00000030: 24bd 9e3f 7a14 4e3f 3d20 5c3f 072c 9c3f
1.3723682 0.94755834 1.0049467 0.9932315 1.323145 0.76457965 0.9800623 0.81110156
1.6045829 1.7352604 1.027784 0.7155017 1.2401471 0.80499995 0.8598669 1.2200936

bn2.bias f4 [16]
00000000: e13d 63bd 76cf d9bc 532c c53e 0d03 283f
00000010: 7a8c 83be 427e 8d3d 1fa2 113e 5f32 563d
00000020: 2e56 97bd 51ab f8bd 5f89 debe ed52 a43e
00000030: 41f9 52be 3a1a ba3e 95b9 8c3e f690 053f
-0.055478934 -0.026588183 0.3851038 0.65629655 -0.25693113 0.069088474 0.14222 0.05229413
-0.07389484 -0.12142051 -0.4346418 0.32094517 -0.20602895 0.36348134 0.27485338 0.5217432

bn2.running_mean f4 [16]
00000000: 4422 06c0 e708 9a3e 98a2 03c0 c976 7bbf
00000010: e59a 96bf f26b cf3d 3c4d 86bf 6629 463f
00000020: 5b63 94be 53ea e5be 7b9b fe3f 51c8 1bc0
00000030: cc39 9abf 5a86 5ac0 5927 56bf fe72 acbf
-2.0958414 0.30084917 -2.056799 -0.98228127 -1.176602 0.10128011 -1.049232 0.7740692
-0.28982052 -0.44905338 1.9891199 -2.4341013 -1.2048888 -3.4144502 -0.8365379 -1.3472593

bn2.running_var f4 [16]
00000000: 8c84 1741 1ac1 8740 00db 1041 6ae4 e740
00000010: abdf 5241 ed46 0540 33b1 e740 9952 c23f
00000020: 9ccd ef41 675a 3242 b169 1240 e314 7840
00000030: c52f 3d41 6acd 8140 118e 2440 5f55 fe40
9.46986 4.242322 9.053467 7.2466326 13.179606 2.082454 7.240381 1.5181457
29.975395 44.588284 2.287701 3.8762748 11.8241625 4.056325 2.571171 7.9479213

conv3.weight f4 [32, 16, 3, 3]
00000000: 6fa6 c93c bde4 a3bd 26db 31bd b37e 99bd
00000010: 4ee8 93be 119b b4bd 137f 51bd 9abe 2abb
00000020: abc3 823e 2108 d5bd 811a b73a b5de 07be
00000030: b880 953d c5f5 b43d 66e0 10be dbe3 293e
00000040: f3b6 3c3e b23a c63c f5f6 bebd b9fc e9bd
00000050: 9990 1d3e b151 8abd 30c5 32be a511 693d
00000060: afda e03c 6799 3a3d 5ccc 3a3e cf8b 9bbd
00000070: 2d5f 6abe da8a 123e 61bb fabc bb2e 0fbe
00000080: 8e90 783e 0ed7 ee3c 6703 abbd 3f53 3a3e
00000090: 7b89 023e c642 023e 2066 ab3d 82c3 3b3d
000000a0: 2b06 923d 3402 4abd 364e f1bb 1e06 89bd
000000b0: 59b0 c3bd ed10 b1bd 4f0e f7bd 5c2d 5c3e
000000c0: ef96 25be 6676 5fbe a79b f33d 12fe b1be
000000d0: 4c7b 8abe 7bf0 633e 7985 7cbe 5071 13bd
000000e0: 94b6 813e 5123 c3be 6f5b c63d 2436 bf3e
000000f0: b4c6 97be fcec 3a3d f89e 3b3e e936 823e
00000100: da37 df3c 7726 2bbe 0ea8 043e 665e f7bc
00000110: 92f3 4ebe 2ca4 0b3e 04d3 0dbe 8d57 73be
00000120: 7415 80be 4e34 02be 49e9 b73e c1af b1be
00000130: 26ad d5bd 2c8a ba3e 0a9d 25be 6566 1ebd
00000140: 20ca 563e a983 5d3e e45e 983e ed82 663d
00000150: 2bbb c13e 6181 143f afc1 f53d b725 683e
00000160: 7ce4 e53e 7313 a33d 5295 aebd af4d 5dbe
00000170: 41c6 f43c c55c adbe 2072 3bbe 0ea9 083e
00000180: 5401 2fbe 262f 70bd 3af6 dc3d 9257 02be
00000190: 81c7 5cbe 4193 273d d1f0 c1bd 2ce3 1dbe
000001a0: 38ce 103e 4f61 413d 848b a63c 79a2 933e
000001b0: 4f3a a1be 1b05 88be 655d 3ebd bb28 e2be
000001c0: 143f 85be b4c6 28bb 5ce3 52be fd40 5fbb
000001d0: 25cd ec3d e07f 603d 5b89 b1bd 3853 b83c
000001e0: 477e 4c3c 758f c1bd eb34 a63b 481e b83d
000001f0: 8fb1 e1bd afde 013d 8b8a c3bd 456c 793c
00000200: 47a6 d53c 8f95 f6bd eaa8 503e 4460 333c
00000210: 69bf 0abe da7e 983c 721c 74be 24ca 95be
00000220: fd02 9fbd b2b3 bd3d 706e 4abe c097 693b
00000230: a664 dc3d 3a3c c53d de72 533e 82e8 c03e
00000240: bbcd 763e f275 0f3e 82f8 04bd 946e 353e
00000250: 8ac8 e03b 7917 193e 1498 1c3e 79c3 12be
00000260: aeec 453b 7e0a c63c c28d 883d 2f37 e8bc
00000270: 42fd b4bd 5492 3bbd 4556 afbd aa32 34be
00000280: 54b2 e6bd 5b98 68be 1db0 6f3e 7fa5 823e
00000290: 3235 e4bd dde7 1e3e de77 6d3e d910 d0bd
000002a0: cd4d 73bd 8b8d 163c 7a1f 22bd 42cf 1c3e
000002b0: 8728 85be 62d8 fcbe 5972 8b3e 3c75 c43d
000002c0: 5646 3a3c d0d4 603e 5949 b53e 1b92 c93e
000002d0: d1c6 53be d890 763b 333c 943d ccf1 fcbe
000002e0: 5641 15bf e752 a3be 1463 d5be bc09 44bf
000002f0: b451 e9be 77b2 43bc 438f 733d 0af9 d9bb
00000300: 15c1 1abe 51d9 d73d 0694 fc3d 0765 8f3c
00000310: 1876 b23d 1fef b53d c0bc 293e 7e46 283e
00000320: fcbc 88bd e0d5 1abe 9bd2 b73c 9abb 963d
00000330: cd4b d3bd df75 09be 23cb c63d dcf5 aabd
00000340: dedb 873e 5d5e 233e f6d0 6cbe d183 8b3d
00000350: ea76 003e aab9 b6be 1103 73be cb9a 8ebd
00000360: e857 f5bc fe25 64b9 875d 15bd 77d9 4cbe
00000370: b315 f0bd bb07 fd3b abd7 14be 3c02 f6bd
00000380: 256f c23c cd4c 80be 3984 91be 06ac 7b3d
00000390: cc57 c7be 14ce 2ebf 253f d1be 2c69 debc
000003a0: 1a55 f0be feea 2bbf e345 42be 9af0 b5bd
000003b0: 455f 2f3e 42d1 bebd e3ac d63b f0d8 b6bd
000003c0: 5d8d 9a3d 1f76 d3bc 6a22 46be fdd4 143e
000003d0: 7f80 48bc 2b88 843d c1ce 433e b5bd 01be
000003e0: ef06 0e3e c6a6 273e e096 10bc c858 5d3e
000003f0: 3c59 b03d ade0 493e 3e73 853e a2d5 f63d
0.024615495 -0.08002613 -0.043421887 -0.07494869 -0.28888172 -0.08818639 -0.051146578 -0.0026053549
0.25539908 -0.10401941 0.0013969691 -0.1326855 0.07299942 0.08835939 -0.14148101 0.16590826
0.18429165 0.02419791 -0.09324447 -0.11425156 0.15387191 -0.06753863 -0.17458034 0.056901593
0.027448026 0.045556452 0.1824202 -0.07595026 -0.22887869 0.1431078 -0.030606927 -0.1398267
0.24273893 0.02915528 -0.08350258 0.18195818 0.12747757 0.12720785 0.08369088 0.045840748
0.07130083 -0.049318507 -0.00736406 -0.0669062 -0.0955512 -0.086458065 -0.12063276 0.21501678
-0.16170858 -0.21822509 0.11894923 -0.34764153 -0.27047193 0.22259705 -0.24660291 -0.035996735
0.2533461 -0.38112882 0.09685408 0.37345994 -0.29643786 0.045636162 0.1832236 0.25432518
0.027248312 -0.16713892 0.12954733 -0.03019638 -0.20210102 0.13636845 -0.13850027 -0.23763867
-0.25016367 -0.12715265 0.3592017 -0.34704402 -0.10433416 0.36433542 -0.16173187 -0.03867187
0.20975542 0.21632256 0.29759896 0.056277204 0.3783811 0.58009917 0.11999833 0.22670637
0.44900882 0.07962694 -0.08524574 -0.21611665 0.029879691 -0.3385984 -0.18305254 0.13345739
-0.1709035 -0.058638714 0.107891515 -0.12728718 -0.2156048 0.040911917 -0.0946976 -0.1541869
0.14141166 0.04721194 0.020330198 0.28834894 -0.31489798 -0.26566395 -0.046475787 -0.441717
-0.26024687 -0.0025753202 -0.20594543 -0.0034065836 0.11562566 0.05480945 -0.086687766 0.02250062
0.012481279 -0.094511904 0.0050722263 0.08990151 -0.11020195 0.03170651 -0.09547909 0.015223567
0.026080264 -0.12040245 0.20376936 0.0109482445 -0.1354958 0.018615175 -0.23838976 -0.29255784
-0.07764242 0.0926279 -0.19768691 0.0035643429 0.10761385 0.09630628 0.20649287 0.3767739
0.24101917 0.14009836 -0.032463558 0.17717963 0.0068598436 0.1495036 0.15292388 -0.1433238
0.0030200887 0.024174925 0.06667663 -0.028346626 -0.088373676 -0.045793846 -0.085613765 -0.17597452
-0.11264482 -0.22714369 0.23407026 0.25516888 -0.11142959 0.15518136 0.23190257 -0.101594634
-0.05940037 0.00918902 -0.0395808 0.15313438 -0.26007482 -0.49383837 0.27235678 0.09592673
0.011369308 0.21956182 0.35407522 0.39369282 -0.20681311 0.0037622955 0.072380446 -0.49403226
-0.5830282 -0.31899187 -0.41677153 -0.76577353 -0.45570147 -0.011944405 0.059462797 -0.006652002
-0.15112717 0.10539497 0.12332921 0.017504228 0.08713931 0.08883499 0.16575909 0.1643314
-0.06676671 -0.1512065 0.022439292 0.07360001 -0.10317192 -0.1342387 0.09706714 -0.08347675
0.26534933 0.15953965 -0.23126587 0.06812251 0.12545362 -0.35688525 -0.23731638 -0.06963118
-0.029949144 -0.00021757928 -0.036466148 -0.20004831 -0.11722889 0.007721869 -0.14535396 -0.12012145
0.023734638 -0.25058594 -0.2842119 0.06144335 -0.3893417 -0.682832 -0.40868488 -0.02714976
-0.46939927 -0.67155445 -0.18971972 -0.08883782 0.17126186 -0.093172565 0.0065513714 -0.08928096
0.07546494 -0.02581316 -0.19349065 0.14534374 -0.012237667 0.064712845 0.19121839 -0.12670024
0.13869832 0.16372213 -0.008825034 0.21615899 0.0861077 0.19714613 0.26064485 0.12052466

conv3.bias f4 [32]
00000000: ee63 38ba 7464 1dba dd29 bb39 3ab7 a738
00000010: 2cac 353a c7cc c839 d860 d039 2301 1aba
00000020: 76b0 45ba 5c3d cc39 dfd8 17ba 5f5a 7d3a
00000030: ee9f 82b9 8559 893a 45c6 6d38 61e5 be39
00000040: 5da1 533a f6b6 27ba f19e a139 40d9 9eb9
00000050: 3f22 91b8 bf72 493a d217 013a 1f8c 44ba
00000060: 9e11 14b9 830e b1b9 f44e b039 44a1 96b9
00000070: 207a 2b3a 44db 2c38 ddeb 49ba 44f2 3bba
-0.00070339337 -0.00060040434 0.0003569861 7.997309e-05 0.00069302577 0.00038299544 0.00039745006 -0.0005874803
-0.00075412483 0.00038955628 -0.0005792509 0.00096646504 -0.0002491469 0.0010478949 5.6689856e-05 0.00036410525
0.0008073056 -0.0006397808 0.00030826734 -0.00030297972 -6.9205176e-05 0.000768464 0.0004924509 -0.00074976863
-0.00014120943 -0.00033770883 0.0003362816 -0.00028730382 0.00065413304 4.1212203e-05 -0.0007702688 -0.0007169584

bn3.weight f4 [32]
00000000: d9b1 393f 819a a83f 9c2a a93f be76 bd3f
00000010: 8392 5a3f 16ab 593f be19 723f cb0c 9c3f
00000020: e476 4a3f 64b6 3b3f adb3 553f 9907 4f3f
00000030: 2e5c 123f 5619 a83f 049d 4c3f 1085 743f
00000040: d5ee 1b3f 0c69 7d3f 648d 653f d059 5c3f
00000050: 11a8 313f 2f37 303f e045 5a3f 4283 773f
00000060: 4c0e ac3f f706 8d3f 7c4b 103f b378 3a3f
00000070: ff4d 343f 1fba 423f eace 493f 757f 843f
0.72537 1.3172151 1.3216128 1.4801862 0.8537981 0.8502668 0.9457053 1.2191404
0.7908766 0.7332518 0.8347729 0.8087097 0.57171905 1.3132732 0.79927087 0.9551554
0.60911304 0.98988414 0.8966887 0.86074543 0.69397074 0.68834203 0.8526287 0.9668466
1.3441863 1.101775 0.5636518 0.7284042 0.7043151 0.7606525 0.7883135 1.0351397

bn3.bias f4 [32]
00000000: f020 663e 2ded 9bbe 999d 59be ffb2 34be
00000010: 8ed6 ecbd 6ea3 fcbd 3f14 fbbe 9289 18bf
00000020: aa36 cebd af9a 40be f8e3 41be f96b 96bc
00000030: aaf8 ce3e 3ee1 92be f079 44be 41d5 993e
00000040: 39aa 0a3f d3ac 123d d28a ae3c e986 58be
00000050: 4e62 173e e9e6 a13d c544 9ebd 8cb5 62be
00000060: 175d c03d dcfe b7bd e0c0 a03e e7a5 313e
00000070: 966c aa3d a718 83bd 428b acbd a2e6 9cbe
0.22473502 -0.30454388 -0.21251525 -0.17646407 -0.115643606 -0.12335859 -0.49038884 -0.59584916
-0.1006902 -0.18809007 -0.1893462 -0.018362032 0.4042409 -0.2868747 -0.1918714 0.30045512
0.5416599 0.03580935 0.021306429 -0.21145214 0.14783594 0.07905371 -0.077279605 -0.22139567
0.093927555 -0.089841574 0.31397152 0.17348443 0.083214924 -0.064011864 -0.08424999 -0.3064471

bn3.running_mean f4 [32]
00000000: 2744 b93d 372f 1abf 4fc3 20c0 b398 80c0
00000010: 1f7f c63e 45a2 a1bf f11c 6abf 72ac 61c0
00000020: 65ad f1bf 5e67 0540 8376 a9bf 21ef a0c0
00000030: 00c2 803f 0222 3cc0 6331 7f40 bbeb 95bf
00000040: 0860 533f 8f8e 823f aafd c33e d235 9cbf
00000050: 5373 90be 4f2d 35bf f9ee f2be 0443 ffbd
00000060: f82b 6cc0 78f0 f6bb 1fdd cabf 2e9e 0cbf
00000070: e432 c03d 303f 01bf 996e 623f 3a02 9fbf
0.09046202 -0.60228294 -2.5119207 -4.01864 0.3876886 -1.2627646 -0.9145041 -3.5261502
-1.8881041 2.084434 -1.3239292 -5.0291905 1.0059204 -2.9395757 3.9873893 -1.1712564
0.8256841 1.0199755 0.38279468 -1.2203925 -0.28212985 -0.7077226 -0.47447947 -0.12463954
-3.6901836 -0.0075359903 -1.5848731 -0.54928863 0.093847066 -0.5048704 0.8845001 -1.2422554

bn3.running_var f4 [32]
00000000: d772 3840 ba33 e040 8878 0a41 6de6 3c41
00000010: d2ec 8940 cc8d 8840 15b4 4f40 0e9a 6740
00000020: 0c86 6b40 00b6 f03f c026 4b40 52a4 8240
00000030: 5305 4640 3469 b840 4c0b 4e40 adb5 9740
00000040: 2a4d 8940 f5f2 9340 5db6 5940 8900 1940
00000050: 47f7 6140 f84a 8040 5db1 6340 4bf0 7440
00000060: 511d 3b41 6d1c c640 65a8 7440 2d95 3f40
00000070: 1c22 7b40 2ceb 7a40 7b04 1b40 e417 8a40
2.8820093 7.0063143 8.654427 11.806256 4.3101587 4.267309 3.2453663 3.6187778
3.6800566 1.8805542 3.17424 4.0825586 3.094075 5.762842 3.2194395 4.740927
4.2906694 4.623408 3.4017556 2.3906577 3.5307176 4.0091515 3.5577004 3.8271663
11.694657 6.19097 3.822778 2.99348 3.9239569 3.9206038 2.4221485 4.3154163

conv4.weight f4 [32, 32, 3, 3]
00000000: d365 11be 0762 f23d ebba e6bc 48c4 bebc
00000010: 26ca 2b3e 74e1 81bd 7064 903e 7153 803e
00000020: c3f7 843e 484c bfbe 569b 183d 6dbb c83e
00000030: e41e bcbe f7a5 cebd 6bd7 f03e 1e52 6abe
00000040: fff0 c9bd be1f 0d3f b11f 8fbd 57cc 2a3c
00000050: b8f5 e83d 2b2c 14be f166 b6bc 1df1 16be
00000060: 9e0d 163d dba6 3c3e 6e0e 0ebe f40e 9abe
00000070: 8e07 d5bd 3168 a43e 2449 55be f81e eabd
00000080: 2f8e a73e 6f68 a7be 9073 fdbd 8998 b23e
00000090: 7cb2 a63d 6974 813b dc50 bebd af9c 133e
000000a0: 057f 093e 4528 b8bd 0a25 cf3d 238d fb3c
000000b0: 27af 93bc 06a6 663e 328d 55bd beb0 44be
000000c0: c2a5 063d 3954 93bd faba 51be aa17 663e
000000d0: 6d25 e13c 10c4 00be 8c64 6f3c f27f c0bd
000000e0: 08bc d4bd 13b2 98bd 9c44 68bb 9977 c6bd
000000f0: b6da 0abe 4a60 673c 0dcf abbc 45ee 2d3e
00000100: d9fd 75bd c567 cabd 1fb9 433d 35c0 47bd
00000110: 797e 09be efac e13c 6c43 7ebd 6da2 4c3d
00000120: 9a1e 663e df90 01be fe33 7ebe 4980 553e
00000130: 71cc e0bd 8127 50be 97a1 9f3e 8f4a 2b3e
00000140: 83cc aabe e1c2 c3bc eeff b43c 8980 8cbd
00000150: 3425 f73b 89b8 33bc 81c5 30bd 305f 79bd
00000160: 4682 15bd 1798 8ebe 2c89 313d d16a b03d
00000170: 2754 563e 9f79 e5bd 88d7 9fbd 3493 5e3d
00000180: fe23 31be 8778 7abd 398c d33d a441 673e
00000190: ca2a 873d c650 52be 888f 473e 4c80 b63d
000001a0: 087f 593c 3e0d 7ebc 43e4 6fbd a146 fd3d
000001b0: 4b26 3b3d 4457 4cbe f7a2 a4be 18e3 753d
000001c0: 517d 17bd 312d 52bc f072 8e3d 2820 c93c
000001d0: d264 9bbd f35b 16bf 77fc 52bd 9f50 5d3e
000001e0: e841 8abc a339 d3bd 0233 533e 402e 173d
000001f0: 1098 8ebd 9a6c 1d3e ffd1 85be 38fc 343e
00000200: 0d45 893d 8233 b9be 4437 383e 7275 ad3d
00000210: 1467 a2be a2bd 553c af6f 263e b8c9 d1be
00000220: 3a2f a03d c3c0 bd3e ac78 4bbe 25e5 43bd
00000230: 4347 a13e ec29 4bbc a008 993c b473 493c
00000240: 0bb2 193e 8e2d bc3d a8ed 56bd d0a6 d93d
00000250: 4352 dd3d f4f1 8ebe cc4c 97bd e4cb 7bbd
00000260: d184 b2be 4169 3cbe 12e4 9bbd c7f1 163e
00000270: 4338 a0be 43fd 1cbc c253 843e 5bc7 d3bd
00000280: 8369 99bd 98f7 923e 249b 493a 0d7c 26be
00000290: ca05 f5bd b81d 543d 5475 9bbc 6a4c 1d3d
000002a0: d4af 1a3d 4b02 2e3d 50df c83d 172d 473d
000002b0: 860b 3f3d 24a1 64be ade4 373e 6e22 013d
000002c0: 17d9 2abe 6736 233d a4c5 e63c 9ee7 7bbe
000002d0: ef68 80be 6c8f 5f3e d4be 0ebe 7f8c 1f3d
000002e0: b8aa f03d 60b0 eabc 3e64 cabd d888 86bc
000002f0: e991 2bbe cd32 033d 0083 8bbd f242 1fbe
00000300: 34e8 bfbb 599d 0fbd f572 0fbe 6816 943e
00000310: c7fe cb3e b6aa 13be 1900 443e bea5 2ebe
00000320: f425 8ebe dd71 04bd 97ab c33c a89c 88be
00000330: 1cd3 8d3d 93a5 ec3c cdec 01be 483b 383e
00000340: bac2 a93d 36f0 51be b368 0ebe a70b 57bd
00000350: 16fe fc3c 36ff 29bd f507 d83d 0dd8 933e
00000360: 3bcc 9e3d c8c0 05be fbb3 dabe bac1 c93e
00000370: 2cda 493d 2749 99be c6b6 4b3e a5e1 24be
00000380: db7b 7abe 6c32 b4be dc85 3c3e 43f8 823e
00000390: a9dd 11bf d5b8 503d a093 b83e e864 8fbe
000003a0: 8032 7ebd 907d 9d3e 30a0 bf3d eeb5 2fbe
000003b0: d692 cebe 1f8b 193e 8a6c 35be ac35 79be
000003c0: 8a0f 793e b562 16bd 8704 70be 4bd3 3ebd
000003d0: 0721 1d3e 4ff5 52bd da65 7b3c 9e49 053e
000003e0: 0c56 a43d 35a2 d6be 2ed9 99bc e19a 593e
000003f0: 14e5 413e c4b0 553b ad83 8d3e ccd0 1bbc
-0.14198999 0.118351035 -0.028165301 -0.023286954 0.16776332 -0.0634183 0.28201628 0.2506366
0.25970277 -0.37362885 0.037257515 0.39205495 -0.36742318 -0.10090249 0.4703935 -0.22882888
-0.098604195 0.5512656 -0.069884665 0.010424695 0.11374992 -0.14469974 -0.022265883 -0.14740415
0.03663408 0.18423025 -0.13872692 -0.30089533 -0.104018316 0.32110742 -0.20828682 -0.11431688
0.32725665 -0.32696864 -0.123755574 0.34882 0.08139512 0.0039506448 -0.092927665 0.14415239
0.1342736 -0.08992056 0.101144865 0.030706948 -0.018027855 0.2252427 -0.052136607 -0.19208047
0.032872923 -0.071937986 -0.20481482 0.22469965 0.027483666 -0.12574792 0.014611375 -0.09399404
-0.103874266 -0.0745584 -0.0035441285 -0.0969078 -0.13559994 0.014122078 -0.020972753 0.16985424
-0.06005654 -0.09883074 0.047783967 -0.048767287 -0.13427152 0.027548281 -0.062076017 0.04995959
0.22472611 -0.1265292 -0.24824521 0.20849718 -0.10976494 -0.2032757 0.3117797 0.1672766
-0.33359155 -0.023896636 0.022094693 -0.06860454 0.0075422768 -0.01096929 -0.043157104 -0.060881793
-0.03650119 -0.2785041 0.043343708 0.086141236 0.20930539 -0.11204838 -0.07804781 0.054339603
-0.17298886 -0.0611501 0.1032948 0.22583634 0.06599958 -0.20538625 0.19488347 0.089111894
0.0132749155 -0.015506087 -0.058567297 0.12366987 0.045690816 -0.19955164 -0.32155582 0.060031027
-0.036984745 -0.012828157 0.06955516 0.024551466 -0.07587589 -0.58734053 -0.0515103 0.21612786
-0.01687713 -0.10313728 0.20624927 0.03690934 -0.06962597 0.1537346 -0.26136777 0.17674339
0.067026235 -0.3617211 0.17989832 0.084696665 -0.31719267 0.0130457 0.16253541 -0.40974212
0.07821508 0.37061128 -0.19870251 -0.04782595 0.3149968 -0.012400132 0.01868087 0.012295652
0.15009324 0.09188376 -0.05247274 0.1062752 0.10806706 -0.2791897 -0.07387695 -0.061473742
-0.34866956 -0.18399526 -0.0761186 0.14740668 -0.31292924 -0.009581867 0.25845152 -0.103407584
-0.07490828 0.28704524 0.0007690659 -0.16258259 -0.11963995 0.051786155 -0.018976845 0.038402952
0.03776534 0.042482655 0.098082185 0.048626985 0.04664185 -0.22327095 0.17958327 0.031526975
-0.16684376 0.039846804 0.028170414 -0.24600074 -0.25080058 0.21832055 -0.13939983 0.038952347
0.11751312 -0.028648555 -0.09882401 -0.016422674 -0.16754879 0.03203087 -0.06812096 -0.15552881
-0.005856538 -0.035062168 -0.14008696 0.28923345 0.39842817 -0.1442059 0.19140662 -0.17055413
-0.2776333 -0.03233515 0.023885531 -0.2668202 0.069250315 0.028887546 -0.12687989 0.17991364
0.08289094 -0.2050179 -0.13907127 -0.052501347 0.030882876 -0.041503154 0.10548393 0.2887577
0.077537976 -0.13061821 -0.4271544 0.39405614 0.04928033 -0.29938623 0.19893941 -0.16101702
-0.2446131 -0.3519472 0.18410438 0.25580034 -0.5697885 0.05095752 0.3605013 -0.28006673
-0.06205988 0.3075986 0.09356725 -0.17159244 -0.40346402 0.14994477 -0.17717186 -0.2433688
0.24322334 -0.036715228 -0.23439227 -0.046588223 0.1534463 -0.051503476 0.0153441075 0.13016364
0.08024225 -0.4192063 -0.018780317 0.21250488 0.18935043 0.0032606581 0.27639523 -0.00951023

conv4.bias f4 [32]
00000000: b148 323a f1ac b2b9 4b78 e639 7d3c 19ba
00000010: aec2 b338 c1a8 37ba ce1d a239 5284 bbb9
00000020: b935 3b3a 705e 23ba 7a55 a839 6b40 78b9
00000030: fe73 e6b9 f211 0738 55e2 3cba 819b 39ba
00000040: 47b1 0cba 1965 21ba 72fa 1a39 c5b7 2db9
00000050: 20e1 3f3a ba48 9ab9 d59d 25ba c2ea c939
00000060: 20ba 6439 f808 7a39 d819 8db9 ad2d 31ba
00000070: c0f3 163a 87f3 9439 ae45 c1b9 01e6 2fba
0.0006800993 -0.00034079657 0.00043958644 -0.00058455 8.571647e-05 -0.0007006042 0.00030921254 -0.00035766006
0.0007141489 -0.0006232029 0.00032107142 -0.0002367512 -0.0004395544 3.220322e-05 -0.0007205357 -0.0007080362
-0.00053669926 -0.00061567273 0.00014779883 -0.00016567025 0.0007319618 -0.00029427354 -0.00063177693 0.00038512616
0.00021813111 0.00023845199 -0.0002691287 -0.00067588204 0.00057583675 0.00028410202 -0.00036863744 -0.00067099935

bn4.weight f4 [32]
00000000: 4d0d 913f 25f0 813f 214c 5c3f b003 423f
00000010: a1f7 603f 4512 b33f 3a0c 5f3f a45b 713f
00000020: e6fc 803f 2305 513f 413d 5c3f 84b1 5c3f
00000030: 732b 4d3f dfac 613f 7f74 913f d6c5 733f
00000040: 3ec2 673f 9c19 3a3f 1c69 3a3f 6bb8 533f
00000050: f7d3 843f 12f4 833f 62c9 7e3f 6fd3 803f
00000060: 54b9 843f fbc8 743f 4cb2 663f 5088 7c3f
00000070: 0cd1 873f 21c7 663f 487b 713f ad5b 7d3f
1.1332184 1.0151411 0.86053663 0.75786877 0.8787785 1.398995 0.8712803 0.9428046
1.0077178 0.81648463 0.86030966 0.8620837 0.80144423 0.88154405 1.1363677 0.9522375
0.90530765 0.72695327 0.72816634 0.82703274 1.0377187 1.0308859 0.99526036 1.0064524
1.0369058 0.9561917 0.9011581 0.98645496 1.0610671 0.90147597 0.9432874 0.9896801

bn4.bias f4 [32]
00000000: 90f1 febd 3e07 b6be 821d 013e 1cc8 a3bd
00000010: 30f7 47bc 6fcc 8abf 243f 34be ca7f 2dbe
00000020: 5151 5d3d 5e9b 8ebd 8e41 4b3e 7803 e2bb
00000030: e1ae a1bc 6d13 28be 7f95 7dbe 693a c73d
00000040: d76f 4e3d 6be4 443e 8764 b23e 7e57 a63d
00000050: 5a2e 9dbe d30d d9be cca9 25be a2ad bfbe
00000060: 2d4f 9abe f87f 3dbe e37c 47bd 1a6d 223d
00000070: 3798 e5be 86c0 87bd 7fa8 f2bd a497 b4be
-0.12448418 -0.355524 0.12608913 -0.07997152 -0.01220493 -1.0843638 -0.17602211 -0.16943279
0.054032627 -0.06963228 0.19849226 -0.006897386 -0.01973671 -0.1641366 -0.2476406 0.09727938
0.050399628 0.1922776 0.3484232 0.081221566 -0.30699426 -0.4239336 -0.16178054 -0.3743716
-0.3013853 -0.18505847 -0.048703086 0.03965483 -0.44842693 -0.06628518 -0.11848544 -0.35271943

bn4.running_mean f4 [32]
00000000: 94e3 6cbf 684a 8ebf 7faf 0f3f d877 c8bd
00000010: 4488 98bf 315c e3bd 20cb c1bf b0e0 55c0
00000020: 7ac6 6b3f 25c6 523f 10a5 f63e c624 4d3f
00000030: 0e55 88bf 0822 3dbf 90b8 22bf 79c2 0ebf
00000040: 3176 c2bf 6112 153f 978a acbd 69fb 703f
00000050: 6610 153f 569e 9cbf b36b 0a3f 80ff 84bf
00000060: ba61 6abf f991 3ebe 5155 e33f aa6a 6c3f
00000070: 9913 2bbf 76bc a1bf f0d5 d4be 9ae2 babf
-0.92534757 -1.1116457 0.5612716 -0.097884834 -1.1916585 -0.111015685 -1.5140114 -3.3418388
0.92099726 0.82333595 0.48172808 0.80134237 -1.0650957 -0.7388005 -0.6356287 -0.5576549
-1.5192319 0.5823117 -0.084248714 0.9413362 0.5822815 -1.223582 0.54070586 -1.0390472
-0.9155537 -0.18610372 1.7760412 0.92350256 -0.6682678 -1.2635639 -0.4156947 -1.4600403

bn4.running_var f4 [32]
00000000: 5838 7940 0a23 2840 8bfe 1b40 4d4f 0640
00000010: b38f 3940 641b 2140 f35b 2b40 2ef4 1c40
00000020: 5f21 5740 c8ec 0e40 adee 9040 22c0 4440
00000030: fb1d e13f 1db6 4340 2621 8040 a39d 4440
00000040: 5200 4640 e690 3e40 e620 6140 a6a7 5040
00000050: 28e6 6240 4dfa 1a40 003e 7a40 342c 2840
00000060: 63cd 2840 1a9b 4c40 d1bc 4640 95c4 2640
00000070: ea8c 3a40 6315 6440 0919 3540 c923 2540
3.894064 2.6271386 2.437411 2.0985901 2.8993957 2.5172968 2.6774871 2.4524035
3.3614118 2.233202 4.529135 3.0742269 1.7587274 3.0579903 4.0040464 3.0721214
3.0937696 2.977594 3.517633 3.2602324 3.5452976 2.4215271 3.9100342 2.627698
2.6375358 3.1969666 3.1052744 2.6057484 2.9148507 3.5638053 2.829653 2.5803092

conv5.weight f4 [32, 32, 3, 3]
00000000: ada0 4b3e 1513 113e 8e3a 183e 9bdb 523d
00000010: 1439 10bd 2d81 e0bd f0ef 10be 2129 50bd
00000020: a259 2ebe 2947 ffbe 4c60 21bd 24df d03e
00000030: d667 7fbe 3844 9f3d 05f8 923e cf66 9fbd
00000040: 95ca e63d 1bf0 03bc eea3 05be 4c31 503d
00000050: 0b6d 2e3e 8013 b83c ccc1 a3bd fdff 7d3d
00000060: 4ac3 a93d e3c9 c7bd 24ce ff3d de92 9a3d
00000070: bf6a 9e3d f998 583e 5b96 c2bd 8990 78bd
00000080: 6072 25bd c747 fd3b a909 9a3c 8197 bb3d
00000090: 1280 593e fc6f 303c c6b0 e9bd c98c c23d
000000a0: 6e33 103c 3573 aabc c55b 22be 496d ebbd
000000b0: 2f1f debd 5fd7 4b3e 111b 1cbe 7510 16bd
000000c0: f29a a43b 2988 d7bd f37a 5cbd 9c7e 1fbe
000000d0: c995 84bd 3778 403d f4c9 873e 09ed fcbd
000000e0: 90be 83be b001 573e 8438 e7bd 1cbc 2dbe
000000f0: c2a4 283d f149 2dbe 4b05 d9bd bdd0 b03b
00000100: 8179 323e 72f9 ae3e 51de f13d 5161 853e
00000110: 9e87 c03e 3ca5 78bd b3ec 133e 42cc c03e
00000120: 6824 ff3c ee5e 20bd bbdb d63b 88ce 083e
00000130: 6ae5 cdbc 6812 cd3c 6a29 9d3e 35f6 0a3e
00000140: b754 a93d 0b4f 0cbb 342d 1fbd 007e 07be
00000150: 7892 003d 3be9 abbc a652 a7bd b12b b03b
00000160: a747 00be 58d8 1cbd f95d 79be 9b1f 8f3d
00000170: d7a1 3e3e 13b6 a6be 0c24 60bc cea0 913e
00000180: cda3 f2be 35a8 f3bc 04bb 8d3e ae7c 9ebd
00000190: 2dae 66bc 2fbd 4f3e bc76 203c 6a77 793d
000001a0: e933 acbb a315 c23c 9baa 46bc 8539 043d
000001b0: bc8e 70bd 5f48 c0bd 20e5 86be 08c1 2ebe
000001c0: 6152 5abe eabf 3bbe dac4 82bd d62d 21bd
000001d0: c428 e4bd 8f3c bd3d ddde a43e 4fc7 5e3e
000001e0: 13b7 7e3d 5b80 e53d 8843 263c a376 003e
000001f0: dde2 6d3c a118 a13c b293 87bd 0ca1 dabd
00000200: fb80 7b3d 1a61 5dbe 4dd0 e2bc ff2f d83d
00000210: 67b0 a1be 5f02 20be c9bc 0b3b ef42 3a3e
00000220: 9ef1 753d 2daa 803e c4a4 363d 9afd 8b3d
00000230: 7f15 8e3e 962c 2b3b debc c7bd 4fc6 273e
00000240: 5b44 2c3e 2a88 513d 3d5b e3be 7f49 983c
00000250: 397d 9dbd 5ec7 1bbe 3e16 c23d 3f02 77bc
00000260: d68f 84be 8b46 32bd b73d ffbd 0d8a 0bbe
00000270: 6d20 07be d8aa 22be 710f 90bd ba9e 1bbe
00000280: 22f1 84bd 9248 15bd 3277 913e 6531 f13d
00000290: cc26 3abe 0b5a c83d 98fb 1c3d a30e e5bd
000002a0: fafe 073e 39ec 903d 8484 e93c 731d 913b
000002b0: 30a3 cbbd d36b bcbe d878 603e 471b 0cbc
000002c0: 35cc efbd 380c 273e 4695 303d e142 353e
000002d0: 593c 843e 02ba 78bd 03fc 23bf b881 ee3d
000002e0: 2aef 51bd e0bb dbbd 67f3 1b3e 7f86 ce3c
000002f0: 5bb5 1dbb 4115 8fbe 27c3 acbe c58e 9fbe
00000300: b68e 41be 1b8f 50be 6a24 41be 184e 49be
00000310: 8ef4 85be 883b f9bd 2cad 383d f408 c7bd
00000320: b732 453e c3b4 793c c1af cabd 7529 913d
00000330: bed0 0b3e 3e7a 973d 4530 573d d711 6c3d
00000340: f9fb 9c3d 3110 c73d 3118 6d3d 9a70 d73c
00000350: ddc0 433c 9adf 03be 2979 23be 4000 7fbd
00000360: 7e84 e13d 7ad0 4cbd 287d ebbe 78da 013d
00000370: a1f9 9f3c 2e36 72be 65b0 cc3d e049 ea3d
00000380: 2801 6dbe 05d1 723e 6adf 1e3e c3a2 ea3d
00000390: c0b5 393e 5e04 fe3d 006f 863b 91b0 203c
000003a0: 0074 003e 3772 dc3d 0483 46bd 3771 6fbe
000003b0: 9406 a3bd c63d 833d 65f2 72bd e718 5fbc
000003c0: 1c85 043e 596a 73bd f70a 05be ae1f a93e
000003d0: 10a2 973e ac33 41bd 4641 c3bc c62d d93d
000003e0: 8e7c 823c 6071 cebd ad24 193b ce3f 8ebd
000003f0: eec9 00be ed94 50be 328c a43c 2275 b4bc
0.19885512 0.14167435 0.14866087 0.051478963 -0.035210684 -0.10962138 -0.14154029 -0.050820474
-0.1702638 -0.49858978 -0.039398476 0.40795243 -0.24941954 0.077766836 0.2870485 -0.07783281
0.11269108 -0.008052851 -0.13050815 0.050828263 0.17033784 0.022470236 -0.07995948 0.062011708
0.082892016 -0.09755304 0.1249049 0.07547544 0.07735204 0.21152104 -0.09501334 -0.060684714
-0.04039228 0.007729504 0.018803434 0.091597565 0.21240261 0.010768887 -0.1141067 0.09499509
0.008801324 -0.020806888 -0.1585532 -0.11495454 -0.108457915 0.19906376 -0.152447 -0.03663679
0.0050233537 -0.10524017 -0.05382819 -0.15575641 -0.06473882 0.046989646 0.26521266 -0.12349898
-0.25731325 0.20996737 -0.112900764 -0.1696629 0.04117275 -0.16922738 -0.10596713 0.0053959773
0.17429163 0.34174687 0.118099816 0.2605081 0.37603468 -0.060704455 0.14445762 0.37655836
0.03114529 -0.039153032 0.0065569556 0.13360035 -0.025133807 0.02503319 0.3069566 0.13570483
0.08268111 -0.0021409418 -0.03886147 -0.13231659 0.031389683 -0.020985236 -0.08170061 0.005376302
-0.12527333 -0.03829226 -0.24352254 0.0698845 0.18616425 -0.32560787 -0.013680469 0.28442997
-0.47390595 -0.029743293 0.27681744 -0.077386245 -0.014079613 0.20287012 0.0097939335 0.060904898
-0.0052552116 0.023691958 -0.012125636 0.032281417 -0.058729872 -0.09388804 -0.26346684 -0.17065823
-0.21320488 -0.18334928 -0.06385203 -0.039350353 -0.11140588 0.09240066 0.3220128 0.21755718
0.062186312 0.112061225 0.010147937 0.12545256 0.01451942 0.019665064 -0.066199675 -0.106752485
0.061402302 -0.21619073 -0.027687216 0.105560295 -0.31579897 -0.15625905 0.0021322242 0.18189596
0.060044877 0.25129834 0.044590726 0.0683548 0.27750775 0.0026119105 -0.097528204 0.16384242
0.1682295 0.051155247 -0.44405547 0.018589733 -0.076899 -0.15212771 0.094768986 -0.015076219
-0.25890988 -0.043524306 -0.12462943 -0.13626881 -0.13195963 -0.15885484 -0.07034195 -0.15197268
-0.06491305 -0.03644616 0.2841125 0.117769994 -0.18178862 0.09782799 0.038325876 -0.11184432
0.1328086 0.07076306 0.028505571 0.0044285594 -0.09943235 -0.36801013 0.21921098 -0.008551425
-0.11708871 0.16313255 0.04311111 0.17701294 0.25827292 -0.060724266 -0.64056414 0.11645836
-0.051253475 -0.10729194 0.1522957 0.025210617 -0.0024064395 -0.27945903 -0.3374264 -0.31163612
-0.18902096 -0.2036709 -0.18861547 -0.19658697 -0.26163143 -0.12169558 0.045087025 -0.097185045
0.19257627 0.015240851 -0.09896804 0.070879854 0.13653848 0.07396363 0.052536268 0.0576342
0.076652475 0.09719885 0.0578844 0.02629881 0.011947838 -0.12878266 -0.15964188 -0.062256098
0.11011599 -0.050003506 -0.45993924 0.03170249 0.019528212 -0.2365348 0.09994582 0.11439872
-0.23144972 0.23712547 0.15514913 0.114568256 0.18135738 0.12403177 0.0041025877 0.009807722
0.1254425 0.10763972 -0.04846479 -0.23383032 -0.07960239 0.06408267 -0.059313197 -0.013616777
0.12941402 -0.059427593 -0.12992464 0.33031982 0.2961583 -0.04716842 -0.023834836 0.10604434
0.015928533 -0.10080218 0.0023367808 -0.069457635 -0.1257703 -0.2036931 0.020086382 -0.02202851

conv5.bias f4 [32]
00000000: ea15 f9b8 6ef8 87b9 e64e c0b8 7bcd 6239
00000010: acd7 89b9 68b8 1439 7b7f a9b9 3647 d7b7
00000020: f33e 04b9 3da6 ae39 1ca4 1fba a2b4 10ba
00000030: 24ac bc39 a69e 033a 7a83 b938 b1e4 15ba
00000040: 7b18 263a fe12 9a37 785e aa38 6aca 023a
00000050: a3b7 7bb9 a7a8 8bb9 a1e5 a239 d1f1 ff39
00000060: d019 153a e935 bfb9 dd60 db39 ffef 403a
00000070: 3c01 42ba 5070 8bb9 514d edb9 c1d6 7a39
-0.00011877327 -0.000259343 -9.1699694e-05 0.00021629587 -0.00026291364 0.00014183077 -0.00032329172 -2.5663157e-05
-0.00012611951 0.00033311723 -0.0006089823 -0.00055200804 0.0003598641 0.0005020894 8.845977e-05 -0.00057179766
0.00063360453 1.8367075e-05 8.123828e-05 0.00049892685 -0.00024005635 -0.00026637802 0.00031070135 0.00048817557
0.0005687745 -0.00036470525 0.00041843104 0.0007359981 -0.00074006966 -0.00026595825 -0.00045261768 0.0002392186

bn5.weight f4 [32]
00000000: d44b 603f 51ea 1d3f c910 3f3f fe40 6e3f
00000010: f5eb 313f bfbb 403f e73f 5b3f c988 5c3f
00000020: c269 6f3f 35bd 673f 4ba0 573f b88c 913f
00000030: 9d5b 7a3f c960 783f ea9d 653f 13ce 313f
00000040: 7a6b 493f f55b 5e3f 8df0 713f e1e3 633f
00000050: 6601 473f d90a 7d3f c37a 433f 9da9 613f
00000060: 5d15 6e3f d567 313f d590 3a3f f46a 503f
00000070: 600a 133f 5619 2b3f f518 253f aead 6c3f
0.87615705 0.61685663 0.7463499 0.9306792 0.69500667 0.7528648 0.8564438 0.8614622
0.9352075 0.9052308 0.8422896 1.1371069 0.9779604 0.9702268 0.8969408 0.6945507
0.7867962 0.86859065 0.94507676 0.8901959 0.7773651 0.9884468 0.76359195 0.88149434
0.9300135 0.6929906 0.72877246 0.814132 0.57437706 0.66835535 0.64491206 0.92452514

bn5.bias f4 [32]
00000000: 901e dd3e b6a6 163f 4ae7 3a3e 1434 16bd
00000010: cca1 ec3e c764 143e ecc9 9e3c 234d 4d3d
00000020: 418c 99bd d2ab 79bc 2ae8 a83e c95e e3be
00000030: 91db c5be 1864 ccbe bf62 613e 42f6 d33e
00000040: f0ea 5d3e a3b5 d6bc 04e9 78bc dcc3 283f
00000050: 4253 583e b078 52be e7f0 893e d7be cbbd
00000060: 22ab cabd 6301 0a3f 91bb 1d3e 8e39 033f
00000070: 663a 573f 4c89 0d3f 26eb 013f 6c11 7abe
0.4318738 0.5884813 0.18252292 -0.03667076 0.4621719 0.14491569 0.019383393 0.05012239
-0.074974544 -0.015238719 0.32989627 -0.44408253 -0.38644078 -0.39920115 0.22010325 0.41398817
0.21671653 -0.026209658 -0.015192274 0.6592386 0.2112551 -0.20553851 0.26941606 -0.09948509
-0.09895922 0.53908366 0.15403582 0.51259696 0.84073484 0.55287623 0.50749433 -0.24420708

bn5.running_mean f4 [32]
00000000: 7d04 36be 4315 2e3d b6ca 5c3f c8de 9ac0
00000010: 158e 933f 745d 09bf 677e 14be e33d 07bf
00000020: 5e3a d7bf 20b2 eebe 697c 243f f4f4 1ec0
00000030: 61be 0fc0 a09c 9e3f 507a a740 07df 81be
00000040: 99db 15c0 9eef d73d b5bb 1cc0 1d89 ecbf
00000050: ef5d 87bf dd9b 20be 4cd1 c6bf 6026 8abf
00000060: 4f32 583f 1f05 cd3f c6b4 d7bd 60c1 06c0
00000070: 7003 0ac0 26ee ae3f b7c2 bfbe fc1d 1cbf
-0.1777515 0.042500746 0.8624681 -4.839695 1.1527735 -0.53658223 -0.14501344 -0.52828807
-1.6814687 -0.46620274 0.64252335 -2.4837008 -2.2459948 1.2391548 5.2336807 -0.2536547
-2.3415282 0.1054375 -2.4489567 -1.8479344 -1.0575541 -0.15684457 -1.5532622 -1.0792961
0.84451765 1.6017188 -0.10532527 -2.1055527 -2.1564598 1.3666427 -0.37453243 -0.6098325

bn5.running_var f4 [32]
00000000: 4f41 9e40 7796 4240 22fa 3d40 d244 9240
00000010: c513 6540 0952 3e40 a378 3740 a37d 5a40
00000020: 7ae3 3a40 ae50 5f40 1d6b a440 7e35 7a40
00000030: 10ce 4540 bd5b 3440 8fab 8d40 781b 5f40
00000040: b8a5 5c40 08ba 5740 e991 7140 d6c2 ba40
00000050: 1551 5440 dd3c 6b40 7d29 5e40 e10d 4140
00000060: 686f 3b40 4451 3340 4e83 3240 a066 a140
00000070: e465 6640 c808 3840 da03 5b40 a378 4a40
4.9454722 3.0404336 2.968392 4.570901 3.5793316 2.973757 2.866738 3.4139183
2.920134 3.4892993 5.1380754 3.909515 3.090702 2.8180993 4.427192 3.4860516
3.4476147 3.3707294 3.7745306 5.8362837 3.3174489 3.6755898 3.4712822 3.016472
2.9286747 2.801835 2.7892642 5.0437775 3.599969 2.875536 3.42211 3.163613
