model_weights/Tiny10/CIFAR10/in19-gn19/110000.pt (torch_old, 358762 bytes, 50 tensors)

conv1.weight f4 [16, 3, 3, 3]
-0.27094665 1.0292335 0.084988564 0.42249906 -2.1705427 1.2780933 -0.78635937 0.41642785
0.15372868 0.08775181 0.2747229 -0.45038489 0.92852646 -2.5911708 0.09118289 0.6070842
0.7670791 0.1962377 -0.43663976 0.60077167 -0.07147275 0.5769633 -0.766279 0.6313655
-0.110340714 0.065800875 -0.42158183 0.011682535 -0.044309564 0.11372914 0.31151712 0.17321266
-0.07306251 0.37613338 0.17425098 -0.015280071 0.07733521 -0.32123175 -0.44003692 0.18621327
-0.45970714 -0.8811325 0.27010396 -0.33872327 -0.5979095 0.5339655 0.2182808 -0.26883712
0.8706001 0.38334018 -0.3800812 0.58180076 0.14574474 -0.32208365 -0.85744184 -1.4263725
-0.49646607 0.0030800474 -0.3964872 0.04629927 0.8654533 0.81563693 1.0023893 0.043798182
-0.17079566 0.35554656 0.22844136 -0.38032022 0.3046208 0.20696831 -0.5635767 0.47073442
0.8754953 0.9039085 0.53917074 0.55047786 -0.24206346 -0.06105866 -0.3198228 -1.6746118
-0.7196518 0.21205686 -0.31448865 -0.06884792 -0.3215256 -0.37346643 0.6057835 0.16843924
-0.2370973 0.22538406 -0.056724243 -0.25268355 0.45336488 -0.86171246 -0.3260233 1.1584778
-0.38653567 -0.2494139 0.54812473 -0.43249723 -0.35914654 0.7396819 -1.1396701 -0.33186352
1.3874712 -0.41638443 -0.10545215 0.74576604 0.7268839 0.4283816 -0.37184957 0.1663466
-0.6866869 -0.419303 0.40201876 -0.047322568 -0.31738564 -0.61177564 0.4338331 1.0535313
-1.4306166 -0.5642389 0.99176 -0.8648035 0.258771 0.9384923 0.63181996 -0.032750186
-0.5567157 0.5460814 -0.42503738 -0.791514 0.6411866 0.36633933 -0.5557312 -0.045190364
-0.09022 0.18391688 0.043440286 0.07981815 0.23565118 0.39300328 0.20962404 0.2857512
-0.3892003 -0.39517072 -0.11262425 -0.6733672 -0.6794174 -0.3630585 -0.35378194 -0.52176356
-0.20070828 0.16008857 0.2815762 0.42925465 0.20928255 0.30624124 0.43609297 0.3754873
0.27260137 0.45415536 -0.6435211 -0.39958394 -0.03685847 -0.8253895 -0.13646524 0.29920617
-0.17150466 0.42536688 0.507503 0.14711288 0.12555403 0.05941294 0.2818046 0.30317715
0.14948754 0.35757303 0.18755974 -0.18827222 0.25528795 0.3550376 0.052982014 0.048847586
0.06371865 -0.23445003 0.011435313 -0.29565018 -0.7444307 0.3373948 0.16631557 0.1972565
0.14357841 -0.40214306 0.20987569 0.13951613 -0.32772982 -0.12598167 -0.10079725 -0.46128765
-0.25801262 -0.33467343 -0.91506976 0.0052320505 0.30468953 -0.069488 0.4580549 0.23196727
0.18644114 0.026364204 -0.17686468 -0.34678653 0.36253136 -0.15765768 -0.3274575 0.04026514
0.3047871 1.5079871 0.52360827 0.4789055 1.3113735 0.120774835 -0.5791863 -0.5395301
-0.72715324 -0.78685945 -1.0990866 -0.6148713 -0.29133323 -0.4480509 -0.39765325 0.38953218
0.34753495 0.695603 0.09615208 -0.48220095 0.118010156 0.116215274 -0.116456285 -0.046771996
0.048374046 -0.079583935 0.25158274 0.060352065 0.1799435 0.33696648 0.58929455 -0.7484086
-0.9496175 0.89176416 -0.18879758 -0.46314433 0.33458242 0.456853 0.57538515 0.5902155
00000000: 85b9 8abe ecbd 833f 7c0e ae3d cc51 d83e
00000010: 2cea 0ac0 9098 a33f d94e 49bf 0836 d53e
00000020: 0d6b 1d3e 39b7 b33d 7ba8 8c3e d998 e6be
00000030: e9b3 6d3f bed5 25c0 18be ba3d df69 1b3f
00000040: 4c5f 443f 89f2 483e 3f8f dfbe 2ccc 193f
00000050: 4e60 92bd deb3 133f dc2a 44bf 2ba1 213f
00000060: 50fa e1bd 9cc2 863d 93d9 d7be 1a68 3f3c
00000070: f27d 35bd d3ea e83d 2c7f 9f3e a95e 313e
00000080: cca1 95bd 8e94 c03e d96e 323e 4359 7abc
00000090: ec61 9e3d 7d78 a4be 854c e1be b1ae 3e3e
000000a0: bc5e ebbe e691 61bf 114b 8a3e 236d adbe
000000b0: 9910 19bf f7b1 083f 0185 5f3e 05a5 89be
000000c0: a6df 5e3f 2a45 c43e 019a c2be e5f0 143f
000000d0: 1c3e 153e 26e8 a4be 4f81 5bbf 6093 b6bf
000000e0: cd30 febe 9fda 493b 5f00 cbbe 4ea4 3d3d
000000f0: 598e 5d3f 95cd 503f 4b4e 803f b965 333d
00000100: 0fe5 2ebe 330a b63e 88ec 693e 55b9 c2be
00000110: 42f7 9b3e 80ef 533e 9046 10bf 1a04 f13e
00000120: 7620 603f 8c66 673f 1807 0a3f 1eec 0c3f
00000130: 7cdf 77be a518 7abd d0bf a3be ae59 d6bf
00000140: 1a3b 38bf 6f25 593e a804 a1be 2300 8dbd
00000150: 019f a4be fe36 bfbe a114 1b3f 567b 2c3e
00000160: a2c9 72be 14cb 663e ae57 68bd bd5f 81be
00000170: 711f e83e 3099 5cbf 87ec a6be 0049 943f
00000180: 01e8 c5be 5b66 7fbe e751 0c3f 4770 ddbe
00000190: 0ee2 b7be cb5b 3d3f b6e0 91bf 04ea a9be
000001a0: a898 b13f 5730 d5be 4cf7 d7bd 86ea 3e3f
000001b0: 1015 3a3f d554 db3e 1163 bebe c356 2a3e
000001c0: b6ca 2fbf e2ae d6be 67d5 cd3e 4fd5 41bd
000001d0: 5f80 a2be 549d 1cbf 5f1f de3e 1dda 863f
000001e0: 721e b7bf f671 10bf fce3 7d3f c363 5dbf
000001f0: a27d 843e 0841 703f f4be 213f 0f25 06bd
00000200: ec84 0ebf fecb 0b3f 809e d9be a9a0 4abf
00000210: ce24 243f d490 bb3e 6644 0ebf 8819 39bd
00000220: 43c5 b8bd b554 3c3e 71ee 313d b377 a33d
00000230: 8b4e 713e ba37 c93e afa7 563e fb4d 923e
00000240: 4345 c7be d153 cabe 8ba7 e6bd cb61 2cbf
00000250: 4cee 2dbf cee2 b9be e822 b5be 4c92 05bf
00000260: 7986 4dbe 42ee 233e c12a 903e 44c7 db3e
00000270: 2a4e 563e a7cb 9c3e 9447 df3e df3f c03e
00000280: 6892 8b3e 0d87 e83e ccbd 24bf 4496 ccbe
00000290: e8f8 16bd ba4c 53bf 8bbd 0bbe 8d31 993e
000002a0: eb9e 2fbe b0c9 d93e b7eb 013f c2a4 163e
000002b0: 3c91 003e fc5a 733d b148 903e 093a 9b3e
000002c0: 4313 193e d013 b73e a90f 403e 6fca 40be
000002d0: 1ab5 823e 7dc7 b53e ab03 593d 6814 483d
000002e0: ec7e 823d ab13 70be 2e5b 3b3c 765f 97be
000002f0: 0393 3ebf 03bf ac3e a14e 2a3e 9cfd 493e
00000300: 3806 133e b2e5 cdbe a7e9 563e 51dd 0e3e
00000310: 34cc a7be 5701 01be ca6e cebd e52d ecbe
00000320: 3b1a 84be 515a abbe 0342 6abf 9f71 ab3b
00000330: 4400 9c3e b94f 8ebd 2c86 ea3e d488 6d3e
00000340: 6dea 3e3e bef9 d73c 041c 35be 018e b1be
00000350: b69d b93e 0471 21be 82a8 a7be 0fed 243d
00000360: 0e0d 9c3e b905 c13f 310b 063f 1a33 f53e
00000370: 16db a73f cc58 f73d 8e45 14bf a51e 0abf
00000380: b726 3abf 9f6f 49bf dfae 8cbf 3568 1dbf
00000390: a129 95be ed66 e5be 3599 cbbe c370 c73e
000003a0: 1af0 b13e 0a13 323f 62eb c43d 0be3 f6be
000003b0: 4faf f13d 4602 ee3d a280 eebd fe93 3fbd
000003c0: dd23 463d e7fc a2bd 74cf 803e ba33 773d
000003d0: 1c43 383e df86 ac3e 02dc 163f b597 3fbf
000003e0: 221a 73bf a84a 643f 2754 41be 4121 edbe
000003f0: 634e ab3e a3e8 e93e 714c 133f 5d18 173f

conv1.bias f4 [16]
-0.00037617193 0.0020153425 0.0008262159 -0.0021856108 -0.00034076092 0.0015232615 -0.0019656532 0.0011820216
-0.002105845 -0.0019466643 0.0018733284 0.0002684264 0.0010878097 0.0022928016 0.0014984477 -0.0022284999
00000000: f138 c5b9 d613 043b 6996 583a 773c 0fbb
00000010: 28a8 b2b9 2da8 c73a 30d2 00bb 10ee 9a3a
00000020: 3702 0abb 3727 ffba 788a f53a 95bb 8c39
00000030: d694 8e3a d442 163b 9067 c43a 060c 12bb

bn1.weight f4 [16]
1.3799073 0.6016073 0.79242504 0.885171 0.9035522 0.41266137 0.5880224 0.8837637
0.5235973 0.8932887 0.50705665 1.1614516 0.52294713 0.7064984 0.6036319 0.6198657
00000000: cda0 b03f f002 1a3f 5edc 4a3f 919a 623f
00000010: 324f 673f 5a48 d33e a388 163f 563e 623f
00000020: 790a 063f 91ae 643f 77ce 013f 72aa 943f
00000030: dddf 053f 14dd 343f 9f87 1a3f 85af 1e3f

bn1.bias f4 [16]
2.1991508 0.28702724 0.8222472 0.41729248 0.9948927 0.23721671 -0.2038886 -0.14938436
0.34332561 0.4498762 0.30217078 -0.7278542 0.10437508 0.6317325 -0.2571999 -0.026245818
00000000: e3be 0c40 3cf5 923e cb7e 523f 5ca7 d53e
00000010: 4ab1 7e3f f0e8 723e 2cc8 50be 37f8 18be
00000020: 60c8 af3e 2c56 e63e 21b6 9a3e a754 3abf
00000030: 9ac2 d53d 39b9 213f b5af 83be 7801 d7bc

bn1.running_mean f4 [16]
-0.060678314 -0.042317852 0.012923424 -0.019233232 -0.0024122943 -0.08503449 0.004615444 0.23589407
0.0047951173 -0.019655142 0.04058259 0.2736428 0.021493636 -0.044203393 -0.3096421 -0.018697537
00000000: d389 78bd 7c55 2dbd c5bc 533c 038f 9dbc
00000010: 9517 1ebb 9026 aebd 273d 973b 378e 713e
00000020: 5c20 9d3b d203 a1bc ee39 263d e91a 8c3e
00000030: 6c13 b03c 9e0e 35bd 6989 9ebe 942b 99bc

bn1.running_var f4 [16]
2.1490138 7.0834284 2.494022 15.046968 1.4864675 2.7370913 0.5873769 3.5352793
1.7981908 7.1663 6.839704 4.854544 5.3228736 16.766573 5.0843577 0.98092073
00000000: 7189 0940 72ab e240 0e9e 1f40 62c0 7041
00000010: 9144 be3f 812c 2f40 555e 163f 0442 6240
00000020: 1e2b e63f 5452 e540 dbde da40 6d58 9b40
00000030: fb54 aa40 f121 8641 0fb3 a240 9f1d 7b3f

conv2.weight f4 [16, 16, 3, 3]
-0.21139985 -0.19958189 0.12093259 -0.06883191 -0.08349702 0.10288477 0.13134299 -0.080938175
-0.002978578 -0.19765928 -0.08337412 0.13995029 0.10411806 0.055379175 0.032465223 0.275039
0.12917754 0.0136982845 -0.06735003 0.27491394 0.1004301 -0.0099671185 0.5276291 0.2540372
-0.33760878 0.1341422 0.028352056 0.44712648 0.28657505 -0.45184052 0.18998533 0.20557721
-0.15303065 0.05155104 0.17608312 0.0056997933 0.31911185 0.18112314 -0.27036896 0.07542569
0.14680623 -0.11354576 0.14127716 -0.11468398 -0.45918652 0.3149317 0.24528746 0.029830508
0.22533324 0.15965351 0.065382615 -0.0762537 -0.113433026 -0.07677895 -0.16671388 -0.0049739503
0.084058404 -0.05088021 0.024518175 0.07020356 -0.09568728 -0.058777854 0.01626801 -0.10102819
-0.14309599 -0.40419635 0.1332137 0.13319927 -0.085878424 0.18172798 0.19877467 0.1442204
-0.113680966 -0.5416585 -0.52718025 0.19775605 -0.3173208 -0.4414073 0.75172144 0.42543122
0.2197895 -0.16922681 -0.124538265 -0.16916049 -0.017191026 0.11706079 0.022870919 -0.12738511
0.0806037 0.19268756 0.22421426 0.4636823 0.5754139 -0.07505007 0.033238526 0.08083137
-0.22665218 -0.3142655 -0.40604433 -0.21243022 -0.04745605 -0.007914468 -0.0757173 0.03899233
-0.019145971 -0.008322411 0.012410943 -0.21943362 0.10803071 0.15073228 0.09229389 0.13349666
0.2848278 0.29618534 0.1334178 0.22466904 0.1785586 -0.0365412 -0.17633557 -0.20276245
-0.26411158 -0.4094063 -0.54083693 -0.24909322 -0.07524096 -0.18885422 0.15901335 0.19145869
0.07994074 0.13190866 0.23465401 0.11416523 0.1645363 0.23551244 0.07494064 -0.2957996
-0.3499573 -0.17855513 0.14299814 0.09612853 0.04391673 0.20649868 0.056879845 -0.048836507
-0.5226428 0.11071312 0.32558197 -0.060844526 1.225697 -1.1017371 0.82869416 -1.6716018
0.83783907 0.084015176 -0.15408786 -0.34036392 -0.18006493 -0.08423963 0.032212004 -0.13746378
0.3607432 0.3877545 -0.3494812 0.3927914 0.0046864958 0.2059228 0.11436731 -0.14945897
-0.032231502 0.0031203092 0.00084794656 -0.47480986 0.15131739 0.08137032 -0.07801933 0.069940425
-0.0074349204 0.3251271 -0.07147199 -0.22588119 0.059269443 0.20095673 -0.016957311 -0.074658036
0.22049943 -0.07865823 0.24892819 -0.34294894 -0.24529089 -0.31294295 -0.112663545 -0.2561626
-0.115641214 0.065016404 -0.008112265 0.20595619 0.3740931 0.21512125 -0.042764828 0.19463022
-0.011447289 0.066929415 0.035631478 -0.15778382 0.05299043 -0.11647955 -0.09231475 0.15621853
0.08849258 -0.07449889 0.008703168 0.17160514 -0.10288263 -0.27586713 -0.06694065 -0.07587568
0.02032054 -0.002835279 -0.07185095 -0.12222079 -0.21483295 0.19275683 -0.44259953 -0.06447181
0.5467943 0.35262644 0.16738318 -0.5438601 0.019022116 -0.19085789 -0.06782125 -0.25530788
0.11842043 0.1934616 -0.13971528 -0.05784567 -0.088401705 -0.074152894 0.03683568 -0.019458875
-0.029520266 0.01515081 0.14328891 -0.092223346 -0.021059252 0.064249106 -0.21256037 0.091106586
0.106687926 0.052725647 0.22199036 -0.091456726 0.07156136 0.063304 0.12348956 -0.10111319
00000000: 3479 58be 325f 4cbe 81ab f73d bff7 8cbd
00000010: 7c00 abbd 40b5 d23d c77e 063e eac2 a5bd
00000020: 3f34 43bb 3267 4abe 0dc0 aabd 214f 0f3e
00000030: d93b d53d 46d5 623d 41fa 043d e9d1 8c3e
00000040: 1e47 043e c56e 603c d0ee 89bd 85c1 8c3e
00000050: 4cae cd3d 204d 23bc b312 073f 2a11 823e
00000060: 0fdb acbe 935c 093e 9242 e83c c3ed e43e
00000070: f7b9 923e a457 e7be 848b 423e d582 523e
00000080: 11b4 1cbe 2f27 533d 224f 343e 55c5 ba3b
00000090: a162 a33e 5878 393e cd6d 8abe c978 9a3d
000000a0: 5f54 163e ae8a e8bd f6aa 103e 6fdf eabd
000000b0: 7f1a ebbe ba3e a13e a32c 7b3e 1c5f f43c
000000c0: c2bd 663e 367c 233e 52e7 853d e62a 9cbd
000000d0: 934f e8bd 483e 9dbd 0bb7 2abe 85fc a2bb
000000e0: d026 ac3d c467 50bd 57da c83c e2c6 8f3d
000000f0: b1f7 c3bd 0cc1 70bd 7d44 853c dee7 cebd
00000100: c187 12be d3f2 cebe 2c69 083e 6465 083e
00000110: 07e1 afbd e616 3a3e 968b 4b3e 83ae 133e
00000120: 91d1 e8bd 22aa 0abf 49f5 06bf 9080 4a3e
00000130: df77 a2be 2300 e2be d170 403f 1fd2 d93e
00000140: 8010 613e cb49 2dbe eb0d ffbd 6838 2dbe
00000150: 32d4 8cbc 91bd ef3d cb5b bb3c 3e71 02be
00000160: 8d13 a53d e34f 453e 6c98 653e c467 ed3e
00000170: 534e 133f dab3 99bd 1f25 083d eb8a a53d
00000180: 8217 68be 68e7 a0be 0be5 cfbe 4f87 59be
00000190: 4661 42bd afab 01bc ac11 9bbd 6cb6 1f3d
000001a0: 03d8 9cbc b95a 08bc 4557 4b3c 35b3 60be
000001b0: 343f dd3d 9059 1a3e 9404 bd3d 59b3 083e
000001c0: f3d4 913e 9ba5 973e ad9e 083e a40f 663e
000001d0: 11d8 363e 3aac 15bd 5091 34be f6a0 4fbe
000001e0: a239 87be b49d d1be 4a74 0abf 4b12 7fbe
000001f0: ef17 9abd 0063 41be 65d4 223e bf0d 443e
00000200: f8b7 a33d 1013 073e 2449 703e 76cf e93d
00000210: 347c 283e 2c2a 713e 7a7a 993d 0c73 97be
00000220: 9a2d b3be 28d7 36be 1b6e 123e 09df c43d
00000230: 07e2 333d 6474 533e d7fa 683d ca08 48bd
00000240: ebcb 05bf 8fbd e23d aeb2 a63e 1c38 79bd
00000250: a4e3 9c3f b905 8dbf 4d25 543f 0cf7 d5bf
00000260: 9f7c 563f 2610 ac3d 35c9 1dbe 2e44 aebe
00000270: f162 38be d485 acbd bcf0 033d 4ec3 0cbe
00000280: 55b3 b83e c287 c63e 33ef b2be f41b c93e
00000290: 2d91 993b 6ddd 523e 6939 ea3d c60b 19be
000002a0: 2e05 04bd 1a7e 4c3b bb48 5e3a 471a f3be
000002b0: f2f2 1a3e 7ba5 a63d 99c8 9fbd ed3c 8f3d
000002c0: a2a0 f3bb 0f77 a63e e85f 92bd 664d 67be
000002d0: 84c4 723d 9ac7 4d3e 0fea 8abc 50e6 98bd
000002e0: 9aca 613e 9117 a1bd 08e7 7e3e 0197 afbe
000002f0: 892d 7bbe 0f3a a0be 25bc e6bd bf27 83be
00000300: 4dd5 ecbd 5227 853d 4ee9 04bc 2ee6 523e
00000310: 2189 bf3e bf48 5c3e 2c2a 2fbd 254d 473e
00000320: 698d 3bbc 4a12 893d 50f2 113d 1592 21be
00000330: 7e0c 593d d58c eebd 840f bdbd c0f7 1f3e
00000340: 993b b53d e092 98bd bb97 0e3c 42b9 2f3e
00000350: 21b4 d2bd 753e 8dbe 2e18 89bd b564 9bbd
00000360: 4377 a63c 17d0 39bb 9726 93bd e54e fabd
00000370: 2bfd 5bbe 0c62 453e 689c e2be cc09 84bd
00000380: b6fa 0b3f 748b b43e 7f66 2b3e 6a3a 0bbf
00000390: 45d4 9b3c 4070 43be dee5 8abd b7b7 82be
000003a0: 6986 f23d cc1a 463e 8611 0fbe 95ef 6cbd
000003b0: f40b b5bd 79dd 97bd 03e1 163d 3868 9fbc
000003c0: 7cd4 f1bc 1a3b 783c 54ba 123e 98df bcbd
000003d0: 7484 acbc 0995 833d 6da9 59be 1796 ba3d
000003e0: 337f da3d d9f6 573d 7151 633e aa4d bbbd
000003f0: c38e 923d 87a5 813d 18e8 fc3d 6f14 cfbd

conv2.bias f4 [16]
-0.00028111634 -0.0008147068 -0.00037442124 -0.0010305636 -0.00040663057 0.00023319377 0.0009064036 0.000352565
-0.00072307716 0.0001373604 0.0006103599 -0.000659196 0.0008699571 0.0006024636 7.315024e-05 0.00027043483
00000000: cc62 93b9 0c92 55ba f84d c4b9 fa13 87ba
00000010: 0831 d5b9 7a85 7439 b79b 6d3a 79d8 b839
00000020: e38c 3dba 6708 1039 8f00 203a e5cd 2cba
00000030: d50d 643a a6ee 1d3a 3c68 9938 26c9 8d39

bn2.weight f4 [16]
0.86059254 1.2469835 1.4653238 1.8966115 1.3028085 1.1761917 1.1184416 0.85601467
1.6509457 0.78263474 0.8457694 1.2198108 1.3545434 1.0125563 1.4259987 1.382166
00000000: cb4f 5c3f 289d 9f3f bb8f bb3f 2ac4 f23f
00000010: 6ec2 a63f 738d 963f 1829 8f3f c723 5b3f
00000020: 3052 d33f c05a 483f 5884 583f c322 9c3f
00000030: ae61 ad3f 729b 813f 2087 b63f d1ea b03f

bn2.bias f4 [16]
0.38179967 -0.06002307 0.009420968 -0.041095614 0.08754331 -0.40776086 -0.078298025 0.24484499
-0.043451652 0.5567461 0.16329843 -0.4089332 -0.08890095 -0.062381156 -0.11682272 -0.20554575
00000000: 3f7b c33e c0da 75bd 675a 1a3c e053 28bd
00000010: e849 b33d 08c6 d0be b75a a0bd a5b8 7a3e
00000020: 5cfa 31bd ea86 0e3f b437 273e b15f d1be
00000030: b411 b6bd 6283 7fbd c040 efbd 967a 52be

bn2.running_mean f4 [16]
-0.2773605 -0.8245705 -0.69005334 -0.33734408 0.9014048 -1.0125101 1.6200949 -1.3336127
-0.8581006 -1.9422121 0.6679858 -0.68782115 -0.8301671 0.8295533 -1.6485332 -2.3554199
00000000: 3202 8ebe 0d17 53bf 56a7 30bf 5db8 acbe
00000010: 77c2 663f ee99 81bf 455f cf3f d2b3 aabf
00000020: 7bac 5bbf 689a f8bf 1e01 2b3f 0c15 30bf
00000030: d585 54bf 9b5d 543f 2303 d3bf 33bf 16c0

bn2.running_var f4 [16]
3.75286 8.833471 13.828375 44.082535 15.007686 1.7186983 4.981594 4.1302156
26.00486 3.4883363 2.7128718 2.9056134 11.41154 3.1259995 14.427649 8.886559
00000000: dc2e 7040 e655 0d41 0641 5d41 8454 3042
00000010: 7b1f 7041 4efe db3f 3869 9f40 ba2a 8440
00000020: f409 d041 e740 5f40 b19f 2d40 92f5 3940
00000030: ab95 3641 6010 4840 a6d7 6641 582f 0e41

conv3.weight f4 [32, 16, 3, 3]
-0.33805916 -0.14093584 -0.07801904 -0.26904428 -0.09802108 -0.04791056 -0.34036845 -0.122603826
-0.118398264 0.16201848 0.1298671 -0.015425331 0.2388856 0.11354562 -0.07837185 0.106389835
0.05213417 -0.03404764 -0.056152865 -0.018443465 -0.16332577 0.067285 0.075687334 -0.15116793
0.13390496 -0.0962435 -0.1632096 0.07234908 0.27293882 0.19912091 0.1830471 0.29008007
0.21179263 0.37745234 0.5726341 0.2957283 -0.09397318 -0.04460215 -0.06409596 -0.23182687
0.007837493 -0.0063352045 -0.09287274 0.1220778 0.14921743 -0.014013743 0.03561524 -0.0038210182
0.0013693769 0.09241687 0.0075452253 -0.06418513 -0.07615097 -0.13490267 0.30030125 -0.041162003
-0.016105028 0.13767807 -0.15136789 -0.019648694 0.009614242 -0.22727968 -0.20944603 -0.23370732
-0.26269647 -0.07572676 -0.11335424 -0.19291148 0.015236428 0.09903451 0.011502833 0.1809886
0.01974772 -0.23152138 -0.041349113 -0.1125464 -0.44668344 -0.39575598 -0.1053435 -0.37794054
-0.27670076 -0.016517283 -0.24830858 -0.37537226 0.08135646 -0.2476613 -0.4383154 0.21802731
-0.019925497 -0.16867898 0.052350137 -0.020169701 -0.070410475 0.0849714 0.039541215 -0.007255772
0.17248638 -0.05805974 -0.09488679 0.020795926 -0.18486564 -0.1059529 -0.0037447168 -0.13404307
-0.033296842 -0.15035842 -0.18540229 -0.09773138 0.18645369 0.22691356 0.11362461 0.03821834
-0.08090603 -0.03916447 -0.029655477 -0.09968455 -0.08171936 0.17581195 0.06492847 0.14219823
-0.046281375 -0.11506481 -0.0790881 -0.091470934 -0.18993837 -0.2173737 0.012120284 0.013611119
-0.0032586332 0.14462204 -0.056998912 -0.29988927 0.19137815 0.08713227 -0.15682785 0.047324833
-0.05750363 -0.13704783 -0.2711151 -0.22703858 -0.13564016 0.061047208 0.08470114 -0.05367396
-0.11574932 -0.124632545 -0.17318241 -0.22808069 -0.055679902 0.023846416 -0.33527914 -0.034653828
0.09587811 -0.36949685 -0.38405547 -0.08105064 -0.037007622 -0.029907966 0.095151834 0.35692075
0.5008701 0.3062333 -0.24487947 -0.67484766 -0.5376666 0.08461874 -0.13061175 -0.13009153
0.07642715 0.3200848 0.34459043 -0.5669398 -0.8582524 -0.5471143 -0.24569972 -0.29816154
-0.07004349 0.41283333 0.69565 0.46121466 -0.48270357 -0.32068473 -0.26472005 -0.23898362
0.040840253 0.08259539 0.15867805 0.10288245 0.028036237 0.12972696 -0.049349777 -0.34103465
-0.08380487 -0.10855082 -0.08540724 0.023267135 0.021420458 0.12399913 -0.18247864 -0.08300501
-0.004897707 -0.0068133194 -0.04862145 0.006625821 -0.1209093 0.038050383 0.017058799 0.070949085
0.16797127 0.035360094 -0.060387716 -0.01808867 0.08353143 -0.05188672 -0.17159542 -0.013605851
0.042876367 -0.088050626 0.05417181 0.16041014 -0.025074797 -0.026313439 0.06511754 0.10729473
0.019558022 0.26632613 0.3092363 0.12412258 0.0902635 0.07468856 -0.013595925 -0.08962896
-0.11059898 -0.19789329 -0.12619731 -0.11737219 -0.08704131 0.07832175 0.12215705 0.12695651
-0.057450995 0.1442934 0.33449632 0.02957783 0.040568657 0.06423642 -0.07355965 -0.02344844
-0.034831174 -0.10728618 -0.10823249 -0.08762146 -0.25672328 -0.2745935 -0.16248249 -0.161366
00000000: 1716 adbe 7c51 10be 72c8 9fbd 2cc0 89be
00000010: 47bf c8bd dd3d 44bd c644 aebe b717 fbbd
00000020: ca7a f2bd 2ce8 253e e2fb 043e 87ba 7cbc
00000030: 6d9e 743e 9b8a e83d 6c81 a0bd eae2 d93d
00000040: a48a 553d 8a75 0bbd 8c00 66bd c016 97bc
00000050: df3e 27be b8cc 893d f601 9b3d c4cb 1abe
00000060: 621e 093e 501b c5bd 6b20 27be c12b 943d
00000070: a3be 8b3e 5ae6 4b3e b370 3b3e 6085 943e
00000080: 2be0 583e 6f41 c13e 2698 123f b369 973e
00000090: 0375 c0bd beb0 36bd be44 83bd 0664 6dbe
000000a0: d468 003c 8c97 cfbb 1034 bebd ed03 fa3d
000000b0: 74cc 183e e699 65bc 49e1 113d 0c6a 7abb
000000c0: aa7c b33a 0e45 bd3d f03d f73b 7e73 83bd
000000d0: 0af5 9bbd ed23 0abe 16c1 993e 7d99 28bd
000000e0: b1ee 83bc 7bfb 0c3e 2f00 1bbe 4cf6 a0bc
000000f0: 0e85 1d3c 01bc 68be 0579 56be f950 6fbe
00000100: 2780 86be a216 9bbd 4526 e8bd 968a 45be
00000110: 36a2 793c 9bd2 ca3d 6176 3c3c 1355 393e
00000120: f8c5 a13c f113 6dbe b05d 29bd ba7e e6bd
00000130: b1b3 e4be 87a0 cabe 55be d7bd 6c81 c1be
00000140: b9ab 8dbe 414f 87bc 9b44 7ebe cb30 c0be
00000150: 379e a63d ec9a 7dbe e06a e0be 8d42 5f3e
00000160: cc3a a3bc 2fba 2cbe 196d 563d ee3a a5bc
00000170: 5e33 90bd 7c05 ae3d f8f5 213d d4c1 edbb
00000180: 45a0 303e 0dd0 6dbd 0154 c2bd 385c aa3c
00000190: 6b4d 3dbe d6fd d8bd ec69 75bb 9642 09be
000001a0: 4562 08bd 8ff7 19be 19da 3dbe 6427 c8bd
000001b0: b7ed 3e3e 075c 683e 05b4 e83d d68a 1c3d
000001c0: 10b2 a5bd ec6a 20bd 0bf0 f2bc 6a27 ccbd
000001d0: 7b5c a7bd 0c08 343e 38f9 843d 6a9c 113e
000001e0: 8a91 3dbd 19a7 ebbd f1f8 a1bd 1d55 bbbd
000001f0: 347f 42be 3697 5ebe 2894 463c 2c01 5f3c
00000200: cb8e 55bb cd17 143e b177 69bd 168b 99be
00000210: a2f8 433e 6772 b23d 7b97 20be afd7 413d
00000220: ed88 6bbd 4456 0cbe 99cf 8abe cd7c 68be
00000230: 41e5 0abe a30c 7a3d cb77 ad3d 3ad9 5bbd
00000240: fb0d edbd 593f ffbd bb56 31be fc8d 69be
00000250: 9c10 64bd 8f59 c33c b5a9 abbe 2cf1 0dbd
00000260: be5b c43d b12e bdbe eba2 c4be e1fd a5bd
00000270: 4e95 17bd 8d01 f5bc f7de c23d 51be b63e
00000280: 0639 003f 9cca 9c3e afc1 7abe d1c2 2cbf
00000290: 85a4 09bf 974c ad3d 16bf 05be b736 05be
000002a0: d685 9c3d 28e2 a33e 286e b03e f722 11bf
000002b0: 6eb6 5bbf af0f 0cbf b598 7bbe a1a8 98be
000002c0: f672 8fbd e45e d33e 1e16 323f 5424 ec3e
000002d0: ec24 f7be ca30 a4be 6389 87be 1fb8 74be
000002e0: 1c48 273d c627 a93d 807c 223e 09b4 d23d
000002f0: 40ac e53c 25d7 043e fe22 4abd 189c aebe
00000300: e3a1 abbd e44f debd fee9 aebd b89a be3c
00000310: f579 af3c 42f3 fd3d aedb 3abe 88fe a9bd
00000320: f27c a0bb 4442 dfbb 4927 47bd 6a1d d93b
00000330: 4c9f f7bd b8da 1b3d e5be 8b3c c14d 913d
00000340: a900 2c3e bfd5 103d 1c59 77bd b12e 94bc
00000350: 8712 ab3d 2b87 54bd b6b6 2fbe 13eb 5ebc
00000360: 219f 2f3d e353 b4bd 43e3 5d3d 8e42 243e
00000370: a969 cdbc 488f d7bc 585c 853d 57bd db3d
00000380: 2538 a03c e65b 883e 3854 9e3e fb33 fe3d
00000390: 12dc b83d 51f6 983d 71c1 5ebc 638f b7bd
000003a0: b881 e2bd 8aa4 4abe de39 01be d560 f0bd
000003b0: b742 b2bd 2767 a03d 7a2d fa3d e300 023e
000003c0: bc51 6bbd a6c1 133e 1a43 ab3e 354d f23c
000003d0: 522b 263d 628e 833d 71a6 96bd f116 c0bc
000003e0: 22ab 0ebd dbb8 dbbd ffa8 ddbd e172 b3bd
000003f0: 3c71 83be 8597 8cbe cf61 26be 213d 25be

conv3.bias f4 [32]
0.00014944351 -0.00084864086 0.00036803575 0.00072075735 -0.00037247987 0.0010754081 0.0008667901 -0.0006870573
0.00016454983 -0.0009976181 0.00069945597 0.0010245402 0.00018847745 0.00047914902 -0.0008370026 0.0004779157
4.9929204e-05 -0.0008485935 0.00071355916 0.0010289546 -0.0005150595 4.4520428e-05 -0.0003586821 0.00020120307
0.0009321561 -0.00018746156 -8.2178965e-05 0.00018999561 0.0005922342 0.0010945511 0.00026342573 -0.00065994763
00000000: f0b3 1c39 5377 5eba ecf4 c039 35f1 3c3a
00000010: 6749 c3b9 b5f4 8c3a 4d39 633a a31b 34ba
00000020: 028b 2c39 82c2 82ba b25b 373a dd49 863a
00000030: 08a2 4539 4b36 fb39 4b6a 5bba c290 fa39
00000040: 136b 5138 2574 5eba 250e 3b3a fddd 863a
00000050: 0f05 07ba 72bb 3a38 7f0d bcb9 0afa 5239
00000060: f05b 743a 5491 44b9 7f57 acb8 8f39 4739
00000070: 2a40 1b3a 0a77 8f3a 671c 8a39 5600 2dba

bn3.weight f4 [32]
0.89529055 1.1567414 1.1908256 1.0001116 1.1753907 1.0166581 1.2853318 0.7267544
0.72864306 0.7461064 0.90530497 0.7136042 1.2778518 0.7145266 1.2798597 1.1152588
0.6799135 1.0061363 0.9766202 0.79997045 0.67580783 0.6590621 0.74873435 0.8241344
0.58282185 1.6990031 0.80058736 0.77066505 0.66627866 0.6587393 0.8353278 0.99301434
00000000: c331 653f 1a10 943f f96c 983f a803 803f
00000010: 3473 963f da21 823f c185 a43f 940c 3a3f
00000020: 5a88 3a3f d400 3f3f 11c2 673f c4ae 363f
00000030: a690 a33f 37eb 363f 71d2 a33f cdc0 8e3f
00000040: d00e 2e3f 13c9 803f c803 7a3f ddca 4c3f
00000050: be01 2d3f 4bb8 283f 0ead 3f3f 79fa 523f
00000060: d033 153f ef78 d93f 4bf3 4c3f 4e4a 453f
00000070: 3d91 2a3f 24a3 283f 0bd8 553f 3036 7e3f

bn3.bias f4 [32]
-0.16796969 -0.4751411 0.16135898 -0.3416894 -0.22513953 0.024686858 -0.4218468 0.087499715
-0.16904545 -0.21781896 0.13150153 -0.0094511425 -0.105001986 0.15643083 -0.30274722 -0.21039714
0.49730545 0.021911519 -0.09686582 -0.21121879 0.3829689 0.13719381 0.022880735 -0.034379367
0.3809141 -0.5331062 0.41153133 -0.15122753 0.22025062 -0.023867065 -0.25457457 -0.42770097
00000000: 3f00 2cbe b245 f3be 4a3b 253e eaf1 aebe
00000010: fa8a 66be 183c ca3c 4efc d7be 0d33 b33d
00000020: 401a 2dbe ef0b 5fbe 56a8 063e f7d8 1abc
00000030: 480b d7bd 672f 203e af01 9bbe 5972 57be
00000040: d29e fe3e c97f b33c 9661 c6bd bd49 58be
00000050: 8014 c43e 897c 0c3e 6170 bb3c 61d1 0cbd
00000060: 2c07 c33e a679 08bf 3cb4 d23e 64db 1abe
00000070: 6189 613e dd84 c3bc 9957 82be 9ffb dabe

bn3.running_mean f4 [32]
-2.1992145 -1.471408 -2.5592947 -0.67765236 -2.1373372 -1.6614833 -2.2741725 -0.047772024
-0.39620367 1.9149688 -1.656328 0.23509015 -3.0955696 0.5243167 -2.0923252 -2.2782397
-1.5932281 -2.2044477 -1.1846277 -0.7859605 -2.0941558 1.8039963 -1.0836937 0.9114133
0.3077546 -3.1870503 -3.3135808 -0.22353101 -1.3403238 -0.093572125 -0.8592617 -1.4710859
00000000: eebf 0cc0 1957 bcbf 7ccb 23c0 a07a 2dbf
00000010: 22ca 08c0 7cab d4bf 0b8c 11c0 99ac 43bd
00000020: 35db cabe b31d f53f 8e02 d4bf 79bb 703e
00000030: d01d 46c0 9f39 063f a8e8 05c0 aece 11c0
00000040: e6ee cbbf ac15 0dc0 e1a1 97bf b534 49bf
00000050: a606 06c0 5ae9 e63f 7ab6 8abf 6252 693f
00000060: 0392 9d3e a2f8 4bc0 b511 54c0 50e5 64be
00000070: bb8f abbf bea2 bfbd 93f8 5bbf 8b4c bcbf

bn3.running_var f4 [32]
4.984717 3.8731396 13.247762 5.316674 5.521382 6.4301424 6.301037 4.1055984
4.1058717 4.6613007 4.090523 5.5584626 11.211752 5.5259047 7.6104 6.268547
5.3910217 6.510965 6.4484043 3.6356144 4.5191417 4.2019563 3.9122329 5.1090784
3.8002987 13.936257 8.939922 4.338502 5.6822286 3.1662846 3.5322685 4.0603538
00000000: cd82 9f40 85e1 7740 d5f6 5341 3222 aa40
00000010: 29af b040 bac3 cd40 18a2 c940 1061 8340
00000020: 4d63 8340 6029 9540 90e5 8240 edde b140
00000030: 5663 3341 36d4 b040 6688 f340 f097 c840
00000040: 4083 ac40 d359 d040 5459 ce40 e8ad 6840
00000050: cf9c 9040 6d76 8640 0662 7a40 927d a340
00000060: 1838 7340 e9fa 5e41 ec09 0f41 02d5 8a40
00000070: d1d4 b540 68a4 4a40 b010 6240 6bee 8140

conv4.weight f4 [32, 32, 3, 3]
0.15741517 0.029448595 -0.2263913 0.0341565 0.0908649 -0.008612293 0.108714975 0.19799297
0.09121353 0.11600127 0.20166172 0.14412634 0.09301406 0.00047428833 0.0152554745 -0.109304026
-0.03824955 0.0841948 -0.1445515 -0.05203573 -0.07698305 -0.049773917 0.043617256 0.21044904
-0.07262772 -0.07769444 0.081926964 -0.12117335 -0.08725604 -0.15188913 -0.04081118 -0.07413967
-0.05925983 0.18087639 0.07208967 0.0713552 0.020932974 -0.08550455 -0.025586039 0.087551706
-0.15108724 0.03937555 0.086658955 -0.20702213 0.0058819205 0.15536395 0.07590768 0.13282974
0.13399293 0.055579454 0.073976405 0.13894068 -0.091258205 -0.0129755465 0.08891635 0.17692234
0.19564034 0.051733714 0.280935 0.21949653 -0.12689477 0.034620956 0.14349903 0.15764569
0.09391789 0.14450534 -0.10616571 -0.03544215 -0.07589839 -0.08406557 -0.023684924 -0.026941597
-0.045331977 0.057827517 -0.17995098 0.08882302 0.1824122 0.21394703 0.0065065427 0.16756572
-0.12621148 -0.2662633 -0.28310657 -0.4802624 -0.28118628 -0.16538867 -0.42759603 -0.22149602
-0.114228986 -0.22882727 0.29750896 0.15622823 0.21730791 0.08221168 -0.018927699 0.15585393
-0.08776855 -0.21103181 0.13922651 0.24829021 0.26533037 0.30141357 0.060926702 0.046292316
0.14574243 0.16768228 0.03447935 0.12369617 0.004315546 -0.043314938 -0.22917831 -0.06696659
-0.10278799 -0.1450614 -0.14405102 0.10120259 0.055439394 0.27343497 0.13028094 0.18376827
0.035064254 0.119605176 0.27726218 -0.07641306 -0.07708887 0.002206303 -0.14398645 0.121829
0.2843094 0.069970936 0.047820184 0.16320352 0.057071675 0.0045315046 0.046455342 -0.1762206
0.023701176 -0.04338722 -0.008749295 -0.0101293055 -0.08389212 0.18407087 0.14745715 0.05281022
0.0042724167 0.06422693 -0.17346188 -0.1999779 -0.03291006 -0.029357508 -0.32627037 -0.26548186
-0.004993087 0.14509456 0.1344242 0.20720808 0.012725762 0.08462948 0.01683648 0.03750121
0.030289644 -0.0014785925 0.10265081 -0.09791432 0.08422523 0.020461317 0.10066513 0.113042645
0.15216117 0.089288875 -0.14095421 -7.4358504e-05 -0.06424395 -0.11981705 -0.181493 -0.035740733
-0.08946304 -0.17469183 0.23000564 -0.106813826 0.13823558 -0.008604534 0.19304198 0.048078086
0.050938096 -0.032534886 0.10744632 -0.008255813 -0.093019426 -0.2522751 -0.17189156 -0.17305264
-0.23302077 -0.12658988 0.014868212 -0.21779305 -0.0470429 0.0099756755 0.18464577 0.2564226
0.13467959 0.013126634 0.1813178 0.2155062 -0.017794017 0.025295071 0.17412151 0.080211766
-0.07621945 0.053859446 0.115415014 -0.09370601 0.056611337 0.10795457 -0.07316671 0.15824619
-0.18808252 0.002904927 -0.16347072 -0.06725676 -0.118968874 0.05610712 -0.01752876 -0.045816056
0.066710226 -0.005381428 -0.038635965 0.023265434 -0.09085879 -0.004655338 0.042316634 -0.046866097
0.0003048141 -0.005422268 -0.08953201 -0.050443213 0.13676098 -0.17266236 -0.25561202 -0.13136011
-0.1629974 -0.17529209 -0.12030969 -0.18868935 -0.09589935 -0.03443203 -0.23401287 -0.020494565
0.19682088 -0.1877283 -0.06158036 0.1348724 0.09866144 0.3132871 0.38473874 -0.03277358
00000000: 7131 213e 2e3e f13c 1fd3 67be b0e7 0b3d
00000010: 6017 ba3d 931a 0dbc f5a5 de3d abbe 4a3e
00000020: 29ce ba3d 1392 ed3d 6980 4e3e db95 133e
00000030: 287e be3d e7a9 f839 19f2 793c cada dfbd
00000040: 8fab 1cbd 536e ac3d 4f05 14be 6b23 55bd
00000050: 4aa9 9dbd bcdf 4bbd 02a8 323d f47f 573e
00000060: d8bd 94bd 431e 9fbd 53c9 a73d bc29 f8bd
00000070: 4bb3 b2bd d388 1bbe a029 27bd 8ad6 97bd
00000080: 6fba 72bd a937 393e c0a3 933d ad22 923d
00000090: a17b ab3c 021d afbd d099 d1bc 4f4e b33d
000000a0: 9db6 1abe 4248 213d 407a b13d 9cfd 53be
000000b0: 20bd c03b ba17 1f3e 7c75 9b3d 8504 083e
000000c0: 7135 093e 48a7 633d f180 973d 7746 0e3e
000000d0: 95e5 babd 6397 54bc c619 b63d 212b 353e
000000e0: f155 483e bbe6 533d b6d6 8f3e b3c3 603e
000000f0: b4f0 01be b4ce 0d3d 69f1 123e df6d 213e
00000100: 0658 c03d 35f9 133e 686d d9bd ca2b 11bd
00000110: 9d70 9bbd 922a acbd e306 c2bc a0b4 dcbc
00000120: 06ae 39bd 8cdc 6c3d 1245 38be d8e8 b53d
00000130: 44ca 3a3e ee14 5b3e d634 d53b 5996 2b3e
00000140: 953d 01be aa53 88be 58f3 90be f4e4 f5be
00000150: a6f7 8fbe a65b 29be deed dabe dacf 62be
00000160: e3f0 e9bd b251 6abe 1853 983e 4bfa 1f3e
00000170: f785 5e3e 995e a83d 430e 9bbc 2c98 1f3e
00000180: ffbf b3bd b918 58be 6591 0e3e ca3f 7e3e
00000190: 62d9 873e e152 9a3e 478e 793d 039d 3d3d
000001a0: 813d 153e e7b4 2b3e 383a 0d3d 6b54 fd3d
000001b0: 6c69 8d3b 016b 31bd b8ad 6abe c825 89bd
000001c0: 8282 d2bd fa8a 14be 1c82 13be 4e43 cf3d
000001d0: 6b14 633d abff 8b3e 5e68 053e c02d 3c3e
000001e0: 899f 0f3d 8ff3 f43d 4ff5 8d3e 737e 9cbd
000001f0: c5e0 9dbd 9f97 103b 2f71 13be 7c81 f93d
00000200: 0091 913e ec4c 8f3d 19df 433d d31e 273e
00000210: fdc3 693d 047d 943b f547 3e3d 2c73 34be
00000220: f828 c23c ccb6 31bd 3459 0fbc 63f5 25bc
00000230: a2cf abbd 137d 3c3e 02ff 163e 874f 583d
00000240: a1ff 8b3b 6989 833d fe9f 31be 02c7 4cbe
00000250: b3cc 06bd 287f f0bc e90c a7be 3ded 87be
00000260: 0d9d a3bb ab93 143e 7fa6 093e 5b2e 543e
00000270: b77f 503c 3952 ad3d a8ec 893c de9a 193d
00000280: fd21 f83c 55cd c1ba 963a d23d 4e87 c8bd
00000290: 477e ac3d 7e9e a73c 8529 ce3d e782 e73d
000002a0: 23d0 1b3e 16dd b63d 4d56 10be ebf0 9bb8
000002b0: 5592 83bd a462 f5bd 4dd9 39be e064 12bd
000002c0: 6638 b7bd 6ae2 32be 9986 6b3e 35c1 dabd
000002d0: a18d 0d3e 08fa 0cbc ccac 453e 87ed 443d
000002e0: 77a4 503d 4d43 05bd d10c dc3d 6443 07bc
000002f0: f880 bebd 342a 81be 5704 30be b634 31be
00000300: ff9c 6ebe c7a0 01be cd99 733c 2405 5fbe
00000310: 0eb0 40bd 0471 233c c813 3d3e d349 833e
00000320: 72e9 093e 1811 573c 60ab 393e a8ad 5c3e
00000330: c2c4 91bc 9c37 cf3c e94c 323e 1146 a43d
00000340: f118 9cbd b99b 5c3d b55e ec3d f0e8 bfbd
00000350: 4ae1 673d 4917 dd3d 6ed8 95bd 4a0b 223e
00000360: b498 40be 9660 3e3b de64 27be eabd 89bd
00000370: f4a5 f3bd 94d0 653d 7998 8fbc 9ea9 3bbd
00000380: 5f9f 883d b156 b0bb bf40 1ebd 2797 be3c
00000390: 2c14 babd ce8b 98bb 3554 2d3d aaf6 3fbd
000003a0: 75cf 9f39 48ad b1bb 8f5c b7bd 8b9d 4ebd
000003b0: 120b 0c3e 67ce 30be 94df 82be 4483 06be
000003c0: cae8 26be c57f 33be ed64 f6bd c837 41be
000003d0: e166 c4bd 9a08 0dbd 12a1 6fbe 38e4 a7bc
000003e0: 6a8b 493e d93b 40be b03b 7cbd fe1b 0a3e
000003f0: 020f ca3d 2b67 a03e 7afc c43e 973d 06bd

conv4.bias f4 [32]
-0.0006608759 -0.00044971105 0.00021113556 -0.000724682 0.0004439995 6.3657266e-05 -7.837384e-05 -0.00033783802
-1.2858097e-06 -0.00066953606 0.0001715632 -0.0003621297 0.00076137844 -0.00076278026 0.00064605166 0.000765855
0.00038821038 -0.00022784171 0.0005732266 0.0007251881 -0.00010122781 -0.0007015198 0.00030274125 0.00072850555
0.0005905062 -0.0007163946 -0.00045545198 0.00057007215 0.0007045971 -2.6257942e-06 -0.00014240043 -0.00013999277
00000000: a23e 2dba 32c7 ebb9 4564 5d39 96f8 3dba
00000010: 9bc8 e839 bc7f 8538 a35c a4b8 da1f b1b9
00000020: 1694 acb5 ce83 2fba a5e5 3339 3adc bdb9
00000030: 3e97 473a 51f5 47ba cb5b 293a a9c3 483a
00000040: b788 cb39 cbe8 6eb9 9644 163a 8d1a 3e3a
00000050: 444a d4b8 32e6 37ba 3eb9 9e39 2ef9 3e3a
00000060: 33cc 1a3a 6ecc 3bba bbc9 eeb9 e570 153a
00000070: b6b4 383a cd36 30b6 5351 15b9 06cb 12b9

bn4.weight f4 [32]
0.80117494 0.9638361 0.98856705 0.7185291 0.9403649 1.3248959 0.6837154 0.8208529
1.0095412 1.1081837 1.2024231 0.8304474 0.9692081 0.94910693 0.6639133 0.94703454
0.9076214 0.8790863 1.1962351 0.86025244 0.7758946 0.78484195 1.0088596 0.88198245
0.9838528 1.0944109 0.9469184 0.88457066 0.9334084 1.0060948 0.79936296 1.0026793
00000000: cd19 4d3f f6bd 763f bb12 7d3f 86f1 373f
00000010: c1bb 703f 3096 a93f f907 2f3f 6a23 523f
00000020: a538 813f f7d8 8d3f 00e9 993f 3398 543f
00000030: 061e 783f acf8 723f 39f6 293f db70 723f
00000040: e059 683f cd0b 613f 3b1e 993f 8139 5c3f
00000050: 07a1 463f 67eb 483f 5022 813f 9ac9 613f
00000060: c7dd 7b3f a815 8c3f 3f69 723f 3973 623f
00000070: daf3 6e3f b7c7 803f 0da3 4c3f cc57 803f

bn4.bias f4 [32]
-0.1391399 -0.07856148 -0.24138103 0.28668562 -0.16505761 -1.0562217 0.70602983 0.22479522
0.008888562 -0.3235023 -0.7813635 0.25369918 -0.044865437 -0.09670897 0.18745516 -0.013356981
0.04465134 0.18395817 -0.49558184 -0.073268265 0.16147792 -0.009248438 -0.3248718 -0.20498417
-0.029626016 -0.23416716 -0.04773847 -0.19493298 -0.18866394 -0.24826014 -0.012771683 -0.005106307
00000000: b17a 0ebe d7e4 a0bd 972c 77be 75c8 923e
00000010: dd04 29be 4632 87bf 5fbe 343f b830 663e
00000020: 55a1 113c 18a2 a5be 7007 48bf dce4 813e
00000030: d2c4 37bd 5a0f c6bd 3ff4 3f3e 3dd7 5abc
00000040: 53e4 363d 885f 3c3e e7bc fdbe ac0d 96bd
00000050: 785a 253e c386 17bc 9955 a6be 5fe7 51be
00000060: 42b2 f2bc 84c9 6fbe 6a89 43bd 839c 47be
00000070: 1f31 41be e837 7ebe 5240 51bc cf52 a7bb

bn4.running_mean f4 [32]
0.5973048 -0.15694883 -2.2995489 -0.3489648 -0.4495838 -0.69769895 0.49003053 -0.93615526
-3.6377373 -0.67941064 -0.96964175 -1.6561068 0.23361361 -0.9070072 0.011337013 0.4283715
-2.8647282 1.4019539 -1.1323526 -1.3476667 -0.05330242 -1.2965822 -0.46774808 -1.7016662
-1.0406132 -0.8946253 2.5673044 -1.4107478 -0.88097405 -0.52821577 0.3979695 -0.6382597
00000000: f8e8 183f 32b7 20be cf2b 13c0 84ab b2be
00000010: d92f e6be 669c 32bf 48e5 fa3e dfa7 6fbf
00000020: b0d0 68c0 dbed 2dbf 713a 78bf 4ffb d3bf
00000030: 6838 6f3e a031 68bf e1be 393c 8253 db3e
00000040: b557 37c0 3a73 b33f eef0 90bf 5880 acbf
00000050: a353 5abd 68f6 a5bf ad7c efbe 33d0 d9bf
00000060: d032 85bf 2a06 65bf b74e 2440 6293 b4bf
00000070: 8487 61bf 2639 07bf a9c2 cb3e fd64 23bf

bn4.running_var f4 [32]
1.9703678 2.9147592 3.011992 2.8480558 2.404828 2.282347 3.9901202 3.5579958
3.6024766 2.8752217 2.6173413 2.5659628 3.0593593 2.4752514 2.4046078 3.7578502
3.1318297 3.3794868 2.679255 2.900784 2.5026917 2.1518943 3.5644069 2.2688901
3.0922837 3.701805 2.5881636 2.4721968 2.5122364 3.0044036 2.2601497 4.4126654
00000000: 0335 fc3f 6a8b 3a40 7ac4 4040 8c46 3640
00000010: b4e8 1940 f911 1240 215e 7f40 34b6 6340
00000020: fa8e 6640 a203 3840 8582 2740 bc38 2440
00000030: 8bcc 4340 856a 1e40 18e5 1940 9e80 7040
00000040: e66f 4840 8349 5840 ea78 2b40 72a6 3940
00000050: 1a2c 2040 a3b8 0940 3e1f 6440 7f35 1140
00000060: fae7 4540 60ea 6c40 79a4 2540 7938 1e40
00000070: 7bc8 2040 2648 4040 4ba6 1040 8e34 8d40

conv5.weight f4 [32, 32, 3, 3]
-0.06535127 -0.1999781 -0.064959414 0.066674076 -0.024484193 0.05633895 0.1538983 0.23636717
0.2860403 -0.059282314 -0.10984879 -0.22335579 0.016664479 -0.051205214 -0.15603612 0.025403831
0.11963266 -0.01877303 -0.16554646 -0.098268405 -0.18397047 0.02952746 -0.0029346813 -0.11298042
0.07707627 0.096305504 0.08010828 -0.026488153 0.03830404 -0.03682695 -0.05163389 -0.08161204
-0.2476499 -0.08925869 -0.20656757 -0.41006312 -0.18575546 -0.14052716 -0.2331339 -0.037693717
-0.038252756 -0.16061532 -0.022178505 0.006568715 -0.102020696 0.062829636 0.2056788 0.1625553
-0.16714169 -0.056667864 0.09503456 -0.26361325 -0.16034135 -0.21814369 -0.14819162 -0.026535392
0.055342704 -0.059596155 0.052193537 0.20026109 0.043718506 0.10703725 0.28975692 -0.018012283
-0.11707114 0.26178938 0.024468618 -0.08045391 0.012709337 0.015763998 -0.007400649 -0.22577856
-0.1246934 -0.100075535 -0.19264884 -0.062953286 -0.010070732 -0.003724451 -0.13691212 -0.06788107
0.124650285 -0.089125186 -0.022427771 -0.08289357 -0.012143336 0.046658397 0.021308025 -0.20157519
-0.18651241 -0.2652381 0.019995129 0.11498853 -0.02285488 -0.04721019 0.16084468 0.022733467
-0.23262234 0.00071979116 -0.017446306 0.008181057 -0.07411161 -0.083882324 0.02190637 0.020623617
0.09002872 0.033128034 -0.049908966 0.19522513 0.26879132 -0.061598092 0.024175823 0.14305036
0.010762883 -0.062054217 0.07603117 -0.079767086 -0.16295277 -0.22267048 -0.28599247 -0.30719
-0.18776527 -0.21669993 -0.19506072 -0.033153772 -0.100531586 -0.15803933 0.16667672 0.09558047
0.026443776 0.07069927 0.047186114 0.010904916 -0.25035617 -0.24343479 -0.14370106 0.10445999
0.05563735 0.0026901918 -0.10446932 -0.058590487 0.15717578 -0.14200254 -0.22800796 -0.08144842
-0.24009545 -0.09938162 -0.15117458 -0.17130008 0.020262308 -0.09643424 -0.06787833 0.21361454
0.18170504 -0.3972429 -0.2533798 -0.31674162 -0.21811768 0.045377653 -0.09695288 -0.28941348
-0.04762661 0.027139116 -0.19840682 -0.023298686 0.045650445 -0.104500905 0.048547834 0.15772176
-0.13900763 -0.0044153966 0.26945716 -0.2632312 -0.19527674 0.17067453 -0.11402159 -0.066631176
0.20739734 -0.024197726 0.15707207 0.18285426 0.033697702 -0.087655015 -0.1349604 0.026124286
-0.087478444 -0.10476154 0.12767974 0.014810969 -0.23058215 0.116872445 0.13828972 0.06245822
0.1374855 0.038401548 0.08403775 0.014150745 -0.06656982 -0.023434985 0.11756512 0.12778535
0.07387404 0.18436438 0.0061298152 -0.17462651 0.18926693 -0.0534581 -0.23794536 0.33319202
0.07209075 -0.03994753 0.18036053 0.06542284 -0.097424865 0.34345838 0.24490719 0.08117816
0.2932207 0.27231684 0.27151147 0.12485729 0.15873225 0.25392476 0.022931 0.1802317
0.21178816 0.13476704 0.17457224 0.23292194 0.0004846114 -0.058111478 0.03297574 -0.17760767
-0.19829433 -0.187856 0.010039522 0.079762705 -0.068005554 0.28377882 0.2326154 0.15493481
0.34337506 0.13021398 0.27075136 0.15995999 0.020069178 0.0019919185 0.022521136 0.07069989
-0.00019081634 0.010078821 -0.045541994 -0.035205435 -0.08132662 -0.016894864 -0.115871705 0.14819463
00000000: e3d6 85bd 0fc7 4cbe 7109 85bd 6b8c 883d
00000010: 1393 c8bc acc3 663d 8497 1d3e 3c0a 723e
00000020: e073 923e 03d2 72bd 67f8 e0bd 61b7 64be
00000030: f283 883c 8fbc 51bd efc7 1fbe b21b d03c
00000040: f801 f53d e6c9 99bc 0385 29be f240 c9bd
00000050: c162 3cbe 92e3 f13c c853 40bb 4762 e7bd
00000060: 2ada 9d3d d23b c53d cf0f a43d affd d8bc
00000070: b2e4 1c3d dbd7 16bd 0f7e 53bd 3724 a7bd
00000080: ef97 7dbe 43cd b6bd 7386 53be cbf3 d1be
00000090: ae36 3ebe 5ae6 0fbe a7ba 6ebe ba64 1abd
000000a0: ecae 1cbd 5878 24be b2af b5bc 603e d73b
000000b0: 3af0 d0bd d3ac 803d 779d 523e e674 263e
000000c0: 3127 2bbe 901c 68bd 7ba1 c23d 51f8 86be
000000d0: 8630 24be 0f61 5fbe 8bbf 17be c060 d9bc
000000e0: 08af 623d 191b 74bd e4c8 553d 3e11 4d3e
000000f0: 2d12 333d 5936 db3d 055b 943e 7f8e 93bc
00000100: fec2 efbd 4209 863e 6972 c83c 05c5 a4bd
00000110: d33a 503c 8023 813c 2581 f2bb 7f32 67be
00000120: 415f ffbd 67f4 ccbd bd45 45be a7ed 80bd
00000130: b6ff 24bc eb15 74bb b132 0cbe 3b05 8bbd
00000140: a648 ff3d 4487 b6bd 72ba b7bc 1bc4 a9bd
00000150: d8f4 46bc e01c 3f3d 2b8e ae3c ba69 4ebe
00000160: 1cfd 3ebe 4acd 87be d3cc a33c 1b7f eb3d
00000170: 283a bbbc 795f 41bd 78b4 243e 893b ba3c
00000180: 8d34 6ebe 5eb0 3c3a 8eeb 8ebc d709 063c
00000190: d4c7 97bd 7fca abbd fd74 b33c dcf2 a83c
000001a0: fa60 b83d 43b1 073d 586d 4cbd 19e9 473e
000001b0: 049f 893e 484e 7cbd 600c c63c cb7b 123e
000001c0: ce56 303c 902c 7ebd 3bb6 9b3d ed5c a3bd
000001d0: 17dd 26be bb03 64be 9b6d 92be 0248 9dbe
000001e0: 8a45 40be 96e6 5dbe ffbd 47be 40cc 07bd
000001f0: 81e3 cdbd 10d5 21be 4dad 2a3e b2bf c33d
00000200: 9ea0 d83c c7ca 903d 3a46 413d 88aa 323c
00000210: af2e 80be f846 79be 5f26 13be 1fef d53d
00000220: fde3 633d ee4d 303b 03f4 d5bd 94fc 6fbd
00000230: b0f2 203e 1d69 11be eb7a 69be 6ece a6bd
00000240: 95db 75be 9788 cbbd 82cd 1abe 4a69 2fbe
00000250: 24fd a53c 517f c5bd cb03 8bbd c5bd 5a3e
00000260: e310 3a3e 6c63 cbbe ffba 81be f52b a2be
00000270: 3e5a 5fbe ebdd 393d 3b8f c6bd 012e 94be
00000280: 1f14 43bd da52 de3c 282b 4bbe e3dc bebc
00000290: f6fb 3a3d 9204 d6bd 18da 463d d081 213e
000002a0: 0458 0ebe 08af 90bb 4af6 893e 3dc6 86be
000002b0: a0f6 47be 4ec5 2e3e 2784 e9bd ed75 88bd
000002c0: f85f 543e 4f3a c6bc 80d7 203e 263e 3b3e
000002d0: 9a06 0a3d 7984 b3bd 0f33 0abe 9902 d63c
000002e0: e627 b3bd 388d d6bd 7abe 023e b5a9 723c
000002f0: ba1d 6cbe d25a ef3d d29b 0d3e 31d4 7f3d
00000300: 00c9 0c3e f14a 1d3d fc1b ac3d 87d8 673c
00000310: c255 88bd bafa bfbc fbc5 f03d 2ada 023e
00000320: 464b 973d 04ca 3c3e 9edc c83b 4bd1 32be
00000330: 31cf 413e e1f6 5abd f3a7 73be 2598 aa3e
00000340: 51a4 933d 05a0 23bd 6eb0 383e 69fc 853d
00000350: b086 c7bd c7d9 af3e f3c8 7a3e bc40 a63d
00000360: 0621 963e 1d6d 8b3e 8d03 8b3e 2eb5 ff3d
00000370: b58a 223e 6d02 823e cbd9 bb3c a98e 383e
00000380: ffde 583e 5f00 0a3e 11c3 323e 1783 6e3e
00000390: 7113 fe39 4d06 6ebd 9211 073d c9de 35be
000003a0: ab0d 4bbe 535d 40be cf7c 243c a15a a33d
000003b0: 7f46 8bbd 754b 913e bb32 6e3e 3ba7 1e3e
000003c0: dbce af3e d056 053e ec9f 8a3e 8dcc 233e
000003d0: 1e68 a43c d98a 023b 3f7e b83c 1bcb 903d
000003e0: df15 48b9 a421 253c 3e8a 3abd 9333 10bd
000003f0: 928e a6bd 1967 8abc 254e edbd 55c0 173e

conv5.bias f4 [32]
0.0003581981 0.0006292991 0.00041403688 1.5948599e-05 -0.00077650225 -6.44477e-05 0.00019662334 -0.00062355155
2.5134694e-05 -0.00073552626 -0.0007693623 0.00050257874 -0.00067793916 6.0658035e-06 -0.00045821987 -0.00038463884
0.00057366 -0.0006638564 -0.00021515353 -5.442995e-05 0.00012629101 0.0003898853 -0.00024336856 0.0005549961
0.00033264636 -9.2707356e-05 -0.0003649538 -0.00071956933 0.000633807 0.0003805164 6.422806e-07 0.00051455887
00000000: 89cc bb39 8cf7 243a 1713 d939 5bc9 8537
00000010: 2f8e 4bba 1828 87b8 ad2c 4e39 d675 23ba
00000020: 58d8 d237 55d0 40ba 08af 49ba 7dbf 033a
00000030: bab7 31ba db88 cb36 3b3d f0b9 5aa9 c9b9
00000040: ac61 163a a606 2eba d69a 61b9 b74b 64b8
00000050: fc6c 0439 8569 cc39 c030 7fb9 287d 113a
00000060: 0a67 ae39 e26b c2b8 4557 bfb9 7ba1 3cba
00000070: 1126 263a 0c80 c739 3069 2c35 76e3 063a

bn5.weight f4 [32]
0.9007592 0.7921924 0.881314 0.9257089 1.0347799 0.72085446 0.6790495 0.9497674
0.7643486 1.0467296 0.907902 0.84863746 0.8859941 0.7864489 0.6257443 0.8252697
0.8849346 1.0200279 0.8825876 0.80527097 0.99340636 0.9371788 0.881264 1.0091499
0.8149192 0.749452 0.88514835 0.69267184 0.7905383 1.0696267 1.1930573 0.6922631
00000000: 2898 663f 1fcd 4a3f cb9d 613f 42fb 6c3f
00000010: ab73 843f eb89 383f 30d6 2d3f f523 733f
00000020: 5aac 433f 3cfb 853f 446c 683f 4e40 593f
00000030: 82d0 623f b754 493f c730 203f e044 533f
00000040: 138b 623f 4690 823f 43f1 613f 3d26 4e3f
00000050: e14f 7e3f f3ea 6f3f 849a 613f d32b 813f
00000060: 8b9e 503f 16dc 3f3f 1599 623f f152 313f
00000070: b860 4a3f 87e9 883f 1ab6 983f 2838 313f

bn5.bias f4 [32]
0.16144948 0.328472 0.2737101 -0.044369675 -0.32063556 0.3285171 0.35027054 -0.2416873
0.2362049 -0.11717341 -0.05010554 0.1804624 0.21635322 0.15374492 0.8315242 0.37491548
0.021975884 -0.37354964 0.47493944 0.22717467 -0.26747695 -0.030721797 0.08468914 -0.15482007
0.04081689 0.32608816 -0.10006134 0.3716049 0.14271742 -0.15490122 -0.7396425 0.46625865
00000000: 0353 253e 7b2d a83e bb23 8c3e fabc 35bd
00000010: 582a a4be 6533 a83e a956 b33e e07c 77be
00000020: b3df 713e 9df8 efbd 773b 4dbd 23cb 383e
00000030: b38b 5d3e 4f6f 1d3e c5de 543f ecf4 bf3e
00000040: c506 b43c e641 bfbe 432b f33e 7aa0 683e
00000050: bdf2 88be 47ac fbbc 8071 ad3d 2789 1ebe
00000060: 9c2f 273d 07f5 a63e f6ec ccbd ff42 be3e
00000070: 8424 123e 6d9e 1ebe 3659 3dbf 74b9 ee3e

bn5.running_mean f4 [32]
-1.3812743 -4.199205 -1.592128 -0.5619857 -0.64522344 -0.41285342 0.98174995 0.47919378
-1.8665317 -1.1547174 -1.355765 -2.3912156 0.98331976 0.3130564 1.1542227 4.705861
-2.1373377 0.8437602 1.0791155 3.8753 -0.72707635 -1.1858472 -0.49842656 -0.32052007
-1.7962847 -1.9290949 -0.38644955 -1.2610518 -0.4103623 -2.6285799 -2.4342535 -0.5916286
00000000: 99cd b0bf e35f 86c0 daca cbbf 4bde 0fbf
00000010: 5d2d 25bf 8661 d3be f753 7b3f e358 f53e
00000020: 83ea eebf c8cd 93bf b589 adbf ad09 19c0
00000030: d8ba 7b3f ee48 a03e 92bd 933f 6a96 9640
00000040: 24ca 08c0 ab00 583f 7520 8a3f ea04 7840
00000050: ad21 3abf d7c9 97bf c431 ffbe 351b a4be
00000060: a8ec e5bf 95ec f6bf b7dc c5be 256a a1bf
00000070: 021b d2be a73a 28c0 cfca 1bc0 f974 17bf

bn5.running_var f4 [32]
4.723395 5.326811 2.9800417 3.4416423 4.2384615 3.2291954 3.180541 3.6226854
3.399549 4.6698847 3.684868 3.6567204 4.0056543 2.9871354 2.9990673 4.453414
4.9863377 3.455601 4.2043037 4.0480943 2.9431312 4.7087574 3.7671382 3.5131555
3.4925108 4.1679583 2.3291805 2.724099 3.8095984 5.1172986 3.4708588 3.098357
00000000: 0d26 9740 3c75 aa40 01b9 3e40 de43 5c40
00000010: 7aa1 8740 23ab 4e40 fc8d 4b40 14da 6740
00000020: 3692 5940 b26f 9540 e1d4 6b40 b507 6a40
00000030: 522e 8040 3a2d 3f40 b8f0 3f40 5e82 8e40
00000040: 1490 9f40 9128 5d40 a889 8640 fd89 8140
00000050: 435c 3c40 24ae 9640 cb18 7140 8ad7 6040
00000060: 4c85 5f40 ea5f 8540 4b11 1540 a357 2e40
00000070: 76d0 7340 e9c0 a340 8d22 5e40 7b4b 4640
