model_weights/Tiny10/CIFAR10/in15-gn15/110000.pt (torch_old, 358762 bytes, 50 tensors)

conv1.weight f4 [16, 3, 3, 3]
0	0xbd58e151	-0.052949253
1	0xbe65f80c	-0.22457904
2	0x3e4edaf3	0.2020071
3	0xbeb75c27	-0.35812494
4	0xbf3e5fbc	-0.7436483
5	0xbeda9377	-0.42690632
6	0xbe94513b	-0.28968224
7	0xbf7ae309	-0.9800268
8	0xbf111a76	-0.56681
9	0xbd43f21c	-0.047838315
10	0xbc89f6df	-0.01684135
11	0x3dd5502b	0.104156815
12	0x3db7e937	0.08980029
13	0x3e931095	0.2872359
14	0x3db6719c	0.08908388
15	0xbc12e8f9	-0.008966678
16	0xbc087d7b	-0.008330698
17	0xbd533857	-0.0515674
18	0xbe23fb19	-0.16013755
19	0x3e054a23	0.13016562
20	0xbdca632c	-0.09882197
21	0x3e9a4a4b	0.30134806
22	0x3f83c8ce	1.0295656
23	0x3ec0e63e	0.3767566
24	0x3e2aca66	0.16678771
25	0x3f433c7f	0.76264185
26	0x3eab658a	0.33475906
27	0xbf0e40d8	-0.55567694
28	0xbec28f41	-0.3799992
29	0x3ec3a579	0.38212183
30	0xbe98e01d	-0.29858485
31	0x3b2b9774	0.0026182802
32	0x3f162835	0.586551
33	0x3daac8c5	0.08339075
34	0x3e4deb9d	0.2010941
35	0xbd07d754	-0.033164337
36	0xbed09736	-0.40740365
37	0xbee0eac5	-0.43929115
38	0x3e51bfdc	0.20483345
39	0xbeba8353	-0.36428317
40	0xbdf63cea	-0.12023337
41	0x3f0d7c05	0.55267364
42	0xbcd3e08d	-0.02586391
43	0x3dd45215	0.103672184
44	0x3d8eef95	0.069792904
45	0xbf22cf6a	-0.6359774
46	0xbe80a802	-0.2512818
47	0x3f090feb	0.53539914
48	0xbf2fe0f3	-0.6870262
49	0x3d5f5307	0.05452254
50	0x3f698b3b	0.91228074
51	0xbe94e30e	-0.2907948
52	0x3e35ffd0	0.17773366
53	0x3e9f8dcc	0.3116287
54	0xbf2e8efa	-0.68186915
55	0xbf677afc	-0.90422034
56	0x3c8b3f2b	0.016997894
57	0xbe9dbf94	-0.30810225
58	0xbe72ca82	-0.23710063
59	0x3eaf792a	0.34272128
60	0xbf12d440	-0.5735512
61	0x3f40fadd	0.75382787
62	0x3f81e818	1.0148954
63	0x3e887ef5	0.2665936
64	0xbcf779a1	-0.030209364
65	0xbd14f8a3	-0.03636993
66	0x3f343d57	0.704061
67	0x3dc8dacf	0.098073594
68	0xbf2a5f44	-0.66551614
69	0xbe1c943e	-0.15290925
70	0x3e84864f	0.2588372
71	0xbdd22e04	-0.10262683
72	0x3e8d3d8d	0.27586022
73	0x3ea31d61	0.31858352
74	0x3d01dec0	0.03170657
75	0x3f7ae8a5	0.9801124
76	0x3eafa3cf	0.34304664
77	0xbf7bf432	-0.9841949
78	0x3d9661e9	0.07342894
79	0xbc2ff412	-0.010739343
80	0xbf5d977d	-0.8655928
81	0x3f0374a8	0.5134988
82	0x3e8a921f	0.27064607
83	0xbe093d88	-0.13402379
84	0x3f5452ca	0.82938826
85	0x3d072344	0.032992616
86	0xbf7d2bdd	-0.98895055
87	0x3f1084dd	0.56452733
88	0xbd56e3b3	-0.052463245
89	0xbf522a7c	-0.82096076
90	0x3e3ac853	0.1824048
91	0x3e088a94	0.13334113
92	0xbda23c7a	-0.07921691
93	0x3f146b48	0.579762
94	0x3d3b91cb	0.045793336
95	0xbf4d6006	-0.80224645
96	0x3e90b821	0.2826548
97	0xbd4c2b7f	-0.04984617
98	0xbf319457	-0.69366974
99	0x3e47069c	0.19436115
100	0xbda91387	-0.08255678
101	0xbf0f9ffa	-0.5610348
102	0x3f413b93	0.7548153
103	0x3d9220dd	0.071351744
104	0xbf6f45b0	-0.9346571
105	0x3f318e4a	0.6935774
106	0x3eb9dd92	0.36301857
107	0xbec2b301	-0.38027194
108	0x3c4ed5eb	0.012624244
109	0xbea8e0a1	-0.32983878
110	0xbed319de	-0.41230673
111	0x3f3fb8b5	0.74891216
112	0x3f44cf72	0.76879036
113	0x3da264ce	0.07929383
114	0x3f88dc6f	1.0692271
115	0x3fe68915	1.8010584
116	0xbf23298e	-0.6373528
117	0xbe939464	-0.2882415
118	0xbefc3507	-0.49259207
119	0x3e557ee1	0.20849182
120	0xbfb53ce3	-1.4159206
121	0xbfc163da	-1.5108597
122	0x3e4c5f8c	0.19958323
123	0xbeff461f	-0.49858186
124	0xbe2d61c5	-0.16931827
125	0x3ee21af3	0.44161186
126	0x3ee49f80	0.4465294
127	0x3f59a73c	0.85020804
128	0xbe81a756	-0.2532298
129	0xbd2b4005	-0.0418091
130	0x3e0a8fe1	0.13531448
131	0x3eafdde8	0.3434899
132	0xbe976ea2	-0.29576594
133	0xbea3c782	-0.3198815
134	0xbea936d2	-0.33049637
135	0xbdb0a9b9	-0.08626122
136	0xbebf2724	-0.3733455
137	0x3f1e7adc	0.6190622
138	0xbf3c2418	-0.73492575
139	0x3f6b9981	0.92031103
140	0x3e872ccb	0.26401362
141	0xbe7ac049	-0.24487413
142	0xbeb9878a	-0.3623622
143	0x3dff3b87	0.12462526
144	0x3ecd8ba0	0.40145588
145	0xbf1c0fa4	-0.60961366
146	0xbf6e6aa2	-0.9313146
147	0x3f03b6d2	0.51450837
148	0x3fb576cc	1.4176879
149	0xbf54709b	-0.8298432
150	0x3eca5291	0.39516118
151	0xbd925c0f	-0.07146465
152	0xbf15e36f	-0.5855016
153	0xbe688502	-0.22706988
154	0xbef1a905	-0.47199264
155	0x3de56cff	0.1120243
156	0xbddf45a5	-0.109019555
157	0x3fa11447	1.2584313
158	0x3e9a7f70	0.30175352
159	0xbee8ead7	-0.4549167
160	0xbe90d84f	-0.2829003
161	0x3d393f49	0.04522637
162	0x3e42bd7e	0.19017598
163	0x3f5cc531	0.8623839
164	0x3e46b6e8	0.1940571
165	0x3f05e1f9	0.5229793
166	0xbffd5fa4	-1.9794812
167	0x3f5e00c8	0.8671994
168	0xbe9c54f2	-0.30533558
169	0xbc894ac4	-0.016759284
170	0xbf04e6c1	-0.519146
171	0xbe83734b	-0.256739
172	0xbf02389e	-0.5086764
173	0xbef86a33	-0.48518524
174	0x3f32ab1d	0.6979235
175	0xc00a34ad	-2.159465
176	0x3f2c34a7	0.6726784
177	0x3f1b32e4	0.6062453
178	0x3f96ba60	1.1775627
179	0x3f47bfa7	0.78026813
180	0xbe22f403	-0.15913396
181	0x3f7f2477	0.99665016
182	0xbd129d94	-0.03579481
183	0x3f0d8725	0.5528434
184	0xbf5d6bf6	-0.8649286
185	0x3e7c7c43	0.24656777
186	0xbecea944	-0.40363514
187	0xbe7747af	-0.24148439
188	0xbec5bcff	-0.38620755
189	0xbf3dcb94	-0.7413876
190	0xbdcdf4d8	-0.10056466
191	0x3f5f8cbd	0.87324125
192	0xbf917bef	-1.1365947
193	0xbd48f269	-0.049059305
194	0x3f7b3b36	0.98137224
195	0xbeeb21d3	-0.45924243
196	0x3e5efa9f	0.21775292
197	0x3eb5f277	0.35536548
198	0x3cd156fd	0.025554175
199	0xbd8ccb42	-0.06874706
200	0x3e922cb6	0.28549737
201	0xbf081537	-0.5315737
202	0xbe11860d	-0.14211293
203	0x3ed74ab3	0.42049178
204	0xbe82641a	-0.25466996
205	0x3dfb75a4	0.122782975
206	0x3dccfb09	0.10008819
207	0x3f4d679b	0.80236214
208	0xbe172395	-0.14759667
209	0xbf2f0317	-0.6836409
210	0x3f125370	0.57158566
211	0x3d479f2c	0.048735783
212	0xbf0eb409	-0.5574346
213	0x3f16d30a	0.5891577
214	0x3e9a33a2	0.30117518
215	0xbf42ef7c	-0.76146674
216	0xbc99cd5a	-0.018774677
217	0x3e24474a	0.1604282
218	0x3f094486	0.53620183
219	0x3eca1a12	0.39473015
220	0x3daa2c0f	0.08309185
221	0x3e301799	0.17196502
222	0x3ef97fd6	0.48730344
223	0xbe1df457	-0.1542524
224	0xbf3bbe9f	-0.7333774
225	0xbe2b9651	-0.1675656
226	0xbea9b158	-0.33143115
227	0x3e07d985	0.13266571
228	0xbe30bee6	-0.17260322
229	0xbf2bd588	-0.671227
230	0xbe456d13	-0.1927989
231	0x3d71026a	0.058840193
232	0xbf3abe70	-0.72946835
233	0xbf52a232	-0.8227874
234	0xbb0c41f9	-0.0021401627
235	0x3d2faf1f	0.042891618
236	0x3e70755a	0.23482266
237	0xbc235f93	-0.009971517
238	0x3c6f5339	0.014607244
239	0x3ef729af	0.4827399
240	0x3da119b0	0.078662276
241	0xbe004940	-0.12527943
242	0xbc85fba6	-0.016355347
243	0xbe192a9d	-0.14957662
244	0xbf35b8da	-0.70985186
245	0xbed663e8	-0.41873097
246	0xbd9449e6	-0.072406575
247	0xbe60a70d	-0.21938725
248	0xbde4a338	-0.11163944
249	0x3e91682c	0.2839979
250	0x3eee5b2a	0.46553928
251	0x3e5d81e2	0.21631578
252	0xbee2c002	-0.44287115
253	0xbf34c607	-0.70614666
254	0xbea83722	-0.32854563
255	0xbd1d1004	-0.03834535

conv1.bias f4 [16]
0	0x3a5c9572	0.0008414603
1	0x3aaa75f2	0.0013005121
2	0xbb0d011f	-0.002151556
3	0x3a1662cd	0.00057367684
4	0x3b24ba99	0.0025135635
5	0x38959eb5	7.134435e-05
6	0x391f3f25	0.00015186945
7	0x3aaa2eb8	0.0012983894
8	0x3a89a5a1	0.0010501632
9	0xbaf7630e	-0.0018874125
10	0x3aa3bee9	0.0012492809
11	0xbb082db1	-0.0020779187
12	0x3a7ac389	0.000956588
13	0xba6d38da	-0.0009049304
14	0x386e5d6e	5.6830635e-05
15	0x3a910a19	0.0011065631

bn1.weight f4 [16]
0	0x3f125423	0.5715963
1	0x3f472b5a	0.77800524
2	0x3f103da3	0.5634405
3	0x3f5071c4	0.8142359
4	0x3f2c6910	0.6734781
5	0x3f830688	1.0236368
6	0x3fa01a95	1.2508112
7	0x3f329006	0.6975101
8	0x3f5ab3d2	0.85430634
9	0x3f3ab5be	0.72933567
10	0x3ee3daad	0.44502774
11	0x3f487a41	0.78311545
12	0x3fd3f2e7	1.6558503
13	0x3f4a0f1a	0.78929293
14	0x3f8172dc	1.0113177
15	0x3ee8e0ea	0.45484096

bn1.bias f4 [16]
0	0x3ee0b8c7	0.43890974
1	0x3da417e1	0.08012367
2	0x3f5f360c	0.87191844
3	0x3e33a303	0.17542653
4	0x3ef206a4	0.4727069
5	0x3f2dd3ab	0.67901105
6	0x3fabec3b	1.3431467
7	0xbd0ddf8d	-0.034637023
8	0xbe77375b	-0.2414221
9	0x3f2f0a83	0.68375415
10	0x3ee79f06	0.45238513
11	0xbd1fc51b	-0.039006334
12	0xbf9076e7	-1.1286286
13	0xbf6adc8e	-0.9174279
14	0xbf0dc14c	-0.5537307
15	0x3d413eee	0.047179155

bn1.running_mean f4 [16]
0	0x3c9ceacb	0.019154927
1	0x3d96af94	0.073577076
2	0x3cac8480	0.021059275
3	0xbbdea18f	-0.0067941616
4	0x3d2516bc	0.040304884
5	0x3d097856	0.033562027
6	0xbd4bd82e	-0.049766712
7	0xbbab3d21	-0.005225793
8	0x3e8d5e0e	0.2761082
9	0xbd98819f	-0.07446598
10	0xbd96a818	-0.0735628
11	0x3cabb070	0.020958155
12	0x3e9bdbd1	0.30441144
13	0xbd6e567a	-0.05818794
14	0x3e608319	0.2192501
15	0xbe40f169	-0.1884209

bn1.running_var f4 [16]
0	0x40c3b782	6.116151
1	0x410f05e0	8.938934
2	0x3fdef1b9	1.7417518
3	0x4188d23f	17.10266
4	0x40389c7e	2.8845515
5	0x4003f030	2.061535
6	0x40084900	2.1294556
7	0x3fd39136	1.652869
8	0x40a02c42	5.0054026
9	0x4198e283	19.110601
10	0x3feccf11	1.8500692
11	0x408f9a3a	4.4875765
12	0x40d526e9	6.661
13	0x3fa3e1d2	1.280329
14	0x4096018f	4.6876903
15	0x4019c880	2.4028625

conv2.weight f4 [16, 16, 3, 3]
0	0x3df7d752	0.12101616
1	0x3e3ad2fe	0.1824455
2	0x3e5f3bf0	0.21800208
3	0xbd358202	-0.04431344
4	0x3da13259	0.07870931
5	0x3da761ce	0.08172952
6	0xbe9e197f	-0.30878827
7	0xbdea80e2	-0.11450364
8	0xbdc0e455	-0.09418551
9	0x3d967a6c	0.07347569
10	0x3e058afe	0.13041303
11	0xbe9f8a60	-0.3116026
12	0x3e407458	0.18794382
13	0xbe7c5c5c	-0.24644607
14	0xbeb7b4da	-0.35880166
15	0x3e26674b	0.1625034
16	0xbe1149b0	-0.14188266
17	0xbe871583	-0.263836
18	0x3dfb567e	0.122723565
19	0xbc9a8ba6	-0.018865418
20	0x3d854e04	0.06509021
21	0xbeea871f	-0.45806214
22	0xbca46dc8	-0.020071879
23	0x3d4a438b	0.04938082
24	0xbf0602dd	-0.5234812
25	0x3ce31270	0.027718753
26	0x3d9bc6ab	0.07606252
27	0xbe3f84a3	-0.1870294
28	0xbe4a318d	-0.19745465
29	0x3cdf1cb6	0.02723537
30	0xbf44046e	-0.7656926
31	0xbec721fe	-0.3889312
32	0xbc55f8dd	-0.013059822
33	0xbf7597fb	-0.9593503
34	0xbe854c49	-0.26034763
35	0xbdded02f	-0.108795516
36	0xbc5a5094	-0.013324875
37	0x3e420eb5	0.18950923
38	0xbdd4f26c	-0.10397801
39	0x3d893655	0.06699816
40	0x3e7847b0	0.24246097
41	0xbe53e824	-0.20694023
42	0x3e6faf76	0.23406777
43	0x3dd1af6c	0.10238537
44	0xbe95ae52	-0.29234558
45	0xbdf1ec3e	-0.11812638
46	0xbdf0af53	-0.117521904
47	0x3e3c2c28	0.1837622
48	0xbe958552	-0.29203278
49	0x3df00d75	0.11721317
50	0xbda27255	-0.07931963
51	0xbe9068c7	-0.2820494
52	0x3ec10a97	0.37703392
53	0x3d20aa26	0.039224766
54	0x3dcb29ca	0.0992008
55	0xbdcaf122	-0.09909274
56	0x3e28ab08	0.16471493
57	0x3f04c7c6	0.5186733
58	0xbf03aeec	-0.51438785
59	0x3daa8d9f	0.08327793
60	0x3dff1d84	0.124568015
61	0xbf68376a	-0.90709555
62	0x3eabc141	0.3354588
63	0x3d9167fa	0.0709991
64	0xbceb5b69	-0.028730111
65	0xbe840825	-0.25787464
66	0x3d80b04a	0.062836245
67	0xbe3bd249	-0.18341936
68	0xbde5d2f4	-0.11221877
69	0x3c2f4511	0.010697619
70	0xbde485b6	-0.11158316
71	0xbe227e2f	-0.15868448
72	0x3d4b6db4	0.049665168
73	0xbdd5eb9f	-0.10445332
74	0x3e1ec2f9	0.15504064
75	0xbe2beb8c	-0.16789073
76	0xbeb2f560	-0.3495283
77	0x3e499de9	0.19689144
78	0x3e4eed20	0.20207644
79	0x3dc99fdf	0.09844946
80	0x3e8da647	0.27665922
81	0xbc3ca07a	-0.01151287
82	0x3e436b32	0.1908386
83	0x3eaee654	0.341601
84	0xbdf0dc3f	-0.117607586
85	0x3cb57bff	0.022153853
86	0x3eba463c	0.3638171
87	0x3dabb221	0.08383585
88	0xbe345f23	-0.17614417
89	0xbd108de3	-0.035291564
90	0xbcd4affd	-0.025962824
91	0xbe287a0d	-0.16452809
92	0xbd3e98e6	-0.046532534
93	0xbdab2631	-0.08356894
94	0xbc77446e	-0.0150919985
95	0xbd47be48	-0.04876545
96	0xbe22fb17	-0.15916096
97	0xbc23ed59	-0.010005319
98	0xbe483155	-0.19550069
99	0xbe12afe1	-0.14324905
100	0x3c05687e	0.008142589
101	0xbd8a1039	-0.067413755
102	0xbe7447c0	-0.23855495
103	0x3cd65607	0.026164068
104	0x3e2a6575	0.16640265
105	0xbe5d3e7b	-0.21605866
106	0xbdc062ab	-0.093938194
107	0x3e18f4aa	0.14937082
108	0xbe10024e	-0.14063379
109	0x3c8196bc	0.015818946
110	0x3e208052	0.1567395
111	0x3ed2e5ee	0.41191047
112	0x3c698b0d	0.014254344
113	0x3cfc3382	0.03078628
114	0x3ead5bfd	0.33859244
115	0xbe57c27b	-0.21070282
116	0xbdefdef3	-0.11712446
117	0xbd8e1cf4	-0.06939116
118	0xbde78e25	-0.11306409
119	0x3d8b0353	0.067877434
120	0xbe0dfef1	-0.13866784
121	0xbd3bda8e	-0.045862727
122	0x3c448e1d	0.011996773
123	0xbd916672	-0.07099618
124	0xbbf66fda	-0.007520658
125	0xbae27b92	-0.0017279258
126	0x3e9cba73	0.30611
127	0x3e61f898	0.22067487
128	0x3dc43822	0.09581019
129	0x3e2259ee	0.15854618
130	0xbba205c6	-0.004944536
131	0xbd6e2e9f	-0.05814993
132	0xbe71a8e3	-0.23599581
133	0xbe2e8aa9	-0.17045082
134	0xbde44645	-0.11146215
135	0xbe03bd7d	-0.12865253
136	0xbdb00fc3	-0.08596756
137	0xbc0ddde2	-0.008658858
138	0xbd18c311	-0.037295405
139	0x3c56cae3	0.013109895
140	0x3da629a4	0.08113411
141	0x3cb454f6	0.022013169
142	0x3cb93bf2	0.022611592
143	0x3daec74c	0.085341066
144	0xbf570314	-0.8398907
145	0xbedf8ca7	-0.43661997
146	0xbdf5bcb2	-0.119988814
147	0xbeb2fcc3	-0.34958467
148	0x3e229a0b	0.15879075
149	0x3ea06f33	0.31334838
150	0x3d8662c6	0.06561808
151	0x3f10bbf2	0.5653678
152	0x3f1848f7	0.59486336
153	0x3d9ef185	0.0776091
154	0x3e43cdd5	0.19121487
155	0x3ea2bd6a	0.31785136
156	0xbe0f3c04	-0.13987738
157	0xbec64703	-0.38726053
158	0xbeda0f83	-0.4258996
159	0xbe5ff175	-0.21869452
160	0xbe8427e8	-0.25811696
161	0xbe8863e7	-0.2663872
162	0x3d55aaf4	0.052164987
163	0xbdc39c3b	-0.09551283
164	0xbe7aa6b9	-0.24477662
165	0xbecf6ccc	-0.40512693
166	0xbe9a6de3	-0.30161962
167	0x3e7afeb1	0.2451122
168	0xbf0ac4e0	-0.5420666
169	0xbd4a180c	-0.04933934
170	0x3f54753d	0.8299139
171	0x3e1d7484	0.15376478
172	0x3e3c71e3	0.1840282
173	0x3b01ad93	0.0019787296
174	0xbe7a092e	-0.24417564
175	0xbdb4ea6b	-0.08833774
176	0xbe16fab8	-0.14744079
177	0xbe8a3e15	-0.2700049
178	0xbe9f7960	-0.3114729
179	0xbe938488	-0.2881205
180	0x3e6c6db5	0.23088725
181	0xbd690d81	-0.056897644
182	0xbea1767d	-0.31535712
183	0x3e54326f	0.20722364
184	0xbbff144e	-0.007784403
185	0xbd9b15a6	-0.075724885
186	0xbd22670b	-0.03964905
187	0xbd781c1f	-0.060573693
188	0x3e0a04e1	0.13478424
189	0xbc137d38	-0.009002022
190	0x3e67f0e4	0.22650486
191	0x3e3151ad	0.17316313
192	0xbeb3c405	-0.3511049
193	0xbec6fc27	-0.38864252
194	0xbe9d4859	-0.3071926
195	0xbe036494	-0.12831336
196	0x3e2f8c3f	0.17143343
197	0x3ef16834	0.47149813
198	0xbb384308	-0.0028116126
199	0xbd06725d	-0.03282391
200	0xbd4142e9	-0.04718295
201	0xbb24a270	-0.0025121234
202	0x3e917cd8	0.2841556
203	0xbd874c1b	-0.06606313
204	0xbbf9b194	-0.007620046
205	0xbc8649df	-0.016392646
206	0xbe81f124	-0.25379288
207	0x3ded8bb3	0.11598911
208	0xbdd9e6fa	-0.106397584
209	0x3e5ee5be	0.21767327
210	0xbe1286ba	-0.14309207
211	0xbed2a773	-0.4114338
212	0xbd521500	-0.05128956
213	0xbdbdc960	-0.09266925
214	0xbeab64d0	-0.3347535
215	0xbe2d6383	-0.16932492
216	0xbe1ac6d2	-0.15114906
217	0x3ddc0360	0.10742831
218	0x3e8a7a41	0.27046397
219	0xbe00acdc	-0.1256594
220	0xbeb4777a	-0.35247403
221	0x3d723d6d	0.05914061
222	0x3d9d9ec3	0.07696297
223	0xbe01178c	-0.12606639
224	0xbe78733e	-0.24262711
225	0xbdb89646	-0.090130374
226	0x3e50edf9	0.2040328
227	0x3dc13903	0.09434702
228	0xbd9ffdaa	-0.078120545
229	0x3e21f6a1	0.15816738
230	0x3e28facf	0.16501926
231	0x3dc52ff5	0.09628288
232	0x3e2a5992	0.16635731
233	0x3e8ee7a3	0.279111
234	0xbee97bd4	-0.45602286
235	0xbd97a1ee	-0.074039325
236	0xbd8d3fd9	-0.068969436
237	0xbe5d0859	-0.21585216
238	0x3e965524	0.29361832
239	0x3ea7fc27	0.32809564
240	0x3d6a24d6	0.057164036
241	0x3e79cd92	0.24394825
242	0x3e6b1fbf	0.22961329
243	0xbd6bfb38	-0.057612628
244	0xbdf5d430	-0.12003362
245	0xbd9497d4	-0.072555214
246	0xbe253dc2	-0.1613684
247	0xbdfac814	-0.12245193
248	0xbdd7f9f4	-0.10545722
249	0xb83a0755	-4.4352684e-05
250	0x3dd85d2c	0.10564646
251	0x3dd56950	0.104204774
252	0x3d4151d8	0.047197193
253	0x3ec439c5	0.38325325
254	0x3e9fb01d	0.3118905
255	0x3b0e0fbe	0.0021676864

conv2.bias f4 [16]
0	0xb9f4ef1a	-0.0004671745
1	0xb99c5865	-0.00029820498
2	0x3a6df998	0.0009078025
3	0x39e399bd	0.00043411358
4	0x3a7bc6d3	0.0009604517
5	0x3a0cd90a	0.00053729175
6	0x3a2800b3	0.00064087956
7	0x3a172f67	0.00057672564
8	0xba1d1c2c	-0.00059932726
9	0x39de8b57	0.00042446956
10	0xba71e78b	-0.0009227923
11	0xba2ad384	-0.00065165036
12	0xb9f89f4a	-0.00047420926
13	0xba0c4fab	-0.00053524476
14	0x3a77cc72	0.0009452767
15	0xba5bfb7d	-0.00083916617

bn2.weight f4 [16]
0	0x3fa484d2	1.2853034
1	0x3f7fccdd	0.9992197
2	0x3f8af5f0	1.0856304
3	0x3f468519	0.7754684
4	0x3f4aff74	0.7929604
5	0x3f4cd29c	0.80008864
6	0x3f449df0	0.76803493
7	0x3f7c312d	0.98512536
8	0x3f9f07ee	1.2424295
9	0x3f8628f1	1.0481244
10	0x3f9f93b8	1.2466955
11	0x3f9c9b85	1.2234961
12	0x3f72f583	0.9490587
13	0x3f305bfa	0.68890345
14	0x3f880d0a	1.0628979
15	0x3f5bc6a1	0.8584996

bn2.bias f4 [16]
0	0x3f00c937	0.5030703
1	0x3f013fb2	0.50487816
2	0xbdbb51b9	-0.09146447
3	0x3bd55d27	0.0065113488
4	0x3ea91a0c	0.33027685
5	0x3eadc03c	0.33935726
6	0x3f1f796e	0.6229466
7	0x3f06594e	0.5248002
8	0x3f14a710	0.5806742
9	0xbd87e7d7	-0.06636017
10	0xbe03e4b3	-0.1288021
11	0x3f262ff2	0.6491691
12	0xbe1eda8c	-0.15513057
13	0x3ee8ea52	0.45491272
14	0xbdfc0d38	-0.12307209
15	0xbd8fcfd2	-0.070220605

bn2.running_mean f4 [16]
0	0xbfef5f39	-1.8700935
1	0xbf6ecc00	-0.9328003
2	0x3ef5a4cb	0.4797729
3	0x4004bc7a	2.0740037
4	0xbf00dc4b	-0.5033614
5	0xbfd75330	-1.6822262
6	0xbf9f1d4b	-1.2430815
7	0xbfe815f9	-1.8131706
8	0xc042af94	-3.0419664
9	0xbf435ff2	-0.76318276
10	0xc04276fe	-3.0385127
11	0xbf0e0f52	-0.55492127
12	0x3f3cb299	0.7371002
13	0xbe8d6e34	-0.2762314
14	0xbef1c6fd	-0.4722213
15	0xbf525273	-0.8215706

bn2.running_var f4 [16]
0	0x411fe7af	9.994063
1	0x405f0227	3.4845064
2	0x40906c8c	4.5132504
3	0x40214249	2.5196707
4	0x403a4112	2.9102216
5	0x40660c21	3.5944903
6	0x40883b31	4.2572255
7	0x40e46557	7.1373706
8	0x40df2678	6.973446
9	0x410b89ae	8.721113
10	0x4107811d	8.469022
11	0x40d6445d	6.695845
12	0x400fe232	2.2481809
13	0x40109d76	2.2596107
14	0x40be9157	5.9552417
15	0x3fd91c84	1.6961827

conv3.weight f4 [32, 16, 3, 3]
0	0x3e2dcea2	0.16973355
1	0x3d3aa30f	0.04556566
2	0x3d44b901	0.048027996
3	0x3e286e67	0.16448365
4	0x3df6ec22	0.120567575
5	0x3d1bab0c	0.03800492
6	0x3d5f1cd4	0.054470852
7	0x3e2bb1a0	0.16766977
8	0x3e555382	0.20832637
9	0xbe2083d9	-0.15675296
10	0xbe2a57ae	-0.1663501
11	0xbd8e3ed0	-0.06945574
12	0x3e896181	0.26832202
13	0x3dbcdf66	0.09222297
14	0xbe0fe850	-0.14053464
15	0x3de8f5b4	0.11374989
16	0x3dfb1016	0.122589275
17	0xbdab9922	-0.08378817
18	0x3e32ff50	0.17480206
19	0x3ca60c6e	0.020269599
20	0x3d748c0d	0.059703875
21	0x3d4953f5	0.049152333
22	0xbcc683f2	-0.024232838
23	0xbdee1014	-0.116241604
24	0x3dcdf9b8	0.10057396
25	0x3e78c6fa	0.24294654
26	0x3e40adea	0.18816343
27	0x3e475b7a	0.1946849
28	0x3e18c9cd	0.14920731
29	0x3e177503	0.1479073
30	0xbdc42ffb	-0.09579464
31	0xbdba19af	-0.0908693
32	0xbd8375c4	-0.064189464
33	0xbe8476d2	-0.25871903
34	0xbe84e748	-0.25957704
35	0xbe17efaf	-0.14837526
36	0xbd0b89e5	-0.034067053
37	0x3aaa2c9d	0.0012983266
38	0xbd8b0055	-0.06787173
39	0xbe80de6a	-0.25169688
40	0xbe6fff69	-0.23437275
41	0xbe1c70d6	-0.15277418
42	0xbd47648d	-0.048679877
43	0xbd985d27	-0.074396424
44	0xbd446ded	-0.047956396
45	0xbace19d3	-0.0015724249
46	0x3c60a954	0.013712246
47	0xbe7f2050	-0.2491467
48	0xbe31815c	-0.17334503
49	0xbdda09f2	-0.10646428
50	0xbe20c24a	-0.15699115
51	0x3e99cdd2	0.3003984
52	0x3e522e82	0.20525554
53	0x3d977c5b	0.07396766
54	0xbda567d3	-0.080764435
55	0x3decf807	0.11570745
56	0x3e94d0aa	0.29065448
57	0xbe471e3d	-0.19445129
58	0x3de3b288	0.111180365
59	0x3e864828	0.26226926
60	0xbda40993	-0.08009639
61	0xbcbb4131	-0.022858234
62	0x3cd065ae	0.02543911
63	0x3e8c0121	0.2734461
64	0x3eae0825	0.3399059
65	0x3ea734e3	0.32657537
66	0xbe647dfc	-0.22313684
67	0xbcd71f6b	-0.026260098
68	0x3e20aa0b	0.15689866
69	0xbeebbad9	-0.4604099
70	0xbf1e46f1	-0.61827
71	0xbec89746	-0.39177912
72	0x3e4cce6f	0.20000623
73	0x3df9ea68	0.122029126
74	0x3b88c5a5	0.0041739517
75	0x3cb2331f	0.021752892
76	0x3d32c22c	0.043642208
77	0x3dddc5eb	0.108287655
78	0xbefc84a6	-0.49319953
79	0xbf181a6a	-0.59415305
80	0xbebb14f3	-0.3653942
81	0x3d1ff55d	0.039052356
82	0x3c860913	0.016361749
83	0xbd09bef4	-0.033629373
84	0xbb7fa325	-0.0039007154
85	0x3d805838	0.062668264
86	0x3d13b7b3	0.03606386
87	0xbdfd9a0d	-0.123828985
88	0xbb416946	-0.002951221
89	0x3d1176c9	0.035513673
90	0x3ec2770e	0.37981457
91	0x3dde3c75	0.10851375
92	0x3ddba494	0.1072475
93	0x3e114998	0.1418823
94	0xbd0b54e7	-0.034016516
95	0xbdc35bdc	-0.09539005
96	0x3e12fd5f	0.14354466
97	0x3e4e0ec0	0.20122814
98	0x3d6df5f3	0.058095884
99	0xbc9810cd	-0.018562699
100	0x3d04dcb5	0.032437045
101	0x3d61ed1c	0.055157766
102	0x3d9a0365	0.07520179
103	0x3c8b854d	0.017031336
104	0x3da6b0a1	0.08139158
105	0x3cc1ab0c	0.023641132
106	0x3e2d606c	0.16931313
107	0x3dddf364	0.10837439
108	0xbc18b141	-0.009319604
109	0x3a866de2	0.0010256136
110	0xbde0a0e1	-0.10968185
111	0x3d4d48bc	0.050118193
112	0x3e02db8a	0.1277906
113	0x3d3b5299	0.04573307
114	0xbe0bf569	-0.13667835
115	0xbe03b58f	-0.12862228
116	0xbcd84475	-0.02639983
117	0xbe85d3f2	-0.26138264
118	0xbd919aed	-0.07109628
119	0xbd151a8a	-0.036402263
120	0x3d94d400	0.07266998
121	0x3ceded7a	0.029043902
122	0x3cfd185d	0.030895406
123	0x3d99ea20	0.07515359
124	0x3c4295a7	0.0118765
125	0xbd52872f	-0.051398452
126	0x3d92756a	0.07151301
127	0xbe3f58c1	-0.186862
128	0xbe2267fa	-0.15859976
129	0xbdb68678	-0.08912367
130	0xbe599c0a	-0.2125093
131	0xbe009920	-0.12558413
132	0xbdaf9c4b	-0.085747324
133	0xbdfae3f5	-0.122505106
134	0xbd3df7c1	-0.046378855
135	0xbe0691fa	-0.13141623
136	0x3bc92241	0.0061381166
137	0x3e6e54f2	0.23274592
138	0x3cbab7dd	0.022792751
139	0xbbabc6c1	-0.005242199
140	0x3e1cabe7	0.1529995
141	0x3bc12f3b	0.005895523
142	0xbc892040	-0.01673901
143	0x3de79878	0.11308378
144	0x3ea13a99	0.3149002
145	0x3ee6e3ce	0.45095676
146	0x3dc52793	0.09626689
147	0x3ead2569	0.33817604
148	0x3d250e10	0.040296614
149	0xbe7f682f	-0.24942087
150	0xbe5aaea4	-0.21355683
151	0xbe55e0a2	-0.20886472
152	0xbca44d2a	-0.020056326
153	0x3e00bb02	0.12571338
154	0x3db7519f	0.08951115
155	0xbd9398c6	-0.072068736
156	0x3cd3cfd9	0.025855945
157	0xbe0baa3b	-0.13639157
158	0xbe233864	-0.1593948
159	0xbeaf4ea8	-0.34239697
160	0xbe01850f	-0.12648414
161	0x3e2d7e70	0.16942763
162	0xbd0e15d6	-0.034688793
163	0x3c30f0bb	0.010799582
164	0x3d9e5926	0.077318475
165	0xbcdce131	-0.026962848
166	0xbcce01d0	-0.025147349
167	0xbd3c8ab4	-0.046030715
168	0x3e0d11a5	0.13776262
169	0x3d43cf10	0.047804892
170	0x3d5f6210	0.05453688
171	0x3e10ddd5	0.14147122
172	0x3e48c6c1	0.19607069
173	0x3db9ac14	0.090660244
174	0x3e161b35	0.14658816
175	0x3c2c023c	0.01049858
176	0xbe48d1bc	-0.19611257
177	0x3d0052c5	0.031328935
178	0xbe2d03fc	-0.16896051
179	0xbe9dd2b4	-0.30824816
180	0x3d6a1d85	0.05715706
181	0xbc17ed41	-0.009272874
182	0xbd5121cf	-0.051057633
183	0x3e391300	0.18073654
184	0x3d0d35d1	0.03447515
185	0xbcd9b1b7	-0.026573999
186	0x3e4a9cd0	0.19786382
187	0x3c89d9e6	0.016827535
188	0xbdda001b	-0.10644551
189	0x3ec47511	0.38370565
190	0x3dba5b72	0.09099473
191	0x3d3756e6	0.044760607
192	0x3dfb4bfe	0.12270354
193	0xbd7e274d	-0.0620492
194	0xbe336691	-0.17519595
195	0xbe468260	-0.19385672
196	0xbed2c498	-0.41165614
197	0xbe920514	-0.285195
198	0xbd858147	-0.06518798
199	0xbe213f0a	-0.15746704
200	0xbe0aa176	-0.13538155
201	0x3c691127	0.014225281
202	0x3e037be4	0.1284023
203	0x3ecdc255	0.40187326
204	0x3e2c3ea0	0.16820765
205	0xbb823ca4	-0.003974514
206	0x3dae6998	0.08516234
207	0xbeed9143	-0.46399888
208	0xbe4ec5b3	-0.20192604
209	0x3e9714ff	0.29508206
210	0xbed057c8	-0.40691972
211	0x3d5ebfd0	0.054382145
212	0x3ecfdb1d	0.40596858
213	0xbad6032d	-0.0016327851
214	0x3dbbc666	0.09168701
215	0x3cdf477e	0.02725577
216	0xbcc8876e	-0.02447864
217	0xbe6fe6cf	-0.2342789
218	0xbdaddfb9	-0.08489937
219	0xbee0781b	-0.43841633
220	0xbdbb666e	-0.09150396
221	0x3e4b9e7a	0.19884673
222	0xbe866021	-0.26245216
223	0x3d7d8dfd	0.06190299
224	0x3e1a6745	0.15078457
225	0xbe13c9bb	-0.14432423
226	0xbe974de2	-0.29551607
227	0xbe8f2e30	-0.27964926
228	0xbe4caf13	-0.1998866
229	0xbeb4e26c	-0.35328996
230	0xbe8d119f	-0.27552506
231	0xbd9f8a49	-0.07790048
232	0xbd839b82	-0.06426145
233	0xbd2d0666	-0.04224243
234	0xbdbd9cd6	-0.0925843
235	0xbe70a483	-0.23500256
236	0xbdce3868	-0.100693524
237	0xbc4231bf	-0.011852681
238	0x3e44809a	0.19189683
239	0x3effe590	0.4997983
240	0x3e32a3da	0.17445317
241	0x3e4d150f	0.20027564
242	0x3ef9ac05	0.48764053
243	0xbdc43f79	-0.09582419
244	0xbec669d3	-0.38752612
245	0xbe5fcb85	-0.2185498
246	0xbe0979c8	-0.13425362
247	0x3e0349bf	0.128211
248	0x3dfcc454	0.12342134
249	0x3e0d1557	0.13777672
250	0x3e1a49ba	0.15067187
251	0x3e1f2be7	0.15544091
252	0xbcc1ed75	-0.023672799
253	0x3de62b1f	0.112386934
254	0xbd950a26	-0.07277326
255	0x3c809714	0.01569704

conv3.bias f4 [32]
0	0xba575c2a	-0.00082153326
1	0xb94b5818	-0.00019392406
2	0xba3b12d9	-0.00071362924
3	0x3a7819b4	0.0009464279
4	0x3a2d3619	0.00066074874
5	0xba22c5a6	-0.00062092615
6	0x39ba8d7d	0.00035582102
7	0xba8c5cbb	-0.0010708788
8	0xb8eee9a6	-0.00011392245
9	0xba264d5f	-0.00063439267
10	0x398590bf	0.0002547558
11	0xb9873e12	-0.00025795453
12	0x38d2fa94	0.00010060254
13	0x399803f9	0.0002899466
14	0x3a04268d	0.0005041145
15	0x38abbe51	8.1893646e-05
16	0x3a821678	0.0009924909
17	0xb9d20bf6	-0.00040063233
18	0x3a72ec94	0.000926682
19	0xba549ddc	-0.0008110681
20	0xba6ffed7	-0.00091551006
21	0x3742048b	1.1564359e-05
22	0xb9a400b0	-0.0003128103
23	0x3a72b5b8	0.00092586456
24	0xb95700ee	-0.00020504344
25	0xba1397e0	-0.0005630236
26	0xb7a96d23	-2.019719e-05
27	0x39f2f354	0.0004633913
28	0x39fb65e5	0.00047950368
29	0xba09b443	-0.00052529963
30	0xba5e21de	-0.00084736745
31	0xba24985e	-0.0006278808

bn3.weight f4 [32]
0	0x3f6fc2fc	0.936569
1	0x3f61d0a0	0.8820896
2	0x3f7a2309	0.9770971
3	0x3f51b46a	0.81915915
4	0x3f30c78b	0.6905448
5	0x3f5db1cb	0.86599416
6	0x3f3634b2	0.71174157
7	0x3f82e574	1.0226274
8	0x3f232bd2	0.6373874
9	0x3f957ac2	1.1678088
10	0x3f89095b	1.070598
11	0x3f530648	0.8243146
12	0x3f6e28ec	0.9303119
13	0x3f88a3c7	1.0674981
14	0x3f9225dd	1.1417805
15	0x3f7f885e	0.99817455
16	0x3f489cc3	0.783642
17	0x3f7d9226	0.9905113
18	0x3f5ae861	0.8551083
19	0x3f6b1b9c	0.91839004
20	0x3f7298fd	0.9476469
21	0x3f6185c7	0.88094753
22	0x3f598492	0.8496791
23	0x3f797b41	0.97453696
24	0x3f571443	0.8401529
25	0x3f88c6d2	1.0685675
26	0x3fb7ff0a	1.4374707
27	0x3f87a8b3	1.0598358
28	0x3f4b7187	0.79470104
29	0x3f192e34	0.59836125
30	0x3f82b706	1.0212104
31	0x3fa3fe7c	1.2812037

bn3.bias f4 [32]
0	0xbd53c004	-0.051696792
1	0x3ddf16ac	0.10892996
2	0xbdb13a6a	-0.0865372
3	0xbe005c87	-0.12535296
4	0x3e1a20f0	0.15051627
5	0xbe1121fa	-0.14173117
6	0x3e81e818	0.25372386
7	0xbd67500f	-0.056472834
8	0x3f039d29	0.5141168
9	0xbd732caf	-0.059368785
10	0xbe694c04	-0.22782904
11	0x3dfb8d54	0.122828156
12	0xbdd4ee55	-0.10397021
13	0xbe135ece	-0.14391634
14	0xbe018ccb	-0.12651365
15	0xbd797414	-0.060901716
16	0xbd17a924	-0.03702654
17	0x3b934a20	0.0044949204
18	0xbe3d03e7	-0.1845852
19	0x3b9785d1	0.0046241065
20	0x3d36c589	0.044621978
21	0x3c0947f7	0.008378974
22	0x3c325d39	0.010886484
23	0x3e6ac4cb	0.22926633
24	0x3da35bf7	0.07976525
25	0xbe1899ec	-0.14902467
26	0xbe20ef92	-0.15716389
27	0xbe971648	-0.29509187
28	0xbda5ea07	-0.08101278
29	0x3e9e02c1	0.30861476
30	0xbdf43613	-0.11924376
31	0xbdd20bed	-0.10256181

bn3.running_mean f4 [32]
0	0xbdddbd35	-0.10827104
1	0xbecd4993	-0.40095195
2	0x3efd291f	0.49445435
3	0x3f1f6893	0.6226894
4	0x4005a360	2.0880966
5	0xbf70aa4a	-0.9400984
6	0xc0297f96	-2.6484122
7	0xbf976b7e	-1.1829679
8	0x3f891b21	1.0711404
9	0xbf10652b	-0.5640437
10	0xc06b6219	-3.6778624
11	0x402f2743	2.7367713
12	0xbef58df7	-0.47959873
13	0xbfe7bab0	-1.8103848
14	0xbf14db73	-0.5814735
15	0xbffbe206	-1.9678352
16	0xbdfa582c	-0.12223849
17	0x3ee66659	0.4499996
18	0x4048586d	3.130397
19	0xc09ee78e	-4.965766
20	0x3faf2ce0	1.368557
21	0x3ef49fd0	0.47778177
22	0xbfae9e3a	-1.3642037
23	0xbf859f2f	-1.0439204
24	0xbd214f1e	-0.039382093
25	0xbf535478	-0.82550764
26	0xc0209151	-2.5088694
27	0xc04c4235	-3.191541
28	0x3f768230	0.962924
29	0xc01714c3	-2.3606422
30	0xbf66c115	-0.9013837
31	0xbf2f4e17	-0.6847853

bn3.running_var f4 [32]
0	0x40959121	4.673966
1	0x407aeca0	3.9206924
2	0x408fc8ba	4.4932528
3	0x4006b802	2.104981
4	0x400548b1	2.0825617
5	0x4008aabc	2.1354208
6	0x4034b51e	2.8235545
7	0x40bced22	5.903947
8	0x405a0ffb	3.4072254
9	0x41338e6e	11.222273
10	0x4088a5b7	4.270229
11	0x4073df6b	3.8105114
12	0x403f3bbb	2.9880207
13	0x4055bbc3	3.339585
14	0x40d90339	6.7816434
15	0x40627cff	3.5388792
16	0x405f8ca5	3.4929593
17	0x4083f239	4.123318
18	0x40673991	3.6128886
19	0x4070543a	3.7551408
20	0x40b4179e	5.627883
21	0x40354418	2.832281
22	0x40a9da23	5.307878
23	0x409999f5	4.8000436
24	0x407b385e	3.9253154
25	0x40c645ad	6.1960053
26	0x40a9dc26	5.3081236
27	0x408e0d6c	4.4391384
28	0x40032c76	2.0495887
29	0x403917ac	2.8920698
30	0x40aad9f4	5.3391056
31	0x412b84b2	10.719896

conv4.weight f4 [32, 32, 3, 3]
0	0x3ea61393	0.3243681
1	0x3d98ec18	0.07466906
2	0xbe036522	-0.12831548
3	0x3d8f76ea	0.07005103
4	0x3e026d34	0.1273697
5	0xbe04f818	-0.12985265
6	0x3d6975c3	0.056997072
7	0xbd115b11	-0.03548724
8	0xbe394320	-0.18092012
9	0xbec51c36	-0.38498086
10	0x3de8f42d	0.11374698
11	0x3f5bf95e	0.8592738
12	0xbe7ddb12	-0.247906
13	0x3e27745c	0.16352981
14	0x3ecbda84	0.39815152
15	0x3e24e1c9	0.16101755
16	0xbce948f3	-0.028477168
17	0xbdc09fcf	-0.09405481
18	0xbe55cf3c	-0.20879835
19	0xbe517382	-0.20454219
20	0x3ef3d1fc	0.47621143
21	0xbe69aeec	-0.22820634
22	0xbe0c8714	-0.13723403
23	0x3ebcb7c1	0.36858943
24	0x3cb7023a	0.022339929
25	0x3e09095d	0.13382478
26	0x3e356c90	0.17717195
27	0xbeb007c5	-0.34380928
28	0x3e8b7bac	0.27242792
29	0x3dcb1eed	0.09918008
30	0xbe0a2a0b	-0.134926
31	0x3d43e848	0.047828943
32	0x3ddb450f	0.10706531
33	0xbd2b4862	-0.041817077
34	0xbe06c7eb	-0.131622
35	0xbe04ca0e	-0.12967703
36	0x3e3abdb6	0.18236431
37	0xbdaa37b9	-0.083114095
38	0x3cd5ceb5	0.026099542
39	0x3db323f5	0.08747093
40	0x3d4a89b8	0.049447745
41	0xbd163731	-0.03667373
42	0xbd96d52a	-0.073648766
43	0xbd8d794a	-0.069079
44	0xbe301c1c	-0.17198223
45	0xbeb65909	-0.35614803
46	0xbcf81a40	-0.030285954
47	0x3efb1b04	0.4904405
48	0xbd9eafd8	-0.07748383
49	0x3d976fd4	0.073943764
50	0x3ea63688	0.3246348
51	0x3badeb1b	0.005307568
52	0x3cda131b	0.026620438
53	0x3e19a982	0.15006068
54	0xbe16c4a0	-0.14723444
55	0xbeaa9453	-0.33316287
56	0x3ee9d8a7	0.45673105
57	0x3d0033aa	0.03129927
58	0xbe1266df	-0.14297055
59	0x3e59f688	0.2128545
60	0x3e423291	0.18964602
61	0x3c6ca2a8	0.014443077
62	0xbd850eed	-0.064969875
63	0x3e3ba10b	0.18323152
64	0xbe9c6284	-0.3054391
65	0xbe1fcea3	-0.1560617
66	0x3d9f5029	0.07778961
67	0xbdfc2347	-0.12311416
68	0xbaef160a	-0.0018240821
69	0xbdc88e27	-0.097927384
70	0x3d94d14e	0.07266484
71	0x3c9930c3	0.01870001
72	0x3e0c2e2f	0.13689493
73	0xbde78fe9	-0.113067456
74	0xbdb07b1e	-0.08617233
75	0xbdc5e110	-0.09662068
76	0xbd262bc8	-0.040569097
77	0xbd7b9851	-0.061424557
78	0xbe9003ff	-0.2812805
79	0xbd81b679	-0.06333632
80	0xbe82b988	-0.25532174
81	0xbd4509f2	-0.048105188
82	0xbdf3245d	-0.1187217
83	0xbd2a70d1	-0.041611496
84	0xba6562d3	-0.00087503827
85	0xbd87c38a	-0.06629093
86	0xbcffc6b9	-0.031222688
87	0xbe16b178	-0.14716136
88	0x3e1e66eb	0.15468948
89	0x3d8b90a3	0.06814697
90	0xbcd8f4d8	-0.026483938
91	0x3d81ba02	0.06334306
92	0x3e1f0435	0.15528949
93	0x3db7ebe6	0.08980541
94	0x3d76364c	0.060110375
95	0x3e3f07a2	0.18655255
96	0xbd668434	-0.056278422
97	0x3d1d9cb7	0.038479533
98	0xbbc93c5b	-0.006141228
99	0xbe072b70	-0.13200164
100	0x3ec4476c	0.3833574
101	0x3e098af7	0.13431917
102	0xbe81946b	-0.25308546
103	0x3e02abca	0.12760845
104	0xbd915a38	-0.07097286
105	0xbd350b7a	-0.044200398
106	0x3d52f51f	0.051503297
107	0x3c9c6723	0.019092148
108	0xbe8021e5	-0.2502586
109	0x3c374a7d	0.011187193
110	0x3f0350ce	0.51295173
111	0xbe16e6f0	-0.14736533
112	0xbd562dfe	-0.052289955
113	0x3e710a38	0.23539054
114	0xbdb09a1d	-0.08623145
115	0xbc8d4771	-0.01724598
116	0x3e4f42cf	0.20240329
117	0x3f0f221d	0.5591143
118	0xbcde5a22	-0.027142588
119	0xbe997b09	-0.2997668
120	0x3e03ffa0	0.12890482
121	0xbc8dd820	-0.01731497
122	0xbe7b1440	-0.24519444
123	0xbd0d2894	-0.034462526
124	0xbe19f557	-0.15034996
125	0xbced3cf8	-0.028959736
126	0x3e6ffb62	0.23435739
127	0xbd99b576	-0.07505314
128	0xbe16d84a	-0.14730945
129	0x3e049803	0.12948613
130	0x3da07536	0.07834856
131	0xbe776851	-0.24160887
132	0x3cbee9b8	0.023304805
133	0x3d8dfd7c	0.06933114
134	0xbe8d3d3f	-0.2758579
135	0x3ec1eff9	0.37878397
136	0xbd864a13	-0.06557097
137	0xbe9d8e5d	-0.30772677
138	0x3ec99162	0.3936873
139	0xbcb322b9	-0.021867143
140	0xbe073a24	-0.13205773
141	0x3e877e60	0.26463604
142	0xbce05927	-0.027386261
143	0x3c2e0bc3	0.010622921
144	0x3e015a54	0.12632114
145	0x3e112c3e	0.14177033
146	0x3dc4a4c4	0.09601739
147	0xbd67ca6a	-0.05658952
148	0x3d79d332	0.060992427
149	0xbbdd76a5	-0.0067585283
150	0xbe12ce2c	-0.14336461
151	0xbd98d4ce	-0.07462464
152	0x3de55c27	0.11199217
153	0xbd026fda	-0.03184495
154	0xbe934bf2	-0.2876888
155	0x3d6858c2	0.05672527
156	0xbdf448e2	-0.11927964
157	0xbe71cdd8	-0.2361368
158	0x3debae7e	0.11507891
159	0x3b264209	0.002536895
160	0xbd8e9b0b	-0.06963166
161	0xbcb73c79	-0.022367703
162	0xbe8c8edc	-0.27452743
163	0x3e9da70f	0.30791518
164	0xbd412601	-0.047155384
165	0xbd7be4ae	-0.061497383
166	0x3dddf213	0.108371876
167	0xbcf2a8cf	-0.02962151
168	0xbc8ce6ec	-0.017199956
169	0xbe6ebb4f	-0.2331364
170	0x3e01a414	0.12660247
171	0xbf0254d0	-0.50910664
172	0xbea4adb5	-0.32163778
173	0x3e81922d	0.25306836
174	0x3ddcc7d5	0.107803024
175	0xbe926453	-0.28592166
176	0xbd97c5d9	-0.07410783
177	0x3d95b3bb	0.073096715
178	0xbd74ca63	-0.059763324
179	0x3ec96a88	0.3933909
180	0x3eee3386	0.46523684
181	0xbd847778	-0.06468099
182	0xbf02ff11	-0.5117045
183	0x3ec97981	0.39350513
184	0x3d956598	0.07294768
185	0xbe6bd0e2	-0.23028901
186	0x3e0f764b	0.14009969
187	0xbd82a8bb	-0.06379839
188	0x3cc24f5a	0.023719478
189	0xbd151765	-0.036399264
190	0xbe3bcd3e	-0.18340012
191	0x3e2cfa24	0.16892296
192	0xbca7f517	-0.02050261
193	0x3cbfa925	0.023396084
194	0x3de4b548	0.11167389
195	0x3ded9442	0.116005436
196	0x3d5515b5	0.052022655
197	0xbc0c0986	-0.008547192
198	0x3d610ab9	0.054941867
199	0xbe4bf714	-0.19918472
200	0x3d7d7259	0.06187663
201	0x3cbd1813	0.023082769
202	0x3d5c54e2	0.053791888
203	0x3d728b23	0.059214722
204	0xbe043aa7	-0.12912999
205	0x3e1e4ad5	0.15458234
206	0x3d5a2463	0.053257357
207	0xbe06f9e2	-0.1318126
208	0x3d7847de	0.060615413
209	0xbe4d1271	-0.20026566
210	0x3d1c7c06	0.038204215
211	0xbd4479b6	-0.047967635
212	0x3bd65191	0.006540485
213	0xbe7c7f8d	-0.24658032
214	0xbdbc450b	-0.091928564
215	0x3e31cc7b	0.1736316
216	0x3d5df16f	0.054185327
217	0xbde393bc	-0.111121625
218	0xbe9fe3db	-0.31228527
219	0x3e29fa1b	0.16599314
220	0x3dbef6e7	0.09324437
221	0xbdc3615f	-0.095400564
222	0x3d0e2c1b	0.03471003
223	0xbe3db596	-0.18526301
224	0xbdeb8c29	-0.11501343
225	0x3e43db96	0.19126734
226	0xbe2bcdb5	-0.1677769
227	0xbebaba24	-0.3647014
228	0x3e5aa0c9	0.21350397
229	0xbe1827ed	-0.1485898
230	0xbe3b40b1	-0.18286397
231	0xbb8bd9a3	-0.0042678877
232	0x3d3f9be0	0.046779513
233	0x3e1b6c29	0.15177979
234	0xbd546cdb	-0.051861625
235	0x3eb60146	0.35547847
236	0xbcc3cd5f	-0.02390164
237	0x3e03762b	0.12838046
238	0x3e4971a2	0.19672254
239	0xbe7107b4	-0.23538095
240	0xbdaa406e	-0.0831307
241	0x3df2f8bc	0.118638486
242	0xbe16ae7f	-0.14715002
243	0xbea28d39	-0.3174837
244	0xbe3c947c	-0.18416017
245	0x3d507c90	0.050900042
246	0xbe058aed	-0.13041277
247	0xbda0b848	-0.07847649
248	0x3e2a2389	0.16615118
249	0xbca8e2a8	-0.02061589
250	0x3d1076ca	0.035269536
251	0x3e7cac9f	0.24675225
252	0x3eaf3768	0.3422196
253	0x3e59e5d2	0.21279076
254	0xbd0934c8	-0.0334976
255	0x3d3ffab3	0.046869945

conv4.bias f4 [32]
0	0x3941892e	0.00018457018
1	0xb9d1e2c0	-0.00040032528
2	0x395e8051	0.00021219371
3	0xba33110c	-0.0006830848
4	0xba1500e1	-0.000568403
5	0xb9b8a386	-0.0003521705
6	0x38535adf	5.039095e-05
7	0xb9e2b949	-0.00043244127
8	0xb99f1abc	-0.00030346762
9	0xba2d2794	-0.0006605324
10	0xba4895a2	-0.00076516916
11	0x3a0ebb5a	0.00054447877
12	0xb9afec43	-0.0003355463
13	0x3987f6e0	0.00025933143
14	0x3a0f176e	0.00054585084
15	0xb8bbbc82	-8.951967e-05
16	0xb9a3d1e9	-0.00031246178
17	0xb9dbbf05	-0.00041913256
18	0x3a1043be	0.00055032584
19	0xba07c8a5	-0.00051797397
20	0x3a2c1923	0.0006565025
21	0x39a9fec4	0.00032424007
22	0xb7d249ea	-2.506837e-05
23	0x3920381d	0.00015279693
24	0x39ccc207	0.00039054474
25	0x38aa3a78	8.117122e-05
26	0xba2579c7	-0.0006312397
27	0x3a4943e5	0.00076776586
28	0xba3f2b83	-0.00072925555
29	0x39ef2623	0.00045614046
30	0x39c23d38	0.00037048175
31	0xb83b47ac	-4.4651024e-05

bn4.weight f4 [32]
0	0x3f5da7c5	0.8658412
1	0x3f83b377	1.0289143
2	0x3f66250b	0.89900273
3	0x3f7806e9	0.96885544
4	0x3f7682b8	0.9629321
5	0x3f77ba89	0.96769005
6	0x3f23fad6	0.6405462
7	0x3f66675d	0.9000147
8	0x3f37b26f	0.71756643
9	0x3f788119	0.9707199
10	0x3f8f38e5	1.1189238
11	0x3f6970a3	0.91187495
12	0x3f540e9c	0.8283479
13	0x3f846c2e	1.0345514
14	0x3f6fa0ba	0.93604624
15	0x3f8b8765	1.0900694
16	0x3fa58f61	1.2934381
17	0x3f713a0c	0.942292
18	0x3f5fe5f1	0.8746024
19	0x3f8c53e8	1.0963106
20	0x3f6dc79a	0.9288269
21	0x3f92c8ba	1.1467507
22	0x3f885b13	1.0652794
23	0x3f1e9637	0.6194796
24	0x3f677f84	0.9042895
25	0x3f64d7ec	0.8939197
26	0x3f4e0669	0.8047853
27	0x3f761782	0.9612962
28	0x3fa1d947	1.2644433
29	0x3f5d2dc8	0.8639798
30	0x3f77e6a3	0.968363
31	0x3f420158	0.757833

bn4.bias f4 [32]
0	0x3d095218	0.033525556
1	0xbeb1ca1e	-0.34724516
2	0x3da66b4b	0.08125933
3	0xbe4dc36d	-0.2009408
4	0xbd0324ca	-0.032017507
5	0xbd83f3be	-0.064429745
6	0x3e4642de	0.19361445
7	0xbde0dfb5	-0.10980169
8	0x3e400dff	0.18755339
9	0xbde6404c	-0.112427324
10	0xbf310a66	-0.6915649
11	0xbe8b6bda	-0.27230722
12	0x3e0251ed	0.12726565
13	0xbde196ed	-0.11015115
14	0x3d07c0a6	0.03314271
15	0xbf1f79ad	-0.6229504
16	0xbf520023	-0.8203146
17	0xbe7556c1	-0.23958875
18	0xbd57d18c	-0.052690074
19	0xbea7a75d	-0.32744876
20	0x3e88397d	0.2660636
21	0xbed9514a	-0.4244483
22	0xbd6d6d9f	-0.05796587
23	0x3ed42e3c	0.41441524
24	0xbe271536	-0.16316685
25	0xbe946e34	-0.28990328
26	0x3db9e198	0.09076232
27	0xbdcf7fcd	-0.10131798
28	0xbf13d76a	-0.5775057
29	0x3df0545b	0.117348395
30	0x3b4a255c	0.0030845022
31	0x3e882000	0.26586914

bn4.running_mean f4 [32]
0	0x3eb62137	0.35572216
1	0xc015ecad	-2.3425705
2	0xbfac598f	-1.3464831
3	0xbf2ef5e8	-0.68343973
4	0xbf0cb3d3	-0.5496189
5	0xbf913524	-1.1344342
6	0x3dd6974d	0.10478077
7	0xbfad389a	-1.3532898
8	0xbfeb3407	-1.8375252
9	0xbe94aada	-0.290366
10	0xc0018ccc	-2.0242186
11	0x3de2eb85	0.11080078
12	0xbe6e7b01	-0.2328911
13	0xc015340f	-2.3313024
14	0xbfe6625c	-1.7998767
15	0xbf210d7d	-0.62911206
16	0xbf874dd8	-1.0570631
17	0x3d8bb902	0.06822397
18	0x3f2db4fb	0.6785428
19	0xbeca182a	-0.3947156
20	0xbf5e9643	-0.8694803
21	0xbfc2458b	-1.5177473
22	0xc04682b8	-3.1017284
23	0x40520f43	3.2821815
24	0x3ed4f88b	0.41595873
25	0xbf9c2c78	-1.2201071
26	0xc0278cae	-2.6179614
27	0xbfd613e2	-1.6724818
28	0xc026914f	-2.602619
29	0xc02d61d3	-2.7090957
30	0xbf47680a	-0.77893126
31	0x3fd88238	1.691474

bn4.running_var f4 [32]
0	0x404c783a	3.194838
1	0x408197e3	4.049791
2	0x4080effc	4.029295
3	0x409332ae	4.5999365
4	0x408f9783	4.487245
5	0x409da9a9	4.9269605
6	0x405a42ff	3.410339
7	0x40614825	3.5200284
8	0x40711f43	3.767533
9	0x409a639a	4.8246584
10	0x4032bcfa	2.7927842
11	0x40333164	2.7998896
12	0x4072d755	3.7943928
13	0x409f1b68	4.9720955
14	0x40b2c2d0	5.586281
15	0x40360795	2.8442128
16	0x404b18d3	3.1733902
17	0x4037d770	2.8725243
18	0x40452a6b	3.080714
19	0x406615ca	3.59508
20	0x408fb98d	4.4914002
21	0x406ddb46	3.7165084
22	0x40ac29b3	5.38009
23	0x4068a58b	3.635104
24	0x40515433	3.270764
25	0x405e55b5	3.4739811
26	0x4064a12f	3.5723379
27	0x40817022	4.044938
28	0x40b37c8c	5.6089535
29	0x40ab5962	5.354661
30	0x4094c77c	4.649351
31	0x407678f2	3.851132

conv5.weight f4 [32, 32, 3, 3]
0	0x3e2e01ee	0.16992924
1	0x3eb80a5f	0.35945413
2	0x3f00b62e	0.50277984
3	0x3dbca357	0.09210842
4	0xbc9eafe2	-0.019370977
5	0x3de7b731	0.11314238
6	0x3dd501a4	0.104007035
7	0xbec44225	-0.38331714
8	0xbe21884f	-0.15774654
9	0xbd480298	-0.0488306
10	0xbcb4188e	-0.021984365
11	0xbdcabf8d	-0.09899817
12	0xbc071d41	-0.008246721
13	0xbdbfadf9	-0.093593545
14	0xbdd41225	-0.10355023
15	0xbdb2c55d	-0.0872905
16	0xbe440cff	-0.19145583
17	0xbec2913d	-0.38001433
18	0xbde35131	-0.110994704
19	0xbe4c378d	-0.19943066
20	0xbd90df11	-0.070737965
21	0xbe99b973	-0.300243
22	0xbe9979c7	-0.2997572
23	0xbc8a3846	-0.016872536
24	0xbe96f2ac	-0.2948202
25	0xbda63805	-0.08116154
26	0x3d787d7c	0.060666546
27	0x3e6f118e	0.2334654
28	0x3ddffc3d	0.109367825
29	0x3d97b6e0	0.074079275
30	0xbe3aafc4	-0.18231112
31	0x3d06e7f2	0.032936044
32	0xbd8b8f18	-0.06814402
33	0x3de9faed	0.114248134
34	0x3c12cf43	0.008960548
35	0x3d93d0d8	0.07217568
36	0xbc1cf046	-0.00957877
37	0xbe86a30a	-0.26296264
38	0xbe95175a	-0.29119378
39	0x3e2fa435	0.17152484
40	0x3dfc5100	0.12320137
41	0x3e119031	0.14215161
42	0xbdb33c98	-0.08751792
43	0xbde72a9a	-0.112874225
44	0xbd427449	-0.04747418
45	0xbb441286	-0.0029918267
46	0xbdb70fd9	-0.089385696
47	0xbe0af543	-0.13570122
48	0x3e1b8b8f	0.15189956
49	0x3d3295b9	0.043599818
50	0xbd4fc7f8	-0.050727814
51	0x3eaf1f3d	0.3420352
52	0x3e90ccac	0.28281152
53	0xbc18170d	-0.0092828395
54	0x3e2a6a75	0.16642173
55	0x3ca0b87a	0.019619215
56	0x3d6a7c43	0.05724741
57	0x3e60eef0	0.21966147
58	0x3b9f3155	0.0048581758
59	0x3e2eb1b2	0.17059973
60	0xbe253885	-0.16134842
61	0xbe2a636a	-0.16639486
62	0xbd6ee149	-0.058320317
63	0x3e9dfc46	0.30856532
64	0x3d553581	0.05205298
65	0x3ca44b1c	0.020055346
66	0x3db78a23	0.08961894
67	0x3bb4fd9f	0.005523398
68	0xbd3514ef	-0.044209417
69	0x3e2ebdc5	0.17064579
70	0x3e499fd1	0.19689871
71	0x3e0e8510	0.13917947
72	0xbd13b3fd	-0.036060322
73	0xbcef8ce2	-0.029241983
74	0xbda96591	-0.082713254
75	0x3d91421d	0.07092688
76	0x3e0ee092	0.13952854
77	0x3e349abe	0.17637154
78	0xbe4064de	-0.18788478
79	0xbd3e0b2e	-0.04639738
80	0xbd51c125	-0.051209588
81	0xbd4abe37	-0.04949781
82	0xbcddbf8c	-0.027068876
83	0xbe309856	-0.17245612
84	0x3e1c7af4	0.15281278
85	0x3e06062b	0.1308829
86	0x3dd71123	0.105013154
87	0xbde94683	-0.11390402
88	0xbe849e90	-0.25902224
89	0xbe5755e5	-0.2102886
90	0xbe1156ae	-0.14193222
91	0x3c9d5b07	0.019208444
92	0xbd8714b9	-0.065957494
93	0x3d58fe19	0.0529767
94	0xbd313f92	-0.043273516
95	0x3cd2388c	0.02566173
96	0x3e74a097	0.23889385
97	0xbcea2d7f	-0.028586147
98	0xbd5628be	-0.05228495
99	0x3e27f527	0.16402112
100	0x3e61dc7c	0.22056764
101	0xbdd5e48d	-0.10443983
102	0xbc77a0e6	-0.015114045
103	0xbe0d3a23	-0.13791709
104	0xbe4267d9	-0.18984927
105	0xbe40a7b2	-0.1881397
106	0xbe9a6fb5	-0.3016335
107	0xbe009e19	-0.1256031
108	0x3dd30c2d	0.10305057
109	0xbdaf076b	-0.08546337
110	0xbe3bbe65	-0.18334348
111	0x3cd14043	0.025543338
112	0xbc3b2862	-0.011423202
113	0xbd368640	-0.044561625
114	0x3d7f459d	0.062322248
115	0x3e9252dd	0.28578845
116	0x3ea97a4e	0.33101124
117	0x3e5e1a94	0.21689826
118	0x3e70ffff	0.23535155
119	0x3ed14e83	0.40880212
120	0xbe50b4ef	-0.2038152
121	0xbe03f999	-0.12888183
122	0xbda548f0	-0.08070552
123	0x3d505ca2	0.05086959
124	0xbe22bc58	-0.1589216
125	0xbc694884	-0.0142384805
126	0xbe8527ab	-0.26006827
127	0xbe081e63	-0.13292842
128	0x3f062a1e	0.52408016
129	0x3bfa8d5d	0.0076462463
130	0x3b9db286	0.0048125414
131	0x3bcd91ec	0.0062734988
132	0x3dba7132	0.091036215
133	0x3d421817	0.047386255
134	0x3b601e5b	0.003419778
135	0x3dc9061d	0.09815619
136	0x3d9de610	0.077098966
137	0x3c40705c	0.011745539
138	0xbd1cdffb	-0.038299542
139	0xbd20cf8f	-0.039260443
140	0xbe04cbf5	-0.12968428
141	0x3dca295d	0.09871171
142	0x3dd4062a	0.10352738
143	0x3c94bdce	0.018156912
144	0xbe70818e	-0.23486921
145	0xbeb319e1	-0.34980682
146	0xbe045d18	-0.12926137
147	0x3d66bbe2	0.056331523
148	0xbc2bcf6b	-0.010486464
149	0x3e4478e4	0.19186741
150	0x3e26d9b0	0.16293979
151	0x3e873650	0.26408625
152	0x38879bf5	6.466351e-05
153	0x3b8f2435	0.00436833
154	0xbe8c4dab	-0.27403006
155	0xbe296b7a	-0.16544905
156	0xbadbfedc	-0.0016784328
157	0x3bab1b2b	0.0052217445
158	0x3cb6c7cc	0.022312067
159	0x3e79aa75	0.2438143
160	0x3e583da6	0.21117267
161	0x3e220aaa	0.1582438
162	0xbdb8bd5f	-0.09020495
163	0xbdcbce83	-0.09951498
164	0xbdf95bd2	-0.121757165
165	0xbd801cdf	-0.06255507
166	0xbddf72b7	-0.10910552
167	0xbe3466c3	-0.17617325
168	0x3e0d51dd	0.1380076
169	0x3d9f5e7e	0.07781695
170	0x3cae730a	0.02129509
171	0xbd849d57	-0.06475323
172	0xbdb528eb	-0.08845695
173	0xbe6fd037	-0.23419271
174	0xbde7c1fa	-0.11316295
175	0xbd83837e	-0.064215645
176	0xbe25b2f6	-0.1618155
177	0x3e548a00	0.20755768
178	0x3e83dcc9	0.25754383
179	0x3e41547a	0.18879882
180	0xbe1615d3	-0.14656763
181	0xbd24c599	-0.040227506
182	0x3d9d8023	0.07690456
183	0xbd84bcaf	-0.06481301
184	0xbdbc1718	-0.09184092
185	0xbd843022	-0.06454493
186	0xbe475648	-0.19466507
187	0xbdbbfe9b	-0.091794215
188	0x3d8b2ff9	0.067962594
189	0xbe36706c	-0.17816323
190	0xbe1616e1	-0.14657165
191	0xbe9629dc	-0.2932881
192	0xbd1ce457	-0.0383037
193	0xbd93971a	-0.07206555
194	0xbe371513	-0.17879133
195	0x3e12f644	0.14351755
196	0xbd39ef97	-0.045394506
197	0x3e36c82a	0.17849794
198	0x3d5bd167	0.0536665
199	0x3c5427f3	0.012948978
200	0x3ce19fa1	0.027541937
201	0xbec99dc9	-0.39378193
202	0xbcfd0c00	-0.030889511
203	0x3dd82a7a	0.10554977
204	0xbec712e4	-0.388816
205	0xbdca5453	-0.09879365
206	0x3e39b68e	0.18136045
207	0xbdd02ff7	-0.101653986
208	0xbd85482e	-0.06507908
209	0xbe08e959	-0.13370265
210	0xbe16c170	-0.14722228
211	0x3db37900	0.08763313
212	0x3e212bd5	0.15739377
213	0x3ce713ed	0.028207744
214	0xbca0b4a2	-0.019617382
215	0xbd866b99	-0.065634914
216	0x3d6df1f2	0.058092065
217	0xbc92c558	-0.017916366
218	0xbe12d9ec	-0.14340943
219	0x3c88aa42	0.016682748
220	0xbd4cb68e	-0.049978785
221	0xbea63833	-0.32464752
222	0x3e31bcc5	0.17357166
223	0xbcb235ee	-0.021754231
224	0xbe886a5d	-0.2664365
225	0xbe9100ff	-0.28321072
226	0xbe7f8896	-0.24954447
227	0xbe81ee78	-0.2537725
228	0xbcf97b67	-0.03045435
229	0xbb86cb97	-0.0041136253
230	0xbdd6e2d4	-0.10492483
231	0x3db60cf3	0.088891886
232	0x3e05d61f	0.13069962
233	0x3e5ea967	0.2174431
234	0xbe072231	-0.13196637
235	0x3b13abbf	0.0022532789
236	0x3e6f436d	0.23365565
237	0xbdf1a64f	-0.11799299
238	0x3d9a9b20	0.07549119
239	0x3ea43f47	0.32079527
240	0xbe486d85	-0.19573028
241	0xbd5fe035	-0.05465718
242	0x3d8dd940	0.06926203
243	0x3cd3229d	0.02577334
244	0x3d877f0b	0.066160284
245	0x3d35354d	0.044240285
246	0x3d35ca96	0.044382654
247	0x3e16a026	0.1470953
248	0x3da97d22	0.0827582
249	0x3cd4625a	0.025925804
250	0x3e09734b	0.13422887
251	0x3ccba589	0.024859207
252	0x3e44bb80	0.1921215
253	0xbd02f542	-0.031972177
254	0x3d5b4ada	0.05353818
255	0x3d31c4de	0.043400638

conv5.bias f4 [32]
0	0x3a1ff826	0.00061023457
1	0x393cf838	0.00018021546
2	0x39b060c0	0.0003364142
3	0x3a01ab1c	0.0004946457
4	0x389f027b	7.582173e-05
5	0x3a44f983	0.0007513987
6	0xb947ffee	-0.0001907346
7	0x3a12d631	0.0005601375
8	0x38495310	4.7999492e-05
9	0x3a186281	0.0005813018
10	0xba30802a	-0.0006732965
11	0xba419fe8	-0.00073861936
12	0x39231990	0.00015554414
13	0xb9a6ea38	-0.00031836494
14	0xb9d546ed	-0.0004067937
15	0xb9ad04a7	-0.00033000598
16	0x39e4e46a	0.0004365773
17	0xba231c2d	-0.0006222155
18	0x39ce5509	0.00039354738
19	0x3a051502	0.0005076678
20	0xba256fe3	-0.0006310923
21	0xb8cf1b55	-9.87562e-05
22	0x3a1e794b	0.0006045296
23	0x392f2fc4	0.00016707095
24	0xba093b18	-0.0005234941
25	0xb945663f	-0.00018825474
26	0xb92258cc	-0.00015482603
27	0xb9b76db2	-0.0003498621
28	0xb9953de5	-0.0002846561
29	0x380f1ad9	3.411886e-05
30	0xba32c473	-0.00068194343
31	0x39b5ffea	0.0003471368

bn5.weight f4 [32]
0	0x3f733531	0.9500304
1	0x3f8c43f0	1.0958233
2	0x3f747b5c	0.9550073
3	0x3f2cdbd1	0.67522913
4	0x3f87c975	1.0608355
5	0x3f79e0b0	0.9760847
6	0x3f7baba6	0.9830879
7	0x3f84f271	1.0386487
8	0x3f397796	0.724481
9	0x3f37dab1	0.7181807
10	0x3f8615af	1.0475367
11	0x3f537472	0.82599556
12	0x3f254a32	0.6456634
13	0x3f4560b0	0.7710066
14	0x3f8f443d	1.11927
15	0x3f5b4f6c	0.85668063
16	0x3f79983a	0.97497904
17	0x3f524e8c	0.82151103
18	0x3f460e8e	0.7736596
19	0x3f7a336a	0.977347
20	0x3f83fac6	1.0310905
21	0x3f63da40	0.890049
22	0x3f510de3	0.81661814
23	0x3f575a54	0.84122205
24	0x3f6c93c2	0.9241296
25	0x3f58041b	0.84381264
26	0x3f525f09	0.8217626
27	0x3f4a05e9	0.7891527
28	0x3f7a07aa	0.97667944
29	0x3f680491	0.9063197
30	0x3f3731b8	0.7156024
31	0x3f6d0cf5	0.92597896

bn5.bias f4 [32]
0	0xbdf3bdd8	-0.11901444
1	0xbeb15100	-0.3463211
2	0x3e30455c	0.17213959
3	0x3ed6a925	0.41925922
4	0xbe8e7410	-0.27822924
5	0xbce82052	-0.028335724
6	0xbdc0ac46	-0.094078586
7	0x3ebf3a12	0.37348992
8	0x3ef4f123	0.47840223
9	0x3edc87d8	0.4307239
10	0xbe308daa	-0.1724154
11	0x3e4a3df4	0.19750196
12	0x3f3646db	0.71201867
13	0x3e266ace	0.1625168
14	0xbe927d63	-0.28611287
15	0x3b08f094	0.002089535
16	0xbe52b76f	-0.20577787
17	0x3e667192	0.22504261
18	0x3e9b2c75	0.30307356
19	0xbe3ce9a8	-0.18448508
20	0x3d48eaa3	0.049051892
21	0x3e026800	0.12734985
22	0x3efea49e	0.49734968
23	0x3ea06d55	0.31333414
24	0xbcd7a708	-0.026324764
25	0x3ddc01f4	0.1074256
26	0x3e6ecb2b	0.2331969
27	0x3e9e6012	0.3093267
28	0xbd82f94f	-0.06395208
29	0xbba98aa1	-0.0051739966
30	0x3eb1b394	0.3470732
31	0x3e2aa4d7	0.16664444

bn5.running_mean f4 [32]
0	0xbf3d96cc	-0.7405822
1	0xbe62d77f	-0.22152518
2	0xbe2a1503	-0.16609578
3	0x3f52aeb1	0.8229781
4	0xbec17826	-0.37786978
5	0xbfb348de	-1.4006612
6	0x3f81ad9b	1.0131105
7	0xc013619e	-2.302833
8	0x402c87fc	2.6957998
9	0x3f534de6	0.8254074
10	0xc05e6277	-3.4747598
11	0xc0069c3c	-2.1032858
12	0x407e300f	3.9716833
13	0x4044df89	3.0761435
14	0xbfc8a6e5	-1.5675932
15	0x3f55f183	0.8357164
16	0xbf94e5e8	-1.1632662
17	0xbf60fe45	-0.87887985
18	0xc0035565	-2.052087
19	0xbfad65d3	-1.3546699
20	0x3ffa95ba	1.9576943
21	0xbf00365e	-0.5008296
22	0xbfe50830	-1.7893124
23	0xc09335e4	-4.6003284
24	0xbf6d9438	-0.9280429
25	0xbfd81deb	-1.688413
26	0xbf89e6fa	-1.0773613
27	0x400b44af	2.176067
28	0xbf5e92c2	-0.86942685
29	0x3dbd8229	0.09253342
30	0xbedf125f	-0.43568704
31	0xc029e670	-2.6546898

bn5.running_var f4 [32]
0	0x4021dfeb	2.5292919
1	0x406539ec	3.5816603
2	0x4097dcaa	4.7456865
3	0x405a448a	3.4104333
4	0x4022b753	2.5424392
5	0x4082a8f2	4.083123
6	0x408cfd58	4.4059258
7	0x408a8b9c	4.329542
8	0x4044b256	3.0733848
9	0x405fc49e	3.4963756
10	0x405f7de5	3.492059
11	0x407924b8	3.8928661
12	0x40564c2a	3.3483987
13	0x401f5654	2.489644
14	0x405907b2	3.3910947
15	0x4040e1e5	3.0137875
16	0x403867c3	2.881333
17	0x40630bcd	3.5475953
18	0x4044c978	3.0747967
19	0x40434abd	3.0514367
20	0x407ce171	3.9512599
21	0x4037850f	2.8674963
22	0x408d8196	4.4220686
23	0x408d4dbb	4.4157386
24	0x40329837	2.7905405
25	0x4040d68c	3.013095
26	0x40676f0e	3.6161532
27	0x408b44fe	4.352172
28	0x406f9c9a	3.7439332
29	0x4054e0f3	3.3262298
30	0x403a72a6	2.9132476
31	0x4093558f	4.604194
