model_weights/Tiny10/CIFAR10/in6-gn6/110000.pt (torch_old, 358762 bytes, 50 tensors)

conv1.weight f4 [16, 3, 3, 3]
000000 d5 9d 47 bb 2f 25 6b be 68 97 6c be 83 e8 e0 3d
       -0.0030459065 -0.22963403 -0.23104632 0.10981848
000010 88 d7 a1 bd 0c 24 fe bd cc 9b c4 3d 81 5e 32 bc
       -0.079024374 -0.12409219 0.096000284 -0.010886789
000020 b8 a9 7c bd 89 c1 45 3d 34 19 12 bd 40 9d 47 bd
       -0.061685294 0.048280273 -0.035668567 -0.04873395
000030 2d a4 4a 3e f4 bc 3e 3e f3 53 02 3e 5f d7 f4 3d
       0.1978919 0.18626767 0.12727337 0.11955141
000040 cc 3d 14 3e 66 69 c0 3d 0d dc 8a be 88 f6 8c be
       0.14476699 0.09395103 -0.2712101 -0.27531838
000050 98 09 59 be 1b c5 95 3d 55 a3 07 3e 7d 67 13 3e
       -0.21195066 0.073129855 0.132459 0.14394946
000060 b3 74 8b 3e 31 23 c3 3e 04 19 d0 3e 33 c2 0a bf
       0.27237472 0.38112786 0.40644085 -0.54202574
000070 08 5d 34 bf 3b b9 07 bf 3d 05 2d be c6 d2 6b 3f
       -0.70454454 -0.53017014 -0.1689653 0.9211849
000080 fd 1a 41 bf 18 64 b6 3f 13 8a b5 3f e1 58 6f bf
       -0.75431806 1.4249296 1.4182762 -0.93494993
000090 3d 2d 36 be cb af b1 3e 5d 92 32 3f 59 8f bc bf
       -0.17790695 0.34704432 0.6975458 -1.4731246
0000a0 a5 a9 08 3f 6d f6 2d 3f 71 f3 06 bf a9 af 7c bd
       0.53383857 0.6795414 -0.5271521 -0.06169096
0000b0 59 88 3d 3c 0c 87 74 3f 82 50 99 3e 9b 45 8f be
       0.011568152 0.95518565 0.29944235 -0.27982792
0000c0 95 86 f8 be 95 3a 89 3e 16 e6 7d 3e 22 18 fa be
       -0.48540178 0.26802507 0.24794802 -0.48846537
0000d0 86 bd 19 bf bb 83 18 be 67 86 7e be 0f 66 93 3d
       -0.60054815 -0.14894001 -0.24855958 0.071972005
0000e0 1f 6b 05 be 2c a9 83 bb eb 3c 81 3e 19 d3 ab bd
       -0.13029145 -0.0040179696 0.2524179 -0.08389873
0000f0 f4 dd ca 3d 3a ce 9a 3e cb c0 09 bd 29 0e c3 3d
       0.099056154 0.30235463 -0.033631127 0.09524185
000100 e8 c8 f9 3e 20 f9 b0 3d ac a7 30 3e 53 1a ff 3e
       0.48786092 0.08641267 0.17251462 0.4982477
000110 08 d6 8c 3d 50 f4 af bb 16 40 52 3e e6 ac 13 be
       0.06876761 -0.0053697005 0.2053226 -0.14421424
000120 11 b4 99 3c 59 ba 7c 3e 78 80 09 3d 01 60 eb bd
       0.01876262 0.24680461 0.033569783 -0.11492921
000130 de 3f 52 3c a6 f0 0b be 60 0d 7b be 08 66 51 be
       0.01283261 -0.13666019 -0.24516821 -0.20449078
000140 d8 23 81 be 82 9d 32 bd bc 16 18 be 73 38 93 bd
       -0.2522266 -0.043607242 -0.14852422 -0.07188501
000150 e3 8f d6 bc 38 27 d3 3d c5 0e 0f 3e 8a fd f1 bd
       -0.026191657 0.10310215 0.13970478 -0.11815937
000160 a8 44 04 3d f8 0d 91 bd 8c 6d 6b bd 8c 1c 31 be
       0.03229204 -0.070827425 -0.05747752 -0.17296046
000170 3e 81 05 be 4e eb 43 bd 8a 24 33 3e c5 93 81 3e
       -0.13037583 -0.047831826 0.17494407 0.25308052
000180 7e 62 35 be ac 68 00 3e 44 f4 b6 3d a5 94 62 be
       -0.17713353 0.12539929 0.08933309 -0.22127016
000190 7b 60 46 be 3b 9e a1 bd 57 c9 c0 ba ee de af 3e
       -0.19372742 -0.07891508 -0.0014708441 0.3434977
0001a0 6f 8f f1 3e 67 ab 11 3d b4 16 d5 3e 77 2d bf 3e
       0.47179744 0.035563853 0.41618884 0.37339374
0001b0 fa 25 32 3e 11 ae eb 3d fd 02 67 be 53 3b 0a 3f
       0.173973 0.1150781 -0.22559734 0.5399677
0001c0 1b 4a 40 bf 7a 39 d9 be 6f a8 1d 3f c6 68 91 be
       -0.75113076 -0.42426664 0.61585134 -0.28400248
0001d0 f2 28 47 be b9 da 63 bc 7a c9 bf 3c 3c a5 ab bd
       -0.19449213 -0.013907128 0.023411501 -0.08381125
0001e0 df 5a fc 3d 05 04 30 bf 05 2f 05 3e 4b aa 85 3d
       0.1232202 -0.68756133 0.13006218 0.065266214
0001f0 aa b3 2e be c3 6e b7 3e 0d 54 63 be f9 b2 4c 3e
       -0.17060724 0.35826692 -0.22200032 0.19990148
000200 fb 2e 7b 3e 60 26 10 be 9e 55 cf be f9 b3 fa 3e
       0.2452964 -0.14077139 -0.40495008 0.48965433
000210 a7 05 b6 be 24 e0 b9 be c7 94 40 3d f7 20 31 3d
       -0.35551187 -0.36303818 0.047016885 0.04324433
000220 fa d8 8b bf c6 69 fb bb a2 3d 78 bf 40 23 d3 3f
       -1.0925591 -0.0076725213 -0.96969044 1.6495132
000230 0e 50 5d bf c2 3d 8d be bc 92 d3 3d ef 4c b9 3f
       -0.8645028 -0.2758618 0.10330722 1.4476603
000240 0b 34 a2 3e 10 cd 41 3e bf 74 ee 3e bf 6d b2 be
       0.3168033 0.18925881 0.46573445 -0.34849355
000250 c7 db f3 3f 6f 35 8f bf 5f 6d 99 be b9 5d 8e bf
       1.9051446 -1.1188182 -0.29966256 -1.1122352
000260 55 b9 76 bd 00 8c 42 3d ac 19 ca be 1e 70 f1 3e
       -0.06023534 0.047496796 -0.3947271 0.4715585
000270 31 cd 89 3c ce 37 94 3f 72 a2 b0 bf b5 01 d8 3e
       0.016821476 1.157953 -1.3799574 0.42188802
000280 be 6e b6 3d 48 49 c8 be 03 2c 07 3f 63 57 82 3f
       0.08907841 -0.3911841 0.5280153 1.0182918
000290 b7 7d c6 3e 10 d6 b4 3d b9 08 4a 3e 12 06 a2 3e
       0.38767788 0.08829892 0.1972989 0.31645256
0002a0 c3 17 16 bf 4c 1b 8f bf 3a f3 fb be 5a 85 a0 3d
       -0.5863001 -1.1180205 -0.49209005 0.07837935
0002b0 21 14 3c 3f cc 16 f2 3e 8b be 70 3d 71 69 a6 3d
       0.73468214 0.47283018 0.058775466 0.0812558
0002c0 ee 51 80 3e b1 6c 9e be 82 47 84 bf e0 d0 40 bf
       0.25062507 -0.309423 -1.0334322 -0.7531872
0002d0 c5 87 15 be 9f e5 66 3e 0b 3c f1 bc d2 b8 2d 3e
       -0.14602573 0.22548531 -0.029447576 0.16965035
0002e0 a9 56 1f 3e 47 b5 ae 3e d0 92 76 bc ea 30 cf be
       0.15560402 0.3412268 -0.015049651 -0.40467006
0002f0 b5 ff 1c be 9b dc 8c 3e ce 21 b2 3e e8 34 46 bd
       -0.1533192 0.2751206 0.34791416 -0.0483903
000300 1d 75 0f 3f 4c 86 37 3f 53 b0 12 3e a3 2a 1a 3e
       0.56038076 0.71689296 0.14325075 0.15055327
000310 51 4c d8 3e 07 df 89 3a dc 84 a0 be 4e 59 8b be
       0.42245725 0.0010518738 -0.31351364 -0.27216572
000320 bf 21 9a be 5b c0 db be 35 e2 92 be 8d 2d 60 be
       -0.3010387 -0.42920193 -0.28688207 -0.21892376
000330 19 0f c4 be bb d3 ed bd 61 37 67 bc 4d 45 36 bb
       -0.3829277 -0.1161265 -0.014112324 -0.0027812303
000340 26 3f ce bb c9 55 b9 bb eb 9b 27 be dd 77 55 bd
       -0.006294149 -0.0056559783 -0.16368072 -0.052116264
000350 ff c5 e4 3d e1 96 fd bd a5 b8 94 3d a9 5b 87 3e
       0.11170577 -0.123822935 0.07261781 0.2643712
000360 e7 a6 d0 3e 14 5b d5 3e b5 eb 82 3e 3f 51 48 bf
       0.40752336 0.4167105 0.25570455 -0.7824897
000370 20 8a 70 3e d3 f3 f3 3e 4b e3 43 bf 30 78 03 be
       0.2349019 0.4764696 -0.76518697 -0.12838817
000380 84 07 ab 3b f8 b6 eb 3c e5 41 9d bc 34 ab 0f be
       0.005219402 0.02877377 -0.01919646 -0.14030153
000390 1a 40 80 bf 9a bb 1b 3e 8e 96 29 3f 56 46 20 bf
       -1.0019562 0.15208283 0.66245353 -0.62607324
0003a0 ac e8 81 3e 8d 52 24 3f ac 3f b6 be 77 90 59 be
       0.25372827 0.6418846 -0.35595453 -0.21246515
0003b0 e4 1e 7b be 7e aa 92 bf 1d dd 10 3e 92 67 2f 3f
       -0.24523503 -1.145828 0.14146848 0.6851741
0003c0 3a 8b fe be c2 1f 0b 3f a0 5a 72 3f 36 ff d2 be
       -0.49715596 0.54345334 0.9466953 -0.41210335
0003d0 b3 71 29 bf 67 87 e9 be 74 cc 0c be e4 57 4a be
       -0.66189116 -0.45611116 -0.13749868 -0.1976009
0003e0 07 c3 0c 3e 5e 39 b8 3e b5 ed de 3e 36 9f 05 3f
       0.13746272 0.35981268 0.4354073 0.5219606
0003f0 e6 52 f5 bd f7 31 bb be b0 5a 51 be e6 c9 67 3c
       -0.11978702 -0.36561558 -0.20444751 0.014147257

conv1.bias f4 [16]
000000 00 21 82 3a f5 ac 9c 3a 9f c0 05 3a 4e 20 0b bb
       0.0009928048 0.0011953401 0.000510225 -0.0021228972
000010 d6 b9 0b 3b 01 21 23 3b 1c a4 77 ba 95 55 7c 3a
       0.0021320484 0.0024891498 -0.00094467564 0.000962579
000020 e9 19 2d 3a 71 b8 d5 ba 52 f7 09 3b 36 80 87 3a
       0.0006603287 -0.0016305578 0.0021051955 0.0010337892
000030 4d f2 6f b9 e0 0d 2e b9 b7 94 9b 3a 8d 20 a6 3a
       -0.0002288308 -0.00016599102 0.0011869882 0.0012674496

bn1.weight f4 [16]
000000 1f 02 85 3e a1 d4 5b 3f c3 92 6a 3f 7e a3 6f 3f
       0.2597818 0.8587132 0.9163019 0.93608844
000010 0b 60 b0 3f 95 2d 8a 3f 2e ba 3e 3f 94 bf ad 3e
       1.377931 1.079516 0.7450284 0.33935225
000020 d1 a6 5b 3f de 66 5f 3f 12 f4 98 3f 87 d6 d5 3e
       0.85801417 0.8726634 1.1949484 0.41765234
000030 af 91 ee 3e 85 90 fc 3e d8 61 68 3f 21 5a c1 3e
       0.46595523 0.4932901 0.907743 0.37764075

bn1.bias f4 [16]
000000 bd cc b4 3e 08 d6 86 3f d7 f4 3a bf 8c c2 28 bf
       0.35312453 1.0534067 -0.73029846 -0.65921855
000010 ee f5 5f bf b6 0c fb 3f 28 39 25 3f a7 56 55 3e
       -0.87484634 1.9613254 0.6454034 0.20833836
000020 66 38 e8 3e 78 50 93 be bc 83 9e 3f 9c 24 ce 3d
       0.4535553 -0.2877233 1.2383952 0.100655764
000030 4d 1d 8c 3d 1b db 91 3e 89 6e 01 3f 91 de 45 3e
       0.06841526 0.28487477 0.5055929 0.19323184

bn1.running_mean f4 [16]
000000 4e c6 62 be 65 77 37 3d 4d b6 63 be 2a 6d 50 be
       -0.2214596 0.044791598 -0.22237511 -0.20354143
000010 d8 57 76 3e 96 69 ea 3c 43 fe 63 3d 25 88 59 bd
       0.24056947 0.0286148 0.055662405 -0.053108353
000020 80 40 95 3c dc 49 5c 3d 32 18 bf bc e9 a0 a8 3d
       0.018219233 0.053781375 -0.023326967 0.08233816
000030 59 03 8b ba a9 1a f0 bb f9 8a d0 bb 85 27 ca bd
       -0.0010605856 -0.007327397 -0.006364223 -0.09870819

bn1.running_var f4 [16]
000000 6e eb 44 40 c0 0f dc 3f db e0 22 40 09 13 4d 40
       3.0768695 1.7192307 2.544974 3.2042868
000010 ff bf 4c 40 cf 31 e7 3f 42 45 63 41 86 38 d1 3f
       3.1992185 1.8062075 14.204409 1.6345375
000020 d5 4b 41 41 6a 31 e5 40 f3 03 25 40 82 75 f4 3f
       12.081014 7.162282 2.578366 1.909836
000030 cf f3 e2 3f 95 ef b7 40 6f ed 3f 41 e3 7e 9b 3f
       1.7730654 5.747996 11.995467 1.2148098

conv2.weight f4 [16, 16, 3, 3]
000000 7c e1 0a 3d cb 5c f4 3b d8 77 62 bd a4 7a 74 3a
       0.033906445 0.007457351 -0.055290073 0.0009326136
000010 c8 04 80 bd b4 09 22 be 96 80 d9 bd 31 86 3b be
       -0.06250912 -0.15824014 -0.10620229 -0.18312909
000020 e2 54 79 be 61 87 d1 3d ab f4 85 3e e5 6f 1f bc
       -0.24348786 0.102308996 0.2616323 -0.009731268
000030 bd b0 cb 3e 3e e0 c3 bd b7 07 83 be 87 f6 2b be
       0.39783278 -0.09564255 -0.25591823 -0.16793261
000040 28 10 86 be c7 74 ec bd 13 d3 9b 3c f6 33 8a 3c
       -0.261842 -0.11545711 0.019021546 0.01687048
000050 1b ae e2 3c e0 ac 29 3d 91 c8 b4 bd 75 6d e4 bd
       0.02767091 0.041424632 -0.088273175 -0.1115369
000060 aa db 2a 3e 6b c9 e8 bd 09 65 65 be dd 63 8c 3e
       0.16685358 -0.113665424 -0.22401823 0.2741994
000070 24 1a a7 3d fb 1e 2a 3c 43 de 41 3e 90 35 0a 3b
       0.08159283 0.010383363 0.18932442 0.0021089055
000080 d0 73 f6 3c 84 60 ab bd f0 9f 2b be 7c 23 62 bd
       0.03008452 -0.08368018 -0.1676023 -0.05520962
000090 ea 12 37 be 91 e6 57 be aa ef 16 be 62 16 7a bd
       -0.17878309 -0.21084048 -0.14739862 -0.061056502
0000a0 35 bf a5 bd 9a eb 41 3e 3b 99 13 bd 12 c7 aa 3d
       -0.080931105 0.18937531 -0.036034804 0.08338751
0000b0 d1 1e 9e 3e c8 e0 89 3d c3 a6 d4 be e1 61 aa bd
       0.30882886 0.06732327 -0.4153348 -0.0831945
0000c0 2a 09 f7 bd 32 29 a9 be 4f b9 f7 3e 81 bf 8c 3d
       -0.12062295 -0.33039242 0.48383567 0.06872464
0000d0 84 42 0a 3e 50 14 fe 3e a2 91 48 be e2 21 96 3d
       0.13501936 0.49624872 -0.19586805 0.073306814
0000e0 61 4b 7a 3e f9 64 ac 3c 21 24 b5 3e cd 13 c4 3e
       0.24442817 0.021044241 0.35379127 0.38296357
0000f0 f1 9e cf 3e 4c 4d cb 3e 81 6b 1b bd 31 aa cb 3d
       0.4055095 0.3970741 -0.03794432 0.09944571
000100 4c 9a b7 3d 69 c5 3a 3b b2 96 38 bd 40 ad a6 bd
       0.08964977 0.0028499013 -0.04506559 -0.081385136
000110 ec 0c 02 be 40 a3 1c be fa ec 42 be 6b 2f 1d be
       -0.12700242 -0.1529665 -0.19035712 -0.1535012
000120 75 1d b9 3e 25 99 7f 3c 27 98 e6 be 6a b4 eb bd
       0.36155286 0.015600477 -0.45037958 -0.115090206
000130 5b a9 9a be d9 e1 e5 be 54 1a 11 bf 09 ed 92 bd
       -0.30207333 -0.4489887 -0.566808 -0.07174117
000140 e9 d9 e0 3d a1 65 ee bd 0f 94 76 bd f8 75 7d bd
       0.10979063 -0.11640478 -0.060199793 -0.061880082
000150 f3 5c cf bd cd f6 8e bc 56 9d 57 3c 2f 8a a5 bd
       -0.101251505 -0.017451668 0.01316007 -0.08082997
000160 31 aa 55 bd 88 72 91 bd ed 45 29 3e b2 6c e4 3d
       -0.05216426 -0.07101923 0.16530581 0.111535445
000170 4c 3c e3 bd 66 30 a4 be 55 a6 88 be 4e 77 22 be
       -0.11095485 -0.32068175 -0.266894 -0.15865824
000180 27 c8 27 be b2 a9 9c 3e e5 87 96 3e 9c 66 5b 3c
       -0.16384946 0.30598217 0.29400554 0.013391163
000190 eb 3d 23 bd 18 4e 32 bd 91 81 88 bb b5 3d e8 bd
       -0.03985397 -0.043531507 -0.004165836 -0.11339895
0001a0 cc f0 d5 bd b6 c7 a7 bd 57 8d d7 bd 0b e1 6c 3c
       -0.10446319 -0.08192389 -0.10525005 0.014457951
0001b0 27 f1 a1 3e 08 3b ef 3d 0e 3e ec bc 05 50 a7 3c
       0.31629297 0.11681181 -0.028838184 0.020423898
0001c0 ca df 27 be d7 94 8f be 18 13 67 bd 6a 37 16 be
       -0.16393963 -0.28043243 -0.056414694 -0.14669576
0001d0 69 13 28 be 78 a6 34 3e 57 b8 16 3e f2 cf 35 3e
       -0.16413654 0.17641628 0.14718758 0.17755106
0001e0 33 00 1c 3b e9 c0 54 bd 02 a2 01 be 9f 66 74 bd
       0.002380383 -0.051941786 -0.12659457 -0.05966818
0001f0 d9 ba 04 be 55 2f 8b be 3a 52 dc be a8 d2 58 3d
       -0.12961902 -0.2718455 -0.43031484 0.052935272
000200 f3 fa 42 3e b7 34 2b 3e 18 79 d6 3e 04 9a 09 3f
       0.19041042 0.16719328 0.41889262 0.53750634
000210 56 83 b8 3e 0a b0 6e 3e ef 56 55 3d 84 9c 18 be
       0.360377 0.23309341 0.05208486 -0.14903456
000220 ba fb 89 bd 3a 22 99 bc 91 e1 99 bd 58 bb de bc
       -0.06737466 -0.018693078 -0.075137265 -0.027188942
000230 b9 31 f7 3c 81 1a 0b 3d 8a 4b 2e 3d 2c 98 21 3d
       0.030175077 0.033960823 0.04255251 0.039451763
000240 89 84 ee 3c 81 d4 a6 3c bb bf 69 3c 4c 0d 15 be
       0.029115932 0.020365002 0.0142669035 -0.14555854
000250 dc 3d d2 bd 75 f4 ab bd 24 8c c8 bc 6c d1 c1 3c
       -0.10265705 -0.08396236 -0.024480887 0.02365943
000260 bb 1d 0b 3d 50 f7 53 be 21 f4 6e bd 53 cb 0a 3f
       0.0339639 -0.20699811 -0.05833829 0.542165
000270 08 ac 2a be ad 09 05 be 18 58 ba 3e 00 ae 77 3e
       -0.16667187 -0.12991972 0.36395335 0.2418747
000280 d4 18 1c be 94 a7 9b be 4d 87 5b 3d 6f 35 d4 bc
       -0.15243846 -0.3040129 0.05359583 -0.025904385
000290 59 9e ea bd 0f e3 b0 bd a7 59 0f be 09 d9 42 be
       -0.11455984 -0.08637058 -0.13999043 -0.19028105
0002a0 a8 80 75 be 6c 46 6f be 1f 64 6c be 2e 25 9b be
       -0.2397486 -0.23366708 -0.23085068 -0.30301803
0002b0 87 7b 77 be 62 26 0a be be 6b 77 be 40 20 02 be
       -0.24168216 -0.13491204 -0.24162194 -0.12707615
0002c0 f1 d6 45 3d 31 85 72 3c 4d 45 fb 3d 58 4f a4 3e
       0.048300687 0.014802263 0.122690775 0.32091784
0002d0 bb ac 40 be 0c 5e 9d be be 3d 57 be 33 7b a2 be
       -0.18815891 -0.30735815 -0.21019647 -0.3173462
0002e0 f5 c9 b5 be 2f ac 20 be 5d a4 3e be fe 36 92 bd
       -0.35505643 -0.15690683 -0.18617387 -0.07139395
0002f0 ff dd b1 3d f3 3b 3f 3e de 8d 23 3e d3 c1 90 3d
       0.086849205 0.18675213 0.15972087 0.07068219
000300 a7 3e f1 3e 41 0c a6 bd 53 05 44 be a1 c0 10 3e
       0.47118112 -0.08107806 -0.19142656 0.14135982
000310 68 5e 9c be 7e e7 db bd 41 1a db 3c 45 2f 7a 3d
       -0.30540776 -0.10737513 0.026745917 0.061080236
000320 ed 4a 63 3d 76 d4 8b 3e 5d f1 53 3e 91 9f 74 3e
       0.055491377 0.27310532 0.20697542 0.23888995
000330 41 9f 77 be 35 e6 14 be 0f d8 6f bd a6 32 a8 be
       -0.24181844 -0.14540942 -0.05855566 -0.32851142
000340 d0 dc 9b be 4f 2b 69 be 9b 5d 15 be 05 c9 b7 bd
       -0.30441904 -0.22770427 -0.14586489 -0.08973888
000350 c1 31 30 bd d3 83 8f 3d 94 1d f2 3d 7c b5 02 3e
       -0.0430162 0.07007565 0.11822048 0.12764543
000360 92 2a bb 3c 5c de aa be 3f 3b 72 be a8 a5 99 3e
       0.022847448 -0.33372772 -0.23655413 0.30009198
000370 24 c0 1d be 64 3a 2b 3d b6 48 04 3f 44 a5 0c be
       -0.15405327 0.041803733 0.5167345 -0.13734919
000380 8a 2b f2 3d bf fd d2 3e e9 6e b6 3e 69 7e a9 3e
       0.11824711 0.41209218 0.35631493 0.33104256
000390 9e 64 71 bd 92 7c fe bd 32 64 8f bd f9 4e 35 bb
       -0.058933847 -0.12426104 -0.070015326 -0.002766548
0003a0 aa e1 e9 bd 96 95 05 bd 97 a1 8a bb 29 ad 22 bd
       -0.11419995 -0.03261336 -0.004230689 -0.03971592
0003b0 63 f6 b8 be 8b 9b 65 3d c6 88 47 3e b9 70 5c be
       -0.36125478 0.05605654 0.19485769 -0.21527375
0003c0 2f ad 40 3d e7 df 2f 3d 44 d5 e1 3d fa 91 2a 3d
       0.04704016 0.04293814 0.11027005 0.04164312
0003d0 c1 b2 24 bd 3c 9d 5c 3d 3b 3a 23 be 09 f8 60 be
       -0.040209536 0.053860888 -0.15940182 -0.21969618
0003e0 a4 7d bf bd 59 dd d3 bd 39 12 3e be 61 e2 91 bd
       -0.09350136 -0.10344953 -0.18561639 -0.071232565
0003f0 6a eb c4 3d a6 2d a2 3d 0a 90 1a 3e f8 49 83 bd
       0.09615214 0.07918863 0.15094009 -0.06410593

conv2.bias f4 [16]
000000 f7 e8 57 ba 1d 3b 44 3a f8 b7 70 3a 7f b3 a4 b9
       -0.00082363136 0.0007485615 0.0009182687 -0.00031414253
000010 11 c4 6d 3a 24 fb 1f b8 62 bd db b9 55 13 23 39
       0.00090700487 -3.8142447e-05 -0.00041912036 0.00015552093
000020 62 e5 2a 3a 97 09 7d ba 8f 8d f6 b9 d5 c0 fa b9
       0.0006519166 -0.0009652613 -0.00047026246 -0.00047827387
000030 64 5e 3f ba cd fc ad b9 f2 a6 d0 b8 77 c0 c7 38
       -0.0007300137 -0.00033185483 -9.949309e-05 9.524909e-05

bn2.weight f4 [16]
000000 8f b8 90 3f be d4 3c 3f 3d 3e 81 3f 07 a9 b7 3f
       1.1306323 0.7376212 1.0097119 1.4348458
000010 81 4e b5 3f 0e 03 85 3f e7 cb a0 3f 5c 38 cf 3f
       1.4164582 1.0391557 1.2562226 1.6189075
000020 e5 9f 9a 3f 81 de 5d 3f 41 c4 cf 3f 3c 14 80 3f
       1.2080046 0.8666764 1.6231767 1.0006175
000030 52 f8 84 3f e6 2d a3 3f a3 29 95 3f 5d 5a ce 3f
       1.0388281 1.2748382 1.1653332 1.6121327

bn2.bias f4 [16]
000000 c3 33 6c ba e3 40 28 3f 83 bc 7a bd 6f 45 82 be
       -0.00090103986 0.6572401 -0.061214935 -0.254436
000010 aa 87 b0 bd a7 8c ac be 51 4b de bd da da 87 bd
       -0.08619626 -0.3370106 -0.10854209 -0.066335395
000020 5e 61 c4 bc 51 e0 1e 3e c5 7b 8a bd a3 f3 0f 3e
       -0.02397221 0.15515257 -0.067618884 0.14057784
000030 90 76 80 be d1 cc 1f be 28 0e 10 bc a8 5f 51 3d
       -0.25090456 -0.15605475 -0.008792438 0.051116616

bn2.running_mean f4 [16]
000000 66 f4 57 3f 01 04 ad bf 52 7f 9c bf 55 c1 d7 bf
       0.843573 -1.3516847 -1.2226355 -1.6855875
000010 e0 76 8c bf 1c d1 0a bf 2a 2c 67 bf db 84 7b be
       -1.0973778 -0.54225326 -0.90301764 -0.24562399
000020 fb 58 e9 bd f8 a2 88 bf 2c 26 1e bf b5 42 dc 3f
       -0.11393925 -1.0674734 -0.61776996 1.7207857
000030 b7 04 94 3e 75 82 26 bf b4 a1 d7 be 97 7f 2e 3e
       0.28909847 -0.6504281 -0.42115557 0.17040859

bn2.running_var f4 [16]
000000 a3 ce c8 40 99 0b 60 40 63 5b 26 40 65 ef 26 41
       6.275224 3.5007079 2.5993278 10.433446
000010 64 dd 65 41 d8 cc e6 3f e5 d6 d0 40 85 01 94 41
       14.36655 1.8031263 6.5262322 18.500742
000020 81 56 d5 40 28 71 13 40 24 14 a7 41 81 c0 9e 40
       6.6668096 2.3037815 20.884834 4.960999
000030 92 cb cf 3f 91 31 e3 40 31 1f ec 40 d0 46 ce 41
       1.6234 7.0998006 7.3788075 25.784576

conv3.weight f4 [32, 16, 3, 3]
000000 b6 b6 91 be e3 30 fe bd dd 61 01 3e 08 4b a1 be
       -0.2845971 -0.12411668 0.12634988 -0.31502557
000010 0b d5 93 be 43 a9 3d 3b c8 fc db bd ee 1f 34 be
       -0.28873476 0.002894 -0.107415736 -0.17590305
000020 b5 d1 89 3d d6 2f 2f 3d 4a a1 60 3d 50 f5 0d 3d
       0.067294516 0.04277023 0.054841317 0.034657776
000030 bf cd de 3d 11 78 39 3d 03 f1 88 3d 15 5e 53 3d
       0.10879087 0.04528052 0.06686594 0.051603395
000040 c9 c6 c8 3d df ff aa 3c 35 38 34 3e a7 d7 34 3d
       0.0980354 0.020873962 0.17599566 0.044150975
000050 1e 69 47 bd db ca d6 3b e5 88 90 bd 92 4b ba bc
       -0.048684232 0.006554944 -0.070573606 -0.022741113
000060 b6 d0 26 bd 7f 8e 03 be cf 5f c5 bd 8c 29 d7 3c
       -0.040726386 -0.12847327 -0.09637415 0.026264928
000070 4c 5c 1c 3e 77 b4 7e 3e 74 4f 80 3d 43 84 fe 3b
       0.15269583 0.2487353 0.062651545 0.0077672317
000080 90 79 a5 3e 6b 39 79 3e 5a 1e e1 3d 9f 4a 6c 3e
       0.32319307 0.2433831 0.10992117 0.2307534
000090 48 a6 b1 bd 27 22 9a bd 8f a6 91 3c 94 a7 c7 be
       -0.08674294 -0.07526045 0.017779617 -0.3899504
0000a0 93 82 b4 be 8e 7d 2b be 28 c7 8a be a7 0d 9b be
       -0.3525587 -0.16747114 -0.2710507 -0.30283853
0000b0 a7 49 05 be 07 c3 e4 3d 20 19 09 3d 80 12 74 3d
       -0.13016377 0.11170011 0.033471227 0.059587955
0000c0 de 97 da 3c fa be 96 bb 11 ca 63 3d b8 a1 29 bc
       0.026683744 -0.004600403 0.055612627 -0.010353498
0000d0 06 ee 1b be 6c 9c 71 ba e5 38 85 3e ef bf 56 bc
       -0.15227517 -0.0009216729 0.2601997 -0.013107284
0000e0 ab 9b 9d bd b9 8f db 3d 1e 0d 83 be 9f 4d 0c be
       -0.07695707 0.10720772 -0.25595945 -0.13701485
0000f0 be 89 9a 3d 37 4c 82 be b2 07 58 be 10 6c 40 be
       0.075458035 -0.25448772 -0.21096686 -0.18791223
000100 50 a0 da bd 1b e8 c6 3d 12 9d 62 be 3e 7a fb be
       -0.106751084 0.09712239 -0.2213023 -0.491167
000110 87 12 78 be dd 37 3a 3e ef cd 85 bd 21 dd fa bd
       -0.24225818 0.18185373 -0.06533419 -0.12249208
000120 81 cb 46 be 33 19 88 be dd a0 54 3e 5e 10 3d bc
       -0.19413568 -0.26581725 0.2076449 -0.011539547
000130 89 f8 a7 be 93 bd 04 3e 02 bd 52 3c 37 1f 40 be
       -0.32806805 0.12962942 0.012862446 -0.18761908
000140 ad 76 7b 3e 84 70 0b bd a0 07 82 3d e9 76 16 3b
       0.2455699 -0.03404285 0.063491106 0.002295906
000150 7b a8 bf 3d 0b e7 ad 3d 50 91 8b bd 64 3a 07 3e
       0.09358307 0.084913336 -0.068148255 0.13205868
000160 fa 04 50 3e 65 48 82 3c fa 12 dc 3d 0a 5d af bd
       0.20314398 0.015903661 0.10745807 -0.08562668
000170 07 40 a4 bc 73 1d e1 3d 9c 09 36 3c dc 3e bb 3c
       -0.020050062 0.10991945 0.0111106895 0.022857122
000180 4f d0 c0 3d af e9 98 3d 16 be f5 3d 7e 82 9f 3d
       0.09414732 0.074664466 0.11999147 0.07788561
000190 f9 98 d8 3d bc ba 8a 3d 70 aa 9d 3a ea 02 dc 3d
       0.10576052 0.06773898 0.0012028944 0.10742743
0001a0 16 ea 69 3d c4 01 38 be 8c 66 9c 3d 4c f3 1a 3e
       0.057108007 -0.17969424 0.07636747 0.15131873
0001b0 dd ca 04 3c 3b c6 f0 3d 60 1a dd 3a 75 73 4d be
       0.008105007 0.117565595 0.0016868822 -0.20063575
0001c0 ba b8 22 bd a3 7d ec 3c 7b f1 f3 bd 63 51 15 be
       -0.03972695 0.028868502 -0.11911293 -0.14581828
0001d0 13 49 c5 bc 6c 0b 4b be 89 a1 e1 bd 17 9c 76 3d
       -0.024082696 -0.19828576 -0.110171385 0.060207453
0001e0 9b ef a0 be 5e b6 f3 be 15 77 56 be 44 6b d4 bd
       -0.31432804 -0.47600073 -0.20943864 -0.10372022
0001f0 47 c6 a8 be 51 3a 09 be e1 8d ba bd f7 d2 83 bc
       -0.32963774 -0.13401152 -0.091090925 -0.016091807
000200 a1 52 a0 3b 9d 26 f5 3d a1 b5 4e 3d b8 91 a4 bd
       0.0048926626 0.119702555 0.050466184 -0.08035606
000210 f2 6f 72 3e cc f6 e1 3d f7 40 1c be ca 3e bc be
       0.23675516 0.11033401 -0.15259157 -0.36766654
000220 5e 74 c4 be c5 e3 00 be 7a 42 3f bf c0 c4 5b bf
       -0.3837003 -0.12586887 -0.7471081 -0.8584709
000230 0c ed 25 bf d9 3a 84 be 86 e9 29 bf 87 4c e3 be
       -0.6481483 -0.25826147 -0.66371953 -0.44394323
000240 8f f5 95 3c 25 de c9 bd b5 0a 1c 3d 91 3b d6 3d
       0.018305568 -0.09856824 0.03809615 0.1046058
000250 ef c3 a0 be ec 26 5b 3e cc 7d aa 3d 01 09 bc be
       -0.31399485 0.21401566 0.08324775 -0.3672562
000260 94 91 6c 3e da 69 8a 3e 4f 77 d2 be cb 6c d3 3d
       0.23102409 0.27033883 -0.4110665 0.10323485
000270 7b f6 b9 3e 33 55 e9 be da db 55 3e 65 86 a0 3e
       0.36320862 -0.45572814 0.20884648 0.31352535
000280 96 2f d1 be 28 1f 78 3e 84 b3 9c 3d 49 7d 9e be
       -0.40856618 0.24230635 0.076514274 -0.3095496
000290 74 be cf 3d 67 19 20 3e c9 30 b1 be b2 9f 6f 3e
       0.10143748 0.1563469 -0.34607533 0.23400763
0002a0 c8 4c 54 3e c6 76 7a be c3 76 81 3e 9f 65 26 be
       0.20732415 -0.24459371 0.2528592 -0.16249703
0002b0 c8 a7 f0 bc f0 cd 16 be cb 9e 55 be 7f 84 ef 3c
       -0.02937688 -0.14726996 -0.20861356 0.029237984
0002c0 1d cb 07 be 34 f8 f5 bd ca 90 55 bd fe 4f e7 bd
       -0.13261075 -0.120102316 -0.052140035 -0.11294554
0002d0 cb 58 e3 3c 72 6f e6 bd b8 a2 56 bd 0a cb 24 3e
       0.0277523 -0.11251725 -0.052401274 0.16093078
0002e0 83 0a 15 be a8 f5 af 3d 4f 46 d6 3d ff 82 b5 bd
       -0.14554791 0.08591777 0.10462629 -0.08862876
0002f0 5b bf db 3d 4f 27 9a bd ee cd 15 be 9d bc 3e 3e
       0.107298575 -0.07527029 -0.14629337 0.18626638
000300 72 be 2b be ed 2b 06 be fb 35 01 3d 0a 1e 20 be
       -0.16771868 -0.13102694 0.03154562 -0.15636459
000310 f2 7c 04 bd 9f b5 b4 bd 82 c0 e6 3d 09 80 ff bc
       -0.03234572 -0.08823704 0.11267187 -0.031188982
000320 e7 22 00 be 4e ee db 3c 07 74 0f bd 72 41 67 be
       -0.12513314 0.026847031 -0.03502276 -0.22583559
000330 89 61 ad 3d 43 17 b2 bd 33 f0 96 be 18 4e 8f 3e
       0.08465869 -0.08695843 -0.29480132 0.27989268
000340 c0 b3 93 be 91 90 2b 3e 82 5c b7 3e e5 98 a3 be
       -0.28848076 0.16754366 0.35812765 -0.31952587
000350 2e 6d d0 3e bf 91 14 3e a3 06 dd bd 44 b2 0d 3f
       0.40708297 0.14508723 -0.107922815 0.55350137
000360 e0 26 fc bd 77 55 2e bc c1 2a d4 3d 56 1d 85 be
       -0.12312102 -0.010640494 0.10359717 -0.25998944
000370 69 a5 09 3d f5 f3 f9 3d 67 d8 b5 be 0a 08 46 bd
       0.033605013 0.12204734 -0.35516664 -0.04834751
000380 28 70 d0 3d eb a5 14 3e b9 02 7a be 1e 74 c8 bd
       0.10177642 0.14516418 -0.24415101 -0.097877726
000390 4a b9 3c 3e 8f 18 26 be a2 25 87 3d a3 15 27 3e
       0.18430057 -0.16220306 0.06598975 0.16316848
0003a0 ce f7 0c be b5 94 60 3d c7 e9 83 3d 6b 5c ac 3d
       -0.13766405 0.054829318 0.06441074 0.08416065
0003b0 da 32 89 39 3a 93 5f 3d 7e 79 26 3e 86 80 98 bc
       0.00026168564 0.054583766 0.16257283 -0.018615972
0003c0 f7 d2 89 3c 66 74 b2 3d 7e d0 2c bd 19 0a 2b 3c
       0.016824229 0.087136075 -0.04219102 0.010439419
0003d0 3b 5f bb 3d 59 bb c1 3b 55 11 b3 3c 99 80 4e 3c
       0.09149023 0.005912226 0.02185885 0.012603902
0003e0 65 80 0a bd 6c 6d eb 3d 73 2a e8 bd 74 11 f5 bc
       -0.033813853 0.1149548 -0.113362215 -0.029915549
0003f0 89 a7 0c 3e 6a 14 3e 3b 9c 40 d5 bc f4 42 ae 3d
       0.13735785 0.0029003867 -0.026031785 0.08508864

conv3.bias f4 [32]
000000 44 14 81 3a f5 c5 7c ba b5 90 2e 3a 35 c9 6b ba
       0.0009847959 -0.0009642535 0.0006659136 -0.0008994521
000010 60 27 6a 39 be 7b 82 ba ba 21 e0 39 73 b5 6d 39
       0.00022330647 -0.0009955091 0.00042749738 0.00022669676
000020 8a 0e 79 b9 32 65 23 3a e3 21 d0 39 50 69 65 ba
       -0.00023751907 0.0006233036 0.000396981 -0.00087513495
000030 0c ab 2a 3a 08 65 58 ba 90 83 3b ba a8 d9 28 39
       0.00065104733 -0.0008254801 -0.0007153088 0.00016102812
000040 6e d7 56 ba 54 90 8d 39 1c b6 01 38 c5 f0 a2 39
       -0.00081955537 0.0002700115 3.09256e-05 0.00031078435
000050 33 57 7a 39 e3 33 6f 3a 0b d7 c2 b9 58 d4 51 3a
       0.00023874342 0.0009124858 -0.00037162783 0.0008004359
000060 ea f7 55 ba 34 4a 10 3a b1 4d 9e b9 bc 23 24 ba
       -0.0008162247 0.0005504221 -0.00030193993 -0.00062614284
000070 95 f4 92 b9 87 14 15 3a e4 8f 67 ba 87 fa 6a 3a
       -0.00028029518 0.0005686958 -0.0008833392 0.0008963723

bn3.weight f4 [32]
000000 bc e7 ec 3f 4c e9 7f 3f 4d bb b7 3f da 2d 8e 3f
       1.850822 0.9996536 1.4354035 1.1107743
000010 9b 9f 4a 3f a3 85 84 3f c6 36 42 3f 57 a8 62 3f
       0.7914979 1.0353283 0.7586483 0.88538116
000020 19 c9 21 3f c6 09 89 3f c4 6f 43 3f fc 6b 1e 3f
       0.63197476 1.0706108 0.76342416 0.6188352
000030 43 8e 3a 3f 0c 71 41 3f f2 a4 34 3f 3d ac 53 3f
       0.72873324 0.7556312 0.70564187 0.8268469
000040 4d 2b 6c 3f e6 91 58 3f ff 9b 33 3f 31 24 67 3f
       0.9225357 0.84597623 0.70159906 0.902896
000050 d6 ea 4d 3f da 4c 9b 3f 2c dc 78 3f db 67 5f 3f
       0.80436456 1.2132828 0.97210956 0.87267846
000060 78 d3 46 3f a1 fc a3 3f d9 a6 84 3f 01 8c 2a 3f
       0.77666426 1.2811471 1.0363418 0.6661988
000070 3e 94 21 3f 77 79 6f 3f cf 3c 88 3f e8 9a 30 3f
       0.63116825 0.93544716 1.0643557 0.6898637

bn3.bias f4 [32]
000000 f8 b7 6d bf 57 68 43 be c2 34 ce be 42 9a 66 be
       -0.9285884 -0.19082771 -0.40274626 -0.22519782
000010 81 ec 9f be e0 55 f0 bc 33 72 91 bd 18 07 6c 3e
       -0.31235126 -0.029337823 -0.0710186 0.23049581
000020 62 11 99 3e 2a d5 b8 be 42 4b e0 3d 9f 60 8e 3e
       0.29896075 -0.3610013 0.10951854 0.2780809
000030 a5 b5 dd 3c 9d 6d 17 be ca b4 eb bd 4e 08 a1 be
       0.027064154 -0.14787908 -0.11509092 -0.31451648
000040 b9 c7 f7 bd 04 5a 92 3e ea 41 0c 3e 25 af 9e bd
       -0.12098641 0.285843 0.13697019 -0.0774825
000050 b6 2a cd 3e fa 62 46 3d 06 40 85 bd a4 0e 1b 3e
       0.40071648 0.048434235 -0.06506352 0.15142304
000060 d1 12 d7 3c 69 79 62 be 28 a2 ca bc 0a af 6d 3e
       0.02625409 -0.22116627 -0.024735525 0.23211303
000070 9e 6b 75 3e 83 08 0a 3e e5 d2 80 be 8c 4a c4 3a
       0.23966834 0.1347981 -0.251609 0.001497583

bn3.running_mean f4 [32]
000000 4b 93 5b c0 be 5e 67 bf d5 8f 2b c0 b7 e0 a2 bf
       -3.430865 -0.9037894 -2.6806538 -1.2724828
000010 cc e1 81 3f de db f4 bf ba 2f 35 bf 94 06 78 bf
       1.0147033 -1.9129598 -0.7077595 -0.9688504
000020 1d 9b 3e 3e 12 0a 16 c0 d1 fa cf bf de dc 85 40
       0.18613859 -2.3443646 -1.6248418 4.1832113
000030 09 42 07 3f da 9d 32 3f 4d 5b 26 40 20 1f 7d 3e
       0.52835137 0.6977211 2.5993226 0.24718904
000040 1b de 97 bf 71 c7 ff bf c4 83 56 3f 6e 10 3e 3e
       -1.1864656 -1.998274 0.8379481 0.18560955
000050 33 f6 fe bf 65 95 11 c0 5d 75 47 bd e4 a2 be bf
       -1.9918884 -2.2747433 -0.04869591 -1.489346
000060 db c9 12 bf 8b 6e 42 c0 6b 56 16 c0 fe 2e 0a bf
       -0.57339257 -3.037997 -2.3490245 -0.53977954
000070 35 40 20 3d b4 14 22 c0 55 f3 00 c0 9c cf 1c 40
       0.039123733 -2.5325136 -2.0148518 2.4501715

bn3.running_var f4 [32]
000000 9c ba 40 41 07 4a 0b 41 05 ce 1c 41 bb 7c 3a 41
       12.045559 8.705573 9.800298 11.655452
000010 6b c2 65 40 c1 9a da 40 2f f9 6c 40 e8 b6 f7 40
       3.5899913 6.831391 3.702709 7.7410774
000020 e7 b9 71 40 c1 d2 a2 40 35 36 67 40 8c bb da 40
       3.7769716 5.088227 3.6126835 6.835394
000030 a7 a6 a3 40 a5 23 57 40 07 e2 92 40 29 bc 93 40
       5.1140933 3.3615506 4.590091 4.616719
000040 ff 22 9d 40 2a a7 c2 40 2f f0 a5 40 56 bf ac 40
       4.910522 6.082906 5.1855693 5.3983564
000050 33 79 19 41 ec a9 2c 41 56 51 d2 40 06 bc 98 40
       9.59209 10.791485 6.5724287 4.772952
000060 9a db 7b 40 6e 27 19 41 13 85 bb 40 52 04 87 40
       3.9352784 9.572126 5.8599944 4.2192774
000070 12 ee 9b 40 db 72 c9 40 03 6c 84 40 13 59 9f 40
       4.8728113 6.2952704 4.138185 4.9796233

conv4.weight f4 [32, 32, 3, 3]
000000 58 99 67 3e e0 5e c2 3e 4b 88 c0 3d 0f 49 89 3e
       0.2261709 0.3796301 0.09400996 0.26813552
000010 9d 13 16 be b4 25 91 be e8 bb a8 bd e4 80 59 be
       -0.1465592 -0.28349078 -0.08238965 -0.21240574
000020 00 52 c1 3d 52 99 d7 bd eb 31 83 be 76 9f 2b be
       0.094394684 -0.105272904 -0.25624022 -0.16760048
000030 f0 e6 0f be f4 1a d3 bd 12 85 68 be e6 c6 2b 3e
       -0.1405294 -0.10307875 -0.22707012 0.16775092
000040 48 1f 01 3e 1d 2a b0 3d d4 5e f4 3e 74 1a b6 3e
       0.12609589 0.086017825 0.47728598 0.35567057
000050 49 36 b1 bd 50 57 b8 bd e6 11 81 be cb 47 5c be
       -0.08652932 -0.090010285 -0.25208968 -0.21511762
000060 69 0c 19 bc 63 dd 95 be d5 23 fc 3c 2a 13 25 be
       -0.009341338 -0.29270467 0.030778805 -0.16120592
000070 a8 82 79 be 5e f0 ea bd 06 ec 03 be 9d fc d1 bc
       -0.24366248 -0.11471628 -0.12883005 -0.02563315
000080 16 a0 8d be 54 88 03 3e ef 05 1b 3e 80 f9 70 3d
       -0.27661198 0.12844974 0.15138982 0.05883169
000090 86 7c 06 bd 23 e2 12 be af 11 b1 bd 99 25 b4 3c
       -0.0328336 -0.14344077 -0.08645951 0.021990584
0000a0 83 89 69 be 9b 2c 3e 3e bf 81 c8 3d 9f 63 67 3e
       -0.22806363 0.18571703 0.09790372 0.22596596
0000b0 b3 a4 05 3d 11 83 ed 3d 46 d4 38 bd f0 42 b2 3c
       0.032627773 0.115972646 -0.045124315 0.021760434
0000c0 2d 1b 3a 3e f4 fc c3 be 67 f7 93 bd 9a 60 12 3e
       0.18174429 -0.38278925 -0.072249226 0.14294663
0000d0 b6 b7 5d 3c 29 00 54 bd fb ea 59 bd a0 f1 41 be
       0.01353257 -0.051757965 -0.05320261 -0.18939829
0000e0 a4 3e 89 3d 23 9e 76 be 4e b7 df bd b7 98 ca bc
       0.06701401 -0.24083762 -0.109236345 -0.024731023
0000f0 ff 15 20 3e 82 d3 c9 3e 6a ac 71 bc 68 9d 80 3e
       0.15633391 0.3941918 -0.014750579 0.2512009
000100 8c 40 2f 3e 10 1c 4d bd 91 dc f7 3d 07 cc 9c bd
       0.17114466 -0.05007559 0.121026166 -0.07656103
000110 cb 03 60 3e 1c 2a a1 be 8d 6b ae be 90 07 d8 3d
       0.21876447 -0.3147744 -0.3406643 0.105483174
000120 94 ac 2e be 09 12 c1 bd c0 74 23 be 58 b4 95 3c
       -0.17058021 -0.09427268 -0.15962505 0.018274471
000130 e9 23 2d 3e eb 1c d5 bb f6 fc 9a 3d c8 e3 6f be
       0.1690823 -0.0065036914 0.0756778 -0.23426735
000140 7d 79 96 be b7 ef de bd 98 83 e2 3d 4c 8b 4f 3c
       -0.29389563 -0.10885566 0.11060256 0.012667488
000150 dc f8 40 be fc b7 0a be 7f ee a5 be ef c2 e9 3b
       -0.18844932 -0.13546747 -0.3240852 0.0071338336
000160 d5 3a f9 bd c3 52 36 be 8b 42 1e 3d 24 28 b4 3c
       -0.121694244 -0.17805009 0.03863768 0.021991797
000170 8d 35 b7 bd 11 fe f8 bd bc ac e5 bc cf 09 46 3d
       -0.08945761 -0.12157834 -0.028036468 0.048349198
000180 15 bf d7 bc ec 69 62 bc f2 c8 f3 3d 69 e5 4d 3d
       -0.026336232 -0.013819199 0.11903562 0.05026761
000190 ad a3 19 be 7e 20 23 3e 4a a8 df 3b 98 ef 5f 3d
       -0.15003844 0.15930364 0.0068254815 0.054671854
0001a0 1c b0 21 3e ee 3c 25 be c2 e8 d1 3c 88 41 ac 3d
       0.15789837 -0.16136524 0.025623683 0.084109366
0001b0 64 00 1c be 44 67 ff 3c 8c b3 29 3e 34 d1 11 be
       -0.15234524 0.03117717 0.16572398 -0.14239961
0001c0 7c 0b 4c 3e f4 77 ca bd ff 4d 82 be 27 64 86 3c
       0.19926256 -0.098861605 -0.2545013 0.016405178
0001d0 b8 9e 38 be b1 b2 27 3d 76 05 6f be 66 6d 85 be
       -0.18029296 0.040941898 -0.23341927 -0.26060027
0001e0 4a 60 a1 bd d5 63 1a be c8 c1 4d 3d 41 0d b2 3d
       -0.07879694 -0.15077145 0.050233632 0.08693934
0001f0 c6 a9 3f 3d dc d5 36 be 3f 24 70 3d 6c 0e 5b be
       0.046792768 -0.17855018 0.058628317 -0.2139222
000200 85 af 1f bd cc 6c 05 3e ea 49 4b be 02 a6 9f bc
       -0.038985748 0.13029784 -0.19852415 -0.019488338
000210 71 15 b3 bd 57 3a 49 be 9a c8 04 be ce 33 76 3e
       -0.08744324 -0.19651161 -0.12967148 0.240432
000220 a3 71 4c 3e 80 f2 be bc 0b 85 a2 3a de c6 3c 3e
       0.19965224 -0.023308992 0.0012399269 0.18435237
000230 6b b3 34 bd 7a e2 cb be 33 f2 2a be db 0c 78 be
       -0.04411642 -0.39821225 -0.16693954 -0.24223654
000240 b5 4f 9a bd c5 fc 03 be 39 c4 23 3d 77 df 76 3c
       -0.07534734 -0.12889393 0.039982054 0.015067927
000250 ed a5 45 3e 5f c6 4c 3d d7 05 18 3e 0a c3 16 3e
       0.19301577 0.04999387 0.14845978 0.14722839
000260 28 9a 81 bd f6 c5 01 be fb 41 e7 bc 68 26 08 3d
       -0.06328231 -0.12673172 -0.028229704 0.033239752
000270 d9 4b ad 3e 25 da 54 be 5b 53 63 be 2d 2c 8f bc
       0.3384693 -0.2078634 -0.22199766 -0.01747712
000280 a8 a0 88 be d7 a2 1a 3e 88 0c 51 3e 21 13 cf 3d
       -0.2668507 0.15101181 0.20414937 0.101110704
000290 09 00 66 bb 0d cc 8e 3d e1 f8 f7 bd d9 41 8f bd
       -0.0035095236 0.06972513 -0.12108017 -0.06994981
0002a0 85 44 1a 3e 30 80 eb bd 28 e1 6f bc ff 30 b6 3b
       0.150652 -0.11499059 -0.014641084 0.00556004
0002b0 a8 80 e5 bd 5b 74 bb 3d ff 13 76 bd 35 1c 08 3d
       -0.1120618 0.091530524 -0.060077664 0.033230025
0002c0 4f 38 fc 3d 2c 5b 84 bd 35 35 51 3c 08 de b8 3d
       0.123154275 -0.06462702 0.012769033 0.09026724
0002d0 f8 01 dc 3b 50 a6 7c 3e 59 b2 85 bd 79 61 3f bd
       0.006714102 0.24672818 -0.06528158 -0.046723817
0002e0 af cc c2 3d 2f a2 4d bd d4 24 37 be c6 ad 21 bd
       0.095116965 -0.0502035 -0.17885143 -0.039472364
0002f0 77 15 53 3e 59 64 27 bd a8 ef c4 3e b8 98 b1 3e
       0.20613657 -0.040867183 0.38464093 0.34686828
000300 69 05 52 be 77 01 af be 7e 5a f3 bd 46 f3 aa 3c
       -0.20509876 -0.34180805 -0.118824944 0.020867955
000310 07 fd 31 be 31 50 56 bd 9b 96 2c bb 32 4f b7 bc
       -0.17381679 -0.05232257 -0.0026334885 -0.02237663
000320 e4 17 aa 3c c5 9b 6b bb 84 86 11 be ab a0 30 3e
       0.020763345 -0.0035951 -0.1421147 0.1724879
000330 6b 8a 81 bc d2 56 37 3e 61 39 53 3e f3 bc 8f 3b
       -0.015813073 0.17904213 0.20627357 0.004386538
000340 c3 5d 1b 3e 46 d5 f6 3d 19 2f ce 3d 03 8f f7 bd
       0.15172486 0.120523974 0.10067577 -0.12087824
000350 e7 61 93 bd 24 91 10 3d 80 2b 5a be c1 00 3f be
       -0.07196408 0.035294667 -0.21305656 -0.18652631
000360 6e 1b 29 3d ec 54 ca bd 26 13 bc 3d 30 92 e0 bd
       0.041285925 -0.09879479 0.0918334 -0.10965383
000370 66 e2 c1 3a 66 06 2e be 54 5c a1 bd ff b0 08 3c
       0.0014792203 -0.16994628 -0.07878938 0.00834298
000380 c4 fa 6f bd e6 94 29 bd 78 ce 25 3e 7b b0 04 bd
       -0.058588758 -0.041401766 0.16192043 -0.032394867
000390 33 57 24 3d 71 66 7d be fd 9e 26 be c6 d5 0b be
       0.040122222 -0.2474611 -0.16271587 -0.13655767
0003a0 43 94 47 be 8b ab 7b 3e 9a ff 7a 3e b3 a7 66 3e
       -0.19490151 0.24577157 0.24511567 0.2252491
0003b0 50 a4 f4 3d d8 2d 85 be 6e b1 8d be 13 e6 b1 be
       0.119454026 -0.26011539 -0.2767443 -0.34745845
0003c0 7b 4f 80 3c ae 1b 74 be 6b 7a ea 3d d9 89 73 be
       0.0156629 -0.23838684 0.114491306 -0.23783053
0003d0 4b df 0f be b0 e2 38 be 2c cd 22 3e 76 24 0d 3e
       -0.14050023 -0.18055224 0.1589858 0.1378344
0003e0 68 78 ef 3d 80 e9 fc 3d e9 a8 31 be 66 c2 cf 3d
       0.116928875 0.12349224 -0.1734959 0.101445004
0003f0 81 a3 a0 3e 3d 0c b5 3e 07 3b b1 3c aa 3d 89 bd
       0.31374744 0.353609 0.021634592 -0.067012146

conv4.bias f4 [32]
000000 67 2c 34 ba b8 b3 30 ba f9 18 22 b9 2e b0 4c b9
       -0.00068730715 -0.00067406474 -0.00015458827 -0.00019520588
000010 6f ba b6 39 93 11 db 37 be 33 ef 39 bd c5 fe b7
       0.0003485265 2.6115018e-05 0.00045624183 -3.0371239e-05
000020 e3 1d 88 39 dc b6 25 b8 54 ff 9f b7 ec fe b6 b8
       0.0002596221 -3.9509367e-05 -1.9073173e-05 -8.725919e-05
000030 c6 8c 26 ba 36 12 10 ba eb 5e 03 3a 94 cc 14 ba
       -0.00063533743 -0.00054958777 0.00050113973 -0.00056762365
000040 5d 13 35 ba bb ee eb 39 65 fc 18 3a 74 20 23 ba
       -0.00069074874 0.0004500056 0.00058359496 -0.00062227924
000050 37 1e 28 ba b6 0a 8a b9 36 e2 97 38 f7 ea 04 3a
       -0.0006413194 -0.0002632939 7.242376e-05 0.0005070413
000060 04 76 15 ba d9 c3 c6 39 47 e0 4a b8 19 ad 73 39
       -0.00057014846 0.0003791142 -4.8369428e-05 0.0002323877
000070 a5 66 01 ba 6f 73 92 b8 65 fc 0b 3a f1 05 c2 b9
       -0.00049362547 -6.983324e-05 0.0005340039 -0.0003700699

bn4.weight f4 [32]
000000 3a 19 74 3f fc a3 9e 3f 5c e9 84 3f fb b5 44 3f
       0.9535099 1.2393794 1.0383716 0.7684018
000010 d6 b4 47 3f 2b e5 3b 3f 7c 74 86 3f a2 7a 3d 3f
       0.7801031 0.7339656 1.0504298 0.7401525
000020 21 5e 50 3f bf 9d 68 3f 77 ef 64 3f 00 c0 85 3f
       0.8139363 0.908657 0.89427894 1.0449219
000030 cd 1e 3b 3f 69 28 8e 3f e5 50 92 3f 5c 62 87 3f
       0.73093873 1.1106082 1.1430937 1.0576892
000040 d6 5e 78 3f df c4 97 3f a4 15 85 3f 9a a5 89 3f
       0.9701971 1.1856955 1.0397229 1.0753663
000050 71 89 99 3f 65 8f 3e 3f 65 4a 4f 3f 4d 1f 49 3f
       1.1995069 0.7443755 0.8097289 0.78563386
000060 6f e5 72 3f c5 5c 67 3f fc 11 32 3f d0 66 8f 3f
       0.9488134 0.9037593 0.6955869 1.1203251
000070 9d be 36 3f 07 e7 5f 3f 56 e3 7c 3f fa 89 66 3f
       0.713846 0.87461895 0.9878439 0.90054286

bn4.bias f4 [32]
000000 20 97 dd be 4a ae 69 bf 5a 89 b0 be ca 1c 93 3d
       -0.43279362 -0.9128157 -0.3447979 0.071832255
000010 d8 80 12 3e e8 e2 d3 3d 28 b9 f6 be ac e3 9a 3e
       0.14306962 0.10346013 -0.48188138 0.30251825
000020 64 5b 7d 3e 6f d1 94 be 74 93 81 bd 25 df e0 be
       0.24741894 -0.29066035 -0.063269526 -0.43920246
000030 be 62 cb 3e 20 81 1a be 8a b8 c7 be 77 3f 5e be
       0.39723772 -0.1508832 -0.3900798 -0.21703897
000040 46 73 7c be 99 fa d3 be 08 02 c0 be dc 25 c5 bc
       -0.24653348 -0.41402128 -0.3750155 -0.024065904
000050 6d 15 12 bf 3b 16 70 3e ee 04 27 bc 89 66 30 3e
       -0.57063943 0.2344598 -0.010194046 0.17226614
000060 f4 69 bf be 9c 14 a3 3d 6f 6f 08 3e 51 d4 ff be
       -0.37385523 0.07962915 0.13323759 -0.49966672
000070 93 83 ea 3d e1 a3 2d be 09 5f c5 bd df 58 54 be
       0.11450877 -0.16957046 -0.09637267 -0.20737027

bn4.running_mean f4 [32]
000000 7a c4 91 bf 9c 19 a2 bf 5e f5 57 bf 95 ce b6 bf
       -1.1388085 -1.2664065 -0.84358776 -1.4281794
000010 8a c6 23 bf cb 3d 24 bf a6 e0 44 bf 3a 77 4c 3f
       -0.6397482 -0.6415679 -0.76905286 0.79869425
000020 e4 88 78 3f 9d a3 ed be f2 e9 a1 bf fc 08 5a bf
       0.9708388 -0.4641389 -1.264952 -0.8516996
000030 f3 f0 9a bf 52 5c d2 be 63 85 d0 bf 5e 08 ab bf
       -1.2104782 -0.4108606 -1.6290706 -1.3361928
000040 26 65 ee bd a0 6b 40 bf f6 bd d8 bf f5 0f 07 bf
       -0.11640386 -0.7516422 -1.6932971 -0.52758723
000050 d8 c4 47 bf c4 8e 9e bf e7 5a 42 3e e4 77 79 40
       -0.78034735 -1.2387319 0.18979989 3.8979425
000060 8c 41 0f c0 d6 59 bd bf b9 d6 b6 3f 69 29 94 bf
       -2.2383757 -1.4793041 1.4284278 -1.1575137
000070 94 d5 77 be 8d 5b fd bf 9c 0d b1 bf e2 60 36 3e
       -0.24202567 -1.9793564 -1.3832278 0.17810395

bn4.running_var f4 [32]
000000 ef eb 09 40 35 2d 18 40 3c de 29 40 23 59 fa 3f
       2.1550252 2.3777592 2.654189 1.9558452
000010 b9 2d 51 40 e3 a0 29 40 54 31 14 40 44 3a 88 40
       3.2684157 2.6504447 2.3155107 4.2571125
000020 bb be 30 40 81 3f 1d 40 58 38 3e 40 a9 2a 04 40
       2.7616413 2.457001 2.972189 2.0651038
000030 61 47 51 40 b7 cc 82 40 46 11 5a 40 82 82 3a 40
       3.2699816 4.0874896 3.4073043 2.9142156
000040 88 28 34 40 6f 70 56 40 1d 49 5a 40 84 eb 5e 40
       2.8149738 3.3506124 3.4107125 3.4831247
000050 3a e9 42 40 87 49 17 40 7d db 37 40 3b 4c 22 40
       3.045485 2.3638628 2.8727715 2.5359027
000060 a4 1b 14 40 a3 45 47 40 30 23 12 40 8e 35 2c 40
       2.314187 3.1136253 2.2833977 2.6907687
000070 de 26 29 40 1b ea 46 40 66 0c 5c 40 b9 df 03 40
       2.6429973 3.1080387 3.4382567 2.06053

conv5.weight f4 [32, 32, 3, 3]
000000 88 c1 02 3e a3 70 db 3c e1 13 47 3d a4 ed b1 bd
       0.12769139 0.026787108 0.048602942 -0.086879045
000010 53 0f 35 bd ab 63 48 3d 82 dc 6b bd b5 00 98 bd
       -0.044204067 0.048923176 -0.05758334 -0.0742201
000020 fe cf db bd 07 cf 1f be 69 68 16 be a2 45 b4 3e
       -0.10733031 -0.15606318 -0.14688267 0.35209376
000030 f3 cf 06 3e d1 03 5c be 7b 30 b2 bc e7 5a e5 3c
       0.13165264 -0.21485831 -0.021751633 0.027997447
000040 3f 37 34 be d9 a6 a2 be c3 b5 86 3d 92 f4 b0 be
       -0.175992 -0.3176792 0.06577637 -0.34561592
000050 ba d9 84 be e5 72 2d be e5 9f 8f 3d bc 81 15 3e
       -0.25947362 -0.1693836 0.07012919 0.14600271
000060 75 ff b8 be 54 73 2a 3d ad ba 5f 3e fd 4a 6a bd
       -0.36132398 0.04161389 0.21848555 -0.05720042
000070 1a de 3c bc a7 33 a1 be e0 43 c0 3d 96 53 0d 3e
       -0.0115275625 -0.3148472 0.09387946 0.13801417
000080 92 11 cc bd 7b 10 fa bd a0 bc fe bc 5c e1 1b be
       -0.09964289 -0.12210175 -0.031095803 -0.15222687
000090 16 41 60 3d 5f cd 82 3d 00 ce d9 3c 4f 4b dd 3d
       0.05474957 0.06386828 0.026587486 0.108053796
0000a0 18 be 74 bc e6 2f 2e 3d 49 06 ed 3d eb 0d 80 bd
       -0.0149379 0.04252615 0.115734644 -0.06252655
0000b0 2a c9 38 be 1f 5c 49 3e 58 dc f1 3e 8c b4 fd 3e
       -0.18045488 0.19664048 0.4723842 0.4955181
0000c0 83 17 20 be 54 d7 58 bd 86 fc f8 bb c8 5c 29 3d
       -0.15633969 -0.052939728 -0.0075984625 0.04134825
0000d0 a7 33 06 be 54 81 81 bd 49 1c b5 3d 57 f9 59 be
       -0.13105641 -0.063234955 0.088432856 -0.21286522
0000e0 60 49 bc be 8e aa 19 3c 5e 70 05 3d 42 ee 3f 3d
       -0.3677473 0.009379042 0.032577865 0.04685808
0000f0 aa c9 0c be a6 df b9 bd 5b 4f 4c bd 01 9b 96 3e
       -0.13748804 -0.09075861 -0.049880367 0.29415134
000100 35 de 27 be 9e d1 d5 be 66 73 65 3e 9e 30 5d be
       -0.16393359 -0.41761488 0.22407302 -0.21600577
000110 22 b0 31 be 4d 9c 52 bd 6b 12 af be 92 ed 5c be
       -0.17352346 -0.05141859 -0.3419374 -0.21575001
000120 f1 fd 86 be bf 3f d6 ba c4 10 96 3e 45 3c 46 be
       -0.26365617 -0.0016345902 0.29309666 -0.19358929
000130 de 29 ea bd f8 71 39 3e bf 36 b3 3d 6a 9e 9b bd
       -0.11433767 0.18109882 0.08750676 -0.075985745
000140 06 68 e0 bb 38 32 0d be 4b e4 87 be 42 6a 8b bd
       -0.006848338 -0.13788688 -0.2654136 -0.068073764
000150 b7 36 90 bd 8c 3f 33 3d ef bc 27 3e 9d e1 fb bd
       -0.07041686 0.043761775 0.16380666 -0.12298892
000160 eb 98 9c 3e 45 3f 16 3e 5d 34 2a 3e 87 de 4a 3e
       0.30585417 0.14672573 0.16621538 0.1981145
000170 e4 66 8e bd 6f e6 16 3e 95 78 d5 3d 36 4a ea bd
       -0.069532186 0.14736341 0.1042339 -0.11439936
000180 b0 41 b7 3d a8 45 fc 3d 5a 8c 2b 3e 2d eb f9 3e
       0.08948076 0.123179734 0.16752759 0.48812237
000190 45 53 94 be 26 91 30 bf 32 7a 82 3e 99 73 94 be
       -0.2896978 -0.6897148 0.25483853 -0.28994444
0001a0 19 55 ad be f7 b6 92 bb 2e 92 5c be 29 e2 e1 bc
       -0.33853987 -0.0044773775 -0.21540138 -0.027573662
0001b0 37 ad d1 bd 1d 65 9f be c1 c1 04 be dd fe 6e 3d
       -0.10238116 -0.3113183 -0.12964536 0.058348525
0001c0 e5 70 ab bd eb 33 d4 3d de 44 02 3e 3c 72 f5 3d
       -0.08371142 0.10361465 0.12721583 0.11984679
0001d0 9b b2 9b 3e 2f 36 2d be ee 57 b2 bd e5 40 87 3e
       0.30409703 -0.169152 -0.087081775 0.26416698
0001e0 6b de 3b bd b8 e7 a3 3d 13 83 ca 3d 67 07 57 bd
       -0.04586641 0.08003181 0.09888282 -0.052497294
0001f0 b1 c6 f6 bc fc 67 9c ba 7e 07 43 3e a1 e6 8e 3d
       -0.03012404 -0.0011932845 0.19045827 0.06977583
000200 7b 11 57 be 7f 6a bf 3d 47 6d f1 3c 12 96 52 be
       -0.21002762 0.093464844 0.029471053 -0.2056506
000210 9c ec 54 bd 89 e6 6b 3d 84 ad 52 be 42 4a 89 be
       -0.05198346 0.057592902 -0.20574003 -0.26814467
000220 36 a4 0a 3d 0e 1c 6e 3e 7b fb a3 bd 30 3e 00 bc
       0.03384801 0.2325289 -0.080069505 -0.007827327
000230 97 16 71 bd 49 17 95 3d 29 17 81 bd 39 96 b5 bd
       -0.058859434 0.07279832 -0.063032456 -0.08866543
000240 b6 90 2a be 5d 7a 3b bc d1 f6 96 3d 99 37 c3 3d
       -0.16656765 -0.011442748 0.07371295 0.09532089
000250 5e 61 16 3d 97 58 33 3c 15 18 2d 3d 8a c1 94 3c
       0.03671395 0.010946414 0.042259295 0.018158693
000260 e9 f2 4c 3d 98 b4 82 be 39 25 b5 be fc 9d ae be
       0.050036345 -0.25528407 -0.3537996 -0.34104908
000270 b0 aa 8b 3c f4 07 2f 3d 7b 5a 0f be 54 3e cb bd
       0.017049164 0.042732194 -0.1399936 -0.099239975
000280 30 e2 e9 3d e5 bd 3a be 3f ab 0b 3e 21 c4 92 3e
       0.11420095 -0.18236502 0.13639544 0.2866526
000290 31 cf 03 3e 80 5b 1c 3e 54 80 0d bc f8 d0 6b 3d
       0.12872006 0.1526928 -0.008636553 0.057572335
0002a0 1b f7 ca 3d 13 9a bf bd 66 34 74 3d 67 7d 12 3e
       0.09910413 -0.09355559 0.059620284 0.1430565
0002b0 a6 a2 0f be b7 3f 41 be 1d 51 a2 3d 49 50 07 bd
       -0.14026889 -0.18871962 0.079256274 -0.03303555
0002c0 f5 13 63 be f9 62 23 3e 70 47 8b 3d 0b 20 b5 3d
       -0.22175582 0.15955724 0.06800735 0.08844002
0002d0 00 4b 88 3e 11 6c 81 3e 6d 1c 05 3e 9f 3b 87 bd
       0.2661972 0.2527776 0.12999125 -0.06603169
0002e0 57 7d ae bd 11 1d 4c be ed 74 81 3d 2b 84 c3 3c
       -0.085200004 -0.19932963 0.0632113 0.023866734
0002f0 40 15 14 3d dc ca 9e 3d 24 ac 2c be 7e 88 78 3d
       0.036153078 0.07753536 -0.16862541 0.060677044
000300 6b 76 26 be 36 f6 03 be f7 be 77 3e 13 ff 5d bd
       -0.1625611 -0.12886891 0.24193941 -0.054198336
000310 64 d7 19 bb b0 22 61 3d 20 d6 43 3d a0 ff d3 bd
       -0.002347433 0.05496472 0.047811627 -0.10351491
000320 b2 3b 18 3e 0c 12 98 3d 8c fb 4a bc d7 35 0a 3e
       0.14866522 0.07425317 -0.012389075 0.13497101
000330 36 84 52 bb 36 12 da 3c c8 99 bc 3e 3a c8 d2 3d
       -0.003212226 0.026620012 0.36836076 0.102920964
000340 c1 75 e9 bd f2 8d 9a 3d d6 51 e3 3c ff 90 ca 3c
       -0.11399413 0.07546605 0.027748983 0.024727343
000350 d2 39 de 3d 14 0d 72 be 89 65 9b bd b9 ca 26 bd
       0.10850872 -0.23637801 -0.07587726 -0.040720675
000360 5e 66 d0 bd fb 24 8a 3d dd f0 db bd c6 53 15 be
       -0.10175775 0.06745335 -0.107393004 -0.14582738
000370 37 84 97 3d 55 82 c3 bb 65 91 9c bd f7 67 f7 3c
       0.07398265 -0.0059664645 -0.07644919 0.030200941
000380 4e b2 c6 bd 93 ad af 3d 09 dc 1a 3d e3 fa 91 be
       -0.09701978 0.085780285 0.037807498 -0.28511724
000390 13 f4 5b 3d 57 ab 55 3e d0 43 49 bd 2d c2 50 bd
       0.053699564 0.20866142 -0.049136937 -0.05096643
0003a0 59 32 90 3b 18 03 3d be 7b 24 4b be 26 17 d7 bd
       0.004400533 -0.18458211 -0.19838135 -0.10502462
0003b0 1f 2a e5 be a6 f2 97 bd 8d 71 49 bc 1a e8 1f be
       -0.44758698 -0.074193284 -0.012295139 -0.15615883
0003c0 e1 0e fe 3c 40 0f e3 bc 38 c1 ec bd 26 9c 0f bc
       0.031012954 -0.027717233 -0.11560291 -0.008765256
0003d0 82 48 01 bc 59 eb ab bd e0 97 9b 3a b8 f6 91 3c
       -0.007890822 -0.083944984 0.0011870824 0.01781784
0003e0 bb 10 84 bb c5 ba 2f bd 0c e8 20 bd 31 2c a1 3c
       -0.0040303147 -0.042902727 -0.039283797 0.019674392
0003f0 1d c4 37 be b1 04 0b 3e 2e 6a a2 38 6f ba 84 be
       -0.17945905 0.13576008 7.7445395e-05 -0.25923488

conv5.bias f4 [32]
000000 55 6f 1c ba 7d 7c 34 3a b5 3d 63 b8 37 5f 0a 39
       -0.00059675175 0.0006885005 -5.4178487e-05 0.00013196176
000010 12 8b 45 ba 13 6d 21 3a 40 9c 49 3a 66 1e 13 ba
       -0.00075356767 0.0006157916 0.00076908246 -0.00056121347
000020 c3 85 df 39 12 b7 2f ba 0b a6 81 b9 76 dc 8b b8
       0.00042633535 -0.0006703 -0.0002472851 -6.6691005e-05
000030 8c 15 ab 39 96 47 4e 39 d1 57 b4 39 7f ec 6a b9
       0.00032631715 0.00019672359 0.00034397704 -0.0002240408
000040 ca c9 0f ba 62 fc 65 39 f1 86 85 39 cf 2d 9f 37
       -0.0005485086 0.00021933162 0.00025468276 1.8975608e-05
000050 3a be 18 b8 91 01 1e 3a 12 5d 07 ba 7c 32 35 ba
       -3.6416786e-05 0.0006027455 -0.000516371 -0.0006912125
000060 7b a0 76 39 56 bb 8f b9 3d 28 d9 b9 fa b0 90 38
       0.00023520172 -0.00027414662 -0.00041419445 6.8994195e-05
000070 cd 5e 1f 3a b5 a2 1b b9 65 86 06 3a 09 5d 31 3a
       0.0006079495 -0.00014842565 0.00051317207 0.00067658775

bn5.weight f4 [32]
000000 e5 b3 86 3f 01 a4 25 3f bd 5e 3f 3f 74 fd 68 3f
       1.052365 0.64703375 0.74753934 0.9101174
000010 59 08 4c 3f 00 11 4f 3f 43 9b 5d 3f 16 f4 5a 3f
       0.7970024 0.80885315 0.86565036 0.85528696
000020 0d c0 78 3f 6d 50 23 3f cc eb 51 3f f8 f3 51 3f
       0.97168046 0.63794595 0.8200042 0.8201289
000030 2a 88 4f 3f 6c 18 83 3f 93 19 54 3f d2 0c 62 3f
       0.81067145 1.0241828 0.82851523 0.8830081
000040 97 fb 21 3f b3 c8 4f 3f a2 97 5c 3f d5 63 7e 3f
       0.6327452 0.8116562 0.86168873 0.9937108
000050 b3 8f 21 3f 19 d2 65 3f 11 01 3d 3f 43 b1 52 3f
       0.6310989 0.8977371 0.7382975 0.8230173
000060 da 92 5e 3f e0 b8 36 3f 5a 34 5d 3f 7f 1a 62 3f
       0.8694283 0.71375847 0.8640801 0.8832168
000070 40 c6 9b 3f 22 e4 50 3f 38 44 72 3f 3e 22 81 3f
       1.2169876 0.81598103 0.94635344 1.0088575
