model_weights/Tiny10/CIFAR10/in13-gn13/110000.pt (torch_old, 358762 bytes, 50 tensors)

conv1.weight f4 [16, 3, 3, 3]
00000000: ee03 debd 885d d1bd 3a0f e53d 6580 0fbf
00000010: 8878 c1be e69d d53d 9b20 e6be 1fbd b6be
00000020: 1985 013e 83f9 a83d 35ff a33d 2def c83d
00000030: b0d4 37bd 790c 883d feff 4e3e 9186 323e
00000040: 8569 113e 7723 923e f03f 473e 2bf2 3d3e
00000050: 2966 423e 64eb 393e e4b8 213e 990a c73d
00000060: 0726 c33e 550d b73d 6cff 02bd c4a6 9fbe
00000070: e80c 5dbf 29a0 5abf 6aa2 553e 7844 0bbe
00000080: 250a b8be 0a6a 073f 9b0c a53f 8309 c93e
00000090: fa23 14bf 1da0 a13d e7c1 4a3e 27b5 1dbf
000000a0: 0d0f 80be 687d 5f3e 81d7 c1be 1205 fe3e
000000b0: cd11 153f 3cc3 603f dfb5 993f 1238 8a3e
000000c0: db3f e93e 3b31 393e 5182 f8be 3f97 fdbe
000000d0: a067 0dbf 9f7a 9dbf 2e6d c4be b98a 20bf
000000e0: 33e9 e6bd 5122 83be f952 5cbe 2cbe 3e3d
000000f0: 9da4 633e 6aeb 113f e1b3 ee3e 8a27 94be
00000100: 49ff f6be 54b0 383d a6fc 10be a5a8 d5bd
00000110: c4d3 153e 0f30 893e 5fa3 e93e e808 9c3e
00000120: cbe9 7dbe a5bb fdbe 83d0 473e 4288 67be
00000130: 711e 66be b6f0 6e3e 9160 3b3e 536e a63e
00000140: 549a d03e 574a 423e d0b4 15bf cc71 a53e
00000150: 7670 d83d 949a 05bf 8818 703e bb5d 403e
00000160: d21b 97bc 0dc6 373e efa7 87be c011 43bf
00000170: 1669 1fbe 79e6 453c f6c0 c1be 4ac1 003e
00000180: b564 243e 4642 cf3d bcb1 003e 7e41 1dbd
00000190: 3b52 34bd b448 60bc e847 8c3d 2dc5 a53d
000001a0: 25fd c8bc 5b5e 25be aee1 86bc a6df a4be
000001b0: 7266 86be 058b 1d3f 0972 373f 7f11 b2be
000001c0: 2487 b93f e1fc c13f be91 b2be 6548 3b3e
000001d0: a8d2 f7be 9e4a 2bbe 5af6 84bf 728f e3be
000001e0: bfd3 23bf 013c 7dbf 76e0 7ebe 788b 833e
000001f0: 9066 aebd 41d7 76bd ecc5 0e3f 7462 32be
00000200: a55f 03bf 9b31 123f 1181 7f3e 78c1 38be
00000210: 4e15 123e 4da9 563e 89ab a4be 562e 8e3e
00000220: f55f dabe 229f 84be 6da9 cdbd 62ef 56bf
00000230: 95e3 18bf e6df b8be 5540 4bbf 721a 28bf
00000240: ece1 553e 075f bb3d 71a0 843e fec4 7f3e
00000250: 55c6 793d 9ec4 183e 5389 c53d 747a 41bd
00000260: 4562 cbbd 04af afbe 92d6 58b6 1ec8 963d
00000270: 5e3e fd3d 96c3 f03e 7596 e63e ac76 ca3e
00000280: 0234 1f3f 7a4b 043f 2b6c cabe f6c6 4dbd
00000290: e239 c93e c3a6 3ebf ae39 e63c 1464 1b3f
000002a0: 0beb a93e 5a29 593d ddfe 7bbe e5bf 2cbf
000002b0: 0aa3 783d 16a3 2f3f 7b75 a7bf 1df8 0c3e
000002c0: 6dff 893f b446 d3be 70c5 9d3c 01bc 7e3e
000002d0: 6724 39bf bf07 863d 3a3b 0c3f 9181 9fbf
000002e0: 9df6 963e eb43 893f fe71 c8be 991b 303e
000002f0: 833b 8d3e 1925 6bbd f69b c0bd 0281 87bd
00000300: 6e63 f03c 9af3 243e 861f 893d 9a00 ba3c
00000310: 9299 ec3d d940 ab3d 4c5d 67bd 1fbe 72bd
00000320: d546 53bd 8a06 2e3e 7e1b a33e a747 173e
00000330: 740e fd3d d15c 573e c6e0 a03d eb48 4dbe
00000340: 4ca7 24be bf65 0cbe 2616 a23d 37b1 493e
00000350: 2c02 273d af46 603d 9942 8a3d 0408 f6bc
00000360: 6444 003f 9dfe 993e 1435 413e 02aa 8e3e
00000370: 2397 053d 069c b3bd 39ec 013e 262d f5bd
00000380: b570 52be 1971 eebe eece fcbe 3a33 33be
00000390: f940 13bf b9b7 24bf 7825 c7be bfe6 77be
000003a0: f9db c3be 4b05 83be 4ea3 85be 79e0 1b3e
000003b0: 0320 f5bd 8888 943e e3cf 683f 1e6f 083f
000003c0: de8c 713e a893 593f d059 133f dd75 0b3f
000003d0: da78 c13d f716 b7be a569 933f 85ec 18be
000003e0: cffa 9bbf bb8c c23e 806b 16be b177 c4be
000003f0: 2530 b53e 4395 12be 2588 d0be b1bc b03f
-0.10840593 -0.10222918 0.11184545 -0.5605529 -0.3778727 0.10430507 -0.4494675 -0.35691163
0.12648429 0.082507156 0.08007661 0.09811244 -0.04488057 0.06643004 0.20214841 0.17434146
0.14200409 0.28542683 0.19457984 0.18549411 0.18984284 0.181562 0.15793186 0.09718818
0.3811495 0.0893809 -0.03198187 -0.3118192 -0.8634782 -0.85400635 0.20862737 -0.13600338
-0.3594524 0.5289618 1.2894472 0.3926507 -0.57867396 0.07891867 0.1980053 -0.6160454
-0.25011483 0.21825182 -0.3785973 0.49613243 0.58230287 0.87797904 1.2008628 0.26995903
0.4555653 0.18085186 -0.48536924 -0.49529454 -0.55236244 -1.2303046 -0.38364547 -0.62711674
-0.11274948 -0.2561212 -0.21516027 0.04656808 0.22230764 0.5699984 0.46621612 -0.28936416
-0.48241642 0.045090035 -0.14158878 -0.10432557 0.14631563 0.26794478 0.45632455 0.30475545
-0.24796216 -0.49557224 0.19513135 -0.22610572 -0.2247255 0.23334011 0.18298556 0.32506046
0.40742743 0.18973671 -0.5847902 0.32313383 0.10568325 -0.5218899 0.23446858 0.18785755
-0.018445883 0.17946644 -0.2649531 -0.7619896 -0.15567431 0.012078875 -0.3784253 0.12573734
0.16054042 0.101200625 0.125678 -0.038392536 -0.044023734 -0.013689209 0.068496525 0.08094249
-0.024534771 -0.16149275 -0.016465034 -0.3220188 -0.26250035 0.6154025 0.7165838 -0.34778973
1.4494367 1.5155298 -0.34876817 0.18289335 -0.48402905 -0.16727683 -1.038768 -0.44445378
-0.63994974 -0.98919684 -0.24890313 0.25692344 -0.08515656 -0.060263876 0.55770755 -0.1742037
-0.51317817 0.5710694 0.24951579 -0.18042552 0.1426594 0.2096302 -0.3216212 0.27769727
-0.42651334 -0.2590266 -0.10042081 -0.8395902 -0.5972226 -0.3610832 -0.7939504 -0.6566535
0.20886964 0.091489844 0.25903657 0.2497749 0.06098016 0.14918754 0.09645333 -0.04723592
-0.09930853 -0.34313214 -3.2311405e-06 0.07362388 0.12365411 0.4702422 0.45036665 0.39543664
0.6218873 0.5167767 -0.3953565 -0.050238572 0.39301974 -0.7447321 0.028103676 0.6069958
0.33187136 0.05301795 -0.24608941 -0.6748031 0.06070236 0.68608224 -1.3082727 0.13766523
1.0781075 -0.4126488 0.019259185 0.24876405 -0.7232117 0.06544446 0.5477787 -1.2461416
0.29485026 1.0723852 -0.3914947 0.17198028 0.27584466 -0.057408426 -0.09404747 -0.06616403
0.029344287 0.16108552 0.06695466 0.022705365 0.11552729 0.08361978 -0.05648546 -0.059263345
-0.051581223 0.16994682 0.31856912 0.14773427 0.12356272 0.210315 0.07855372 -0.20047347
-0.16079444 -0.13710688 0.07914381 0.19696508 0.040773556 0.05475491 0.06750984 -0.030033119
0.50104356 0.30077067 0.18867904 0.2786408 0.03261484 -0.087699935 0.12687768 -0.11971502
-0.20550807 -0.46570662 -0.49376625 -0.1750001 -0.57521015 -0.6434284 -0.38895774 -0.24209116
-0.38253763 -0.25589976 -0.26101154 0.15222348 -0.119689964 0.29010415 0.9094221 0.5329455
0.23588893 0.8499093 0.5755892 0.5447672 0.09446879 -0.35759708 1.1516615 -0.14933975
-1.2185916 0.37997994 -0.14689445 -0.38372567 0.35388294 -0.14314751 -0.4072887 1.3807584

conv1.bias f4 [16]
00000000: aaf5 18bb e31a 213b b4f9 043b a4d9 1a3b
00000010: ddad 8cba e35b 0abb 29a3 2f38 bc5e 213a
00000020: c87f 223b 87bc c1ba 2706 c2b9 3b91 bcba
00000030: 073a 25bb 15eb ce3a 6d5c b73a ec87 013a
-0.0023339787 0.0024582676 0.0020290436 0.002362826 -0.0010732968 -0.0021111898 4.1875206e-05 0.0006155779
0.0024795402 -0.0014780917 -0.00037007147 -0.0014386544 -0.002521159 0.0015786613 0.0013989337 0.00049412134

bn1.weight f4 [16]
00000000: 1d75 da3e 6f2a 033f fed6 633f 6723 da3f
00000010: f278 043f 41a1 0b3f 9d44 793f d78f 3a3f
00000020: 5985 ce3e a08e 863f abbf 6d3f 3e94 8b3f
00000030: 2ce9 7b3f b845 2e3f fae8 6c3f 4c06 4e3f
0.42667475 0.51236624 0.8899993 1.7042054 0.5174705 0.5454293 0.9737032 0.7287573
0.4033611 1.0512276 0.9287059 1.0904615 0.9840267 0.6807513 0.92542994 0.8047836

bn1.bias f4 [16]
00000000: 3c41 dd3d 16f4 683f c0d3 ecbd 7b76 dabf
00000010: 6d11 ce3e ed9a 533e 325e 343d c5ca 2ebf
00000020: baa6 c93e 63f6 c23c 7837 8fbe 6ad1 783f
00000030: b89e 693f ac4e 3a3f 5616 9bbf 09b0 753f
0.10803458 0.90997446 -0.115638256 -1.7067407 0.4024767 0.20664568 0.044035144 -0.6827815
0.39385015 0.023799127 -0.27972007 0.9719454 0.9125781 0.72776294 -1.2116191 0.95971733

bn1.running_mean f4 [16]
00000000: 8918 63be 235b 4e3d 1090 65bd a205 8f3e
00000010: a00d 403d 215b d93c 718f 273d 06da 5ebe
00000020: c040 98bd 3894 7c3a 1656 a53e 17f7 f1bc
00000030: 80cd 513d befa 82bd 3558 2fbc a5b1 21bd
-0.22177328 0.050379883 -0.05604559 0.27933985 0.046887994 0.026532711 0.04090828 -0.21762857
-0.07434225 0.00096351234 0.3229224 -0.029536767 0.05122137 -0.063954815 -0.010702183 -0.039476056

bn1.running_var f4 [16]
00000000: 3a6a 4340 a6d2 be3f b9e4 f740 c381 8340
00000010: be57 2d40 0b0c bc40 8781 9441 2ac6 1740
00000020: 1395 3240 540d ab41 00f5 ac40 bb77 1640
00000030: 3d9c 1d40 9a93 9c41 8433 a03f 26e3 e83f
3.0533586 1.4908035 7.7466702 4.10959 2.7084804 5.87647 18.563246 2.37147
2.7903488 21.381508 5.404907 2.3510578 2.462661 19.572071 1.2515721 1.819432

conv2.weight f4 [16, 16, 3, 3]
00000000: 6e73 803e ee31 8d3d a3e4 27be 9c97 f53d
00000010: 86c0 19bd 5a2b 84be 1e07 49bc e7ce c2bd
00000020: 3cbb 79be bf67 f03c f251 ca3e 7dbd 323e
00000030: 6ba9 e73d 47cd 0a3e ce39 9e3b b216 aa3e
00000040: 9ca0 53be f17f 61be e26b 2b3e a987 233e
00000050: 2c56 c43c 4b6b be3d d3c6 8d3d ffc1 333e
00000060: f069 70be 0b1a 60be 2afb cb3c 452c 09be
00000070: 6c63 91bc e3f8 2a3d 6793 21be b653 48bc
00000080: e175 4f3d c9aa e8bd 9f86 32be a073 54be
00000090: 553f 56be aac6 d6bd a097 dbbd 5f91 49bd
000000a0: 644c c4bd df97 c9be c7a8 853e 7459 ff3c
000000b0: 5139 13be 3210 d33d 25e0 aabd a809 f1bd
000000c0: 64f0 44be 5660 c4be d2d9 b2be 08af f0be
000000d0: 6ab2 1cbf ec23 01bf 10a1 593d f4fe 7fbe
000000e0: b573 adbd 4f78 603e ecb6 f6bd b1d7 69be
000000f0: b8b8 a43e 1302 593e 95e6 0c3d 3a4e e4bd
00000100: c2b6 5abd bfdf e4bd f56b 8fbd 6b88 39bd
00000110: 9734 98bd f314 5fbd 5a18 8abd 6de9 80bd
00000120: e0fc 6b3e 3f67 37bd 0c0c 29be f424 83bd
00000130: dba1 a6be 0e61 c6be 23e0 20be dd8d b7be
00000140: 03bb bfbe 2bbc fabd 3891 b4bd 2c0a 18be
00000150: e097 c0bc 4ed5 dfbd 0835 ad3d 841a 943e
00000160: 6ea7 583d a47c e0bd e659 1d3d b9b6 f73d
00000170: d67c 993d 1b2e 12be 512e a4bd eab8 0f3d
00000180: f1db 94be dc68 a0be 4106 b7be c1ec 0fbd
00000190: 35bf 67be f0da 423e 0f8d 02bd 761a 8cbd
000001a0: 6c16 9f3d 0b32 8f3d c80e 623d cd75 3bbd
000001b0: dae9 20be 08de 3d3e 3820 923e 9ef0 a5bd
000001c0: 318e d1bd 4779 473c c59d c63d 5222 283d
000001d0: d62c 91be 1e5b a2bd f87a c7bc 1a2b 253c
000001e0: cb4f 16be 8da0 3fbe a450 a4bc 677a 08bd
000001f0: 1241 213d 4289 ae3e b908 31be 6e74 63be
00000200: f1b9 2abe 5779 a4be ab21 6bbe 52e3 05be
00000210: c5bd 7cbe 8f2a 75be 6147 1fbe 38a5 663e
00000220: 1387 95be 7fff c7bd ebf0 f53d fa62 74be
00000230: 64be 2ebe 6c57 b03d 39c3 c6bd 3d8d b1bb
00000240: 9b18 213d 9f59 5d3d 4083 d5bd 44a3 1ebe
00000250: 6b8f 5bbd 70a8 c5bd 4aa0 82be 4b75 b7bd
00000260: 6acc 10bd 4f5d 993e 1c23 e1bc 8d7e 43be
00000270: 1a7c ad3e 5434 17be f59e a5be 2cf6 023e
00000280: 7dc1 89be 2c79 20be 37cb 8f3e 4119 86bb
00000290: 0f3c dabd 112d 2f3e e295 723d b091 83bc
000002a0: 8ee4 513d e0e1 1a39 8cbf 853d 271b 93be
000002b0: e0a0 10be 0996 06bd 030b 243c 29dd 7d3c
000002c0: d44b d53b 7a51 9b3e abc3 b73d 9920 2ebe
000002d0: 4a01 56be 2875 8e3d 0b50 833e bb08 54be
000002e0: e8eb e4bd edd8 f53d ecbc 8fbd 36f9 2fbe
000002f0: a608 a9bd 1fd3 533e 3306 883e 6cc0 2a3e
00000300: e542 993d 9707 3f3e 68dc ca3d 0792 d7bd
00000310: c99c 6a3d a822 8ebd c385 86bd 4200 b8be
00000320: 7f84 c1be a207 8d3d bd00 1cbe d49d 55be
00000330: 6b98 0a3e baac 2e3e 1286 193e af27 2fbc
00000340: 3fbb 8ebc 3c12 1abd 67b1 3fbe 1d2f 37be
00000350: 3817 05be 6922 89bd beb9 e3bd 086a e1bd
00000360: 9ac0 483d 762a 113c 61db a83a 2ded d5bd
00000370: 795a b8bd c678 90bb 9bb1 e0bd 8e50 09be
00000380: 7e53 3dbd a4bb 3ebd adfd 47be c48f 2abe
00000390: 6310 e2be daea c2be ec07 c4be fc2b 21bf
000003a0: bed0 04bf dd31 13bf 6613 d93b 823b 263d
000003b0: 375b c8bd 592b b2bd e307 3dbe 45d0 16be
000003c0: 3659 06be 15d0 51be 546f 90be 469f 91bc
000003d0: 4135 62bb 4a9f 6a3e ca6a 75bc e574 153c
000003e0: b184 15be 7cce e5bc 165c 28be b12f 01be
000003f0: f9b8 6f3e 488e 503e 584d bd3d ec9a f93c
0.25088066 0.06894289 -0.16395812 0.11991808 -0.03753712 -0.25814325 -0.012269763 -0.0951212
-0.2438783 0.029346345 0.39515644 0.17455097 0.11311611 0.1355487 0.004828668 0.3322044
-0.20666736 -0.22021462 0.16740373 0.15969719 0.023966871 0.09297808 0.06922688 0.17554472
-0.23477912 -0.21884935 0.024900038 -0.13395794 -0.017747603 0.041741263 -0.15778886 -0.0122269895
0.050649527 -0.113607 -0.17434166 -0.20747232 -0.20922597 -0.10487111 -0.107222795 -0.049210902
-0.09584883 -0.3937368 0.2610533 0.031170584 -0.14377333 0.103058234 -0.083435334 -0.1176942
-0.19232327 -0.38354748 -0.3493181 -0.47008538 -0.6120974 -0.5044544 0.053132117 -0.249996
-0.08469335 0.21920894 -0.12046608 -0.22836186 0.3217218 0.21192198 0.034399588 -0.11147733
-0.053396948 -0.11175489 -0.07003013 -0.045296114 -0.07431906 -0.054463338 -0.06742926 -0.062945224
0.23045683 -0.044776198 -0.16508502 -0.064035326 -0.3254536 -0.38745922 -0.15710501 -0.3585042
-0.37447366 -0.122429214 -0.08816761 -0.1484763 -0.02350992 -0.109293565 0.084573805 0.2892648
0.05289405 -0.10961273 0.038415812 0.120953985 0.07494514 -0.142754 -0.08016647 0.035088457
-0.29074052 -0.3133 -0.3574696 -0.035137895 -0.22631533 0.1902883 -0.031872805 -0.068409845
0.077679485 0.06991967 0.055189878 -0.04576664 -0.15714207 0.1854173 0.28540206 -0.08102535
-0.10232199 0.012174911 0.09698061 0.041048355 -0.2835452 -0.079275355 -0.024350628 0.010081077
-0.14678876 -0.18713589 -0.020057984 -0.033319857 0.039368697 0.34089094 -0.17288484 -0.22212383
-0.16672494 -0.32123825 -0.22962062 -0.13074997 -0.24681766 -0.23942016 -0.15554573 0.22523963
-0.29204616 -0.09765529 0.12008842 -0.23865882 -0.17064816 0.086104244 -0.097052045 -0.0054184482
0.039330106 0.054040547 -0.104254246 -0.15491968 -0.05360357 -0.096512675 -0.25512916 -0.08957919
-0.035351194 0.29954 -0.027482562 -0.19091244 0.33883744 -0.14766055 -0.32347837 0.1278922
-0.26905432 -0.15671223 0.28084728 -0.004092366 -0.106559865 0.17107035 0.05922497 -0.01606068
0.051243357 0.0001477073 0.06530675 -0.28731653 -0.14123869 -0.03285793 0.010012391 0.015494623
0.0065092836 0.303356 0.089728676 -0.17004623 -0.20898929 0.069559395 0.25647005 -0.20706455
-0.11177808 0.12004266 -0.07018456 -0.1718491 -0.08253603 0.20686005 0.2656723 0.16674966
0.07483462 0.18655239 0.099053204 -0.105258994 0.05727843 -0.06940204 -0.06568482 -0.35937697
-0.377964 0.068862215 -0.15234657 -0.20860988 0.13534705 0.17058077 0.1499255 -0.010690614
-0.01742327 -0.037615046 -0.18720017 -0.17889066 -0.12997139 -0.06696016 -0.11119412 -0.11006552
0.049011804 0.008860221 0.0012882763 -0.10445628 -0.09001631 -0.0044089286 -0.109713756 -0.13409635
-0.046222202 -0.046565667 -0.19530363 -0.16656405 -0.44153127 -0.38069803 -0.38287294 -0.6295774
-0.51881015 -0.5749796 0.006624627 0.040584095 -0.09783023 -0.08699674 -0.1846004 -0.14727886
-0.13119969 -0.20489533 -0.28209937 -0.017776143 -0.0034516605 0.22912326 -0.014979074 0.009122108
-0.14601399 -0.028052561 -0.16441378 -0.12615849 0.23410405 0.20366776 0.09243268 0.03046938

conv2.bias f4 [16]
00000000: 6580 73ba f12a b5b8 8f73 593a 6fe1 0dba
00000010: aa09 7739 139a c6b9 6f25 0b3a 3a03 e539
00000020: 0c48 f5b9 f65e 8fba 2a50 e839 b3fa d139
00000030: 6973 e5b8 259f 9139 416a a839 98fd 1bba
-0.00092888466 -8.638751e-05 0.00082951126 -0.00054123154 0.00023559356 -0.00037880297 0.0005308007 0.00043680688
-0.0004678372 -0.0010938335 0.00044310215 0.00040050372 -0.00010941068 0.00027775127 0.00032122622 -0.0005950569

bn2.weight f4 [16]
00000000: 9277 3a3f 035f 5a3f ae84 5d3f b410 603f
00000010: 9a2c 5c3f 64ea 6f3f b04b ac3f e7f5 bb3f
00000020: b297 283f 469b 8c3f 353c 963f bbd6 913f
00000030: dc07 603f 3e4b a43f 1661 7c3f dab6 953f
0.728387 0.85301226 0.8653058 0.87525487 0.86005557 0.93717027 1.3460598 1.4684418
0.6585647 1.0984886 1.1737124 1.1393656 0.8751199 1.2835462 0.9858564 1.1696427

bn2.bias f4 [16]
00000000: c4f7 a93e d405 e83e 49bd b63d 8c47 a93e
00000010: e3b4 633f 71c9 f9bd 0c7f a13e 6c95 9ebd
00000020: 2d54 893e 07b4 54be 9a6d 553f 3de2 12be
00000030: 5b89 b03e 5429 8ebe 1ba7 adbe 7de0 d93e
0.33196843 0.45316947 0.08922822 0.33062398 0.88947886 -0.12196625 0.31542242 -0.07743344
0.26822034 -0.207718 0.83370364 -0.14344116 0.34479794 -0.27765906 -0.33916554 0.42554083

bn2.running_mean f4 [16]
00000000: 8a3d 0ec0 7a97 48c0 1ab7 353c bba5 88bf
00000010: 4e2f d9bf 2cd0 df3d c7db 52bf 1d04 b1bd
00000020: b4e7 4e3f 81c9 02c0 90f3 873d 704a 2bbf
00000030: c836 0bbf 3a25 a1bf dfe0 9bbf fbff 98bf
-2.222506 -3.1342454 0.011091018 -1.0675577 -1.6967561 0.109283775 -0.82366604 -0.08643363
0.808223 -2.0435488 0.06638253 -0.6691046 -0.54380465 -1.2589486 -1.2178 -1.1953119

bn2.running_var f4 [16]
00000000: 84b5 3240 1582 8540 1916 1440 f893 2340
00000010: fa55 d040 749d 1240 b68c 0041 a013 9341
00000020: cd5e 3040 443d 7840 e802 9c40 a616 e940
00000030: ad5c 6340 fd71 0441 1e92 b23f 60f5 0241
2.7923288 4.172129 2.3138487 2.5559063 6.510495 2.2908602 8.034353 18.384583
2.7557862 3.8787394 4.875355 7.2840147 3.5525315 8.277829 1.3950841 8.184906

conv3.weight f4 [32, 16, 3, 3]
00000000: 4213 713c 9e4a 24be b746 5ebe eafb 8b3c
00000010: 8fa9 16be 4f4e 9cbe 9f1d 0f3e e32b e83d
00000020: 51b8 0b3d 9043 0fbe 842e 93be 3185 c7be
00000030: 7feb cd3d cd0f 0d3d e993 a3be 9eeb 313d
00000040: 94eb 203e 0a28 4bbd 11a8 953e f2cb 473e
00000050: 649e 85bd f1dd 153e 8969 533e 886f 013e
00000060: a3d6 883a 4750 4e3d 32d9 223e 1607 c53d
00000070: 82b7 703e 365a 45bd 4eb2 ba3d 2766 893e
00000080: 582e 4b3d a0d7 00be 01a3 6dbd c8a8 9fbd
00000090: 50af 2abe 744a c2be 46e8 6bbe c30f 2bbc
000000a0: ec93 78be 8a88 6abe 6da2 713d 00c5 30be
000000b0: e411 adbe f107 39be 58cf 45be aa52 13be
000000c0: 4ecb b8be 9904 c9be 243a c7be 7ecd 9fbe
000000d0: 3730 a6be fba3 b9be d1f6 f5bd 76f9 233e
000000e0: c60a bd3e 9eea 2cbe cc62 e1bd 74da a33d
000000f0: 373d 19be 1922 27be 2915 6fbe 0a5d f63c
00000100: 9b15 8a3d e8c6 6e3d 9c56 093d 41f5 8a3e
00000110: a5a1 023e 68a6 46bd 194c 853c 7980 093d
00000120: e812 e5bd 7df4 bfbe 591e 9bbe 97e8 73bc
00000130: ee0d 35be 8455 82be 41e4 34bd 283b abbd
00000140: 547b 1d3d c731 c73d 83c7 98bc 56d4 a2bd
00000150: 4661 4ebd 3bd2 31bd ccf2 59bc 4483 a2be
00000160: 2a44 14be a4b6 133c b0aa f03d 71ec ec3d
00000170: ff90 f43b e41c b93d 8660 4c3e e250 acbc
00000180: a26e b53d 71b5 213e 1aa7 013e e413 0b3e
00000190: 74c7 773e dd25 403e 874e 5f3e 783c 5b3e
000001a0: 41f5 033e 4b9e 93bc cb94 1bbd 6a71 da3d
000001b0: b755 74bd af42 afbe caef 61be 917c 3e3e
000001c0: 2fd4 a63c 75c8 f0bd e550 a93e a371 853e
000001d0: 513e 663d e078 ea3d 7bd6 f53d c000 98bd
000001e0: 6781 2e3e b566 a43e c96e b93d 939e 443d
000001f0: 6107 a53d f911 06bb 6c3d 4d3e 5eba 393e
00000200: 7fa6 6cbd 2c1a df3d 44e6 923d 7355 1bbe
00000210: b7a5 283d 1655 853d 2aea c9bd 1a3e 1b3c
00000220: 54c8 ce3c c93b be3d 92c0 77bd 4414 b23d
00000230: 8aee d53d 00d0 bdbd 163c e23d 30ab 1b3e
00000240: 7494 603e 93da d13c 89b5 5abd ee92 433e
00000250: 14b9 053e a3e4 cebc a248 403e 8a4a b53d
00000260: 5fcb b5bd 4f3e 073e de88 1a3e 5f91 4e3e
00000270: 8663 263e 5920 033e 5e06 153e 1292 273e
00000280: 695e 2f3e 62fc 0b3e bf78 8abd 84ac e3be
00000290: d8c2 bcbe d590 16be 22ad c8be dc9f cebe
000002a0: 3caf 67be ca60 5ebe b52f e4bd cd1d f3bc
000002b0: b0a1 993c d2cf 153e 8ffc cabd d083 b63d
000002c0: 943c d33d 1d96 db3d 5eee b53e 6530 913e
000002d0: 32c9 f83c 58dd 83be ef9b 90be 10c9 a73e
000002e0: aa3b f2bc cd14 bbbd fba0 803e 2d0e 473e
000002f0: 8153 0c3e c734 4dbe ffa6 bbbd f2bd a0bc
00000300: 269c 46be cc0f 18be e611 6bbd 0786 a63d
00000310: c6c7 223d 8c80 8cbc 1e70 c13d 828a 063e
00000320: 7912 2e3d c6f6 293e 7f83 8a3e 5f67 6c3e
00000330: 45b8 583e 0c3a 853e 0ccd 813e a35f 083e
00000340: 02a0 113d 935d 5e3e 958a 2a3e f560 2c3e
00000350: 8db6 e83e cb33 5b3e 57af a33e 5acf 693e
00000360: 19be 0ebe 9ea0 13be bca4 b5bd 0f97 81bd
00000370: dc57 29be 3871 3bbe a67c 25bc 9cb0 c7bd
00000380: 59b8 2cbe 47c3 4f3e 7335 e43c d71b 73bd
00000390: 9cac f73b 1a0b 363a a06b b93d 7841 1ebe
000003a0: 3845 443c eff2 963d 6bbe e43d f3bd eb3c
000003b0: 7c64 8bbc 2ce3 b53c a121 8ebe b1d0 a4bd
000003c0: e662 81bd 81ab 72be 1b05 3abe c538 67be
000003d0: 4ff0 a9be 5773 e0be 3198 f6be 13c2 2bbf
000003e0: 157d 21bf 8521 eabe 13d1 e2be 7d97 7bbe
000003f0: 5c29 843d 64b7 8f3d 4a33 80bd 7de7 6a3d
0.014714064 -0.16044089 -0.21706663 0.017087895 -0.14713119 -0.30528495 0.13976143 0.11336496
0.034111325 -0.13990617 -0.28746426 -0.38968804 0.10054683 0.034438897 -0.31948784 0.043437593
0.15714866 -0.04959873 0.29229787 0.19511393 -0.06524351 0.14635445 0.20645727 0.12640202
0.0010439943 0.050369527 0.15903166 0.09620492 0.23507503 -0.048181735 0.0911604 0.2683575
0.049604744 -0.12582254 -0.05801678 -0.07795864 -0.16668439 -0.37947428 -0.23037824 -0.01044077
-0.24275178 -0.22903648 0.058992792 -0.1726265 -0.33802712 -0.18069436 -0.19317377 -0.14387003
-0.3609261 -0.3926132 -0.38911545 -0.31211466 -0.3245866 -0.3625792 -0.12009967 0.1601313
0.36922282 -0.16886374 -0.11005172 0.08000651 -0.14964758 -0.16321601 -0.23347916 0.030073661
0.06742402 0.05829516 0.033529863 0.2714024 0.12756975 -0.04849854 0.016271638 0.033569787
-0.11185247 -0.37491217 -0.3029659 -0.014886997 -0.17681095 -0.25455868 -0.044162992 -0.083608925
0.038447693 0.09726291 -0.018649822 -0.07950656 -0.050385736 -0.043413382 -0.013302516 -0.31740773
-0.14479128 0.009015713 0.11751306 0.11568535 0.007463574 0.090387136 0.19958696 -0.021034662
0.08858992 0.1579187 0.126614 0.13581806 0.24197179 0.18764444 0.218073 0.21409786
0.12886526 -0.018019816 -0.037983697 0.10666163 -0.059652057 -0.34230563 -0.22064129 0.18602206
0.020364849 -0.11756984 0.3306953 0.2606326 0.056211773 0.11448836 0.120037995 -0.07422018
0.1704155 0.3210961 0.09054334 0.04800279 0.08058048 -0.002045749 0.20042962 0.181375
-0.05777597 0.10893664 0.07172826 -0.15169315 0.041173663 0.065103695 -0.098591164 0.009475255
0.025242008 0.09288747 -0.060486384 0.086952716 0.10445888 -0.092681885 0.11046617 0.15202022
0.2193163 0.02561692 -0.05339578 0.19099018 0.13058883 -0.025255507 0.18777707 0.08852108
-0.088766806 0.13207363 0.15091273 0.20172642 0.16248903 0.12805308 0.1455321 0.16364315
0.17125858 0.13670495 -0.06761312 -0.44467556 -0.36867404 -0.14703687 -0.3919459 -0.40356338
-0.2262544 -0.2171661 -0.11141912 -0.029677296 0.018753856 0.14630058 -0.09911453 0.0891186
0.10314289 0.10721991 0.35533422 0.28357235 0.030369375 -0.2575481 -0.28243968 0.32770586
-0.029569466 -0.09134827 0.25122818 0.19439001 0.13703729 -0.20039664 -0.09162711 -0.019621823
-0.19395503 -0.14849776 -0.057390116 0.081310324 0.0397413 -0.01715114 0.09445213 0.13138774
0.042498086 0.16598043 0.2705345 0.23086308 0.21164043 0.2602085 0.2535175 0.13317733
0.035552986 0.21715383 0.16654427 0.16833861 0.45451775 0.21406476 0.3196971 0.22833005
-0.13939704 -0.1441674 -0.08869311 -0.0632764 -0.16537422 -0.18304908 -0.010100519 -0.097504824
-0.16867198 0.20289336 0.027857518 -0.059352722 0.0075584184 0.0006944403 0.09053731 -0.15454662
0.011979394 0.07370555 0.11169132 0.028777098 -0.017015688 0.02220305 -0.27760032 -0.08047617
-0.063176915 -0.23698236 -0.1816601 -0.2258025 -0.33191153 -0.43837997 -0.48162988 -0.6709301
-0.63081485 -0.45728698 -0.44300136 -0.24569507 0.06453201 0.07017401 -0.062597826 0.05734967

conv3.bias f4 [32]
00000000: 9630 213a 17f4 c939 5b7d 80ba b2cf 3cb8
00000010: e7eb 67ba 96a1 423a d6d1 5939 39d5 043a
00000020: ae24 e339 968b 53b8 8148 0239 11c9 82ba
00000030: 18d6 1db8 f85d 22ba 9b26 0eb8 c825 8339
00000040: 1d86 093a f24c 1c3a c5ef 8eba 6c65 de39
00000050: 0d4c 81ba 667a 193a 8f35 5bba 884d 84ba
00000060: 8e99 3aba 9193 fbb9 d45d 73ba 2405 b539
00000070: cb30 95b9 49c8 a539 a745 1738 2a37 8f3a
0.00061489025 0.0003851957 -0.0009802984 -4.5016124e-05 -0.0008847103 0.0007424591 0.00020772903 0.0005067173
0.00043324142 -5.043632e-05 0.00012424776 -0.0009978135 -3.7631107e-05 -0.0006193812 -3.3891392e-05 0.00025014416
0.00052461197 0.00059623935 -0.0010905197 0.00042418705 -0.0009864584 0.00058547256 -0.0008362168 -0.0010093907
-0.00071182183 -0.00047984396 -0.0009283696 0.0003452684 -0.00028455848 0.00031620477 3.6066074e-05 0.0010926474

bn3.weight f4 [32]
00000000: e7ac 4a3f dda6 753f 9acb 653f 67ba 253f
00000010: 100a 9a3f 4427 3b3f 8ccd 663f 4c26 803f
00000020: 1a8c 8a3f 3389 463f 819b 9d3f 8d01 693f
00000030: b65b 4a3f d20f 6b3f f4e2 283f cf95 893f
00000040: 4dcd 533f 38c1 4b3f 81ed 4d3f b894 663f
00000050: fa4f 403f ef75 973f 3f79 6b3f f429 463f
00000060: fb91 b43f 824c 503f e2d8 4c3f 3d24 733f
00000070: 6b44 563f bfe8 9e3f 64c5 343f b7c5 5d3f
0.7917008 0.9595774 0.89763796 0.6473755 1.2034321 0.7310679 0.9015739 1.0011687
1.0824006 0.775531 1.2313081 0.9101799 0.7904619 0.91821015 0.65971303 1.0748843
0.8273514 0.79591703 0.8044053 0.90070677 0.75122035 1.1832865 0.9198188 0.77407765
1.410705 0.8136674 0.80018437 0.9497717 0.8369815 1.2414778 0.70613694 0.86629814

bn3.bias f4 [32]
00000000: 9d61 953e cade d63e 9910 3a3d 4165 803e
00000010: 173e 063e fe2c 853e 60fb c6be d07f dabd
00000020: faec c0be 5d48 cebd 2f3a 9abd 95d8 73be
00000030: 7397 273c adcc 17be e250 5a3f 654c 28bf
00000040: d606 27be 3cc5 a939 9be8 cabd 6acc 54be
00000050: d08d 16bd e455 a8be d08b 9fbe 6482 703d
00000060: 0bbe 88be f9b8 153e 2e17 69be e6c5 fb3c
00000070: 93fb 693d 4b9a 84bd 9ea3 243e ea0d b5bd
0.29176036 0.4196685 0.045425985 0.2507725 0.13109623 0.2601089 -0.3886366 -0.106689095
-0.376808 -0.10072396 -0.07530629 -0.23813088 0.010228979 -0.14824171 0.8527967 -0.6574157
-0.16311201 0.00032381143 -0.09907647 -0.20781103 -0.036756337 -0.3287803 -0.31161356 0.0587181
-0.2670749 0.14621343 -0.22762749 0.030734014 0.057124685 -0.064747415 0.1607804 -0.088405445

bn3.running_mean f4 [32]
00000000: db49 a4bf b1fb d13f bd33 8ac0 8f00 f8bf
00000010: 06b8 1cc0 f49c 083f fc05 2a40 e3e8 ffbf
00000020: 3736 35c0 e37b 1fbe e2d3 f3be e022 61be
00000030: 4897 533e 0d9b 75bf 8ab9 203e bf75 96bf
00000040: 2d8d 55bf 1e52 18c0 817f 62bf f5af 8abf
00000050: f595 3ebe 2c9b f43f aa0b 6a3f 9fa1 853e
00000060: 0795 16c0 cb48 913f e867 81bf 8e54 82bd
00000070: af2d cdbe 7128 3bbe 342f 8840 95b2 50c0
-1.2835039 1.6404935 -4.3188157 -1.937517 -2.448732 0.5336449 2.6566153 -1.9992946
-2.831434 -0.15574603 -0.4762259 -0.2198596 0.20663178 -0.95939714 0.15695778 -1.1754683
-0.8341854 -2.380012 -0.88475806 -1.0834948 -0.18611892 1.9109855 0.9142405 0.2609987
-2.352846 1.135034 -1.0109835 -0.06363784 -0.40073916 -0.18277146 4.255762 -3.2608998

bn3.running_var f4 [32]
00000000: 34f4 8b40 f876 b240 dc4a 4e40 4c96 8b40
00000010: 9c14 1541 b810 6240 bbc4 e93f c015 3740
00000020: 4454 5440 746e 1f40 965b 3741 bbaf 1440
00000030: e867 3c40 903c 5d40 26c8 8640 2d9e 4f40
00000040: fa8d 1240 3493 3f40 3f62 0c40 3d8c 5640
00000050: af3d 0540 5c55 9f40 2e96 6440 7d33 1a40
00000060: e093 b240 e369 8040 5674 d83f 6440 9d40
00000070: f82b 5440 d752 1a41 fb89 4040 0688 2940
4.37356 5.5770226 3.223319 4.362097 9.317532 3.5322704 1.8263162 2.8607025
3.3176432 2.4911165 11.45986 2.3232257 2.943842 3.4568214 4.211932 3.2440293
2.2899156 2.9933596 2.1934965 3.3523095 2.0818899 4.97917 3.5716662 2.4093926
5.580551 4.0129256 1.6910503 4.91411 3.3151836 9.645225 3.0084217 2.6489272

conv4.weight f4 [32, 32, 3, 3]
00000000: f86b a73d 1de7 81be 202c 97bd 42c0 1ebd
00000010: 2dc4 373e cc9b 3fbe 5c6c 793c a3ab 5a3e
00000020: 96b2 7b3e 19b1 87bd d1a6 34bd 25fb b53e
00000030: 08c2 2dbd 4701 ad3d 60d7 87bd a8f0 8dbe
00000040: b4fd 5abe 525f 8ebe 0e1d 6dbe 8e11 04be
00000050: 6485 693e 5b68 eb3d b13f 6b3e 8962 c33d
00000060: 5593 59be 2806 09be 0282 f9be 6062 7dbe
00000070: e635 d53d f3ff 353e 1746 553e 2270 8c3d
00000080: 455b 1c3e ae6c 6a3e b491 323e ca5e b83c
00000090: 2c86 8b3d 5d2a 0f3e 0e11 833e 8671 88bd
000000a0: d5db e63c 1f39 9d3e ef14 22be 747c 9dbe
000000b0: f158 303d 55a8 703d 144b cfbc 9f54 f33d
000000c0: 6c5e b53d cff9 df3d 62e0 ed3d a73b 2abd
000000d0: 599d c93d ceb0 24be 4151 823e 4108 b2bd
000000e0: 6f8f ebbd 3d30 4ebe 8339 d4bd dcfd d73d
000000f0: 3500 07be be99 253d 4237 703d a2cb 02be
00000100: a5f2 a4bd 4c07 fbbd 5474 6dbe f1ca a5bc
00000110: 7f6d e23b 7f5f bcbd 13f3 5f3c 4a50 783c
00000120: 5d86 4bb6 ee8e 463e 4bac 3c3d 6fd6 003e
00000130: d33e 0f3d 5284 2d3e cbba d83d 7360 e4bd
00000140: 7330 883e bd82 9c3d f2c5 953d f68b bebc
00000150: b699 00bd 3c4e f6bd 0aa1 b73b e6f1 96be
00000160: d324 54be 4237 8bbe e70a 183d b115 fd3d
00000170: f2a1 c4bd 95a8 56bc fa27 98bd 5ace 04be
00000180: b577 f4bc d5b6 383e 1898 3d3e e36e 453e
00000190: f11f 893e 4778 ebbd da6d 5a3d 4b62 763e
000001a0: 29b2 363e 1d71 5cbe b1b6 debd 8994 473e
000001b0: 4ac6 36be 4eca 873d 08fd 35bd 7280 a03c
000001c0: a69f 0bbe 2860 3abd a6a2 0e3e c8fe 243e
000001d0: 1d98 2f3e ed16 813d 68cb 093e cb2b 1abe
000001e0: e376 603b 774a 81bd ad27 a83d 6e68 4e3e
000001f0: 1f9a 56bd 6e92 df3d d9bc 883d 23d9 2abe
00000200: 30a1 9dbe 3793 a0bd 01ad de3d 5f20 a2bc
00000210: 0bdd 40bd 4f95 133e 2a0f 053e 9bdb 1fbd
00000220: 56d9 66be ed75 88bc 2611 e4bc 884f acbe
00000230: 006a 7dbc 58c7 0cbd 7a12 01bd b744 de3d
00000240: c410 4cbe 1310 b0bd 3b66 92bc 7be3 63bd
00000250: e3b7 c5bd fd20 2ebe 1f90 793d f714 183e
00000260: 458d f13d 9c0e 633d f8bd 26bd 0657 91be
00000270: d08f d1bd d02e 443e 58d9 c33b 6348 a73b
00000280: a64a 91bd fa56 423e 59bb b03d 23c1 3639
00000290: 6554 3cbe 991c f2bc 30ed 543d 28e9 d4bc
000002a0: fd79 f43c f0e3 9abd aadc fc3d 1d0e e9bd
000002b0: 0d99 a9be 579b 02be 2e68 033d e4b3 abbd
000002c0: eb8a 91be 661c bdbd b037 0c3d b9ad 1abe
000002d0: b711 003d 96d2 3e3e 09d7 a23d 08eb 2a3e
000002e0: d114 b73d 62cb 4dbc ae35 8b3e 08cc a3bc
000002f0: 3cf0 383d fd21 1e3e 374c 06bd 5d4c a3bc
00000300: d2cb 433e 93ee 40bc 7f07 4f3e f2d8 163d
00000310: 83d9 cdbd f33c e33c 28db 7abd f956 703e
00000320: 0917 eb3d d5bc 37be 7d34 3abd c78c 553e
00000330: 1832 6ebe bf46 d1be d702 a43d 3df5 a9bc
00000340: d24a 563e 74f4 3d3d c631 023e 5cf6 373a
00000350: 67b5 0f3e c49c ef3e 245b f33c 0ad5 87bd
00000360: 3d3f 943d f587 efbd 999c 3d3e 3ef6 c0bd
00000370: 61e9 8fbb 0cf0 d23b 269e 203e af94 f6bd
00000380: 189b d3be 969f 10be 5ca9 cabd f594 7b3b
00000390: 21c1 f6ba c47e b8bd 0111 f33d 9764 b33e
000003a0: af91 073d e0a6 4d3b 6da4 2ebd 9127 0abd
000003b0: ea1c 2cbe 579b c6bd 9813 a7bd 67ef 7bbd
000003c0: 60b9 373c e7b8 963d 4d8c 7f3d 01aa a7bd
000003d0: 554d 94bd e954 a8bd e35a f4bc 8e96 75bd
000003e0: f9e3 20bd ad8b 10be 6a4a e83c 35e0 533e
000003f0: 68a6 093e 4b91 803e 8f4b 403e d246 9c3e
0.0817489 -0.25371638 -0.07381463 -0.03875757 0.17945929 -0.18711776 0.015223589 0.21354537
0.24579844 -0.066255756 -0.0441044 0.3554317 -0.04242137 0.08447509 -0.066328764 -0.2772267
-0.21385843 -0.278071 -0.23155615 -0.12897322 0.2280479 0.114945136 0.22973515 0.095402785
-0.21247609 -0.13381255 -0.48732 -0.24744558 0.10410671 0.17773418 0.20827518 0.06857325
0.15269192 0.2289302 0.17438394 0.022506136 0.06812701 0.13981004 0.2559895 -0.06662278
0.028180996 0.30707642 -0.15828298 -0.30759013 0.04305357 0.058754284 -0.025304355 0.118813746
0.088559 0.10936319 0.11615063 -0.041560795 0.09844465 -0.1608307 0.25452617 -0.086929806
-0.11501967 -0.20135589 -0.10362532 0.10546467 -0.13183673 0.040429823 0.058646448 -0.12772992
-0.08054093 -0.12257251 -0.23188907 -0.020238372 0.0069100256 -0.09197902 0.013668793 0.015155861
-3.0327567e-06 0.19390461 0.04606275 0.125818 0.034972023 0.16945007 0.10582503 -0.11151209
0.26599464 0.07642124 0.07313146 -0.023260098 -0.03139659 -0.12026641 0.005603914 -0.2948143
-0.20717172 -0.27190596 0.037119772 0.12357653 -0.09601201 -0.0131017165 -0.074295 -0.12969342
-0.029842237 0.18038495 0.1851505 0.19280581 0.26782182 -0.114975505 0.05332742 0.24060933
0.178414 -0.21527524 -0.10874689 0.19490255 -0.17849079 0.066303834 -0.044430763 0.019592497
-0.1363512 -0.045501858 0.13929233 0.16112816 0.1714787 0.06303201 0.134565 -0.15055768
0.003425055 -0.06313031 0.082106926 0.20157024 -0.052393075 0.10916601 0.06676645 -0.16684394
-0.3078704 -0.07840579 0.108728416 -0.019790826 -0.047085803 0.14412425 0.12994066 -0.03902779
-0.22543845 -0.016657794 -0.027840208 -0.33654428 -0.015467167 -0.034369797 -0.03151176 0.1085295
-0.1992827 -0.08596816 -0.017871013 -0.055636864 -0.09654214 -0.17004772 0.06092846 0.14851747
0.11794523 0.055433854 -0.040708512 -0.28386706 -0.10232508 0.19158483 0.005976837 0.0051050647
-0.07094316 0.18978491 0.08629484 0.00017428822 -0.18391569 -0.029554652 0.051984012 -0.025990084
0.029843325 -0.07563007 0.12346776 -0.11379645 -0.3312458 -0.1275457 0.032081775 -0.08383921
-0.28426298 -0.09233932 0.034232795 -0.15105332 0.031266894 0.1863502 0.07951171 0.1669122
0.08939517 -0.012560697 0.27189392 -0.01999475 0.04515098 0.15442653 -0.032787528 -0.019933874
0.1912072 -0.0117756305 0.20217703 0.03682799 -0.10051253 0.027739024 -0.06124416 0.23470677
0.11479003 -0.17943127 -0.045460213 0.20854484 -0.23261297 -0.40874287 0.08008354 -0.020746822
0.20926979 0.046375707 0.127143 0.00070176064 0.14034043 0.4679929 0.029706545 -0.06632431
0.07238624 -0.116958536 0.18516769 -0.09421967 -0.0043918346 0.006437307 0.15685329 -0.12040078
-0.41329265 -0.14123377 -0.09895584 0.0038388346 -0.0018825867 -0.090085536 0.118684776 0.3503768
0.03309792 0.0031379983 -0.042637277 -0.03372914 -0.16807905 -0.096975975 -0.08158034 -0.06150761
0.01121363 0.07359486 0.06238966 -0.081867225 -0.072413124 -0.0821932 -0.029828494 -0.059958033
-0.03927991 -0.14115782 0.028355796 0.20690997 0.13442385 0.2511085 0.18778823 0.30522782

conv4.bias f4 [32]
00000000: 764f 243a 1c35 1939 e462 43ba 328b ffb8
00000010: e489 0f3a 1f85 c6b9 56c1 f5b9 e07d 1f3a
00000020: 5e0b b2b9 c018 0f3a 140a 22ba 2c5f 5139
00000030: b05a 0f3a 7368 68b7 e89d 143a 72ba 063a
00000040: c142 fab9 d4d1 c539 2070 7c39 2aea e4b9
00000050: 3614 fbb9 e623 ec39 aa82 103a d7e5 42ba
00000060: 35b9 233a 2412 49ba 23fa deb9 a5d1 2d3a
00000070: 7cc5 f6b9 d766 4a3a 6666 1e3a a975 46ba
0.0006267944 0.00014611002 -0.00074533955 -0.00012185275 0.00054755644 -0.00037864686 -0.00046874088 0.00060841255
-0.00033959275 0.0005458705 -0.00061813113 0.00019967247 0.00054685306 -1.3852597e-05 0.0005669282 0.0005139477
-0.0004773345 0.00037731102 0.00024074363 -0.00043662015 -0.0004788951 0.00045040174 0.00055126345 -0.00074347615
0.00062455545 -0.00076702447 -0.00042529506 0.0006630666 -0.00047067914 0.0007721013 0.000604248 -0.00075706333

bn4.weight f4 [32]
00000000: c152 4f3f 53e3 7b3f e932 803f e56b 713f
00000010: be12 7b3f 488b 583f c996 683f 3f43 563f
00000020: 4b0c 353f c68c 743f 30c8 423f bda5 613f
00000030: bd3d 723f b623 ab3f e8ff 4b3f 5831 803f
00000040: b483 9a3f 1735 523f cce2 8d3f 9841 653f
00000050: b4a6 713f c291 3b3f b60f 403f 45b8 a73f
00000060: 9f4f 993f c148 7d3f 5a10 8c3f be03 423f
00000070: 58c9 243f 7183 803f 5caa 583f cbaf 293f
0.8098565 0.98393744 1.0015537 0.9430526 0.98075473 0.84587526 0.9085508 0.8369636
0.7072188 0.95527303 0.7608671 0.8814352 0.94625455 1.3370273 0.79687357 1.0015059
1.2071443 0.8211226 1.1084838 0.89553213 0.94394994 0.73269284 0.75023973 1.310311
1.1977423 0.9893914 1.094249 0.7578696 0.64369726 1.0040113 0.8463495 0.66283864

bn4.bias f4 [32]
00000000: 256d 19be 027a bebe 6d61 bd3d e615 c5be
00000010: 651e 233d 0640 883e b8bd 003d 5fde 4b3d
00000020: ee56 2e3e a485 a9be 1a4e 863e 7b83 28bd
00000030: 7408 dbbd c61b 38bf 9a45 f73d c998 7abe
00000040: 96f4 c1be e749 22be 63e6 0abe ae22 14be
00000050: 8ee4 71be 3bc5 d43e f768 cc3d c0c9 67bf
00000060: e552 dbbe 186d f5bc d028 ee3d ea98 503e
00000070: eee3 d13e df00 353d e4ba c43b 3fc7 f43e
-0.14983042 -0.3720246 0.09247098 -0.3849327 0.03982391 0.26611346 0.03143093 0.049772616
0.17025349 -0.33109772 0.26231462 -0.041141015 -0.10694972 -0.7191738 0.12073822 -0.24472345
-0.37881917 -0.15848504 -0.13564448 -0.14466354 -0.23622343 0.41556725 0.09980958 -0.9054222
-0.4283668 -0.029959247 0.11628878 0.20370832 0.4099421 0.044190284 0.0060037244 0.47808263

bn4.running_mean f4 [32]
00000000: bda2 8c3d 5d78 11c0 6170 9ebf fc9d eebf
00000010: b40e 3a3f 2e73 2a3f 9ca0 4bbf 11ea 91bf
00000020: 441d d53f 54df b73f 0612 1fc0 7257 0ec0
00000030: e4c0 afbf 013c 0dc0 2f98 9bbf a95b 05c0
00000040: 075b b9bf 50bc 1c40 be58 3dbe 656c 17bd
00000050: d525 7bbe 8c90 6abf b508 bebf 084b 0dbf
00000060: 8102 5fbf 30d1 6f3e 16d3 8cc0 a5cb 0f40
00000070: b8a5 9c3f 02f1 e6bf c1d0 b2bf 3e71 113e
0.06866977 -2.2729714 -1.2378045 -1.8641963 0.72678685 0.66582 -0.79541945 -1.1399556
1.6649556 1.4365029 -2.485475 -2.2240872 -1.373074 -2.2067873 -1.2155818 -2.0837195
-1.4480904 2.4489937 -0.18490884 -0.036968607 -0.2452615 -0.9162681 -1.4846407 -0.55192614
-0.87113196 0.23419642 -4.4007673 2.2468045 1.2238073 -1.80423 -1.3969957 0.14203355

bn4.running_var f4 [32]
00000000: c6b0 1c40 a8ce 4e40 651b 6f40 b085 2c40
00000010: eee3 8e40 e574 8640 0b25 9240 7bc1 3240
00000020: 7f63 5940 67d9 2840 1c1a 7c40 cfd6 a740
00000030: c633 8640 6bf9 8640 8613 5940 44c9 3840
00000040: e06d 8a40 38d4 5640 7bc3 8740 03c2 4540
00000050: ded8 4a40 3e21 8140 bfef 8540 21a2 3d40
00000060: a420 7e40 749a 7f40 1eab da40 17c4 9840
00000070: 8fd6 6540 c364 7940 4128 7d40 1036 4f40
2.4482894 3.2313633 3.736047 2.6956596 4.4653234 4.2017694 4.567022 2.793059
3.3966978 2.6382692 3.9390936 5.2449718 4.19382 4.2179465 3.3918166 2.8872843
4.3259125 3.3567028 4.2426124 3.0899665 3.1694865 4.035308 4.185516 2.9630206
3.9707422 3.993802 6.8333883 4.7739367 3.5912206 3.896775 3.955582 3.2376747

conv5.weight f4 [32, 32, 3, 3]
00000000: 8846 2cbe 0829 52be 089f 11bd f1f8 0e3e
00000010: aff3 a23e 707f f2bb 77f4 5d3c efec 643d
00000020: 31c0 09bd a9ac 333d 9b0c 71bc 46d9 9abe
00000030: 819d ae3d 5319 ec3d 079b 00be 2b5e 763e
00000040: 5307 0b3e bd78 753e c121 c1bd 7bd4 5cbe
00000050: ad0f debe 8de3 8cbc daf3 65be 3b95 4bbe
00000060: 37fd 443e 529f 20bd 5f9a 033d 1422 86bd
00000070: 74df bcbd 5da9 1bbe c954 4abe 23c5 243d
00000080: 18c1 7a3c 4f9d b1bd e59f 123e 9d06 383d
00000090: 07f4 963c 6942 29be ab2f 03be 6830 11bc
000000a0: b42b c3bd 5588 203d 06cb 0cbe f06c 84be
000000b0: 3728 f4bd 9063 523e 98e9 8d3e cdbb 653e
000000c0: bf5c a83e 5d6a 393e 932a e53c e28a f5bc
000000d0: ea5c a3be 9e97 5ebe 036e 31be 6528 94bd
000000e0: d0ba ae3c 2ba7 3ebe f736 013d e8e4 c4bc
000000f0: 711e 92bc eabb 9d3e d0b3 fc3d c414 6f3e
00000100: 89d0 343d 5fbf 70be 080b 0d3d 2c61 0c3e
00000110: d54a 03bc d8d0 a4bd 64b3 c0bc c6ca e4bd
00000120: 592f 78be 3bad 1cbe cbe1 35bd b488 93bd
00000130: 472a 5d3d 35f4 153e 19a7 233d 3c21 083e
00000140: 6a41 633c a239 603d 110e ddbe 5f39 03bf
00000150: c50c d9bd 9d9e 36be c020 54bc 4b4f 2fbe
00000160: 0d42 1e3c acbe ba3d e5d2 233e 9ee4 51bd
00000170: 3635 363d db7b f53d fd41 18be aad7 c43d
00000180: b516 ec3d 750b 763d 40c1 5c3e ad05 cd3d
00000190: 1df4 22be ad2d a4be 0a67 553d 9b1d d3bd
000001a0: c4ed 40be 0e90 65be 4fca 07be 2815 95bd
000001b0: b0e3 e83e 2aab 213e 2ce4 54bd 67a8 933d
000001c0: 6c85 26bd 16e5 29be cf60 44bd be02 72bd
000001d0: dbd4 43be 1900 7a3d 88ad c53d 5f10 0e3e
000001e0: 637c 933c ccf2 f03d 9c05 b53d 15b4 4abc
000001f0: 4c45 183e 7a1a 02be 6d9c 3e3e d236 a83e
00000200: 96d1 6d3e bacc 083d 806e 823d 8bd9 f5bd
00000210: f9e9 8a3d 2e6d e93d 8e51 9bbe c893 0abe
00000220: 8c11 1cbe a53a 20bd 2cdc 72bd 9332 1fbe
00000230: 061c 873d c89b dcbd b38f a4bd 4b12 223e
00000240: d3dd 4bbe 47d1 83be 3a60 51be fc15 df3d
00000250: 2a65 1fbd 0bd0 8e3d 2908 95bd 4dfd 9ebd
00000260: d39c 7d3d 6178 c1bc 370d 1f3d 7057 c73d
00000270: 5f6d 0ebd fc8a dfbd 2b5a 7cbe 7963 d8bd
00000280: d235 20bc 0533 16bc 71a1 d83d 715b 13bc
00000290: 4a18 d73e 2c2a 14be 4df4 58bb 712b 6f3d
000002a0: 2140 82bc c92d 0a3e c2bf 82bb ae95 0fbd
000002b0: f602 e5bd 582f 8b3c 6ae8 063e 7e74 bebc
000002c0: dca6 f4bd 4854 a23c 85e4 60bc 257d 52bc
000002d0: 2eb4 cb3d c461 723e c961 4d3e 3366 81bd
000002e0: 913b 05be 3edc f63c 720f 93bd 3840 11be
000002f0: a578 bebc c5bf a63d fc96 46be 513d b6bd
00000300: 5dce 0dbc 1458 903d 79cf f03d 421b 6dbd
00000310: b76f f53c c269 a43d 64f7 263d 1ded 20bd
00000320: c915 85be 16a3 653d c187 553d 553b 09bd
00000330: 0958 dc3d 612a 563d b45a 57bd ce2b f53d
00000340: 1e96 3dbe c395 653d ef74 f83d 22c2 a13d
00000350: 8841 f3bc d6ba 24bd b1f8 aebd bf6b 81bc
00000360: 0fac 193e 3e9c cf3e 08af 373e 9dfd a5bb
00000370: 75c7 743e 15df fabd d365 0fbe ab5a f93c
00000380: cdb0 11bb bce1 993d f769 bc3d 50cc e73d
00000390: 3b92 5cbe b7f6 1ebe cb12 12be 7a6f 9ebe
000003a0: 5597 f3bd f33c 67be f90a 803e 654f a2bd
000003b0: 6de9 c6bd 3a3e 3a3e e275 363e 397a 44bc
000003c0: c4e6 013e ae19 9b3b 5dbb e43c 9d94 94bc
000003d0: cc39 413e ec8b 4b3e 077a 08bd c11c 603e
000003e0: ef52 7f3e 389e 173c ce61 773c 07f4 4e3e
000003f0: b48e f4bb f8f8 86be d65e 9bbe 68c7 1abe
-0.1682378 -0.20523465 -0.035552055 0.13962151 0.3182654 -0.0074004456 0.0135470545 0.05589002
-0.033630554 0.043865833 -0.014712478 -0.3024389 0.08526135 0.11528268 -0.12559138 0.2405936
0.13577013 0.23971839 -0.09430266 -0.2156543 -0.43371335 -0.017198348 -0.22456303 -0.19881146
0.19237219 -0.03921444 0.03212964 -0.06549469 -0.09222308 -0.15201326 -0.19758905 0.040227067
0.015304826 -0.08672582 0.14318807 0.044928182 0.018426908 -0.1652924 -0.12811153 -0.008861639
-0.0952982 0.039192516 -0.13749322 -0.25864363 -0.11921733 0.20545793 0.2771728 0.22434922
0.3288326 0.1810698 0.027974403 -0.029973451 -0.31906825 -0.21737525 -0.17327122 -0.07234267
0.021329314 -0.18618457 0.03154656 -0.024034932 -0.017836781 0.3080743 0.12338984 0.23347765
0.044144187 -0.23510502 0.03443435 0.13708943 -0.008013447 -0.08047646 -0.02352304 -0.111714885
-0.24236812 -0.15300457 -0.044404786 -0.072038084 0.053995397 0.14643939 0.03995428 0.13293928
0.013870576 0.054742463 -0.43174794 -0.51259416 -0.10598139 -0.17833944 -0.012947261 -0.17120092
0.009659302 0.09118399 0.15998419 -0.051243417 0.04448434 0.11986514 -0.14868923 0.09611447
0.115277685 0.06006952 0.21558094 0.10010848 -0.15913434 -0.32066098 0.05210022 -0.10308381
-0.188407 -0.22418234 -0.13260768 -0.07279426 0.45486212 0.1578795 -0.051975414 0.072098546
-0.040654585 -0.16591296 -0.047943886 -0.059084646 -0.19124167 0.06103525 0.09652239 0.13873433
0.018003648 0.1176506 0.088389605 -0.012372036 0.14870185 -0.12705413 0.18614359 0.32854325
0.23224482 0.033398367 0.063687325 -0.12004384 0.06782908 0.113977775 -0.3033566 -0.13532937
-0.15241069 -0.039118428 -0.059292004 -0.15546636 0.06597142 -0.107719004 -0.08035221 0.1582729
-0.19908838 -0.25745603 -0.20446864 0.10892865 -0.038914837 0.06973275 -0.07276947 -0.07763157
0.061917137 -0.023616971 0.038830962 0.09733474 -0.034772273 -0.10915181 -0.24643771 -0.10565848
-0.009778457 -0.009167437 0.105776675 -0.008993969 0.4201072 -0.14469212 -0.00331046 0.05839104
-0.01589972 0.13494028 -0.0039901445 -0.035054855 -0.111822054 0.016990349 0.13174596 -0.023248907
-0.119458884 0.019815579 -0.013726358 -0.01284722 0.09946476 0.23670107 0.20056833 -0.06318321
-0.13011004 0.030134317 -0.0718068 -0.14184654 -0.023250887 0.08142046 -0.19393533 -0.08898414
-0.008655158 0.070480496 0.11758322 -0.057887323 0.029960496 0.08027984 0.040763274 -0.03928863
-0.25993183 0.056063734 0.05213142 -0.03350385 0.10758979 0.05228651 -0.052576736 0.11971246
-0.18514296 0.056051027 0.12131678 0.07898356 -0.029694334 -0.040217243 -0.08543528 -0.015798448
0.15007041 0.4054889 0.17937863 -0.0050656334 0.23904212 -0.12249581 -0.14003687 0.030438742
-0.0022230626 0.075137585 0.09199899 0.113182664 -0.21540157 -0.15523802 -0.14264981 -0.30944425
-0.11894099 -0.22581844 0.2500837 -0.079252996 -0.09712491 0.181878 0.17818406 -0.011992031
0.12685686 0.004733286 0.027921373 -0.01813727 0.18869704 0.19877595 -0.0333195 0.21885969
0.2493398 0.009254031 0.015099002 0.20210277 -0.0074633006 -0.26361823 -0.30345792 -0.1511513

conv5.bias f4 [32]
00000000: dc00 183a 7cae 91b9 aac1 db39 a80a 2bba
00000010: 7948 0439 5c8b 2fba 66b3 4ab9 dac5 0cb9
00000020: 2ce0 f6b9 a11a b6b9 36a1 e2b7 cc33 3a3a
00000030: 4762 ed39 6daf 493a b634 40ba c35a 36b8
00000040: faf0 09ba 2085 e839 e3b3 cd39 1b6e 453a
00000050: 62ad b7b9 747c 9937 7613 423a 0e0a f739
00000060: 2c38 d739 9940 2dba 5446 bab9 f8a9 2cba
00000070: 06e4 e538 7fe8 bab9 0b03 84b9 61b1 d039
0.0005798468 -0.00027786556 0.00041915226 -0.000652472 0.00012615499 -0.00066964864 -0.00019331052 -0.00013425146
-0.00047087797 -0.00034733585 -2.701637e-05 0.0007103055 0.00045277385 0.0007693682 -0.00073320733 -4.347671e-05
-0.00052620436 0.00044349674 0.00039234673 0.00075313606 -0.0003503366 1.8296974e-05 0.00074034126 0.00047119003
0.00041049847 -0.0006609052 -0.00035529083 -0.00065866066 0.000109620436 -0.00035649908 -0.0002517927 0.0003980501

bn5.weight f4 [32]
00000000: 0358 953f e921 883f 2c6b 383f c8b4 233f
00000010: 1718 823f fa08 703f 8cdb 553f 53af 573f
00000020: 51bf 753f 5802 3d3f c31c 3a3f 4ecf 6f3f
00000030: fdd5 433f 61c2 7a3f abe2 483f 1e14 713f
00000040: d3ad 5a3f 7a84 853f 6a0a 473f e2b7 663f
00000050: c513 513f af04 3e3f d575 7f3f d9fe 563f
00000060: 00ef 4b3f 3a4e 543f 2a7f 8b3f d0f2 4b3f
00000070: dbf5 1c3f c673 423f e1cc 753f d154 3e3f
1.1667484 1.0635349 0.7203853 0.63947725 1.0163602 0.937637 0.83538127 0.842519
0.9599505 0.738317 0.72700137 0.93675697 0.76498395 0.9795285 0.7847087 0.9417132
0.85421485 1.0431054 0.77750266 0.9012433 0.8167079 0.74225897 0.9978917 0.83982617
0.7966156 0.82931864 1.0898182 0.7966738 0.61312646 0.75957906 0.96015745 0.7434817

bn5.bias f4 [32]
00000000: d4af 1fbf 4cca e43e e85b ce3e 8832 293f
00000010: ad07 eabd 1f86 35be 9034 073d 724f 7f3d
00000020: 3c55 5bbe 1338 bb3e f1f5 c43e aded 3dbe
00000030: 7f7c b53e b807 86bd 91f2 063f 896f 03be
00000040: 30ec 883e 2f2c a2be ea0e d93e 0fe5 9abc
00000050: 8788 5a3e 4014 c93e 9975 9bbe fd89 f13b
00000060: 1b27 b73e 03fa fdbc 9e4e 07bf a260 d03e
00000070: 733b 273f cb48 6b3e 3e08 72be 9c84 dd3e
-0.6237767 0.4468559 0.40304494 0.6609273 -0.11427245 -0.17726944 0.033009112 0.062331624
-0.21419233 0.3656622 0.38468888 -0.18547697 0.35446545 -0.06544441 0.52713877 -0.12835516
0.26742697 -0.31674334 0.4239419 -0.018908052 0.21341144 0.39273262 -0.30363157 0.007371186
0.35772023 -0.031003004 -0.52854335 0.40698725 0.6532509 0.22976987 -0.23635957 0.43265235

bn5.running_mean f4 [32]
00000000: 341f 2dbf 6f96 afbe 9b53 a1bf 3f29 73bf
00000010: 6deb f9be 5ea0 17c0 729a d5bf bbe2 bbbe
00000020: 1255 213f cf55 1e3e 9179 b140 378b 35bf
00000030: 6810 a0be 70f1 893e 0271 0fc0 79e7 fbbd
00000040: c4e1 16c0 5dc6 0ec0 c4ec 8f40 184b 8c40
00000050: 8ea9 24bf 12e1 68c0 9a32 a03e f13c d7be
00000060: 34b3 50bd e110 a7bf a0a1 2cc0 8810 61c0
00000070: 8ced 543f 2c65 033f 2e66 55c0 dbf2 b0bd
-0.6762574 -0.3429446 -1.2603639 -0.9498481 -0.48812428 -2.369163 -1.6687758 -0.3669642
0.6302043 0.15462421 5.5460896 -0.7091555 -0.31262517 0.26942015 -2.2412724 -0.12300009
-2.3575296 -2.2308571 4.497652 4.3841667 -0.6432122 -3.6387372 0.31288606 -0.42038682
-0.05095215 -1.3052026 -2.6973648 -3.516634 0.8317497 0.5132625 -3.3343616 -0.08640071

bn5.running_var f4 [32]
00000000: 1cb5 4a40 d8c3 8a40 1f4b 6f40 203a 4440
00000010: 1fd2 8740 1f0b 6140 8c14 5340 48ac 4640
00000020: 3caa 4540 1dbf 4940 0ca8 4d40 f501 4c40
00000030: 2b52 8b40 f38d 7140 7052 8140 d8ab 7040
00000040: f945 8340 14d3 8240 8b76 a140 716f 6d40
00000050: a66b 6a40 ad90 6640 db42 5b40 2f62 5740
00000060: fc27 8e40 726e 5440 dd1b 5c40 a98e 9f40
00000070: 62aa 3c40 df99 4640 08b3 4040 3090 4240
3.167304 4.3364067 3.73896 3.0660477 4.2443995 3.5163038 3.298129 3.1042652
3.0885153 3.1522896 3.2133818 3.1876194 4.3537803 3.774289 4.041313 3.7604885
4.1022916 4.0882664 5.0457206 3.7099268 3.6628203 3.6025803 3.4259555 3.3653677
4.442381 3.319241 3.4392006 4.9861646 2.9478993 3.1031415 3.0109272 3.0400505
