model_weights/Tiny10/CIFAR10/in2-gn2/110000.pt (torch_old, 358762 bytes, 50 tensors)

conv1.weight f4 [16, 3, 3, 3]
00000000: f6ec 94bf 97bb 3bbf acb1 163e 8406 67bf
00000010: c67e 663e c77d 703f a547 a0bd 6dff 7d3f
00000020: b5b8 273f 3bb3 843e 5768 c73d 6eee 0ebe
00000030: b2ce 7e3d f1c1 12be 2695 29be 52c5 0a3c
00000040: 8007 08bd 9bba d8bd 14f8 3f3f 507f 373f
00000050: 128c 74bd 45c5 223f 8ade 68bd 2968 11bf
00000060: 6df3 563d a0bf 2abf 878e 48bf e4a2 033e
00000070: 609e a9be 5dbd 2ebe e7e9 e3bc acfe a3be
00000080: cac1 6dbc 99b9 2e3f 34bc f23e 32c7 6e3e
00000090: bb70 35be 3a26 16bf bcae 49be 4174 2fbf
000000a0: b3b1 80bf 1419 b1be de8c b33d 189a 9cbe
000000b0: 65be 13be 1c35 be3e 74d6 d23e 3331 1c3f
000000c0: af66 453d 7c7e cc3d d182 e93e fd78 a53e
000000d0: b09a 883e c7e5 833e 334a 1abf 1219 8e3f
000000e0: 1e34 143e dedf a43f e748 bbbf c2f9 0b3f
000000f0: e256 7bbf 8f87 50bd f804 6b3e b578 afbe
00000100: 92e8 f1be 6dec 22bf 8dae 0240 cdcd f3bf
00000110: 57d6 083e 9185 f93e e05d 1c3f 3ae3 473b
00000120: a43e d3be fb69 0e3f 09f5 d63e e20b 1a3f
00000130: 56aa 88bf bdde cc3e 8c6d 09bf 4e72 28bd
00000140: 0ca4 1a3d a0d7 3e3f cbac 053e 28ac c6bd
00000150: 5370 543e 8b69 20bf 65e2 21bf e842 47be
00000160: e75e 85bf 1863 39bf b73d c3bd 9b27 a93d
00000170: a266 98bd d322 c1bc 78b1 463e 9d84 c73d
00000180: db5a 46bd 74e6 e63c 7273 343e 08c8 27bf
00000190: d8d5 e4bd a598 11be 81bf 3bbd 1c5a 2a3f
000001a0: 53af 1c3f 155f 243e 283c 183f b857 423f
000001b0: 3fee 853e 306e a73e d3e8 1e3e e74c 013e
000001c0: 56cb f9be 7fb0 19bf b6c7 133f bbf0 b63d
000001d0: 3e35 ddbe 6b32 ef3e c0e5 cd3e 68a7 363e
000001e0: d983 423e 47d7 f6be d359 10bf 411c 463f
000001f0: 7c25 cb3c 284d 20bf c62a 293e b4b7 bc3e
00000200: 4fd3 ec3e fee9 a0bd aace 07bf 5807 bcbe
00000210: 60eb db3e e350 3cbe fead 25bf 95bf 6f3e
00000220: 571b cf3e eedb 8fbe fd11 c13e 169d ce3d
00000230: 7239 34bd 0991 853d 1cac 52be a294 993d
00000240: 0072 bebe 3992 93bd e789 7f3e c361 00bf
00000250: c86b 46bf 586d a63d ab38 c5be 1531 5dbf
00000260: 5ffd bf3d a6ab 44bd 4e8b a23e 1471 4abc
00000270: 6eec d33d bf87 253d dbe1 803e 1a35 c13b
00000280: 74a0 8fbe 40c4 5e3e 6cb4 d9be 8839 3fbf
00000290: 8795 66be 1204 2ebe 561f b0be 96b1 10be
000002a0: d7c5 e93e ba3b 3c3f 1401 be3e b98a 49bd
000002b0: 7741 e6be 4b98 c5bd fc1c 813d 5003 96be
000002c0: d9d3 68be 1970 4e3f af15 5d3f f083 b33e
000002d0: 2e33 e9be 2595 4bbf 5094 75bd e1e0 ccbe
000002e0: ed6d 21bf 7cce 5abe 129a 0b3f 38a7 3e3f
000002f0: 560b 063f 489e 013f 7e9b 363f 9178 c9be
00000300: 99f6 2b3f 38ee 8e3f cbf6 78be 907d 11bd
00000310: 57ad 523f b135 d9be b70b 17bf 0702 23bf
00000320: 1f40 593d a382 3cbf 2bd1 3ebf f542 aebd
00000330: a5d1 bdbe 7999 72bb a38d b13e fbe7 4c3e
00000340: 1da3 733e 05ee 823e 4f16 f4bc c2e0 2abc
00000350: 818f 86bd 4efd 85be 2376 b23d 6a73 ccbd
00000360: 9baf 493c bd18 f2bd fdfa 6b3e 61da 96bd
00000370: 0c9b be3e b048 2b3f 1e22 9cbe 2197 d5be
00000380: 2fbe a5be 3c5e 3fbf 74d5 d2be 3ee6 9e3e
00000390: 2a78 25bf 6bb1 9f3e be40 883f c098 0bbf
000003a0: c835 33be 999c bb3e ca47 4ebf 24bf 07bf
000003b0: 7a93 2e3e 30aa 27bf 1041 ce3e 99c4 a03f
000003c0: 474b debe f01e 583e 106e 513f e595 d0be
000003d0: 21bd 85be f51d 99bd f3bb 97bd 68db f23d
000003e0: 564d 42bd 47d8 dd3d b56d f13e ed6b 273e
000003f0: 8aca bebe 48d9 95be f0ea 2abe 97fc b63d
-1.1634815 -0.73333114 0.14716214 -0.9024432 0.22509298 0.9394192 -0.07826165 0.99217874
0.65516216 0.25917992 0.09736698 -0.13958141 0.06220884 -0.14331795 -0.16560802 0.008469896
-0.033210278 -0.10582467 0.7498791 0.7167864 -0.059703894 0.6358226 -0.056852855 -0.5679956
0.052478243 -0.66698647 -0.7834248 0.12855107 -0.33128643 -0.17064424 -0.027821494 -0.32030237
-0.014511535 0.6825195 0.47409213 0.23318174 -0.17718785 -0.5865208 -0.19695562 -0.68536764
-1.005423 -0.34589446 0.08767103 -0.30586314 -0.14428098 0.37149894 0.4117924 0.6101257
0.04819363 0.099850625 0.45607617 0.3231887 0.26680517 0.25761244 -0.6026947 1.1101401
0.14473006 1.2880819 -1.4631623 0.54677975 -0.9817945 -0.05091053 0.22951114 -0.3427178
-0.4724775 -0.6364201 2.0419037 -1.904718 0.13363014 0.48734716 0.6108074 0.0030500428
-0.41258729 0.55630463 0.41983822 0.6017438 -1.0676982 0.40013686 -0.5368278 -0.041124634
0.037754104 0.7454777 0.13054197 -0.09700805 0.20745973 -0.62661046 -0.63236076 -0.19459116
-1.0419587 -0.7241683 -0.095332555 0.08259507 -0.07441451 -0.023576176 0.19403636 0.09742091
-0.04842649 0.02818606 0.17622164 -0.655396 -0.111736 -0.14218386 -0.04583693 0.66543746
0.61205024 0.16051896 0.5946679 0.759151 0.2615833 0.32701254 0.15518503 0.12626992
-0.48787946 -0.60034937 0.5772661 0.089326344 -0.43204683 0.46718153 0.40214348 0.17837298
0.18995608 -0.4821112 -0.5638706 0.7738686 0.024798147 -0.6261773 0.16520223 0.36858904
0.46254966 -0.078571305 -0.5304972 -0.36724353 0.42953014 -0.18390231 -0.64718616 0.23412926
0.40450546 -0.2809748 0.37709036 0.100885555 -0.044000097 0.06521804 -0.20573467 0.074990526
-0.3719635 -0.07205624 0.2495495 -0.5014917 -0.7750821 0.081263244 -0.38519797 -0.8640302
0.093744986 -0.04801526 0.31746906 -0.0123560615 0.1034783 0.04041266 0.25172314 0.005896223
-0.28052104 0.21754551 -0.42520463 -0.7469716 -0.22517978 -0.1699374 -0.34398907 -0.14130244
0.45658752 0.73528636 0.37110198 -0.04920456 -0.4497182 -0.09648188 0.063043565 -0.29299402
-0.22737063 0.806398 0.8636121 0.35061598 -0.4554686 -0.7952445 -0.059955895 -0.4001532
-0.6305836 -0.2136783 0.5453197 0.74473906 0.5236105 0.50632143 0.7133101 -0.39349797
0.67173153 1.1166449 -0.24312894 -0.035520136 0.82295746 -0.42423776 -0.5900225 -0.6367497
0.053039666 -0.73636836 -0.74537915 -0.08508865 -0.3707401 -0.0037017746 0.34678373 0.20010369
0.23792692 0.2557222 -0.029795794 -0.010429563 -0.0657034 -0.2616982 0.08713939 -0.09982951
0.012309934 -0.11821125 0.23044963 -0.07365871 0.37227666 0.6690779 -0.3049478 -0.41716865
-0.3237166 -0.74753165 -0.41178477 0.31035036 -0.6463648 0.31190047 1.0644758 -0.54529953
-0.17500985 0.36642912 -0.8057829 -0.5302603 0.17048445 -0.6549406 0.40284014 1.2559997
-0.43416807 0.21105552 0.8180857 -0.4073936 -0.26120856 -0.07476417 -0.07408895 0.11858255
-0.047437035 0.10832267 0.47154012 0.16349764 -0.372639 -0.29267335 -0.16691184 0.089348964

conv1.bias f4 [16]
00000000: 47c7 e03a 7e75 cdb9 98e2 4fba c592 053b
00000010: d586 853a 1a35 14bb bbea 00bb 4355 23bb
00000020: 6cd5 8cba a6ad deb9 c6c4 743a 2acb c33a
00000030: 45db 14bb 557b aa3a 967f 683a ac24 5b3a
0.0017149233 -0.00039188185 -0.00079301884 0.002038167 0.0010187278 -0.0022614659 -0.001967116 -0.0024922646
-0.0010744757 -0.00042472518 0.0009337183 0.0014937867 -0.0022713703 0.0013006727 0.00088691094 0.00083596515

bn1.weight f4 [16]
00000000: f14e 243f 86a8 003f b49e a33f ab45 f23e
00000010: 0872 3c3f df60 083f af01 233f 51cb e83e
00000020: 4c1b 3b3f dc4f 4f3f ea11 833f dbe5 593f
00000030: 070e 8a3f e478 273f b024 193f 1a04 ba3f
0.64182955 0.50257146 1.2782807 0.47318777 0.736115 0.53272814 0.63674444 0.45467618
0.73088527 0.8098123 1.0239842 0.85116357 1.0785531 0.6541884 0.59821606 1.4532502

bn1.bias f4 [16]
00000000: 5fd9 1fbe 2a46 7d3e 7f5e f73f b075 f53e
00000010: 2374 a83e 5791 df3d b7b7 093f 2850 b13e
00000020: b764 e43e 2910 0ebf 4314 a03f cb46 013f
00000030: f8c5 0bbf 2f67 c23e ea69 0abe 8ed4 91bf
-0.15610264 0.24733797 1.9325713 0.4794135 0.32901105 0.10916393 0.5379595 0.34631467
0.4460809 -0.5549341 1.2506183 0.50498646 -0.5459895 0.37969348 -0.13516966 -1.1392992

bn1.running_mean f4 [16]
00000000: 1e3d 173d 4318 67bc 1ba0 07bd ec46 9f3c
00000010: ccea e83b f749 803e 7735 6fbd cf0e e3bc
00000020: 8572 0fbc 11ec 3abe d51b aabd 80e4 99bc
00000030: 96ea 163e efee e33c 393c 3f3d 531b 4d3e
0.03692352 -0.014104906 -0.033111673 0.019442998 0.007108068 0.2505643 -0.058400597 -0.027717022
-0.008755331 -0.18254115 -0.0830609 -0.018785715 0.14737925 0.027823893 0.046688292 0.20029955

bn1.running_var f4 [16]
00000000: f75e 493f 5bda 5840 3db7 fa3f 6f48 3140
00000010: 4a6b fd40 ff90 6d40 4db1 8241 65f5 f53f
00000020: cb6b 6641 8f21 3440 1994 4d40 bd52 9040
00000030: e752 9640 561c 8540 3e53 7f40 7527 7e40
0.7866053 3.3883274 1.958717 2.770046 7.919347 3.7119749 16.336573 1.9215513
14.401317 2.8145483 3.2121642 4.5101 4.69762 4.159709 3.9894557 3.9711583

conv2.weight f4 [16, 16, 3, 3]
00000000: 11b1 79be 1aed 53be ae6e afbd 7fee 103e
00000010: 2d6f 853e b7a7 9f3e 08b8 123e c52d fb3d
00000020: 922b b6bd c838 33be 88cc dabb 8691 fcba
00000030: 1c4d 013e 9f13 8f3e 7b38 6f3e 6318 a73c
00000040: 9b58 9a3d 6855 973d 91b6 713e deac 2a3e
00000050: 3e44 adbe 0ce3 ac3d 859b 6a3d d799 3d3e
00000060: 1d19 0cbd 87d5 47be 4104 e23d 3b3d a13e
00000070: ad22 a93e 64b4 703e e6b1 adbc e2bc 9fbd
00000080: 3af7 8dbd 03ae b4be 3a88 cabe cc74 9fbe
00000090: 5a25 263d e4ec 473e e7cc 8b3d 4d22 753d
000000a0: 92a4 6fbd 7e7f 07be df1e 9cbe 9441 c6be
000000b0: ce06 abbd 2650 813d b771 963d 63b6 be3d
000000c0: 21c6 b2bc c26c 45bc 8c0c 21bd cd38 bebd
000000d0: ccfa 58bd 84d1 fcbd 8b58 b83a cda6 863c
000000e0: dd0b 0f3e a16e af3e 4af9 c93e 0098 ae3e
000000f0: d13e bf3e 983a e33e 3abe 943e ed6b 06be
00000100: 25a5 30be 60c8 1cbe 4e98 01be e982 3dbe
00000110: 61ed ffbd 5409 243e a5d9 693e 9c49 6b3e
00000120: e6f9 9a3e 7f23 bb3d a91b 1cbc 412a 673d
00000130: 585b 27be 3d3d bcbc 97b7 d4bb 5d04 3fbe
00000140: 938c 583d 2b04 ccbc e483 31bd 841f 113e
00000150: ea93 903c 57bd f23d 0e90 533e e4f4 fb3d
00000160: 0676 253e 4f49 033e a5ff 6d3e 8b65 0e3f
00000170: cb25 7d3e 3810 cfbd 595d 73be 8d63 013d
00000180: 627a 49bd 5316 ffbe 8229 c2be 1fb1 2f3e
00000190: 86d5 953e 7c40 0f3d f209 dcbe b23c 8fbc
000001a0: 5476 1dbe 0f85 9fbe 7ccc f4be ff1b e3be
000001b0: 31ae 313e 0221 9a3e e5f3 f53c 4c8c 273e
000001c0: cce4 a43e 635f cc3d f276 993c dc98 8d3d
000001d0: bcc5 1f3d 42f5 e73d 569c 9c3e 9201 653d
000001e0: e5d5 e0bd ca19 83bc 9e7c 01be 75c5 bcbd
000001f0: 9d37 0fbe 0b42 7bbd f7c2 193d 84ec 40bc
00000200: 782c cbbd 124b 02bd d9aa 97bd e464 0bbe
00000210: 557b df3d ee8c 283d 2251 3bbd 0cc8 b73d
00000220: b851 b33d 1c73 163e 0bfb 3e3e ccc8 f93d
00000230: 6ea3 9e3d 1b98 18be 76e0 43be 08ab 4dbe
00000240: 74fa 17bd 0e91 be3d 1d13 84bd 9d22 8ebd
00000250: 9e3d c03c e748 a6bd 0c49 80bb dcb3 25bd
00000260: 8345 c23d c8ba 0d3e d630 31be e10d 5c3e
00000270: 3ade 613d 40d0 1cbe 41c0 023e 70df 4c3d
00000280: 6a6a 7fbe 1c26 e33d 79de 4e3e 688c dabe
00000290: dc04 3a3d 2b03 3e3f 56cd e8bf 8c8f 6c3f
000002a0: 9a7b 503f 37d0 90bf af3a 1f3f 499a 05be
000002b0: 104a c7bc cdc1 a93d a8d2 35be 5620 49bc
000002c0: 8d16 383e 40f1 a43a 7da4 ab3d 5452 1a3e
000002d0: 070f 6abd cfe3 883c d683 fa3d 870b 3cbe
000002e0: 42b8 cc3d cc3b 75be 3be6 c9bd c196 4cbe
000002f0: 92ad d93e e197 df3a 22de 3e3c 24a8 d93d
00000300: 265d 2d3d 7df5 bebd 617f cb3d c21c 3e3e
00000310: 644a fcbd 11f8 5dbd f186 933d ef0d 55be
00000320: 2a4e 4e3d d480 1c3a 00c8 cebd d0fa e83d
00000330: cf23 49bd 2a83 1c3e f6b2 0f3e c045 663d
00000340: 2603 713e ad81 1f3e 8120 bebd 3de8 ea3d
00000350: 721d f4bd 3c80 5bbe d140 133e 9e81 a2be
00000360: 6a47 b83e d6a6 e5bd 392e a6be 6ed3 633e
00000370: 6d03 21be f38a 0cbe f575 d33c 490b 1bbd
00000380: 98f7 69be 32c1 8cbd ddf2 703e 4f6c 55bc
00000390: ca8f c2bd db8d b43d cf9a 713c 276f 3bbe
000003a0: 9b66 07bc f65b bd3d 731c 963e bcaa f7be
000003b0: a749 043d d44b e33e 24d2 3bbf 0d8c 993e
000003c0: 9dd2 1c3f eaa3 6ebf d348 633e 21af 193c
000003d0: 1004 cfbe cdd4 a73e 01b3 d13d 92a0 0bbf
000003e0: 6b59 d53e e557 193f c7fe e4be 2d9d a4bd
000003f0: 154b 2fbd e989 f93d d084 d2bc e177 15be
-0.24383952 -0.20695916 -0.08566032 0.14153479 0.26061383 0.31182644 0.14328015 0.12264589
-0.08895029 -0.17502129 -0.006677214 -0.0019269444 0.12627071 0.27944657 0.2336139 0.02039737
0.075364314 0.07389337 0.236048 0.16667506 -0.33841127 0.08441743 0.05727722 0.18515716
-0.034203637 -0.19515048 0.110359676 0.31492028 0.33034268 0.23506314 -0.021202993 -0.077996984
-0.0693192 -0.3528901 -0.39557058 -0.31143796 0.040562965 0.1952396 0.068261914 0.059847165
-0.058506556 -0.13232228 -0.30492303 -0.38721907 -0.08350907 0.06314115 0.07345908 0.09312131
-0.02182299 -0.012049856 -0.039318606 -0.09288178 -0.052973554 -0.123446494 0.0014064474 0.016436959
0.13969369 0.3426409 0.39448005 0.34100342 0.37352613 0.4438064 0.2905138 -0.13127108
-0.17250498 -0.15310812 -0.12655756 -0.1850697 -0.12496448 0.16019183 0.22836931 0.22977298
0.30268782 0.0913763 -0.009528079 0.05643678 -0.16343439 -0.02297842 -0.006491612 -0.18654008
0.052868437 -0.024904331 -0.04333867 0.14172179 0.017648656 0.1185252 0.20660421 0.123025686
0.16158304 0.12820934 0.23242052 0.5562369 0.24721448 -0.10110515 -0.23766078 0.03158908
-0.04918898 -0.4982172 -0.37922293 0.1715741 0.29264468 0.034973606 -0.42976338 -0.017484996
-0.1537717 -0.31156203 -0.4781226 -0.44357297 0.17351605 0.30103308 0.030023525 0.16362113
0.32205808 0.09979131 0.018733475 0.06913921 0.039006934 0.11326076 0.30588025 0.0559097
-0.10978297 -0.016003508 -0.12645194 -0.092173494 -0.13986059 -0.06134228 0.03753945 -0.01177514
-0.09920591 -0.031809874 -0.074056335 -0.13612705 0.109121956 0.041150026 -0.04573167 0.08973703
0.08755821 0.14692348 0.18650453 0.12196502 0.077460155 -0.14901774 -0.19128594 -0.20084774
-0.037104085 0.09305011 -0.06448958 -0.06940196 0.023466881 -0.08119374 -0.003914958 -0.04045473
0.094859146 0.13840783 -0.17303786 0.2148967 0.055143572 -0.15313816 0.12768652 0.050017774
-0.24942937 0.11091253 0.20202054 -0.42685246 0.04541479 0.74223584 -1.8187664 0.92406535
0.814386 -1.1313542 0.6219892 -0.13047136 -0.024327308 0.08288918 -0.1775614 -0.012275776
0.17977352 0.0012584105 0.08380983 0.15070468 -0.057143237 0.01671019 0.12232177 -0.18363772
0.09996082 -0.23948592 -0.09858366 -0.19979383 0.42515236 0.0017058813 0.01164964 0.106277734
0.04232516 -0.09324167 0.09936405 0.18565658 -0.123188764 -0.054191653 0.072034724 -0.20806096
0.05036751 0.00059701246 -0.10096741 0.11375964 -0.049106415 0.1528441 0.14033112 0.056218863
0.23536357 0.15576811 -0.092835434 0.11470077 -0.11919679 -0.21435636 0.14380194 -0.31739515
0.35991985 -0.11213462 -0.3245714 0.22248623 -0.15723963 -0.1372488 0.025813082 -0.03785256
-0.22848356 -0.068727866 0.23530145 -0.013026311 -0.09500082 0.08816119 0.014746382 -0.1830412
-0.008264209 0.09246056 0.2931858 -0.48372447 0.032296803 0.4439379 -0.73367524 0.29989663
0.6125887 -0.93218863 0.22195749 0.009380133 -0.40432787 0.32779542 0.102392204 -0.54541886
0.41669783 0.5989974 -0.4472563 -0.080377914 -0.042796213 0.121845074 -0.025698096 -0.14596511

conv2.bias f4 [16]
00000000: 56ac d6b9 0c3f b4b9 5fef 293a 28de d039
00000010: d56a 13b9 89eb 123a 8949 183a 0bc3 56ba
00000020: 4773 5d39 a624 523a d1ef 8cba 0f67 75ba
00000030: 1da4 6d3a 98af b039 70c4 a739 b8fc f8b9
-0.0004094566 -0.0003437925 0.00064825075 0.0003983837 -0.0001405881 0.00056045555 0.00058092974 -0.0008192516
0.00021119147 0.00080163253 -0.0010752623 -0.0009361365 0.00090652873 0.00033700163 0.0003199908 -0.00047490536

bn2.weight f4 [16]
00000000: bea7 8b3f d851 e93f 24b7 b33f 0a08 da3f
00000010: 3d5b b33f 04a6 6a3f f50e 383f 0f39 4e3f
00000020: 35e7 a03f e10a bf3f 12f3 b13f da82 7a3f
00000030: a515 853f cefb 7c3f 3d5f 523f 4737 5d3f
1.0910566 1.8228102 1.4040265 1.7033703 1.4012219 0.9165957 0.7189782 0.80555815
1.2570559 1.4925195 1.3902304 0.97855914 1.039723 0.98821723 0.8217657 0.8641247

bn2.bias f4 [16]
00000000: bd93 723d 9b20 19bd 46ae 12bd f8e7 1fbd
00000010: 3c23 ddbc f8cc a93c 11b9 e73e 4a0b 713e
00000020: bbac 31bd 1bf2 48be aa8b 29bd d4cd aabe
00000030: be6b f63e 02a3 61bd 813a 9e3e 2476 8c3e
0.059222925 -0.03738461 -0.03581073 -0.039039582 -0.02699434 0.02072762 0.45258382 0.23539463
-0.04337762 -0.19623606 -0.04139296 -0.3336016 0.48129076 -0.055087097 0.3090401 0.27433884

bn2.running_mean f4 [16]
00000000: eb6a 4f3f 43f3 17bf 3c47 84bf 926e 80bd
00000010: 24a5 503e 8c33 8f3f 61bc a9be d91b 0440
00000020: 7a87 d2be 863d e5bf 15ab 82bf 5478 033f
00000030: afad e0bf c38a 8dbf 467a 8c3d 9ddf 52c0
0.8102252 -0.5935556 -1.0334239 -0.062710896 0.20375496 1.1187606 -0.33151534 2.0641997
-0.41118985 -1.79094 -1.020846 0.5135548 -1.7553004 -1.1057972 0.06859259 -3.2948983

bn2.running_var f4 [16]
00000000: c95d d240 1e3c 0b42 9228 6141 9f57 b341
00000010: f8a5 3141 7e88 fa3f 86ab 1f40 eced 1640
00000020: 1580 2041 54c4 4541 c164 2b41 c0ba db3f
00000030: 95e1 ba40 dcba db3f a661 2140 c7d1 5640
6.5739484 34.80871 14.072405 22.417784 11.10302 1.9572904 2.494844 2.3582716
10.03127 12.360432 10.712098 1.7166367 5.840037 1.71664 2.521585 3.3565538

conv3.weight f4 [32, 16, 3, 3]
00000000: f7b8 adbe 8d5f 11be 7d84 fdbd cf0e 36be
00000010: 97b0 72be 280e 43be 6e4f bbbd 34e0 e3bd
00000020: 1d32 c43d a2f3 51bd b5ba 11be 6d50 7a3c
00000030: 6a24 04be 6faf 2bbe 5855 1abd 53a0 81bd
00000040: 0be1 0f3d 80fc d83c 5723 a83e 0672 953e
00000050: 5fd7 373e 9376 6c3d 0437 bd3e 36ef bc3e
00000060: b0d4 a53b 2b11 463e e873 613e 2fb5 253e
00000070: 9519 bebc aaa7 d1bd c95d 823e f429 38be
00000080: 25a5 8dbe 78bc 1d3e 0403 2dbe f9b4 a8bd
00000090: 4b98 0fbe d4f5 54bc 8fe9 32be 7d15 333e
000000a0: 0588 4d3e 68ce 9a3d 73fb 943e 3dd3 ab3e
000000b0: 9d73 e63e ca8f 80bd 2f65 52bc 6871 823e
000000c0: 6cec 55bc 7ce2 adbd e5e7 16bd 8749 403d
000000d0: 3077 e33d 3de6 763d 3bd4 433c 8277 79bd
000000e0: 850f 52bd 9aef 95bc 65b6 cb3a 5ca3 6c3a
000000f0: 2d68 debd f04d d2bc 3bbd d23c d00f f9bd
00000100: 91d6 78be 9d76 f3bd 11ad 30be b819 7cbe
00000110: f36b 8cbd bedb 1ebe 8db4 72be 44d3 c2bd
00000120: 4895 82bd 8289 193d fee7 9b3c 54e8 933d
00000130: 5def 0e3e ba84 b93d 249e bf3d 950f 7b3d
00000140: 74e5 1b3d 9ee9 d7bc d022 1ebe 04de 45be
00000150: e1d6 4cbe 76a9 b6be cb22 92be 675d aabd
00000160: f212 09be 84f7 0dbd 5a8c 243e 03ea 5bbd
00000170: 44d5 e13d ffc0 d6be 3928 9cbe 54ef aabd
00000180: 8af5 0ebf b45c aebe b629 3dbe 73f8 3c3d
00000190: d332 5dbd 10f8 9dbd b4d6 c03d 7de6 1dbe
000001a0: c7e0 26be 0d41 833d e606 00be 279c a8bd
000001b0: 1d61 883e 05b8 b43d c281 c4be ee03 5e3d
000001c0: ca33 babd 4987 b5be f67f c33c 39ea 0cbe
000001d0: 780b d4be 3cc2 b5bd e209 95be 24cd 7ebe
000001e0: 3a51 2abe 3f4b 62be b446 19bd 4213 bcbd
000001f0: f20e cc3c edf1 203c b9cb c4bd c5ce 0f3e
00000200: b0fd 123f f36a f7bb ab34 243e 5871 5b3e
00000210: 7c2d c53d a921 9b3e e725 7e3e 7e86 aebe
00000220: 24d3 95be 1ba8 43be a4c3 fbbd a3f7 bc3d
00000230: f05e 9c3d 754b c03d 6251 863e a6a8 c03d
00000240: bd85 66bd c71e 4e3e 9fd1 423e 4b8f c53d
00000250: 3d33 573e 594f f13d 9af3 c43d db6b 29bd
00000260: 17f4 8abe 8ede 2c3e 943d 933e 9803 9a3e
00000270: 4d37 3f3d fe15 453d 11f8 8f3b 646a 47be
00000280: 4380 9ebe 52b3 52be 7bbe 45be 3b59 77bd
00000290: cf70 793e c3d4 00be d13f e1bd a9de 303e
000002a0: 5c4f 883d 226d 39bd 99da 0abd 49de 21be
000002b0: 843c 4ebd 2ba9 893d ab82 f0bc 7aba 333d
000002c0: 7cf1 663d 1e38 de3b a8d0 20bd 17eb 5ebb
000002d0: d95a c43e 5650 c93e 5a6a 7abc 0249 7a3e
000002e0: 14cd 383e 33ba 90bd 287e 19bd 295b 6b3c
000002f0: 2683 d8bb 72ac 63be 58b7 523d ea57 273e
00000300: a901 a1bd 36e1 f43d 1949 323e 4265 723e
00000310: a08b 803e a478 023e 9293 9f3b 66c5 3f3e
00000320: cc60 843e 921c 0abd 3f45 383d d16d 103d
00000330: a6bb 693d 287a 30bd fa39 f2bd 2101 04be
00000340: b356 2fbe f17b 7fbe 10ad 33be 1f05 84be
00000350: 6c83 80be c203 d6bd 0266 6abe d310 85be
00000360: 1c4e ac3d 8bc8 4a3e 3686 223e c4a8 bb3c
00000370: 153e ee3d 2f86 b63d dcc8 fcbb 4f2d 00bd
00000380: 6e0d fbbc dbaf 813e 040b ac3e 4ae1 9c3c
00000390: 2c0d c23e 195f 3d3e 6c29 3bbe 2e4e 0f3e
000003a0: 1500 81bd debc afbd 3bdc 7d3e 44bb cd3d
000003b0: 916f 653d 29fd 0abd 5707 943c 1f3d abbd
000003c0: 56ca afbd 6151 e9bd 2b29 82bd 7b44 5fbd
000003d0: be71 59be 7f05 fbbd 65ce 6b3a 91e0 cd3c
000003e0: 7bef 49bd b2c0 2ebd 5781 7e3d 5ecd f03d
000003f0: a052 743e a47f b13d dc60 2b3e b378 c23d
-0.3393018 -0.14196606 -0.12378786 -0.17779087 -0.23700176 -0.19048369 -0.091460094 -0.11126748
0.09579871 -0.051257737 -0.1423138 0.015277964 -0.12904516 -0.16766141 -0.037679046 -0.063294075
0.035126727 0.026487589 0.32839462 0.29188555 0.17953251 0.05773027 0.36956036 0.36901253
0.0050607547 0.19342487 0.22016871 0.16182397 -0.023205558 -0.102370575 0.25462177 -0.17984754
-0.27665058 0.15403926 -0.16895682 -0.08237643 -0.14022939 -0.012998063 -0.17471908 0.17488666
0.20071419 0.075589 0.2909809 0.335596 0.4501008 -0.062774256 -0.012841507 0.25477147
-0.013056856 -0.08490464 -0.036842246 0.04694512 0.111067176 0.060278166 0.011952455 -0.060904987
-0.05128433 -0.018302727 0.0015542029 0.0009027028 -0.10859714 -0.02567193 0.025724998 -0.12161219
-0.243006 -0.11887858 -0.1725352 -0.24619186 -0.06856527 -0.15513512 -0.23701687 -0.09512952
-0.063761294 0.037484653 0.019031521 0.072220474 0.13958497 0.09058519 0.09356335 0.061294157
0.03806062 -0.026356515 -0.15442967 -0.19322973 -0.20003845 -0.35676163 -0.2854217 -0.08318596
-0.13386133 -0.034659877 0.16069165 -0.053689968 0.11027005 -0.4194412 -0.30499437 -0.083464295
-0.5584341 -0.34055102 -0.18472943 0.046135377 -0.054003548 -0.0771333 0.09415951 -0.15419956
-0.16296683 0.06408892 -0.12502632 -0.08232909 0.26636592 0.088241614 -0.38380247 0.054202966
-0.09091909 -0.35454777 0.023864727 -0.13761224 -0.41415 -0.08874938 -0.29109102 -0.24882942
-0.16632548 -0.22099017 -0.037420943 -0.09183361 0.02490947 0.009823305 -0.096091695 0.1404372
0.57418346 -0.007550591 0.16035716 0.21429956 0.09627816 0.30299118 0.24819146 -0.34086984
-0.2926265 -0.19107096 -0.12293175 0.092269205 0.076352954 0.09389392 0.26233965 0.09407167
-0.056279887 0.20128928 0.19025277 0.096464716 0.2101564 0.117827125 0.09616776 -0.041362625
-0.2713935 0.16881773 0.28757918 0.30080867 0.0466836 0.048116677 0.0043935855 -0.19474179
-0.3095723 -0.20576218 -0.19310944 -0.06038783 0.2435944 -0.12581162 -0.109985 0.17272438
0.066557616 -0.045270093 -0.033899877 -0.15807451 -0.05035068 0.06721719 -0.029359182 0.04387901
0.05638264 0.006781592 -0.03926149 -0.0034014636 0.3835056 0.39319104 -0.015284145 0.24441913
0.18046981 -0.07066765 -0.037473828 0.014364996 -0.006607431 -0.22233751 0.05144438 0.1634213
-0.07861645 0.11957018 0.17410697 0.2367144 0.25106525 0.12741333 0.0048698867 0.18727645
0.258551 -0.033718653 0.044987913 0.03526098 0.05706372 -0.043085247 -0.118274644 -0.12891056
-0.17122917 -0.24949624 -0.17546487 -0.25785157 -0.25100267 -0.104499355 -0.22890475 -0.25989398
0.08413336 0.19803064 0.1587151 0.022907622 0.11632935 0.08912312 -0.007714374 -0.03129321
-0.030646052 0.2532948 0.33602154 0.019150395 0.37900674 0.18493308 -0.1827752 0.13994667
-0.06298844 -0.085809454 0.24791043 0.10045484 0.0560146 -0.03393284 0.018069906 -0.08361267
-0.085835144 -0.11392475 -0.063555084 -0.054508667 -0.21234795 -0.12256908 0.0008995294 0.025131496
-0.049300652 -0.042664237 0.062135067 0.11757921 0.23859644 0.08666924 0.16736168 0.09495678

conv3.bias f4 [32]
00000000: 95e3 88ba e640 84b8 d6f2 6fb9 aef7 5dba
00000010: 98cb 33ba fa44 563a 941e 293a ddfd 12ba
00000020: b25a d1b9 66d0 103a 881c 2cba 3f91 25b8
00000030: 5179 6539 4076 1fba 8989 82ba 00a1 8339
00000040: 79b5 2bb9 a0cf 2239 ae98 f8b8 efae acb9
00000050: 8e5c 8939 f43c d539 20dc 5b3a c075 8d3a
00000060: 417f 2a3a 198e 4339 1fd0 3aba 47ab 69ba
00000070: 4d39 81ba 3d92 0539 655a da38 65f8 aeb9
-0.0010443801 -6.306339e-05 -0.0002288328 -0.0008467388 -0.0006858646 0.00081737305 0.0006451395 -0.00056072866
-0.0003993116 0.0005524218 -0.0006565531 -3.9474337e-05 0.00021884336 -0.0006082989 -0.0009959202 0.0002510622
-0.00016375435 0.0001552687 -0.00011854 -0.00032936732 0.00026199635 0.0004067194 0.0008386988 0.0010792539
0.00065039477 0.00018649585 -0.00071263494 -0.0008913767 -0.0009858996 0.00012738346 0.00010411887 -0.00033372935

bn3.weight f4 [32]
00000000: cf5a 713f 50bb 1b3f 4180 383f b3f9 ae3f
00000010: b10b 423f c386 543f bf40 9c3f b172 603f
00000020: 6677 6c3f e742 453f 351a 803f bd88 c33f
00000030: cb4c 3a3f bbfb 2f3f d8d7 583f 03d3 683f
00000040: 8878 523f ed1d b53f 0a02 7f3f 5b6e 383f
00000050: aef4 913f 9a60 633f b3f8 b43f 552b 4b3f
00000060: ace3 4b3f b3d1 573f af8e 1c3f d4fd 9c3f
00000070: 3dff 693f 089b 3b3f 441c 563f 84d7 463f
0.9427919 0.6083269 0.720707 1.3669952 0.7579909 0.8301813 1.2207259 0.87675005
0.9236969 0.7705521 1.0007998 1.5276104 0.72773427 0.68743485 0.8470435 0.9094698
0.82215166 1.4149758 0.99612486 0.7204339 1.1402795 0.8881928 1.4138397 0.79362994
0.79644275 0.8430435 0.6115522 1.2264962 0.9140509 0.73283434 0.8363688 0.776726

bn3.bias f4 [32]
00000000: 14fa aabe 046b 723e f3a9 09bd 5801 a6be
00000010: 3777 01be 2bdb ac3e d116 50bd bbe9 e3bd
00000020: 2e93 013e 06e6 50bd f19f 573e 5d8a e9be
00000030: 29b8 e43d f2ea 223d c7b4 45be 6a83 abbd
00000040: 4be7 87be 7bd8 88bb 9e39 c83d c8a1 1abd
00000050: 17bf f0bc 6df6 723e 1519 eebd e67b afbd
00000060: 0847 a5bd 1cc9 d33c 08a2 163e a267 1abe
00000070: 1e2f 893e 0632 0cbe b818 49be 5ff3 2abe
-0.3339392 0.23673636 -0.03360934 -0.324229 -0.12643133 0.33760962 -0.05080301 -0.11128565
0.12653801 -0.051000617 0.21057107 -0.45613375 0.11167938 0.039774843 -0.19307242 -0.083746746
-0.2654365 -0.004176197 0.097766146 -0.037751943 -0.029387994 0.23726816 -0.11625878 -0.085685536
-0.08070189 0.025852732 0.14710248 -0.15078595 0.2679376 -0.13690957 -0.19638336 -0.16694401

bn3.running_mean f4 [32]
00000000: b0f0 d4bf a8e5 973f f5bf 693f 7f3f 27c0
00000010: 7d46 e33e 8080 91bf b9ab b8bf d578 d8be
00000020: 5e45 09bf 9a40 a8bf 7185 20c0 2b54 23c0
00000030: 8805 47c0 4264 8d3f ea76 a43e 8576 60ba
00000040: 7158 26bf 8550 5dc0 c1d9 02c0 ee3e 06bd
00000050: 4c8a 25c0 6cab 75c0 59ad 3ec0 3bd1 9bbe
00000060: 197c c6be de7d 15be 01dd a1be 90c6 06c0
00000070: 5fe2 83bf 59a2 8840 7a89 d4bf 372d 7f3f
-1.6635952 1.186696 0.9130853 -2.6132505 0.44389716 -1.136734 -1.4427406 -0.42279688
-0.5362147 -1.3144715 -2.5081446 -2.5520122 -3.1097126 1.1046221 0.32121974 -0.00085625827
-0.649787 -3.4580395 -2.0445406 -0.03277486 -2.586566 -3.8385878 -2.9793303 -0.30433068
-0.38766554 -0.14598796 -0.31613925 -2.1058693 -1.0303458 4.269818 -1.6604455 0.9967837

bn3.running_var f4 [32]
00000000: 46c0 9140 8664 6d40 ddbc 9e40 7fb5 ab40
00000010: afed 2c40 2e67 9a40 6474 fa40 0521 9f40
00000020: fe45 b940 2611 3a40 021f bf40 1fe5 0341
00000030: 06f9 c440 4b55 5940 aeca 3840 574b 9740
00000040: f2ae bf3f 0ab5 5541 ea0f d540 f70c 4740
00000050: f14d 0741 c464 ee40 4622 2c41 a0f7 5140
00000060: 197b 9440 61c4 9340 b034 9340 155c cf40
00000070: b52b ad40 faa9 ad40 d050 6c40 a57a a640
4.554721 3.7092605 4.9605546 5.3659053 2.702007 4.825095 7.826708 4.9727807
5.789794 2.9072967 5.972535 8.243438 6.1553984 3.3958309 2.8873706 4.7279468
1.4975264 13.356699 6.6581926 3.1101663 8.456529 7.4498005 10.758368 3.2807388
4.6400266 4.617722 4.6001816 6.4799905 5.4115853 5.426999 3.6924324 5.2024713

conv4.weight f4 [32, 32, 3, 3]
00000000: bbc5 043e eff3 b8bd 71cc 04bd cef9 073d
00000010: 91f5 d8bc 6947 753c 4a76 49be 4b61 3e3e
00000020: 7443 f33e 958e f73d 041f 0e3e 1ada 153e
00000030: b442 3cbe 830c ddbd 5a97 15bd d109 20be
00000040: 0d00 89be 15fc 143e 8f35 08bd f206 2fbb
00000050: 59cc 0bbd e0c6 38be 0d95 8fbe 5253 0dbe
00000060: 50b4 33be 87a5 79be c2de 11be 3e1b 1cbe
00000070: df3d 11be f22e 3ebe e824 e3bd 129a 403d
00000080: f855 fdba 6689 16bc c142 633e 3819 d93d
00000090: 81ec 0cbd 2d35 08be 39f4 82bb d19b a7bd
000000a0: ddf6 25bd 4a2d 6d3e 6fe3 2b3e 1604 1b3e
000000b0: 5391 b63e 64b5 aa3d 5519 e2bb 91ec 29be
000000c0: 5368 c63d 0e66 c0bd 846d 28be a242 1fbe
000000d0: af73 8dbe 9142 7abe e461 9cbe 2b9a a7be
000000e0: 3b0c 78be c989 f5ba 073d 823d b8bc 9e3d
000000f0: b6a7 993d 4097 ff3d 2ef7 933d e072 57be
00000100: 343e 4a3d 212e 573e 2d3e a3bd 016f 8f3c
00000110: 66ac 3c3d 442c 85be c6c6 843c 16d0 21bc
00000120: 2b01 cabd 72ee 1e3d 2060 6fbd 6642 01be
00000130: 4622 443c d100 dbbd 8ff9 73bd 989e cebc
00000140: c510 63be 8b08 433e dc79 89bc 17ba 963d
00000150: 7205 8f3d 25cb 01bd 956b 263e 54a3 133f
00000160: f000 af3e 2916 523e d21c 5d3e d813 143e
00000170: c7a7 543c 76fc 803d 43d4 d03b 13c2 ccbd
00000180: f13f 0d3d 7725 92be 103e 46be ae6f f93d
00000190: 79ae 21bd 244d 113e a6e1 713d 6252 ab3d
000001a0: ffef 70bd 4e06 b33d 89fe a9bd 29ad 77be
000001b0: 9b45 76be ebf7 92be 6830 56be faf1 44bd
000001c0: 0a7b 433d 8f85 c43d 8f82 503d 9eb9 d13d
000001d0: 81a4 4c3e 8e78 453e a821 393e d5d1 873e
000001e0: 84ac 413c dd5e e0bc 3249 833d 7e75 963e
000001f0: e4be 0f3d a0f8 553e f71a 973d 8176 343d
00000200: 1aaf c13d 5f07 603e c924 18bd 6299 3fbd
00000210: d528 083e a51b 49bd 725d 853d a077 7e3e
00000220: ca1f ba3d 3dfa 2dbd 0c49 c23d 3334 7e3c
00000230: 6f5d 42bd b79a 543e c180 f43c ee69 54be
00000240: a93b 4e3d 5869 1bbb 4f3e 76bd 5535 cf3d
00000250: fd97 8bbd 8dd9 65bd 177d 54bd a741 cdbd
00000260: aee9 0d3e dfda da3d 819c 573d 4c92 febd
00000270: 5aaa a1bd d7d3 2a3e 3188 dfbc 0054 d7bd
00000280: 17e3 eb3c 5269 66be 4ef5 ae3b bc91 8f3d
00000290: 99a0 bf3d 6359 adbe 7725 cd3d c9da 543e
000002a0: 4b93 edbc 10a1 073e eddf c7bd 7de0 ca3b
000002b0: 73c5 aebd 6138 98bc e771 753d 9acd cfbd
000002c0: f469 25bb 5731 0e3e 6a93 40be d547 bebd
000002d0: 53f3 9ebc 58d2 bcbc 393a 33be e79d 1c3e
000002e0: 7677 2d3e 15ea 4a3e 6a48 d13e c340 de3e
000002f0: 2725 d23e b6c9 b8bd 3343 23bd c45b 5dbe
00000300: bddd fabd f91b 3cbe 0701 0fbd 3faa a6be
00000310: b9f8 593c 9193 0a3e 0ade 6b3e 8bd9 d7bc
00000320: e58c 6ebe 2f9e 163e 82d8 aa3d 900e 653d
00000330: a092 9e3e d089 d73e 64ca 6a3e 112c 6e3d
00000340: 9287 743d 756b 3fbc 337d eb3c e81d 09bd
00000350: 9ac4 d0bd 36b5 023d 07ed 88bd 1417 43bd
00000360: ba46 0dbc d845 60be 3743 1abe 6505 9c3d
00000370: 5e7c 92bb 3a01 063e 3796 da3d 02e9 8f3e
00000380: a461 bc3e ba20 aa3d bcf7 7ebd 9b39 543d
00000390: 528c 8cbc debb 2d3d 31e1 c33d b923 37be
000003a0: 3dbd 803e 9b78 f03e 92d5 943e 0394 933e
000003b0: c3bc 723e 9937 893d 5ab5 533e b67f 333c
000003c0: 0c65 fbbd 0523 9f3d 0b7d 56be 265d 14be
000003d0: 7d5f cbbd 3adf 7bbd 6068 81bd 7bdb 69bc
000003e0: 0bec b0bd 691e 443e 45db 0a3e d464 e5bc
000003f0: e15d 1e3e 1c26 5c3e c616 fdbd 3734 1e3e
0.12966053 -0.09030902 -0.032421533 0.033197217 -0.026484283 0.014970639 -0.1967403 0.18591802
0.475124 0.12087742 0.13879019 0.1463398 -0.1838482 -0.10793402 -0.036521293 -0.15628745
-0.2675785 0.14549287 -0.033254202 -0.002670702 -0.034130428 -0.18044615 -0.28043404 -0.13801315
-0.17549253 -0.2437955 -0.14245132 -0.15244767 -0.14183758 -0.18572596 -0.11091024 0.047021933
-0.0019327989 -0.009188032 0.22193433 0.10600513 -0.034405235 -0.13301535 -0.0039963988 -0.081840165
-0.04051863 0.23161808 0.16785978 0.15138277 0.3565775 0.08335379 -0.0068999925 -0.16594149
0.09687867 -0.093944654 -0.16448027 -0.15552762 -0.27627322 -0.24439456 -0.30543435 -0.32734808
-0.24223416 -0.001873308 0.06359296 0.07750839 0.075026914 0.124800205 0.0722488 -0.21039915
0.049375728 0.2101369 -0.079708435 0.017508985 0.04606285 -0.26010334 0.016208064 -0.009876272
-0.09863504 0.038801618 -0.05844128 -0.12622985 0.011971062 -0.10693515 -0.05956417 -0.025222108
-0.22174366 0.19046228 -0.01678174 0.073597126 0.069834605 -0.031687874 0.16251977 0.57671094
0.34180403 0.20516266 0.21593025 0.14460695 0.012979454 0.06298153 0.00637296 -0.09997954
0.034484807 -0.28544208 -0.19359612 0.12179504 -0.03947303 0.14189583 0.059053086 0.08365323
-0.058822628 0.08741437 -0.08300502 -0.24187149 -0.2404999 -0.2870477 -0.20916903 -0.04808233
0.04772476 0.09595787 0.05090576 0.10240482 0.19984628 0.19284269 0.18079245 0.26527277
0.011820916 -0.027388984 0.06410445 0.29386514 0.035094157 0.20895624 0.0737819 0.044058327
0.09457226 0.21877812 -0.037144456 -0.046777137 0.13296826 -0.04909863 0.06511964 0.24850321
0.090880945 -0.042474974 0.09486589 0.015515375 -0.047452386 0.20762144 0.02984655 -0.20743534
0.050349865 -0.0023713913 -0.060118016 0.10117594 -0.06816099 -0.056115676 -0.051877107 -0.10022288
0.13858673 0.106862776 0.052639488 -0.12430248 -0.0789382 0.16682373 -0.02728662 -0.105140686
0.028794808 -0.22501114 0.005339301 0.070102185 0.093568034 -0.3385726 0.100169115 0.20786585
-0.029000899 0.13245034 -0.09759507 0.006191312 -0.08533754 -0.018581571 0.05992308 -0.10146637
-0.0025240155 0.13886009 -0.18806234 -0.092910446 -0.019403135 -0.023049518 -0.17502679 0.1529461
0.16940102 0.19815858 0.4087556 0.43408784 0.4104397 -0.09022848 -0.039859008 -0.21617037
-0.122493245 -0.18370046 -0.03491309 -0.32551762 0.013303929 0.13532855 0.2303392 -0.02634885
-0.23295934 0.1470878 0.08342077 0.05592209 0.3097124 0.4209733 0.22928768 0.058147494
0.059699602 -0.011683335 0.028746223 -0.033475786 -0.10193749 0.031911097 -0.066858344 -0.04762943
-0.00862282 -0.21901643 -0.15064703 0.076182164 -0.004470392 0.13086405 0.106731825 0.28107458
0.36793244 0.08307023 -0.062247977 0.05181275 -0.017156754 0.042415492 0.09564436 -0.17884721
0.25144377 0.46967015 0.2906919 0.2882386 0.2370482 0.067000575 0.20674649 0.010955742
-0.122751325 0.07770351 -0.20946138 -0.14488658 -0.09930322 -0.061492182 -0.06318736 -0.01427352
-0.086387716 0.19152226 0.13560207 -0.02800218 0.154655 0.21498913 -0.12357859 0.15449606

conv4.bias f4 [32]
00000000: 3132 9e39 1819 aab9 5735 4839 03eb d239
00000010: 5d2b 15ba 6fac 1e3a 6062 09ba 9160 bd39
00000020: 1aad 6439 488f a339 848f d038 244e fcb9
00000030: e866 0a3a 9a2b 213a 397e a1b8 00e3 9939
00000040: 202a 0138 26aa 13ba db6e 38ba fe88 a3b9
00000050: b483 393a 1303 54b9 e072 e039 1453 5a38
00000060: 9c1a 1a39 f76e c4b9 b66a d238 cbe2 c1b9
00000070: 4649 2d3a 188e 5c39 68ff 323a 120e 17ba
0.00030173504 -0.00032443623 0.00019093357 0.0004022942 -0.00056903606 0.0006052916 -0.0005240794 0.00036120837
0.0002180826 0.00031196536 9.944945e-05 -0.00048123405 0.00052796165 0.000614816 -7.700589e-05 0.00029351562
3.079523e-05 -0.0005632959 -0.0007035562 -0.0003119185 0.0007076815 -0.00020219041 0.00042810198 5.2052623e-05
0.00014696497 -0.00037466708 0.00010033457 -0.00036980803 0.0006610345 0.00021033769 0.00068282196 -0.00057622895

bn4.weight f4 [32]
00000000: 5905 1e3f 4812 3f3f 0c6d 903f 5cee 653f
00000010: 5643 8f3f cbe9 6f3f b4f4 283f 5bc5 7f3f
00000020: ab7d 623f 0f50 773f 9e24 863f 4776 843f
00000030: 9731 7c3f d839 503f 76f9 9e3f 3c4f 373f
00000040: 4ec5 713f ed0d 853f 5353 773f de89 403f
00000050: 3b5f 823f f1cf 7d3f e547 7e3f 5b2e 7c3f
00000060: 03c4 543f 2ff7 693f 3bf6 703f 18d5 563f
00000070: 2bcc 973f da6a 253f 5fec 923f 6bf0 843f
0.6172691 0.7463727 1.1283278 0.8981683 1.1192424 0.93716115 0.6599839 0.99910516
0.88473004 0.96606535 1.0479925 1.0348595 0.9851317 0.8133826 1.241988 0.7160528
0.9444169 1.0394875 0.9661152 0.7521037 1.0185312 0.9914542 0.9932845 0.9850823
0.8311159 0.913928 0.9412572 0.83918905 1.1859182 0.6461617 1.1478385 1.038587

bn4.bias f4 [32]
00000000: 19d7 d03e 15d4 db3e 9d2f f3be ce95 603e
00000010: 96d4 43be 00b4 1abe 7cac 1f3e 0eb3 bdbe
00000020: 3aa3 293d dc02 3dbe 2e98 4bbe fbb6 00bf
00000030: 7bfd d4bd a1b6 a83e debc 6bbf 57e1 cb3e
00000040: 6dfb 2bbe 9062 96be 567c 3abe 43ac fc3d
00000050: ae0e dbbe 54fa aebe 7786 50be dbc8 b1bd
00000060: 1848 083e cb66 96bd a0d9 153e b787 1bbe
00000070: ebee 00bf c89c b53e 08db 9ebe 1e2f 303d
0.40789106 0.42935243 -0.47497264 0.21932146 -0.19124064 -0.15107727 0.15593141 -0.3705067
0.04141543 -0.18458122 -0.1988227 -0.50279206 -0.1039991 0.32951835 -0.92085063 0.39820358
-0.1679513 -0.29372072 -0.18211493 0.12337544 -0.42784637 -0.3417536 -0.20363794 -0.08680888
0.13308752 -0.07343825 0.14633799 -0.1518849 -0.5036456 0.35471177 -0.31026483 0.043013684

bn4.running_mean f4 [32]
00000000: e543 023f f615 1fbf a22e 0bbe 2a7b 8ebf
00000010: b3ae 30bf 6e67 65bf 27eb 583e d79f 26bf
00000020: 913f 24bf 1172 30bf 1f33 60bf 6620 cdbf
00000030: e088 30bf 7188 323e 8dc7 51c0 6135 563f
00000040: 90ae a4bf 8518 b63e 6318 433e 8100 463d
00000050: eed1 debe e20f 01c0 e6c6 ad3f 40ae 15bf
00000060: 4925 3940 de6d 2d3f bed7 cbbf 1840 26bf
00000070: 68d1 c7bf fa9f eb3e 192d 67bf f222 74c0
0.5088485 -0.62142885 -0.13592008 -1.1131337 -0.6901657 -0.89610946 0.21183454 -0.65087646
-0.64159495 -0.6892405 -0.87578005 -1.6025512 -0.68958855 0.17434861 -3.2778046 0.836752
-1.2865772 0.35565582 0.19052272 0.048340324 -0.4351954 -2.0165944 1.3576324 -0.5846901
2.8929007 0.6774577 -1.5925214 -0.6494155 -1.5610781 0.4602049 -0.9030319 -3.814633

bn4.running_var f4 [32]
00000000: c0b8 6e40 0114 4e40 e25f 3340 7159 7640
00000010: 44b1 5640 27ef 3b40 24b7 3a40 d8af 4340
00000020: 6167 6440 aefb 4540 debc 4340 53d3 3540
00000030: 53fa 3140 e8ef 7140 8382 3940 f8e7 3a40
00000040: 5716 4940 388a 2940 465b 4b40 bcf4 8040
00000050: 7e67 2f40 b96f 2940 9aef 2b40 ce27 8b40
00000060: 5761 4d40 a2f7 7940 de39 8740 a656 1e40
00000070: 58e8 4e40 2e20 3840 6be2 7140 4454 8d40
3.7300262 3.219971 2.8027272 3.849209 3.3545694 2.9364717 2.917428 3.0576077
3.5688097 3.0934863 3.0584025 2.8410232 2.7809036 3.7802677 2.8985908 2.9204082
3.1419885 2.6490612 3.177446 4.029875 2.7406917 2.647444 2.686499 4.348609
3.2090662 3.9057393 4.225814 2.4740386 3.2329311 2.876964 3.7794445 4.4165363

conv5.weight f4 [32, 32, 3, 3]
00000000: 06be 083e ed6e 613d 619c 513e cce8 6bbd
00000010: c601 0ebe 6b8e d2bd 52b1 5ebd 2f5a 30be
00000020: 37f4 3abe ffad 1b3e e005 853e 164f c63e
00000030: 5724 3e3d ea64 5b3d 3fcc 033d 893d 16bd
00000040: 074f 433c ba6d 40be 006f a13e 9c34 063e
00000050: a8a1 8e3e 1aed d43c 27e9 0fbd 9b8d 673e
00000060: ce5b b83d 25b9 d63d f8e4 1d3e 35a5 863e
00000070: 0559 0a3e 3381 c43d 13ee 003e 76fa 5b3c
00000080: 4de2 2fbb ec97 4bbe 9692 6cbd 770b d1bd
00000090: 801d c73d b8fc 94bd 7694 af3d 234f af3d
000000a0: 9b11 41bd f08b 85bc e06a 773d e0cc 293d
000000b0: 3f54 b2bb 6729 4bbe 1be1 c23c a11d 203e
000000c0: 146b 1fbe 40ff b03b 2060 263e c98d 83bd
000000d0: e507 45bd 2bf6 df3d 13bf e13d b475 0dbd
000000e0: c696 dfbd 6564 3e3d f536 f2bd c37d 47be
000000f0: cba8 723e 0658 cb3d 8fca 3cbc 9074 0fbe
00000100: 2040 b3bd f5cb 6fbc 8475 a13d 921a 00bd
00000110: a564 40be c9f5 b9bd 052f 22be e7fc 85bd
00000120: 0762 823e 4e14 3a3d a862 303b b750 9a3e
00000130: c4a5 0a3e b16d c73d 945d a13e c0e1 793e
00000140: 0339 583e 9e2b 203e 34a5 183e dbdf 803c
00000150: bfc8 fd3b 0239 22bd 1c57 20be 7f25 9dbe
00000160: 932e 6cbe 86bb b2be aeed 08be 6f13 83bd
00000170: 887a eabd 5615 ebbc ed1e 49be 5923 a1be
00000180: cbb3 293e 01a1 27be c002 80be 7f57 ac3d
00000190: 9388 cd3b 3b36 7cbe 7c08 1cbe c864 8bbd
000001a0: ef27 80be dc19 62be db0e 37be 7c52 7abe
000001b0: 593d 083b cf45 223e 3212 203e 3bdb 4f3e
000001c0: 09fb 823e 05cf 423e cb36 213e b4c6 41bc
000001d0: c71b debd f9b6 de3c 225f 043e 4401 23be
000001e0: 53be 953b 0e42 ac3a 55e7 48be e9b2 583d
000001f0: 905a 3cbe c960 dbbe 5f01 d03d 8471 01be
00000200: 1162 303c c203 9abd 9948 82bc 5153 00bd
00000210: a0b2 0abe 37c8 42be 2ffa 3fbe 9f56 11be
00000220: c452 03be a67a 3fbe 3d7f fbbd 3cb4 fbbd
00000230: 0d3b 3dbd c8dc 8fbe 43c1 34be 2841 a23d
00000240: bc0f 243e fd76 fb3d bd24 753e 8396 4e3d
00000250: ab0e a5bd 9a01 09bd a073 4bbd 468f 5dbe
00000260: 4488 84be ea16 3d3c 235a 793e fb29 2f3e
00000270: 1978 38be d338 093c 73a7 87bd 1589 82be
00000280: a5f0 89be d0e0 babe 424e 353e bded 2f3e
00000290: 2ae4 ba3e 7794 a73e 827f a43d 5c8f b43d
000002a0: f669 a63e c5a1 403e 4134 0a3e 9f1d bebb
000002b0: bfa6 86bb ca4b 77bd 556a 803d dcc0 b3bd
000002c0: 5ef0 d3bd 7996 f8bd db51 7dbe 7eea 89be
000002d0: 0b3d 333d 9221 68bc 152c bf3d da0c 263e
000002e0: 5f0f 2a3e e5a1 c93d f36d 573e 2074 083e
000002f0: cb93 57bd 96cc 063e cec7 e03c 0c7a a23d
00000300: c3d1 133d 9a48 413e d55b aa3d f169 773e
00000310: f627 313e 349f 223c 43d9 83bd 6c9f ddbd
00000320: c987 c3bc 81e3 57be 753b a4be b920 4bbe
00000330: dd20 40be 7fea 25be 1b3e 8ebd 0694 1cbd
00000340: 3668 5cbd 286b fbbd ebaf 98bd 4ed7 7cbe
00000350: d21c 6fbe 8eb5 623e d73e 593d f6e4 7d3c
00000360: e85b ee3e dccc 573e 261d 413e 5cfe 6e3e
00000370: 9a0a d5bd 419c 05bd 1d83 093e f09e 4cbe
00000380: a8f8 9abd 4479 283e 1ed4 8f3d d6ec ee3d
00000390: 0ce4 27bd 3495 9bbd 7d54 1e3e 99b9 92be
000003a0: 2e95 34be d6de 8d3e c597 02be 60ac 32be
000003b0: 4496 f7bd 9d63 413e fde7 313e 399e a83d
000003c0: 181f ea3e 0945 ae3e 568f dabd 50a4 5e3d
000003d0: e188 703d b988 f1bc 14d1 07bd 1ea5 24be
000003e0: 22f5 1fbe 462a 093e e3ab 1839 428e 0cbd
000003f0: 7a48 32bc ce42 18bd f2e9 923d e51b 06bd
0.13353738 0.055037428 0.2046981 -0.05759506 -0.13867864 -0.1028107 -0.054368325 -0.17221902
-0.18257223 0.15203093 0.25981045 0.38732213 0.046421375 0.053563036 0.032177206 -0.03667978
0.011920697 -0.18791857 0.3153 0.13106006 0.2785771 0.025991965 -0.03513446 0.22612612
0.09001885 0.10484532 0.15419376 0.26297918 0.13510521 0.09594955 0.12590818 0.013426414
-0.0026837767 -0.19882172 -0.057756983 -0.10207265 0.097224236 -0.07274765 0.085732386 0.08560016
-0.04713593 -0.016302079 0.06040466 0.04145515 -0.005442172 -0.19840012 0.02378898 0.15636303
-0.15568191 0.005401522 0.16247606 -0.06423528 -0.048103232 0.10935625 0.11022773 -0.03453608
-0.109174296 0.046482462 -0.118268885 -0.19481568 0.23697202 0.099288985 -0.011522903 -0.14009309
-0.08752465 -0.0146360295 0.078837425 -0.03127534 -0.18788393 -0.09080083 -0.15838249 -0.06542378
0.25465414 0.04542952 0.0026914272 0.30139706 0.13539797 0.09737719 0.31516707 0.24402523
0.21115498 0.15641639 0.1490677 0.015731743 0.007744878 -0.039605148 -0.1565823 -0.3069267
-0.23064642 -0.34908694 -0.13371918 -0.06400191 -0.11449152 -0.028696697 -0.19640703 -0.3147228
0.16572492 -0.16370012 -0.25002098 0.08415126 0.0062723844 -0.24630062 -0.15237612 -0.06806332
-0.25030467 -0.22080177 -0.1787676 -0.24445528 0.002078852 0.15846942 0.15631941 0.20298474
0.2558215 0.19024284 0.15743558 -0.01182716 -0.10845142 0.027186858 0.12926915 -0.15918452
0.0045698076 0.0013142244 -0.19619496 0.052904997 -0.18393922 -0.4284728 0.101565115 -0.12640959
0.010765568 -0.07520248 -0.015903758 -0.031329457 -0.13544703 -0.19021688 -0.18747781 -0.141932
-0.12824541 -0.1869913 -0.12280128 -0.12290236 -0.046198893 -0.2809813 -0.17651848 0.07922584
0.16021627 0.122785546 0.23939796 0.050436508 -0.08059438 -0.033448793 -0.049670815 -0.21636686
-0.25885212 0.011541108 0.2435079 0.17105858 -0.18014564 0.008375364 -0.06623735 -0.2549521
-0.2694141 -0.36499643 0.17705634 0.17180534 0.365022 0.32730457 0.08032133 0.08816406
0.32502717 0.1881171 0.13496496 -0.005801871 -0.004109233 -0.060375012 0.06270281 -0.087770194
-0.10348581 -0.121380754 -0.24738257 -0.26936716 0.043759387 -0.01416816 0.0933458 0.1621584
0.16607426 0.09845332 0.21038036 0.13325548 -0.05263118 0.13163981 0.027439024 0.07933435
0.036088716 0.18875352 0.08318297 0.24161507 0.173004 0.009925652 -0.06437924 -0.10821423
-0.023868458 -0.2108288 -0.32076612 -0.19836701 -0.18762536 -0.16202734 -0.069454394 -0.038227104
-0.05381032 -0.12276298 -0.07455429 -0.24691507 -0.23350838 0.2213957 0.053038444 0.015496483
0.46554494 0.21074241 0.18858775 0.23339218 -0.10402413 -0.03261972 0.13428922 -0.19982505
-0.07566959 0.16452509 0.0702288 0.116662666 -0.040988967 -0.075968176 0.15461917 -0.28657225
-0.17635033 0.27709073 -0.12753208 -0.17448568 -0.12089208 0.18885656 0.17373653 0.082333036
0.45726848 0.34037045 -0.106718704 0.05435592 0.058724288 -0.02948414 -0.033158377 -0.16078612
-0.15620854 0.13395032 0.00014559882 -0.034315355 -0.010881538 -0.037173085 0.07173528 -0.032741446

conv5.bias f4 [32]
00000000: bc6f 9f39 ca4a 2338 4cd7 2e3a 374b 47ba
00000010: 8fd2 ce39 dfb5 393a 53e2 0bb8 03d0 89b8
00000020: c513 0b3a 2174 ccb8 f50d 68b9 8f8c 3ab9
00000030: b939 7739 7d2a 5439 7a7d 5e39 adca 003a
00000040: ee30 333a 5414 7139 2920 78b9 5579 1a3a
00000050: 7901 05b8 981e b0b9 ed5d bab9 d739 9eb9
00000060: c67a dab9 46b8 9ab9 b3ef 8339 9923 1038
00000070: 9b6c 043a 7f48 6138 0b96 b939 335e 6e39
0.00030410092 3.893188e-05 0.0006669655 -0.00076024554 0.0003944826 0.0007084291 -3.3350963e-05 -6.571414e-05
0.0005305375 -9.749109e-05 -0.00022130444 -0.00017790704 0.00023577259 0.00020233724 0.00021218313 0.00049130135
0.0006835599 0.00022991124 -0.00023663104 0.00058927137 -3.1711043e-05 -0.0003359213 -0.00035546665 -0.00030179202
-0.00041671674 -0.00029510463 0.00025164857 3.436543e-05 0.0005051584 5.3711698e-05 0.0003539774 0.0002273254

bn5.weight f4 [32]
00000000: e028 3e3f 883c 303f ec91 713f 2841 343f
00000010: 22b2 643f a47e 823f 5b5f 633f b11a 783f
00000020: d53e 5b3f 0d23 8a3f 491e 263f 76d8 783f
00000030: 7b1d 3e3f a161 723f af21 773f 14f0 283f
00000040: 22d2 513f 8db7 4b3f f1df 2f3f a522 503f
00000050: 0308 343f 1c35 413f 147f 3c3f ed9a 603f
00000060: adbf 683f f2dd 943f c1b4 3d3f 36be 873f
00000070: b0b2 5d3f 9175 4c3f 04c5 4f3f 1a58 493f
0.7428112 0.68842363 0.94363284 0.7041192 0.8933431 1.0194898 0.88817376 0.9691573
0.8564275 1.0791947 0.6488996 0.97205293 0.74263734 0.9468022 0.9653577 0.6599133
0.8196126 0.7957695 0.6870108 0.81302863 0.70324725 0.75471663 0.73631406 0.877364
0.90917474 1.1630232 0.74103934 1.0604923 0.8660078 0.7986689 0.81159997 0.7865006

bn5.bias f4 [32]
00000000: bd6d f93d fe8a bc3e b212 60bc cd96 853e
00000010: 7aa5 9cbd 2769 f8be fae0 573e 1c1a a4be
00000020: cd95 3a3e 1b3d bdbe c5b2 023f daa5 90bd
00000030: ebb1 a43e 3202 23be 451f 8abe 7024 1c3f
00000040: ff16 783e 6652 853e 5a96 f33e 5d4f a33d
00000050: c5f9 c63e ebc9 553e 0f3f cd3e f67d 29be
00000060: d179 1e3e 2e0b 11bf 8df5 963e 921e b0be
00000070: d44d 18bd f8f2 963e 2ca0 0e3f 289c 2a3f
0.12179134 0.36824793 -0.013676332 0.26091614 -0.0764875 -0.48517725 0.21081915 -0.3205117
0.18221207 -0.36960682 0.5105403 -0.07062884 0.3216699 -0.15918806 -0.26976982 0.609931
0.24227522 0.26039428 0.47575647 0.07974122 0.38862434 0.20877807 0.40087172 -0.16551957
0.15476157 -0.56657684 0.29484215 -0.34398323 -0.037183598 0.29482245 0.5571315 0.66644526

bn5.running_mean f4 [32]
00000000: 0db8 17be 4915 8ebf 0296 86bf 756f 1ec0
00000010: cc17 b13e ed79 31be e50b cbbf 81b6 21bf
00000020: 33be 723f 7979 543e 2858 a1bf 34e7 b43e
00000030: c5c3 9abf ab22 bc3e 2b70 fdbe ec10 c4bf
00000040: 06a6 9240 0451 80c0 3f3f 2b3f efbe cd3e
00000050: cc4c c23c b238 0cbf 458b 853f 6ac4 84bd
00000060: 408f 87c0 2c90 05c0 1023 513f 5d08 54bf
00000070: b5ba 82c0 34c2 b8bf 19ff 0ec0 553f 3e40
-0.14816304 -1.1100246 -1.0514529 -2.4755528 0.34588468 -0.17331667 -1.5863005 -0.63169104
0.9482147 0.20749463 -1.2605028 0.35332644 -1.2090994 0.367452 -0.4949964 -1.5317664
4.5827665 -4.0098896 0.6689338 0.40184733 0.02371826 -0.5477401 1.0433127 -0.064827755
-4.2362366 -2.0869246 0.81694126 -0.8282526 -4.0852914 -1.4434266 -2.23432 2.9726155

bn5.running_var f4 [32]
00000000: e8db 3b40 0947 5040 a37b 9440 d3b2 4f40
00000010: 7abb 5640 ab09 2240 7b02 5040 2d5d 3e40
00000020: dda7 8040 bc94 5a40 c3ce 5640 215a 7e40
00000030: d31b 7740 7fdf 5340 ca5e 6240 492e 7340
00000040: cd9e 6e40 90b7 8240 a765 4c40 3498 4c40
00000050: 82b6 7740 1235 8240 4b40 5140 5ae1 4a40
00000060: 8a0f 6640 79fd 7640 041d 4740 eae1 5040
00000070: 4b8d 7b40 c64d 9840 4e68 ae40 87e2 8a40
2.935297 3.2543356 4.6400924 3.2452896 3.3551927 2.53184 3.2501514 2.974437
4.020491 3.415328 3.3563697 3.974251 3.8610733 3.310516 3.5370355 3.7997
3.7284424 4.0849075 3.1937044 3.1967897 3.8705144 4.0689783 3.2695491 3.1700044
3.5946984 3.8592207 3.111146 3.2637887 3.9304988 4.759494 5.4502325 4.3401523
