model_weights/Tiny10/CIFAR10/in9-gn9/110000.pt (torch_old, 358762 bytes, 50 tensors)

conv1.weight f4 [16, 3, 3, 3]
00000000: 2cff 6abe 7338 28bf 51fa dd3e c837 30bf
00000010: 1cc7 e23f 13aa 21be 89a2 c63e 9cbf 6fbf
00000020: 4a21 083e a409 743a a53d 56be 2b88 88bd
00000030: aeae a1be bced fc3f 6774 cfbe 3f8c 2ebe
00000040: 040a 9abf f66e 823e ed13 a93e 0e81 39bf
00000050: e0f2 96bc 9519 bfbc 3eaf a63f b869 51bf
00000060: 2ba2 143e c5b4 8dbe 0967 3e3e 0bfe 223e
00000070: 8727 a8be 270f afbe 1308 abbd b25e 19bf
00000080: d1eb c3be 3f31 cdbe 5a79 3abf 68bf 9fbe
00000090: cceb 53bc 03fd 77bd 57d5 2abd 9f3f 0f3e
000000a0: 1890 2b3d cfa9 743d 6f55 3fbd 9c69 22be
000000b0: 9e6c 28bc b716 f43d f7f5 903e d897 113e
000000c0: 64bd fe3e c0a2 163f 175c de3e 2d9b c03e
000000d0: f8a6 a73e a26e 893e fb1e 823c 8138 fd3c
000000e0: 487d 8dbd 93b6 c63d bf2b 6a3e 669c 90bc
000000f0: 3906 3d3e bf52 1a3e 6ff7 bbbd 6acd 743c
00000100: 634f dc3d c1f3 4dbe 5bcd 403e 8443 d03e
00000110: 4895 bebc de2e 483e ed98 733e 2dd7 b4bd
00000120: 234f b2bc 0a5f 5e3e 6480 583c ccaa 2bbe
00000130: 3d78 173e 7401 78bd 9b19 5abe 82e3 d0bd
00000140: 5e03 2abe 6492 3fbe d7c8 f63e cebd 6e3e
00000150: b5d1 743e 9428 b23d 1184 2a3e dff1 be3e
00000160: 0c39 3cbf b2ea 8ebe 167c d63d d896 b83d
00000170: ba73 91bd f2c7 ed3d c27a 05bf b558 bbbd
00000180: c44e 2e3e 930b 81bf 22f3 eebd 86d7 9c3c
00000190: 107f 533d 22cb a9be 0f77 d63c 54b4 dabd
000001a0: 11f7 8d3e 53c7 02be 7e98 1fbf 110e a53e
000001b0: 0a6f 72bd 7eab 9e3e a178 903e 54e7 1c3f
000001c0: 63eb 903f 71a5 283f 9498 cc3e c448 2e3f
000001d0: d178 083d 7226 06be e27c d8be ca79 95be
000001e0: 8483 0ebf 3a96 68bf eb37 edbe 2e14 65be
000001f0: ff01 c7be a54d c13d d7a7 483e 9bc7 9a3d
00000200: cb09 a83c 6201 47bd 763e d4be f15b febc
00000210: bd2e 11bd 9e37 01bf 232f cebd d5a6 94be
00000220: 6461 7d3e 2c5d 193d cddd 983e cab6 aebf
00000230: 83fb 073f 7afe f53e a4f4 8dbe 130f 143f
00000240: 3295 20bd 4ad2 e33e 4593 2b3f 79c4 74bd
00000250: a5ee cfbf 6d90 bd3e 410f e1be d601 03bf
00000260: 7e87 363f cd92 573e f19d 5b3d b7e8 9cbe
00000270: 7edd 9a3f 225a 86bf 22c4 1ebf c855 4f3f
00000280: b421 99bd 2822 aa3c 69cc dfbd 61af 23bf
00000290: eda4 cbbe 5479 fdbd 1513 96be 9b2a 1cbd
000002a0: be83 c53e 8ff9 c03e 2f4d c33e 450b b0be
000002b0: e8a0 2bbf 9efa 77be fc4a bbbd 3c02 08bd
000002c0: c35c 3c3e cc7e fb3e 1e35 293f 0cea 013f
000002d0: e27d 2cbf 93eb 5fbf 43fa a9be e6e7 66be
000002e0: a7a3 02be bdf9 0b3e 914d 2a3f 9e8a 4f3f
000002f0: 8ef0 203f 2732 a1be 511b 94be 5a72 503d
00000300: f894 f9bc 0679 7d3d bb94 833e a12e ce3d
00000310: 03ef 713e 9031 343e c96f e4be 5615 cdbe
00000320: b012 34be 84ce 35be 6a67 99bd 438d 863d
00000330: 972a 27bd 76f2 183e 3406 e53d 81de 0abf
00000340: 1b0b a1be 7737 a8bd a5c3 90be 5a10 83bc
00000350: cb0b 053e 200d 81be efab 31bb 7ff4 06bc
00000360: 8075 f2bd ca0b 21bc 5a5a 133e 2614 4c3f
00000370: 7c8c 4a3d dc8c 51bf c90e 8f3f b896 5d3d
00000380: bf40 9dbf 87a4 253d 4b2b 00be 3b3b 1dbd
00000390: 76dc 723f 959a 89bd 9187 75bf 9e7b a73f
000003a0: 5be9 cd3d 88b4 9ebf 0cee aabe 20dc 8ebd
000003b0: 69cf e43e aeb4 f33e ee4d 84bd 244f f2be
000003c0: 6b21 713f f096 a53d 535d 73bf 1c7f a13e
000003d0: b0a4 a5bd 8f54 d3bd 3691 1dbf 1c5a a7bd
000003e0: 5c0f 123f f4cd 6dbf 6940 a03c 8da8 7c3f
000003f0: c81f c03c 5ffd e4bd c63f 8e3c e875 79bf
-0.22948903 -0.65711135 0.4335504 -0.68835115 1.7717013 -0.15787534 0.3879588 -0.9365175
0.13293949 0.0009309298 -0.20921953 -0.06666597 -0.31578583 1.9760051 -0.40518495 -0.17045687
-1.2034307 0.2547528 0.33023015 -0.72462547 -0.018426359 -0.023327628 1.302223 -0.8180194
0.14514987 -0.2767698 0.18593992 0.15917222 -0.32842657 -0.34191248 -0.083511494 -0.5991012
-0.3826585 -0.40076634 -0.7284142 -0.3120072 -0.012934636 -0.060544025 -0.041707363 0.13989113
0.041885465 0.059732255 -0.046712335 -0.158606 -0.010279803 0.11918395 0.28312656 0.1421808
0.4975387 0.58842087 0.43429634 0.3761839 0.32744575 0.2684222 0.015883913 0.030910732
-0.06908661 0.09702792 0.2286825 -0.017652702 0.18459405 0.15070628 -0.091780536 0.014941553
0.10757329 -0.20112516 0.18828337 0.4067651 -0.023264542 0.19549128 0.23788805 -0.08830104
-0.021766251 0.21715942 0.013214204 -0.16764373 0.14791961 -0.06054826 -0.2129883 -0.10199644
-0.16602847 -0.18708187 0.48200104 0.23314592 0.23908122 0.08699146 0.16651942 0.37293908
-0.73524547 -0.27913433 0.10472886 0.09013146 -0.07102151 0.11610402 -0.5214044 -0.09147779
0.17022234 -1.0081657 -0.11667468 0.019145738 0.051634848 -0.3316279 0.026179818 -0.10678926
0.2772756 -0.12771349 -0.6234206 0.32237294 -0.059187926 0.30990213 0.28217033 0.6129048
1.1321834 0.65877444 0.39960158 0.6807978 0.033318345 -0.13100603 -0.42282778 -0.2919448
-0.55669427 -0.9085423 -0.46331725 -0.22370979 -0.3886871 0.09438638 0.19595276 0.07557603
0.020512482 -0.048585303 -0.41453904 -0.0310497 -0.035444964 -0.5047549 -0.10067584 -0.29033533
0.24744183 0.03744237 0.2985672 -1.3649533 0.5311815 0.48045713 -0.27725708 0.578355
-0.039204784 0.44496375 0.6702159 -0.059757683 -1.6244704 0.3702425 -0.4395695 -0.51174676
0.71300495 0.21052094 0.05361742 -0.30646297 1.2098844 -1.0496256 -0.62018025 0.80990267
-0.074771315 0.02076824 -0.1092766 -0.6393948 -0.39774266 -0.12376657 -0.29311433 -0.03812657
0.38577074 0.37690398 0.38144824 -0.34383598 -0.670424 -0.24216697 -0.091451615 -0.033205256
0.18394761 0.49120176 0.66096675 0.5074775 -0.6737958 -0.8746883 -0.33198747 -0.225494
-0.12757741 0.13669486 0.66524607 0.8107089 0.6286706 -0.31483576 -0.2892709 0.050890304
-0.030466542 0.061882995 0.2569941 0.100674875 0.23626332 0.17597032 -0.44616535 -0.4005534
-0.17585254 -0.1775456 -0.07490428 0.06569912 -0.0408121 0.14936242 0.11182824 -0.54245764
-0.31453785 -0.08213704 -0.28274265 -0.015999008 0.1299278 -0.25205326 -0.0027110537 -0.008237003
-0.118388176 -0.009829471 0.14389935 0.79718244 0.049450383 -0.8185556 1.1176387 0.054098815
-1.2285384 0.04044011 -0.12516515 -0.038386565 0.94867647 -0.06718937 -0.9590998 1.30846
0.10054275 -1.2398844 -0.3338474 -0.06975579 0.4468949 0.47598785 -0.064601764 -0.47326005
0.94191617 0.0808543 -0.95064276 0.3154229 -0.08088052 -0.10318863 -0.615497 -0.08171484
0.57054687 -0.92892385 0.019561963 0.9869469 0.023452654 -0.11181139 0.017364394 -0.97445536

conv1.bias f4 [16]
00000000: 99fe 093a 244c 8ab9 a4db 1d3b df98 063a
00000010: 4e6d 3e39 8492 caba de8e 8639 13a4 563a
00000020: 1a06 8638 235e de3a ebf7 1b3b 4f37 1a3b
00000030: 1faa 03b9 136f db3a 8642 fa3a 0921 d4ba
0.0005264073 -0.0002637814 0.0024087215 0.0005134474 0.00018160531 -0.0015455042 0.00025664916 0.0008187901
6.3907544e-05 0.0016965311 0.0023798894 0.0023531502 -0.00012556509 0.0016741477 0.0019093312 -0.0016184162

bn1.weight f4 [16]
00000000: f920 a03f eb07 f83e 0bbb 4b3f e111 9a3f
00000010: 4f3d e03e 5286 a83f 217a 1f3f 57cc a73f
00000020: e1fe 873f 1132 813f e463 493f 0123 393f
00000030: b99e d63e eba7 173f d8eb ef3e 61c3 123f
1.2510062 0.4844354 0.7958228 1.2036706 0.43796775 1.3165991 0.6229573 1.3109235
1.0624658 1.0093404 0.78668046 0.72319037 0.4191797 0.592406 0.46859622 0.57329375

bn1.bias f4 [16]
00000000: 9efa ba3f cb22 7d3e 5e50 3dbf daa4 16bf
00000010: 174e 843e bd53 933f 5f6b 113f 9a9f a0bf
00000020: 8450 173c c014 6c3b 6f3d a3be 82d2 a83f
00000030: 981c 2c3e 7190 ea3e 88fe bc3b c003 103f
1.4607732 0.24720304 -0.73950756 -0.58845294 0.25840828 1.150993 0.5680446 -1.2548707
0.009235505 0.003602311 -0.31882808 1.3189242 0.16807783 0.45813325 0.005767647 0.5625572

bn1.running_mean f4 [16]
00000000: bedf da3c 1513 f2b9 d7ef 55be c4b1 ae3e
00000010: a5e2 ad3d be9c 3bbd 0663 c7bd 4b74 e73e
00000020: 0973 a93c c234 bebc ec16 913e cb86 493d
00000030: d1b9 24bc 742d fabc e005 6dbe 194e afbd
0.026718017 -0.00046172054 -0.20892273 0.3412 0.08490495 -0.045803778 -0.09735684 0.45205912
0.020684736 -0.023218516 0.283378 0.049200814 -0.010054068 -0.030539252 -0.23146772 -0.08559818

bn1.running_var f4 [16]
00000000: 87ff f93f 289a b140 09a8 0240 f7bf a440
00000010: 0e89 8940 2def 6d40 659c 8641 da66 1341
00000020: feaf 9d41 0126 b041 fbd9 9c40 978f d63f
00000030: 3661 f63f 7fb9 0a40 78a1 2f40 093e b340
1.9531106 5.550068 2.041506 5.148433 4.2979803 3.7177231 16.826365 9.21261
19.710934 22.018557 4.901609 1.676257 1.9248416 2.1675718 2.7442303 5.6013227

conv2.weight f4 [16, 16, 3, 3]
00000000: da58 3b3d 93da 3a3e a370 16bb 2e0d 243e
00000010: ee52 163e db11 2bbd a0ff c6bc c215 65be
00000020: 79c5 60be 4b9f 17be 9c45 6fbd 5845 803d
00000030: 600e eebd b01a fb3c c7b0 283e 2f17 e7bb
00000040: e6c6 173e a70f 7a3e 9c8c 203d 1490 343e
00000050: 4f97 113e bc66 8e3d a680 f33d aa3f 523d
00000060: c05f 2cbd e9f6 b2bc 6f21 92bd b8a1 7bbe
00000070: 5426 19be 37a3 6c3d 3533 a93d f95f 8d3e
00000080: d010 ad3e 2ba7 763e 1981 ee3d b55f 09be
00000090: ed55 2e3e f4c9 653e 5988 183e d159 2e3e
000000a0: 9173 aa3d 5409 0abe 4024 e13d 14b4 abbd
000000b0: e23e a3be 198f 213e 63f3 b7bd 58e6 64be
000000c0: e262 04be 1ffc cebe e60d 6dbc e214 2a3d
000000d0: 53f4 773e 2d06 af3e bb01 533e 248d 9cbc
000000e0: 75c1 83be 1db8 b9be 78b8 07bf 2b81 0bbf
000000f0: a87a 4ebf 83d8 13bf c09f 7cbe 0bbe c8ba
00000100: afc6 1abc 3f14 10be f611 17bd e8b7 12be
00000110: 6181 32be ca51 acbd 5050 99bd 8bd1 923c
00000120: 7f21 e9bd ba38 2d3c 02d9 be3d a753 903d
00000130: 00bd e03d 8852 8b3e 5d53 8c3e 9466 48be
00000140: 0c1b 23be 170f f33d 6bd0 13be 24b4 b5be
00000150: aabd aabe ef8d 7cbe c1ae 89bd 4a1e bdbe
00000160: 4304 8fbe 584a 8e3d 221d d6bc cfd7 e73d
00000170: 51cf cb3b 105b 38be 9280 1cbe 8a24 b2bd
00000180: 31a6 46be 3082 8dbd 310c 7f3e ab43 8a3d
00000190: 802e 9b3e b14c b0bc 9112 0e3e 2f07 f03d
000001a0: 0baf 14be 059a 0cbd c307 c0be be68 a7be
000001b0: fa09 8c3d 3eca cb3d 8414 a73d 4a3e 613d
000001c0: a4bf a73c 7bee 5ebd 4d25 20be 49ee 54be
000001d0: bc7d 8cbe bf1e febd bf51 2ebc 0a91 a1bd
000001e0: 4e7f 3abc 4171 0a3e 8d68 07bd bead c83d
000001f0: 153a 043e 129d 90be d116 26bd 4360 f3bb
00000200: d087 06bd 2d01 953d 345e 513d 320b 37bb
00000210: 6818 0abe 2e7a 16be b122 d7bd 9fb9 2bbe
00000220: 1cab 9e3c 2d8a 723e 49eb 37bc 1154 7a3e
00000230: 30b8 a73e ec41 cf3e 9c03 c63e c8bb f33d
00000240: 0ab1 c5bd 8a69 2f3e aaf6 703d f71d b73d
00000250: 6f70 8dbd 3a0f a53d f0a4 403c f2c8 aa3c
00000260: df40 f9bd e73e 2d3e 1a1a 88bd 16e8 8abe
00000270: a5d4 223d e3db 7ebe 3779 e0be a844 5c3d
00000280: cf09 69be 8ae9 babe 861a 9c3c 3731 a4bd
00000290: e15a bbbd 2039 033e b6fc 983c de6d 0c3e
000002a0: 64eb 233e a4af 143e 4d8d b13e c403 eebd
000002b0: da5a 30be dbd5 4c3e 6d0a afbd 0050 4a3e
000002c0: d646 bf3e 008c a7be c83b e3ba 5ec6 9b3d
000002d0: a698 03bf ec5b 81be 1e65 87bc 4359 45bd
000002e0: 54cf dc3e cb51 193f 460b 993d 4ed7 0b3f
000002f0: 840c 103f 5beb dabd d456 a63d 111d fc3d
00000300: 12f0 52bd 650e 933d b829 133e 428c b0be
00000310: bae6 23bd a4e9 b53d 0f2c 143d ba73 323e
00000320: 363d 163e 56e0 1fbd 2e4c d13d 75ea 323c
00000330: b4cb 80bc 96f7 77bd 4ee3 76bd c6f5 24bd
00000340: 1c99 04be 95fd c0bd 5822 61bc e8a6 a0bd
00000350: 99dd 59bc 10a4 c2bc b903 d3bc 282f 173e
00000360: 6365 743d 28b6 7b3e 65d0 c63d 7fd3 2cbd
00000370: 850f 083e a321 df3d 289b a3be 4959 753c
00000380: 0a94 ad3c e096 663e 2533 eb3d a25a 553e
00000390: 29d9 a03e 874d 653d 3097 e0bd 5952 753e
000003a0: e559 41be 4d4d 20be d0e7 393e 6312 0d3d
000003b0: 9c6d ac3d b325 beb9 d77f 38be 1c55 59be
000003c0: d995 4fbe aa8f cabe e858 e3be 9ac2 fcbd
000003d0: 96c7 cc3c 9834 cb3e de6a 2ebf e73f 32bd
000003e0: 7719 513f 8fc9 35bf b80b 8cbe ee0a e83e
000003f0: 79eb 243c 0017 09be 829f 40be 0bde e4bd
0.045739032 0.18247442 -0.002295532 0.16020653 0.14680073 -0.041765075 -0.024291813 -0.22371581
-0.2195033 -0.14806859 -0.058415994 0.06263226 -0.116238356 0.030652374 0.16473685 -0.0070523242
0.14821967 0.24420033 0.039196596 0.17633086 0.14217876 0.06953189 0.11889772 0.051330246
-0.0420835 -0.021846252 -0.07135283 -0.2457341 -0.14956027 0.05777284 0.0826172 0.27612284
0.3380189 0.24087207 0.11645717 -0.13415416 0.17024966 0.2244032 0.14895763 0.1702645
0.08322824 -0.13480121 0.10993242 -0.083839566 -0.31883913 0.15777244 -0.08981969 -0.22353494
-0.12928346 -0.40426728 -0.014468646 0.04152382 0.24214296 0.341844 0.20606129 -0.01911027
-0.25733534 -0.3627328 -0.5301585 -0.5449397 -0.8065591 -0.57752246 -0.24670315 -0.0015315426
-0.009446784 -0.14070223 -0.036882363 -0.14327967 -0.17432167 -0.084140375 -0.074860215 0.017922183
-0.11383342 0.010572607 0.09318735 0.070472054 0.10973549 0.27211404 0.2740735 -0.1957038
-0.15928286 0.118681125 -0.14434974 -0.35489 -0.33347827 -0.24663518 -0.06722785 -0.3693717
-0.2793294 0.06947774 -0.026136938 0.11320459 0.0062197824 -0.18003488 -0.1528342 -0.086983755
-0.19399334 -0.06909597 0.24906994 0.06751188 0.30308914 -0.021520944 0.1387427 0.1172012
-0.14519899 -0.034326572 -0.37505922 -0.326971 0.068378404 0.09950684 0.0815821 0.054991044
0.020477124 -0.05442665 -0.15639229 -0.20794024 -0.27439678 -0.12408208 -0.010639607 -0.07888992
-0.011382891 0.13519765 -0.03305869 0.09798764 0.12912782 -0.28244835 -0.040549103 -0.007427247
-0.032844365 0.07275615 0.05111523 -0.0027930257 -0.13485873 -0.14695045 -0.10504664 -0.16770028
0.0193687 0.23685522 -0.01122553 0.24446131 0.3275771 0.40479982 0.3867463 0.11901051
-0.09652908 0.17130104 0.058828987 0.08941262 -0.06906211 0.08059545 0.011758074 0.020847771
-0.12170576 0.16918527 -0.066456035 -0.27130193 0.039753575 -0.24888568 -0.4384248 0.053776413
-0.22757648 -0.365063 0.019055616 -0.080171995 -0.09148193 0.1281476 0.01867519 0.13713786
0.16007763 0.14520127 0.34678116 -0.11621812 -0.17222157 0.20003454 -0.085469104 0.1975708
0.3735873 -0.32724 -0.0017336542 0.07606195 -0.514048 -0.25265443 -0.016527709 -0.04818083
0.4312693 0.5989043 0.07472853 0.54625404 0.562691 -0.10689422 0.0812203 0.123102315
-0.05149848 0.0718048 0.14371383 -0.34482008 -0.04001496 0.08882454 0.03617483 0.17426959
0.14671788 -0.039032303 0.10219608 0.010920157 -0.015722133 -0.06053885 -0.06027537 -0.04027345
-0.12949032 -0.09423367 -0.013741098 -0.07844335 -0.013297462 -0.023759872 -0.025758611 0.14764082
0.059667002 0.24581206 0.09707717 -0.042193886 0.1328717 0.108950876 -0.31954312 0.0149749005
0.021188755 0.22518492 0.114843644 0.20835355 0.3141568 0.05598214 -0.10966337 0.23957194
-0.18881948 -0.15654488 0.18154836 0.034441363 0.08419344 -0.00036267712 -0.18017517 -0.21223873
-0.20272006 -0.39562732 -0.44403768 -0.12341805 0.024997514 0.39688563 -0.68131816 -0.043517973
0.8167948 -0.7101068 -0.2735269 0.4532084 0.010065907 -0.1338768 -0.18810847 -0.11175164

conv2.bias f4 [16]
00000000: 1f1b 0d39 f65e 4839 d756 473a dc3b b039
00000010: 4eee 13ba caf8 69ba c241 17ba 4b44 8fba
00000020: 5fb8 183a bbf6 77ba 830d 33ba a329 22ba
00000030: 0c6c 903a 218b 233a 6df0 9db9 6e2b 7c3a
0.00013456911 0.00019108862 0.00076041877 0.00033613935 -0.0005643115 -0.0008925317 -0.00057699915 -0.0010930387
0.0005825813 -0.0009459068 -0.00068303215 -0.0006186014 0.0011018529 0.00062386884 -0.00030124505 0.00096195086

bn2.weight f4 [16]
00000000: d6b5 993f a412 373f 99e6 663f 6c51 803f
00000010: f191 c63f cab5 a23f affc e53f 5e1c 863f
00000020: a085 963f 84a5 553f f5e3 603f 31aa 3a3f
00000030: 7d80 a43f 4d55 533f e4be 743f 5521 833f
1.2008617 0.7151282 0.90195614 1.0024848 1.5513288 1.2711728 1.7967738 1.0477407
1.1759529 0.8345568 0.87847835 0.7291594 1.2851712 0.82552034 0.95603776 1.0244547

bn2.bias f4 [16]
00000000: 2395 d13c 902a fd3e 67bc 0dbe e0f3 fb3e
00000010: 5aad 02be a475 a7bd ea95 dfbd 6312 c33e
00000020: d081 12be 200e 133e 5001 c73e 1cd1 943e
00000030: 35db 2cbe a547 933f 68d2 27be 4e9b 073e
0.02558381 0.49446535 -0.13841401 0.492095 -0.12761441 -0.08176735 -0.10917266 0.38099965
-0.14307332 0.14360857 0.3886819 0.29065788 -0.16880496 1.1506239 -0.16388857 0.13242838

bn2.running_mean f4 [16]
00000000: 90e0 dcbf d518 f2bd d563 363d 05af 87bf
00000010: 4705 adbf 5546 fab9 70ab 45bf 24ca c9bf
00000020: 3603 88bf 71f3 fabf 593c adbf 40de 4abf
00000030: 954a 9fbe 5f64 80bf 0413 dd3d cd60 0dc0
-1.7256031 -0.118211426 0.0445288 -1.0600287 -1.3517236 -0.00047736117 -0.7721472 -1.5764813
-1.062598 -1.9605542 -1.3534042 -0.79245377 -0.3111159 -1.0030631 0.107946426 -2.2090333

bn2.running_var f4 [16]
00000000: 15f2 1a41 f743 4940 bbd8 2240 0972 d140
00000010: 463a c541 3a91 5541 64e1 2742 1cbe cd40
00000020: cb67 0a41 df52 3640 f6ff 9140 3065 0840
00000030: 8f2d 2641 28f0 0b40 0913 ed3f ad54 b840
9.684102 3.1447732 2.5444782 6.5451703 24.653454 13.347956 41.970108 6.4294567
8.65034 2.848808 4.562495 2.131176 10.386123 2.186533 1.8521434 5.7603364

conv3.weight f4 [32, 16, 3, 3]
00000000: 7bd2 1cbe ec61 a6bd 8c19 8ebd af4a 8c3d
00000010: 2313 bc3d 3710 9abd 6229 bbba 4cdc 10be
00000020: b00a 2ebe 2603 aebe 4e03 87be 11df 9f3d
00000030: 95ff a3be 9fb1 6dbe cb24 773e 2589 a7be
00000040: fd7f 9fbd 7d3f a93e f7d2 213e bda3 a53c
00000050: 076d a3bd fef3 b63c 8f5e 7abe 1676 2abe
00000060: 9e5f 833c fe29 8fbe 3ae7 39be 128e 0e3f
00000070: 8ef1 053f 1368 0b3f b0d3 d13b 263f a1bd
00000080: 408b 90bc be88 9cbe 7834 94be f913 85be
00000090: 2faf 783e 316e 723d 6c50 813c 30f0 663e
000000a0: 0276 293e 1fd8 af3d 7c96 05bc 6928 613d
000000b0: 2e80 f53b b497 c23d a9e8 d73d 96c7 2d3e
000000c0: 8143 ea3d 9585 843d 769f f23d bca1 b3bc
000000d0: 3e1f 9ebd 4a00 483c d14b 38be 8d9d 99be
000000e0: 8a7c 15be c634 a33d 763f 9b3e 5406 523e
000000f0: 8914 6d3e ca71 143f 3421 d33e 2d1d 193e
00000100: 555f 03bd e2e1 e4bd e345 453c abff 60bb
00000110: fbe7 03bd a277 8cbe de7a 31bd 9fa3 b13d
00000120: 01d5 cfbc 7a52 cfbd b84b 793c 81f1 ffbb
00000130: 7550 013d 77d5 033e 7c9a e03d 3193 843e
00000140: 85a9 2e3e 4e28 243e 04bb 8a3e 6aeb 04be
00000150: a2f3 8b3e cf54 463e 42b6 b2be d0c9 0a3e
00000160: aeb1 94bd c272 07bf 7ea4 81be 4bf1 8cbe
00000170: e497 81bd bb92 a0be 0106 52be bc98 ef3c
00000180: ca63 8ebe 3eb0 b6bd 0f31 023e 1ae5 32be
00000190: fbb4 4cbc 32de 4a3e 84e6 8abe cf26 5dbd
000001a0: 9c7d c13d f0a1 7ebe 8727 01be 0153 d7bd
000001b0: 6b38 6e3d 4c0a 993d abbc 2abb 765f 583e
000001c0: cbec 6c3e 8d58 f9bb 5744 c53d be33 573e
000001d0: 05c5 953d 3271 02bf 3770 d0be cead d3bd
000001e0: 3bc6 80be 4fb6 3f3c 11f2 813e 0b5b 46bd
000001f0: 3aee 553e fa30 a33e 8f42 12be df81 57bd
00000200: c818 3f3e 0c6b 97bd a5e4 213e 82a8 283e
00000210: 2ce5 93bd d5d2 4e3c 6891 24be 6bef 5dbd
00000220: 382d 053e 0eee 843e aeed 6fbd df81 373e
00000230: ed52 943e 21a9 4fbe 89b0 923c 6577 6f3e
00000240: 3116 b6bd adc3 3dbd 07c5 163e fa6d 3fbe
00000250: 2bc4 91be cf6e 92be f68a a2bd fe79 02be
00000260: 029e a5be 65e6 113e d014 2d3e 3ac3 683e
00000270: 1520 7fbc 3897 473c d028 87bb 92c7 8a3d
00000280: 5127 15be 65bd f9bd dac5 393e b639 91bd
00000290: 905d b03d 5437 72bc c30f 3fbe 5e8a 19be
000002a0: d6c9 1c3c f235 8cbd 7f82 5ebd c232 633e
000002b0: a044 a83e 9f40 143e 1a0a 01be dad6 e23d
000002c0: d9f6 3b3e 58f4 bbbe 6c52 40be c4b3 8b3c
000002d0: d5db 56be 6e81 31bd 6e8c 9f3b ae00 c1be
000002e0: e34f 58be dc79 6ebe c344 fdbd 0186 a3be
000002f0: 69b7 5dbe 0708 473e ebe3 693e 4f11 083e
00000300: 1647 e83e bbb5 8a3e 171b 4a3e e525 a13e
00000310: 2c54 853e 4c46 9d3d 0c2e a0bd 7292 debe
00000320: 4765 cebe 388e 6d3d 2d44 99be 8afa 8fbe
00000330: 4a21 2b3e 6b60 febb 997d 10be 499a 023e
00000340: e6bc 1d3e eeb8 b53e 7157 c8bd 9fe9 3dbd
00000350: caf6 143e 77da e0bc 2ed3 03bd dfba d8bc
00000360: d8a9 053d d8b3 0fbe 409d 36be 3e92 153e
00000370: af4f 97bd a797 8dbe 607f 5e3e 726d 3e3e
00000380: f3b3 823c 9e38 453e aef1 883d c551 d03d
00000390: 0528 3e3d 9e99 60bd c6cf 8ebc 6821 b73b
000003a0: 1d53 3abe a03c 6abe 32df de3d c5b3 813e
000003b0: fbc7 033e 872e d8bb 41c6 7d3e e7d4 783d
000003c0: d293 3fbb d5bc 443e 3594 353d f8de fd3c
000003d0: a0cc 113e 59f2 5c3e 8cec 19bd 0649 cd3c
000003e0: 06cc e23d 1b75 9839 ceea bfbc d945 edb9
000003f0: 3c9b 73be 1500 60be d634 36be a198 a7be
-0.15314667 -0.08124146 -0.069384664 0.06850182 0.091833375 -0.07522624 -0.0014279301 -0.14146537
-0.16996264 -0.33986777 -0.2636971 0.078062184 -0.3203093 -0.23212288 0.24135129 -0.3272182
-0.07788084 0.3305625 0.15803133 0.020219678 -0.0797978 0.022333141 -0.24450134 -0.16646609
0.016036805 -0.27961725 -0.18154612 0.5568553 0.5232171 0.5445568 0.006403409 -0.07873373
-0.017644525 -0.30573076 -0.2894628 -0.259918 0.24285577 0.059187118 0.015785418 0.22552562
0.16548923 0.08586144 -0.008153554 0.05497018 0.007492087 0.09501591 0.10542423 0.16970667
0.114386566 0.06470791 0.11846821 -0.021927707 -0.07720803 0.0122071 -0.17997672 -0.30003014
-0.14598289 0.0796905 0.30321854 0.20510226 0.23152365 0.5798613 0.4123627 0.14952536
-0.032073338 -0.11175896 0.012040588 -0.0034332077 -0.032203656 -0.27435023 -0.043330066 0.08673786
-0.025370123 -0.10123153 0.015215807 -0.007810772 0.03157087 0.12874399 0.109669656 0.25893548
0.17056854 0.16031 0.27095807 -0.12980428 0.27334315 0.1936829 -0.34904677 0.13553548
-0.07260452 -0.5290948 -0.2532081 -0.27527842 -0.06327799 -0.31361946 -0.20510103 0.029247634
-0.27810508 -0.08920334 0.12714027 -0.17470208 -0.012494321 0.19811323 -0.27128994 -0.05399209
0.09447786 -0.24866462 -0.12612735 -0.105138786 0.058159273 0.07472667 -0.0026052396 0.21130165
0.23137204 -0.007609433 0.096321754 0.21015832 0.07312969 -0.5095397 -0.40710613 -0.10335885
-0.25151238 0.011701181 0.25379995 -0.04842667 0.20891657 0.31873304 -0.14283203 -0.05261409
0.18661797 -0.073934644 0.15809877 0.1647053 -0.072214454 0.012623508 -0.16071093 -0.054183405
0.13005531 0.2596287 -0.05857628 0.17920636 0.28969517 -0.20279361 0.017906444 0.23385389
-0.088909514 -0.04632919 0.14723597 -0.18694296 -0.28469977 -0.28600165 -0.07936661 -0.12741849
-0.32347113 0.14248045 0.1690247 0.22730723 -0.015571614 0.012182049 -0.0041247383 0.06776346
-0.1456578 -0.12194327 0.1814188 -0.070910856 0.08611596 -0.014783699 -0.18658356 -0.14994189
0.009569606 -0.06846227 -0.05432367 0.22187331 0.32864857 0.14477776 -0.1260151 0.11076136
0.18355884 -0.36709857 -0.18781441 0.017053492 -0.20982297 -0.043336324 0.0048690354 -0.3769583
-0.21124224 -0.23288673 -0.12366631 -0.31938174 -0.21651997 0.19436656 0.2284085 0.13287853
0.45366734 0.27091774 0.19736896 0.31474224 0.2604078 0.07679424 -0.07821283 -0.43471104
-0.40311643 0.05799696 -0.29934826 -0.28120834 0.16711918 -0.0077629588 -0.14110412 0.12754168
0.1540409 0.35492653 -0.09782303 -0.046365377 0.14547268 -0.027447922 -0.03218382 -0.026456295
0.03263268 -0.14033449 -0.17833424 0.14606568 -0.07388245 -0.27654764 0.21728277 0.18596438
0.015954947 0.19259879 0.06686722 0.10171846 0.046424884 -0.054834 -0.017433058 0.005588699
-0.18195768 -0.22874689 0.10882415 0.25332466 0.12869255 -0.0065973434 0.24782659 0.060749914
-0.0029232395 0.19212659 0.044330794 0.030990109 0.14238214 0.21576823 -0.037579104 0.025059234
0.11074071 0.0002907895 -0.023427393 -0.00045256203 -0.23789686 -0.21875031 -0.17793593 -0.32733634

conv3.bias f4 [32]
00000000: 6230 e6b9 af41 e439 2466 de39 4b39 da39
00000010: 910f aab9 4867 ffb8 965c 763a 1f9f 153a
00000020: a2f0 1cb9 f8c4 4dba 55c4 32ba 92b2 9db9
00000030: 08c6 80ba df87 d8b9 8591 3f3a 2704 103a
00000040: 4d27 d5b9 b256 163a 64e2 7c3a b794 7a3a
00000050: e14a 703a ccfc 803a 36b0 3cb7 ea8b a939
00000060: 440b 6f3a ca19 6938 6bfa 6dba 0e26 853a
00000070: 11e9 fc38 2bda 01ba d0c0 0439 bc5d 6938
-0.00043905067 0.00043536487 0.0004241924 0.00041622887 -0.00032436525 -0.00012178585 0.00093979517 0.000570761
-0.00014966962 -0.000784948 -0.0006819417 -0.0003007842 -0.0009824643 -0.00041299962 0.0007307756 0.0005493783
-0.00040655807 0.00057349645 0.0009646772 0.00095589034 0.0009166431 0.0009840964 -1.12467005e-05 0.00032338436
0.0009118805 5.5575547e-05 -0.00090781477 0.0010158436 0.000120597084 -0.0004953469 0.00012660329 5.5638826e-05

bn3.weight f4 [32]
00000000: 58d2 323f 18f2 9a3f e2a2 a43f 76df 753f
00000010: 5749 4d3f 3fea 5e3f f472 4b3f 2b06 813f
00000020: 3098 7a3f 201c 283f 0223 4a3f aa07 723f
00000030: 5631 6c3f 3556 493f fd3d 3a3f 042a 2e3f
00000040: e674 803f d746 8f3f eb79 8d3f 0a21 433f
00000050: 2b4c 4b3f 9d66 823f 5ff9 7b3f e518 3e3f
00000060: 2086 5d3f 5f25 813f 0e1c 183f a0b4 4b3f
00000070: d66f e13f 3dc0 5d3f ab8a 313f 1edd 453f
0.6985221 1.2105131 1.2862208 0.960441 0.8019003 0.8707618 0.7947228 1.0080007
0.9788847 0.65667915 0.7895967 0.94542944 0.9226278 0.78647166 0.72750837 0.6803286
1.0035675 1.1193494 1.1052831 0.7622229 0.794131 1.0187565 0.98427385 0.74256736
0.86532784 1.008953 0.5941781 0.79572487 1.7612255 0.8662146 0.69352216 0.77290523

bn3.bias f4 [32]
00000000: 9ff7 5d3e 0524 8bbe 5cb0 acbd 6480 2fbe
00000010: 7126 15be 5d92 d13e c50e 65bd e361 debe
00000020: 9340 a53e 4024 8a3d 4f05 043e 4fe9 abbd
00000030: 0202 70be 8ab8 1c3d 9ab3 e43d 6ab9 bf3e
00000040: ad01 71be 0a9b 1abd ee44 98be fd42 07be
00000050: f457 01be f496 13bd 3eef 2fbf 8ddf 26bc
00000060: accf c63e c154 9bbd ebe2 9a3e c65a 073e
00000070: 9af1 63be 9487 c6bd aeda 8e3e 9d96 8a3e
0.21676491 -0.27175918 -0.084320754 -0.17138821 -0.14565445 0.4093198 -0.05592229 -0.43434057
0.3227583 0.067451954 0.1289265 -0.083941095 -0.23438266 0.038261928 0.11167069 0.37446147
-0.23535796 -0.037745513 -0.2974009 -0.13209148 -0.12631208 -0.036032632 -0.6872443 -0.010185135
0.38830316 -0.07584525 0.3025125 0.13218221 -0.22260132 -0.09693828 0.27901214 0.27068034

bn3.running_mean f4 [32]
00000000: a3ef a9be 4f41 f1bf dc39 3fc0 edc1 55bf
00000010: ad6a 2740 053d 40bf 5ea5 abbf b352 5fc0
00000020: 67f7 8640 219c fbbe 18f9 9dbf c64c 16bf
00000030: 5983 10c0 34f5 e13f 3f83 7f3f 1833 81bf
00000040: 7471 8abf 811f 9dbf d4c3 cbc0 a902 41bf
00000050: 8b84 f8bf 5d60 a4c0 ff9b 6a3f f1d1 ae3f
00000060: 5892 66c0 6d1c cbbf 0310 a0bf 55cf 17bf
00000070: 6a6d 80c0 7652 d7be cf43 a9be 536e e43f
-0.3319064 -1.8848056 -2.9879065 -0.8349903 2.615886 -0.7509311 -1.3409841 -3.4894226
4.2177005 -0.49142554 -1.2341642 -0.58710897 -2.2580168 1.7652955 0.9980964 -1.0093718
-1.0815873 -1.2275239 -6.367655 -0.75394684 -1.9415449 -5.136763 0.9164428 1.3657819
-3.602682 -1.586805 -1.2504886 -0.5930074 -4.013356 -0.420551 -0.33059546 1.7846168

bn3.running_var f4 [32]
00000000: ee0c 5540 17d0 8c40 efd7 2141 f537 8340
00000010: 572d 5540 67ec c440 c090 3e40 a5f1 8440
00000020: 4626 9b40 0447 0840 a0bf 5840 06c4 5140
00000030: 080b a440 e0da 6740 18e8 ae40 b513 6940
00000040: c92e 8540 b939 8640 43a6 9e40 8af9 2a40
00000050: e204 4540 04b7 9140 57e7 1e40 aaf6 4e40
00000060: 32ad d040 949f 9a40 01ed 8940 c876 8340
00000070: 27d8 7b41 6240 8340 12e7 6940 7fa2 bb40
3.3289142 4.4004016 10.115218 4.1005807 3.3308923 6.1538577 2.9775848 4.1544976
4.848422 2.1293344 3.3866959 3.2775893 5.1263466 3.622734 5.4658318 3.6418278
4.161961 4.194546 4.9577956 2.6714807 3.078423 4.553591 2.4828699 3.2338052
6.521142 4.8319798 4.310181 4.1082497 15.740272 4.101609 3.6547284 5.863586

conv4.weight f4 [32, 32, 3, 3]
00000000: 0851 703e 0303 2b3d 26e1 5fbe 93f9 473e
00000010: 6b5a 843d eadd 4fbe 77b1 ad3d ed0a 953d
00000020: 38a9 63be a0ee 93bc 5e40 a33c 7fc9 563e
00000030: 3c3d cfbd cd50 93bd b6b6 f3bd 8543 26be
00000040: 14e1 8bbd b3ce ba3d d228 d83d da6f fb3d
00000050: e06f 973e 6282 c03d 2fb0 e9bd 3aec 403e
00000060: 8e2e 21be 61bb 9cbe a0a8 90bc b37e 90bd
00000070: 3d5b 9b3d 177a 023e 0360 093e 5850 563e
00000080: a6fc babc d131 a83d 38b0 623d 0c9f 8ebe
00000090: 08b3 36bc f436 1ebe de9c 89be fd1f f2bd
000000a0: 6252 ca3d 6d87 c43c c9be 313e 859b 7f3e
000000b0: 5a5c 9d3e 9265 87bd 49d3 4ebe eec4 cebd
000000c0: c08e 123d 4af4 143e d070 883e 4969 093e
000000d0: 65b9 d83e 9b9a c73e 7cbd 38bc 8cef 69be
000000e0: cc7e c2bc 416d 6d3d a306 36bd 508d c13d
000000f0: 7b62 583e 68f9 833e 6bfd a83e fd55 d03d
00000100: 3203 b0bd 1d62 0cbe 3429 363e d6c6 fcbc
00000110: 02b7 61bd d40c 3fbd ddd2 7cbd 17ea acbd
00000120: d9ed 153e 05a7 9d3d 345e 33bd 3b1f 6ebd
00000130: 8222 1ebe ca72 20be aa85 45be 7ec6 88bd
00000140: acf2 833e ebc3 86bd e135 053e 4eba 06bc
00000150: 68c0 093d 344f b03d 8a7a 60bd 0de2 893d
00000160: 089d 6ebd a551 f2bc a6ea 593c 9905 223e
00000170: 96e4 54bc d1ad 09bc aef5 60be 0a9e 89be
00000180: 1584 68bd 5a27 c5bd ddeb c7be c739 f63d
00000190: 94d3 693d ba2c 0e3e 50bd 143e 8843 95bd
000001a0: 8614 623d a607 003c c63c 50bd cf41 7f3e
000001b0: 85f8 6d3b f9c7 363b 23a8 913b 3424 6d3d
000001c0: 0006 49bd e448 bcbc f506 a7bb da79 d8bd
000001d0: 3780 febd c132 2abd ef15 263d 63bd cebc
000001e0: 8ba8 5a3e 7e38 b33d 0370 3bbd 21ce d73d
000001f0: 2b3e 973c c06d b1bd 688c 4b3e a238 2a3e
00000200: 8be1 d53c e1cf 14bb 0b89 3d3d c9a5 d93d
00000210: 69cd 69bd 6244 fb3d 23ff ad3d b414 f43d
00000220: 3d70 003e e12c 2c3e 4c8d 833d 0acb 0cbe
00000230: 4509 c2bd ba06 30be 68a8 8cbe 104e 1abe
00000240: dc54 6d3c 83b1 9e3d 1dec b63c c964 ed3d
00000250: b6b4 f63d b084 8f3d cde0 5d3c e21f 1b3e
00000260: f3f7 9e3d 3a4f adbd 260e 8ebe 4c44 94be
00000270: 72a3 ca3d 6e16 99bc 1e63 76bc ebae 143e
00000280: f527 fb3d 1586 7e3e 0647 3abe c345 16be
00000290: b229 ff3b 1dad c2bd ac1f 713e f206 be3e
000002a0: 05f8 863e 1c01 063f 9a95 f03e ca01 2d3d
000002b0: 267b ad3d 222d 93bb 109c 103e 8f29 ffbb
000002c0: e179 fabb d682 a7be 351b c9be 9d2a 58be
000002d0: a319 2c3c bd7f 4fbc 21f7 bb3d 5945 0ebd
000002e0: 7125 c1bc 2d9b 9f3c da19 92bd b4bc 963d
000002f0: 4419 06bd 2433 13be d500 9a3d 9f64 8f3e
00000300: 7299 7c3d 2031 863e 3bfa 0c3e 5e8b bf3d
00000310: 0e9f fd3d 7343 4f3d 0167 93bb a1d8 1bbd
00000320: 23e9 243e dc39 ee3c 208f a7bd 75dd 653d
00000330: edad 45bd 0c27 00bd 70bb a33d e595 443d
00000340: 535c 123e f25b 693d 8ecd 4dbe 9aa9 38be
00000350: 4a19 573c 5345 34be 14c4 8dbe ac6c 8ebd
00000360: 2b7a e73d 059d 1b3e 343a 673e d0e4 d13d
00000370: df7b fe3d 8f91 9e3e f7b5 f9bc 288b 72bd
00000380: 9b5e 173e 71ee 2cbe b7b9 2fbe 1097 31be
00000390: ebf5 303c a801 c53d 0c6e da3d efe7 043e
000003a0: 2aed 8c3e 4e47 a33e 5e30 94bd eabd dbbd
000003b0: 38c1 40bd d8d9 d23d ee06 a03d fdfe 183d
000003c0: be01 82bd 8b01 a5bc 6429 a5bd 9c9c 48bd
000003d0: cfc5 56bd 92de f1bc c9bf 8d3d 3920 a8bd
000003e0: 00ec 1b3e 4527 033f 84b1 8b3e 06e9 b03e
000003f0: 236f b9bd b239 25be 264d 08be fb8d a9bc
0.23468411 0.04175092 -0.21863231 0.19528799 0.06462558 -0.20299497 0.08481114 0.072774746
-0.2223252 -0.018058121 0.019928154 0.20975302 -0.101191014 -0.07193146 -0.11900084 -0.16236694
-0.068300396 0.09121456 0.10554661 0.12277193 0.2957754 0.093998685 -0.114105575 0.18840113
-0.15740415 -0.3061171 -0.017658532 -0.07055416 0.07585762 0.12741886 0.13415532 0.20929086
-0.02282555 0.08212627 0.055343837 -0.27855718 -0.011151083 -0.1545065 -0.26877493 -0.118225075
0.098789945 0.023990357 0.17357935 0.2496167 0.3073452 -0.0661117 -0.20197786 -0.10096155
0.03578067 0.14546314 0.2664857 0.1341907 0.42328945 0.38985142 -0.011275645 -0.22845286
-0.023742102 0.05796552 -0.044439923 0.09450781 0.21131317 0.2577622 0.33005843 0.10172651
-0.085943595 -0.13709302 0.17789155 -0.030856531 -0.05510617 -0.046643093 -0.061724532 -0.084430866
0.14641513 0.07697872 -0.04379101 -0.058135252 -0.15442851 -0.15668789 -0.1928927 -0.066784844
0.2577108 -0.06580337 0.13008834 -0.008223129 0.03363076 0.08608857 -0.054804362 0.06732569
-0.058255225 -0.029579947 0.013300573 0.15822448 -0.012993952 -0.0084032575 -0.2196872 -0.26878387
-0.05676659 -0.09626646 -0.39047137 0.12022739 0.057086542 0.1388425 0.14525342 -0.07288271
0.055195354 0.0078143235 -0.050839208 0.24927448 0.003631146 0.002789019 0.0044450923 0.057895854
-0.049077988 -0.022983976 -0.005097265 -0.10570116 -0.12426799 -0.04155231 0.04054826 -0.025236791
0.21353357 0.087510094 -0.04576112 0.10537363 0.018462261 -0.08663511 0.1987778 0.16623166
0.026108524 -0.0022706913 0.046273272 0.10627324 -0.05708066 0.12268902 0.08495929 0.11918011
0.12542816 0.16813995 0.064234346 -0.13749328 -0.09474424 -0.17190066 -0.27472234 -0.15068841
0.014485564 0.077487014 0.022329384 0.11591489 0.120461866 0.0700773 0.013542366 0.15148881
0.07762136 -0.08462377 -0.2774517 -0.28958356 0.09894456 -0.018687453 -0.01503828 0.14519851
0.122634806 0.24855836 -0.18191156 -0.1467505 0.007786953 -0.09505675 0.23547238 0.37114674
0.263611 0.5234544 0.46989137 0.042238034 0.08470754 -0.0044914642 0.14122033 -0.0077869366
-0.0076439236 -0.32717007 -0.3927857 -0.21110006 0.010504159 -0.0126647325 0.091779955 -0.034734104
-0.023577424 0.019483173 -0.07133837 0.07360211 -0.03273894 -0.14374977 0.0751969 0.28006455
0.061669774 0.26209354 0.1376733 0.09352754 0.12383853 0.050601434 -0.004498363 -0.03804839
0.1610456 0.029080324 -0.08181596 0.0561194 -0.04826157 -0.031287238 0.07994735 0.047994513
0.14293031 0.05697245 -0.20097944 -0.18033448 0.013128588 -0.1760457 -0.27688658 -0.06954321
0.113025986 0.15196617 0.22580796 0.10248721 0.1242597 0.30970427 -0.030482275 -0.05921474
0.14782183 -0.16887833 -0.17160688 -0.17342782 0.010800819 0.096194565 0.10665521 0.129791
0.27524692 0.3189034 -0.07235788 -0.107295826 -0.047059268 0.10295457 0.07813822 0.03735255
-0.063479885 -0.020142337 -0.08064535 -0.04897748 -0.05243474 -0.029525075 0.06921346 -0.08209271
0.15226746 0.51231796 0.2728387 0.34552783 -0.09054401 -0.1613529 -0.1331068 -0.020697584

conv4.bias f4 [32]
00000000: 7487 31ba a911 1cb8 2d6b ecb8 6203 11ba
00000010: 149d 9db9 46ab cdb9 605a 1139 0a9f 0d3a
00000020: b8bb f339 3d02 4139 149f 2d3a 9bbd f3b9
00000030: f674 fe39 b52c d338 45c7 c939 7d68 46ba
00000040: d509 1f3a ad5e 2cba 3d80 87b9 e561 90b9
00000050: 4385 a638 e0e6 223a 54c0 fb37 2aa7 19b7
00000060: 5889 053a 41d5 11ba e19b bab9 0b6a 32b9
00000070: d977 6539 9937 253a b8a1 d3b9 95d4 d0b6
-0.0006772198 -3.7209746e-05 -0.0001127332 -0.0005531815 -0.00030062406 -0.00039228256 0.00013861945 0.0005402422
0.00046488433 0.00018406748 0.0006623131 -0.0004648984 0.00048533798 0.000100695914 0.00038486175 -0.00075686706
0.0006066834 -0.0006575387 -0.00025844752 -0.00027538757 7.940319e-05 0.00062142126 3.0011091e-05 -9.158432e-06
0.0005094013 -0.00055630883 -0.00035592823 -0.00017014907 0.00021883789 0.0006302535 -0.00040365546 -6.223631e-06

bn4.weight f4 [32]
00000000: 0cbd 583f de42 593f f7f2 6f3f 6b1c 823f
00000010: 7524 6c3f 839c 4e3f 6b66 6d3f 6ce1 6c3f
00000020: c47d 833f 44dd 4c3f 1f53 693f f394 733f
00000030: 5c80 643f c90f 3d3f 44ef 643f 2cde 693f
00000040: cac8 793f 4b15 623f 4ec4 7b3f a9c3 8d3f
00000050: 227e 793f b625 5f3f c805 6d3f 9496 343f
00000060: b1f5 7e3f 313b 633f 0927 263f 9918 773f
00000070: 3581 9f3f 52c5 a43f cdc5 683f 36e5 603f
0.8466346 0.84867656 0.9373011 1.0164922 0.9224313 0.8070757 0.927344 0.92531466
1.0272756 0.80025125 0.9114246 0.95149153 0.8925836 0.7385221 0.8942759 0.9135463
0.97572005 0.8831374 0.9834641 1.1075336 0.9745809 0.8716692 0.92586946 0.70542264
0.99593645 0.88762194 0.6490331 0.9652191 1.2461306 1.2872717 0.9092682 0.8784975

bn4.bias f4 [32]
00000000: de6c 743d b03d 553e 8068 1d3e cbce 32be
00000010: 615a 5e3d def8 2f3e 7133 2ebe fde1 edbd
00000020: 3bd6 16be ea09 0b3e cf8b fa3d df64 a7be
00000030: 5401 96bd e659 803e 1525 713d 8167 bd3d
00000040: c779 d2bd 790f 56be 1cd2 eebe c139 27be
00000050: 9398 26be 5455 703e 2fca bdbd d4de 0e3f
00000060: a22a 40bd 4abe b9bd 9428 d03e a36c 88be
00000070: 252f c1be b546 8fbf b839 15be 5903 e23a
0.059674136 0.20824313 0.15371895 -0.17461698 0.05428541 0.17184779 -0.17011811 -0.116153695
-0.1473016 0.13578 0.122336976 -0.32694146 -0.07324472 0.25068587 0.058873255 0.092482574
-0.102771334 -0.2090434 -0.46644676 -0.16330625 -0.1626914 0.2347005 -0.09267079 0.5580876
-0.046915658 -0.09069498 0.4065596 -0.26645383 -0.3773128 -1.1193453 -0.14572799 0.0017243429

bn4.running_mean f4 [32]
00000000: 40a3 5540 d590 2e3f 003f 4f3e 4c80 81be
00000010: 2b10 563e ee02 0b3f 70e9 25be 3e22 b2bf
00000020: 657d b93d 9140 2cbf 4460 cebf 303d e6be
00000030: 0400 34c0 dc6d 1dbf f74f 0ebf 4cde ca3f
00000040: 3b8f 1abf efc6 bcbf 503c efbf 0122 2e3e
00000050: a2d5 c7bf 090c 40c0 a016 17bf 67a7 a13b
00000060: 002f 063f 7431 31c0 2668 9fbd 8a5f 0e3e
00000070: e599 8dbf e414 62bf 3da1 0cbf 1222 703f
3.338089 0.68189746 0.20238876 -0.25293195 0.20904605 0.54301345 -0.1620233 -1.39167
0.0905712 -0.6728602 -1.6123128 -0.44968557 -2.812501 -0.6149576 -0.55590767 1.584909
-0.603748 -1.474821 -1.8690281 0.17005159 -1.561207 -3.0007346 -0.590189 0.004933286
0.52415466 -2.7686434 -0.077835366 0.13903633 -1.106259 -0.88313127 -0.5493353 0.9380199

bn4.running_var f4 [32]
00000000: 8b9f 4c40 71c9 6b40 cd46 4640 a08d 6d40
00000010: 8a44 8340 99b7 3240 a053 3440 5085 6740
00000020: d453 5e40 5fce 4c40 1fd1 5f40 d855 3c40
00000030: 2e6b 6840 45a7 3340 dc8f 7b40 e2a9 6040
00000040: 1265 6b40 bd6d 4b40 b7ae 2940 c161 8d40
00000050: afe4 5b40 f35b 8b40 8dfb 3440 a91c 4640
00000060: 1dda 3e40 0146 3040 0a9d 3f40 9efc 3340
00000070: 7f29 7840 af2e 1740 b35a 5040 7a53 4840
3.1972377 3.68417 3.0980713 3.711769 4.1021166 2.792456 2.817604 3.6175117
3.4738665 3.200096 3.4971387 2.9427395 3.6315417 2.8070843 3.9306555 3.5103688
3.6780438 3.178573 2.6512887 4.418183 3.4358327 4.3549743 2.8278534 3.0954993
2.9820626 2.7542727 2.99396 2.8122935 3.8775327 2.3622243 3.2555358 3.130095

conv5.weight f4 [32, 32, 3, 3]
00000000: aac5 83bd 0125 e53d d1e6 413d 1923 3abe
00000010: e70f 2dbd 3389 ecbd 3eda 6cbe a8e2 5dbd
00000020: 227f bcbc 3649 a73e 5599 033e 9415 b33d
00000030: 85f6 963e 16f4 1b3e b8a8 823c 0b85 703e
00000040: f01f f33d 68ce f03d fea5 e33d 6b6d 943d
00000050: ff70 823c 1cfb 973a a80c 6bbc 17cb ac3d
00000060: 5971 ea3d 5629 483d e517 a13d 5e34 703d
00000070: 6685 c53d 864c 033e 2eaf 033e fe61 d93c
00000080: f961 c03d ad88 4d3e 4543 453d 9800 673e
00000090: d190 8d3e d56d 413e 2dd3 6a3e a51a ba3d
000000a0: 305b 983b 462c 2d3d 05b6 2a3e c522 9f3d
000000b0: b5b0 ecbd 4251 c33e e01d 5c3e 0f56 db3d
000000c0: 0d3d 433e 0375 b83c 71a2 3dbd dec6 3d3e
000000d0: 8d68 e33d 8f2c b73c 8afe 6fbd 2147 193d
000000e0: caed 10bd d201 a0be b666 f1bd 73f1 d2bd
000000f0: fda8 97be e258 37be 319d 99bd ad1f 5a3e
00000100: 6282 c43e 0a4a ab3e 0157 663e d111 5b3e
00000110: 52b5 5c3e c7d2 5e3e 1894 4c3e 8ecc ac3d
00000120: a49f 253e ce38 3d3e d902 3b3e 89eb 653e
00000130: 0f56 0b3e 0789 0e3e fbdc 6c3e b1e3 2a3e
00000140: ccb3 a83e 4f4c a13c 76cc 283d 9bbd 5cbc
00000150: 39db 383e cfa9 45bd b4aa 0fbd 4fa6 383e
00000160: 396b b63c 736d de3d f12c 183e 1a72 1c3e
00000170: f135 6bbd af95 2fbd eab8 1a3e d861 afbc
00000180: cd98 dabd b938 0d3d fda8 bfbd af1a cebc
00000190: 10df 833c 0f3e 893d 640a 613d 6663 95bc
000001a0: 1a87 023d 9009 543d 0fda 803d f538 a1bb
000001b0: 1e03 2abd ecba 51bd 24d4 d4bd 25a1 653c
000001c0: 8b26 97bd 4d0b 1abe 4ba8 c8bd 8b59 0dbe
000001d0: e37a 24be fb32 c33a 5e4e dcbd 8562 323d
000001e0: 7480 09bc 47ba e0bd b4e5 373b b965 ab3c
000001f0: 6495 953d 53de 263e b433 ba3d 8a0c 20bd
00000200: 73c3 143e c74d 843d ba95 2cbc 1ed2 f63d
00000210: cd40 22bd 6d9b 98bd e841 3fbd ae64 593e
00000220: 1bca 023e 7a12 163e 4738 623e 45f3 f23d
00000230: 4852 b73d fd19 c23e 26c3 6e3e ed79 2b3e
00000240: c258 e6be bf5f cebd 6c3d 743d cabc acbe
00000250: c51b 88bc 1f9d f33c 32ba b1be 8688 2ebd
00000260: 2ba6 153d d4f2 bd3c d6f0 423e e95f 1d3e
00000270: db06 91bc 308d d43d 033f 853c 47b7 503c
00000280: c888 32bd 3d01 38be 1f9a f6bd 6844 80bd
00000290: 2124 7dbd f791 e03c 6d6c 223d 436e 313c
000002a0: 634a 09bd 4dcd d93c 3781 053c c320 123e
000002b0: 168d 433e 9a2f 8fba 9bdc 8c3d eae1 c23d
000002c0: 7b24 3e3c 095e f8bd 4c4c a63c 7186 fcbd
000002d0: 4353 e5be 7e3d 73be c30a 42be 2408 2dbe
000002e0: 00ef 12be 2865 83bd da53 5abe 7f53 ecbd
000002f0: 5a34 45bd 4711 313e 115c 0a3e 4c8f 723e
00000300: f63c 1a3e f66f 4d3e e81d b53e ce79 553d
00000310: 3cdc 283e ad41 f33e 14b7 4dbd c5d0 e43d
00000320: a2ca d03d 3682 4e3c 06d3 b33d b4ec b03d
00000330: e0bf 943d 3d0f 593c 41cd 803d 79da cb3a
00000340: 1ff8 6ebd 3998 4dbc 7e9a 98bc f5c5 14bd
00000350: 6ea9 56bd 1ddd 71bd ed99 e4bd f297 273c
00000360: 9ebc 143e 9dd1 c23d 44a9 293e 8f1b 62bb
00000370: cb74 a43d d8e3 233e 6d2e 4bbd d26e 073d
00000380: 588e 3e3d bf1b 92bd a779 d33b 371f e03d
00000390: b8af 423c d135 cbbb 023f 873a 1f05 e23d
000003a0: ba8e 0f3e 70cf ea3d cff3 30be d80d 47bd
000003b0: 7999 893b 69be b2bd 707c 443d 02c6 a93d
000003c0: da8c 13be e820 26bd 1cd9 f4bc 985c 163d
000003d0: d03c 063e 98e8 153e 9b28 9a3d 3c2b 243d
000003e0: 1650 903d f656 dc3c 39b0 7b3d 180e 283e
000003f0: 65c7 d73e 3f70 de3d 4d1e c1bd e868 733e
-0.06434186 0.111886986 0.047339264 -0.18177451 -0.042251494 -0.11549606 -0.23130128 -0.054171234
-0.02300984 0.32673043 0.1285146 0.0874435 0.29484954 0.1522983 0.015949592 0.23488252
0.11871326 0.11758119 0.11115645 0.07247432 0.015923021 0.0011595222 -0.014346279 0.08437174
0.114474006 0.048867546 0.07865886 0.05864369 0.09644584 0.1282216 0.12859794 0.026535984
0.09393687 0.20071669 0.048159856 0.2255882 0.2764955 0.18889554 0.2293212 0.09087113
0.0046495423 0.04227855 0.16670997 0.07770304 -0.11557142 0.38147932 0.21495771 0.10709774
0.19066258 0.022516733 -0.046297494 0.18532893 0.11103926 0.022360114 -0.058592357 0.03742135
-0.035383023 -0.3125139 -0.11787169 -0.10299959 -0.29621115 -0.17905 -0.07500685 0.21301146
0.38380724 0.33454925 0.22494127 0.21393515 0.21553543 0.21760093 0.19978368 0.08437453
0.1617418 0.184787 0.18262805 0.22453131 0.13607047 0.1391946 0.23131172 0.1668842
0.32949674 0.019689707 0.041210614 -0.01347294 0.18052377 -0.048257645 -0.035074905 0.18032192
0.022267925 0.108607195 0.14860894 0.15277901 -0.05742449 -0.04286736 0.15109602 -0.02140896
-0.10673676 0.034477923 -0.09358404 -0.025159208 0.016097575 0.0670129 0.05494155 -0.018235873
0.031867124 0.051766932 0.062915914 -0.00492012 -0.04150688 -0.051203653 -0.10392025 0.014015471
-0.07380398 -0.15043373 -0.09797724 -0.13803689 -0.16062503 0.0014892513 -0.10757135 0.043550987
-0.008392442 -0.109730296 0.0028060498 0.020922529 0.073038846 0.16295747 0.09091893 -0.03907446
0.14527683 0.06460147 -0.0105337445 0.120517954 -0.03961258 -0.0745152 -0.046693712 0.21229813
0.1277241 0.14655486 0.2209178 0.11862806 0.08951241 0.37910452 0.2331663 0.1674573
-0.44989592 -0.10076856 0.05962889 -0.33737785 -0.016614804 0.029738007 -0.34712368 -0.042610668
0.036535423 0.023187079 0.19037184 0.15368618 -0.017703464 0.10378492 0.016265398 0.012739009
-0.043587476 -0.17969222 -0.12041115 -0.062630475 -0.061802033 0.027413351 0.039654184 0.010829511
-0.033518206 0.026587153 0.008148483 0.1427031 0.19096789 -0.001092422 0.06878015 0.09515746
0.011605377 -0.12127311 0.020300053 -0.1233033 -0.44790086 -0.23753926 -0.18949418 -0.16897637
-0.14348984 -0.064157784 -0.2132105 -0.11539363 -0.04814563 0.17291747 0.13511683 0.23687476
0.15062317 0.20062241 0.3537438 0.052118115 0.16490263 0.47511044 -0.050223425 0.11172632
0.10194899 0.012604287 0.08780484 0.086388975 0.0726316 0.013248262 0.06289149 0.0015552781
-0.058342095 -0.0125485 -0.018628355 -0.0363216 -0.052407674 -0.05904876 -0.111621715 0.010229098
0.14525077 0.09512637 0.16568476 -0.003450129 0.08030089 0.16004884 -0.049604822 0.03306467
0.04652247 -0.071341984 0.006453711 0.10943454 0.011882715 -0.006201484 0.001031846 0.11036133
0.1401929 0.11465347 -0.17280506 -0.048597187 0.0041992036 -0.08727724 0.047970235 0.0828972
-0.144092 -0.040558726 -0.029888682 0.036709398 0.13109136 0.14639509 0.07527276 0.040080294
0.07046525 0.026896935 0.061447356 0.16411626 0.42144313 0.10861253 -0.094296075 0.23770487

conv5.bias f4 [32]
00000000: 8005 16ba b4ea d0b9 c5b9 2eba a6e8 eeb9
00000010: d187 2e39 2d49 6536 b9f3 80b9 9001 bdb7
00000020: 9d35 1a38 8000 33b9 f87e 033a 4f37 cab9
00000030: 4047 6b39 82b2 a8b9 8b53 07b9 fa4f 3c3a
00000040: 1d10 163a 200a 3cba 0185 a439 16a3 c7b9
00000050: c7d6 12ba 9195 2039 f578 23ba c471 c539
00000060: e177 8539 3d8c d238 b8a5 30ba 8839 6838
00000070: 623d 56b9 b7ca 6239 5d81 333a 957a 43ba
-0.00057228655 -0.0003984772 -0.0006665255 -0.00045568234 0.00016644529 3.4166253e-06 -0.0002459565 -2.2531283e-05
3.6766392e-05 -0.00017070957 0.0005016173 -0.0003856965 0.00022437889 -0.00032176456 -0.00012905725 0.00071835483
0.0005724447 -0.00071731396 0.00031379613 -0.00038077746 -0.00056014623 0.00015314507 -0.00062359805 0.0003765953
0.00025457054 0.00010039702 -0.0006738561 5.536669e-05 -0.00020431497 0.00021628557 0.0006847585 -0.0007456926

bn5.weight f4 [32]
00000000: 7e1d 423f 587c 823f 4747 3e3f c5e7 293f
00000010: b9bb 4e3f efbd 333f 3055 503f 8943 483f
00000020: 5709 673f 99a0 733f b1bd 793f 6dcd 703f
00000030: e7cf 373f cb38 733f 3db8 2d3f eac4 893f
00000040: 9d30 8b3f f3b2 843f 68de 583f cc43 6b3f
00000050: 4e70 7a3f 268e 593f 1293 563f 6028 323f
00000060: 87ca 543f 491f a93f 8658 513f 5a2d 833f
00000070: a4e8 203f 94a6 513f 5afe 423f 3544 453f
0.7582625 1.0194197 0.7432751 0.6636928 0.8075519 0.7021169 0.81379986 0.7822805
0.90248626 0.9516693 0.9755507 0.94063455 0.7180161 0.95008534 0.6785925 1.0763218
1.0874211 1.0367111 0.84714365 0.91900325 0.97827613 0.84982526 0.8381816 0.6959286
0.8312153 1.3212672 0.817757 1.0248215 0.6285498 0.81894803 0.7616936 0.770572

bn5.bias f4 [32]
00000000: 1e68 053f 4bb8 f3be 776b 8a3e 156f 113f
00000010: 5c54 4c3e b677 b33e 05cc 763e b16b 993e
00000020: 9480 a2bd c9e6 17be e368 e2bd 16d9 68be
00000030: 6cb7 003f b189 aabd 30a8 1f3f 7fa0 e2be
00000040: 9b9d 6d3e 3823 a9be c465 113e d861 bfbc
00000050: 609d 99bd e131 333d d525 a63e 27a6 b73e
00000060: e171 a7bc 66b4 7fbf 2a13 423e f201 34bd
00000070: 688d 0b3f bfc6 cabd b580 123f 1ba4 933e
0.52111995 -0.47601542 0.27035114 0.5681012 0.19954056 0.3505227 0.24101265 0.29964975
-0.079346806 -0.14834131 -0.11055162 -0.22739062 0.5027988 -0.08327044 0.6236601 -0.44263074
0.23204653 -0.33034682 0.14198977 -0.023362085 -0.0750072 0.04374874 0.3245074 0.35868952
-0.020440044 -0.9988464 0.18952623 -0.043947168 0.54512644 -0.09901189 0.5722764 0.2883614

bn5.running_mean f4 [32]
00000000: c73a 8640 a626 b5bf cda0 ac3f 625d c83e
00000010: 55ea 3ec0 3561 2f3e 4d40 843c 820d b2bf
00000020: d8fc 56bf 2cac fcbf 646a 3abf 7ba0 bbbf
00000030: 3fe7 79bf 9034 7d3d a26d 32bf 3749 abbf
00000040: b3bb debf 07be 9bbf 65d3 a83e 94f7 71c0
00000050: 6e9f 6bc0 3888 2a40 1079 0940 7761 f33f
00000060: 1e3d 563f 0089 8d3e adba 203f 059c a8bf
00000070: 40c6 00bf 9c22 d83f 70c8 8fbf d1f9 23c0
4.194675 -1.415242 1.3486573 0.39133745 -2.9830525 0.17126925 0.016143942 -1.3910372
-0.8397956 -1.9740043 -0.7281859 -1.465835 -0.9761848 0.061817706 -0.69698536 -1.3381718
-1.7401031 -1.2167367 0.3297378 -3.780736 -3.6816058 2.6645641 2.148014 1.9014119
0.8368701 0.27643585 0.62784845 -1.3172613 -0.50302505 1.6885562 -1.1233044 -2.5621226

bn5.running_var f4 [32]
00000000: e48a 9c40 cd28 7c40 e22e 3540 ee34 7a40
00000010: 7885 8040 5c2c 5140 9f52 6740 8a57 8540
00000020: c284 6a40 0927 4f40 cb7c 4540 0f4f 5840
00000030: 8a95 6f40 e548 8240 d550 a540 e191 8740
00000040: c1e2 8a40 49cd 7240 4af3 7640 b2b5 8140
00000050: 948b 7140 1139 4840 4e09 6d40 0025 8040
00000060: 324c 3a40 2286 3a40 e37b 8740 c8fe c940
00000070: c5f0 5340 b5a0 2e40 c088 a440 9bfd 8040
4.8919544 3.9399903 2.8309865 3.9094806 4.0162926 3.2683325 3.6144178 4.166936
3.664353 3.2367575 3.0857418 3.3798254 3.7435021 4.0713983 5.166117 4.2365575
4.34018 3.7937796 3.8585992 4.0534296 3.7741442 3.128483 3.703693 4.0045166
2.9109006 2.9144368 4.233873 6.312351 3.3115704 2.7285588 5.141693 4.0309577
