model_weights/Tiny10/CIFAR10/in17-gn17/110000.pt (torch_old, 358762 bytes, 50 tensors)

conv1.weight f4 [16, 3, 3, 3]
00000000: 108d 46be 293c 96bd 75a8 3c3e 1426 5abf
00000010: 970c 2cbf ecc2 f03e 531e 2ebe e745 7d3d
00000020: 6f47 083f c447 493e a709 cd3d 2186 c8bd
00000030: ee11 d8be 87f8 35bf d534 ddbd 2afc 7c3e
00000040: 0bca b1b9 0b3c 82bd 79f6 853e f19f 1a3e
00000050: 8e13 8bbe 903a 7e3e 0670 ebbd 647a ae3d
00000060: b2d2 873e 2fb2 80bc e54b 63be ffa7 bfbc
00000070: 0867 06bf aa7e 4bbe 000b a5be b0ed 5cbf
00000080: eedc ebbe 5451 aebe 6578 44bf 5ead 7fbe
00000090: 3c48 803d 663d 2fbc f0b5 4e3d b168 cc3d
000000a0: c3f8 4c3a d685 3ebd d79f 5cbd d2fc 37be
000000b0: 7ad3 2f3c 428f 8dbd f9ec a23e 929d 173e
000000c0: 5f86 ed3e b9f9 5e3f 7ab6 0b3f 0479 be3e
000000d0: 1804 1b3f 0fd7 ff3e 05d4 41be 9b82 87bd
000000e0: 586b 12be 8dfb d1be 8c30 8bbe dcb6 c0be
000000f0: 796d e2be e549 3abe cc6a 25be 4fa0 3ebe
00000100: ca90 483e 5856 1f3e d384 d6bc 3525 b63e
00000110: 851c 453e eefa 543e 2962 223f d4e1 083f
00000120: dad2 d8be 2bad d4bd bfc8 b4bd 4c66 70be
00000130: 6c5b 6e3d f47f dbbd c6e6 a0bb e96b 6c3e
00000140: 44f1 b83d 4282 e23e ee1f 1a3f 89de 8e3e
00000150: 2bbf d43d 9150 323d c63d b73e de38 bdbd
00000160: 0ded 97be 0bed 0abf 2ea1 45be e5c7 f1be
00000170: bbf7 d4bd ecd4 22bf d472 7dbf 4105 5e3e
00000180: 5de7 753e 3769 80bd b080 853e 563b 26be
00000190: e2b1 60be 89a7 22be 5399 75be ca31 abbe
000001a0: 72f6 da3e 7b35 813e 1290 4a3e b0d0 913e
000001b0: b62a 413f 5a21 063d eb84 34bf c4e3 833f
000001c0: 78e5 a13c 0c2d 81bf ccb9 da3d ead8 a0bc
000001d0: c1ab 44be c40d 703f 60bb 07bd a9c6 2bbf
000001e0: 0ba0 6c3f 8bfb 03be 8938 76bf 8a54 3dbe
000001f0: b75c 0ebe 075a a0bd b53c 3b3f 333e 34be
00000200: 7dd5 5dbf 2f66 703f 78d3 bf3c 55c9 6dbf
00000210: 92dd 8bbc 73ae 8b3e babd 873e 446e 05be
00000220: 20fd 6ebd a892 2fbe 8efa c13d f27a 573e
00000230: 1c06 dfbc 907a 313e 7438 1d3e df2b a8ba
00000240: 51b9 a0be c452 483d cc91 ea3d 92f9 1abd
00000250: 9946 cb3e 729f c53e f0e7 9abd 5088 203e
00000260: 1734 743e bd0a 083d 8815 683e d120 553e
00000270: 2a30 57be 4a1c 16bd 7c09 7dbd c390 9bbe
00000280: 6dc5 a3be c933 67be ea36 a33d a671 b0bd
00000290: 3fb4 bd3d 0589 69bf d412 9abd 83bd 753f
000002a0: 2383 f8bc 052a ecbd c93e 2e3e 1ae0 92be
000002b0: 6e3f 1abe bd18 a33e 55bc bebf 74b5 9ebb
000002c0: afd0 b43f 3e94 15bf 6668 51bd 1a79 063f
000002d0: a4dc 5cbe 7623 79bd 24e2 493e 7f7e c0bf
000002e0: 336c 0c3e 64b1 b63f 7d3a 1dbf d3d9 263e
000002f0: 86d3 283f 1f3c a3bc e794 1a3e 589a c93d
00000300: 5adb f8bd 8d60 71bd 11a5 9e3c 9675 14be
00000310: 1d9a efbd 9a6b 90bd f817 1f3e 4cfd ae3e
00000320: 6db4 783e 90aa 68bc f6a9 533d af96 a03d
00000330: 04bf 74be 3047 89be fb1c 6dbe fb59 593e
00000340: 691c dc3e 39fb a63e 24d9 df3d 5cf8 643e
00000350: 402b 6c3e d9bf e8bd 23e6 93bd 80dd 6fbd
00000360: 2deb c4be 8114 0240 e198 c63f 5917 2fbf
00000370: 28a3 babe 24ed 1b3f 4f23 32bf 89ae b8bf
00000380: c3d0 6bbe fa20 353f 021b 293b afae 96bf
00000390: 1256 0f3f 1cfc 5dbf 7ff8 46bf 1f5c 1c3f
000003a0: 670b d03d fdd9 f53e 59b8 40bc 2d08 a0be
000003b0: 3a7c 11bf 54b5 17be 81d2 0dbf b136 84be
000003c0: 9ea1 6a3e 5427 5e3f 3064 573f 1019 4f3e
000003d0: 969c 493e ac4b 793e a735 1e3f 52cc b03f
000003e0: daaf 02bf 55c1 3ebf 419f 06bf f0bd eebe
000003f0: e0e8 12be 89b4 98bf 32f7 4bbf 9bd0 933f
-0.19389749 -0.073356934 0.18423636 -0.8521435 -0.6720671 0.47023714 -0.17003755 0.061834242
0.53234 0.19656283 0.10011607 -0.09791208 -0.4220118 -0.7108235 -0.108010925 0.24705568
-0.00033910605 -0.063591085 0.26164606 0.15100075 -0.27163357 0.24827027 -0.11495976 0.08519438
0.26527935 -0.015709965 -0.2219692 -0.023395536 -0.52500963 -0.19872537 -0.32234955 -0.8630018
-0.46066993 -0.34046423 -0.7674621 -0.24968478 0.062637776 -0.010695791 0.050466478 0.09980906
0.0007819051 -0.046514355 -0.053863373 -0.17967537 0.010731572 -0.0691209 0.3182142 0.14806202
0.4639158 0.87099797 0.5457531 0.37201703 0.6055312 0.49968764 -0.18928535 -0.06616708
-0.14298761 -0.4101223 -0.27185476 -0.3763951 -0.44224146 -0.18192251 -0.16154021 -0.1861584
0.19586483 0.15560281 -0.026186382 0.35575262 0.1924916 0.20798847 0.6343103 0.53469586
-0.42348367 -0.10384592 -0.08827352 -0.23476523 0.058192655 -0.107177645 -0.004910323 0.2308804
0.09030393 0.44240004 0.6020497 0.27904156 0.10388025 0.043533865 0.35789317 -0.09239362
-0.29673043 -0.5426795 -0.19299766 -0.4722282 -0.10398813 -0.63606143 -0.9900334 0.21681692
0.2401404 -0.06270068 0.26074743 -0.16233572 -0.21942857 -0.15884222 -0.2398427 -0.33436424
0.42766148 0.25236115 0.19781521 0.28479528 0.75455797 0.03274665 -0.70515317 1.0303884
0.01976274 -1.0091872 0.10679969 -0.019634683 -0.19206144 0.93771005 -0.03313768 -0.67100006
0.92431706 -0.12888925 -0.96180016 -0.1848928 -0.13902555 -0.07829671 0.73139507 -0.17601852
-0.8665388 0.9390592 0.023416266 -0.92885333 -0.017073426 0.27281532 0.26511937 -0.13030344
-0.058346868 -0.17145789 0.09471618 0.21042994 -0.027224593 0.1733191 0.15353566 -0.0012830457
-0.31391385 0.048907056 0.1145359 -0.037835665 0.397023 0.3859821 -0.0756377 0.15676999
0.23847996 0.033213366 0.22664464 0.208133 -0.21014467 -0.036648072 -0.061776623 -0.30383882
-0.3198656 -0.22578348 0.079694584 -0.08615427 0.09262895 -0.912247 -0.075231224 0.95992297
-0.030335968 -0.11531452 0.17016138 -0.286866 -0.15063259 0.3185481 -1.4901224 -0.0048434082
1.4126185 -0.58429325 -0.051124953 0.52528536 -0.21568543 -0.060824834 0.19715172 -1.5038604
0.1371315 1.4272885 -0.6141737 0.16294031 0.6594776 -0.019926129 0.15095864 0.09843892
-0.12151213 -0.05892997 0.01936582 -0.1449798 -0.11699317 -0.07051773 0.15536487 0.34177625
0.24287577 -0.0142008215 0.05167576 0.078412406 -0.23900992 -0.26812124 -0.23155586 0.21225731
0.42990425 0.32613543 0.10930088 0.22360367 0.23063374 -0.11364717 -0.072216295 -0.05856085
-0.38460675 2.0325015 1.5515405 -0.68395 -0.36452603 0.6090872 -0.69585127 -1.4428264
-0.23028855 0.70753443 0.0025803451 -1.1772059 0.5599071 -0.86712813 -0.77722925 0.61078066
0.10158425 0.48017874 -0.011762702 -0.31256238 -0.5683018 -0.14815265 -0.5539933 -0.25822976
0.22913215 0.8677876 0.8413725 0.20224404 0.19688639 0.24345273 0.61800617 1.3812354
-0.5104958 -0.7451375 -0.5258675 -0.46629286 -0.14346647 -1.1930095 -0.79674065 1.1548036

conv1.bias f4 [16]
00000000: 8e3f 10bb 71ac b8b9 7040 273a 580d 3139
00000010: 7c0c f83a fa2a ceb9 35ab 663a afe7 08ba
00000020: 9adb 203b e1dc 4239 b913 21ba de4b d73a
00000030: f94e ee3a b06d 083b ba06 463a 1114 58ba
-0.0022010538 -0.00035223694 0.00063801464 0.00016885006 0.0018924619 -0.00039323402 0.00087993155 -0.0005222512
0.0024544955 0.00018583566 -0.00061446015 0.0016425808 0.0018181495 0.0020817332 0.0007554103 -0.0008242736

bn1.weight f4 [16]
00000000: fba3 923f 1c1b 003f 64b3 453f c770 633f
00000010: e0b0 853f 8d27 493f 3286 893f 73fc 143f
00000020: 46d7 483f 1643 653f dd55 203f b7db 0b3f
00000030: 1476 5f3f e76e 433f d359 c53f 68d4 983f
1.1456293 0.50041366 0.77226853 0.8884396 1.0444603 0.78575975 1.0744078 0.58197707
0.7845348 0.8955549 0.62631017 0.54632133 0.8728955 0.763411 1.5418037 1.1939821

bn1.bias f4 [16]
00000000: 6841 02bf 40c7 ae3e fbb2 56be 2fb5 bdbe
00000010: f42b 163d 7b87 84bf 2595 4fbb 554e 28be
00000020: c87a 8a3f 9272 723f 844d f83d 3c87 f43e
00000030: cc39 1cbc 725e e83e bc25 0040 7419 31bf
-0.5088105 0.3413639 -0.20966713 -0.37052295 0.03666301 -1.0353845 -0.003167459 -0.16436131
1.081872 0.9470607 0.1212416 0.47759426 -0.009535264 0.45384556 2.0023031 -0.69179463

bn1.running_mean f4 [16]
00000000: b9e8 6c3e ad37 0abd 2221 e53d a2f6 293e
00000010: 7748 ea3c 2150 bcbd 19b1 5ebc 8948 65be
00000020: 9317 64bd 2bdd 7e3c 6a3a 7e3e 2ae4 04bd
00000030: cc9e 353d 2346 15bd 120f a0bc aaf7 073e
0.23135652 -0.033744503 0.1118796 0.16597989 0.028599007 -0.09194971 -0.013592028 -0.22390951
-0.055686545 0.01555566 0.2482697 -0.032444157 0.044340894 -0.03644384 -0.019538436 0.1327807

bn1.running_var f4 [16]
00000000: 23b5 5b40 35d9 0b41 ed09 3440 fd23 1640
00000010: f6ea 9841 de2b 7e3f c600 b441 f23d 9140
00000020: c9ad 1f40 fbf5 1040 6ff5 0241 2d58 5140
00000030: f04f 1241 838d 5841 9c09 3d40 5dc8 d13f
3.4329307 8.740529 2.8131058 2.3459466 19.114727 0.99285686 22.500378 4.5388117
2.494982 2.2650135 8.18492 3.2710068 9.144516 13.534549 2.9537115 1.6389271

conv2.weight f4 [16, 16, 3, 3]
00000000: 0c4d bcbd 6161 543e ef1f ae3e 3fe0 dabe
00000010: 20d8 7a3e f2dc c73e e8be dabe 994a eabd
00000020: 93f2 143e e04c 8dbd 0137 1bbd e253 743e
00000030: db58 00be 6b11 16be 493c 423e fe3d 60bd
00000040: 957b 1abe d48f bf3d c10e a0be 7b56 0bbe
00000050: 3091 2d3e 18bc 76be 43e6 10bd f715 303e
00000060: 45b0 7cbe c632 e53d 16c8 0b3e e4e4 25be
00000070: 1523 4c3e dab1 073e 8ef2 8cbe 92df 633e
00000080: c03f 473e b56f 02be 0722 ee3a 62e6 a83c
00000090: b6c7 5e3e f5bf 813c 8820 11bf 2720 9f3e
000000a0: b154 e7bd be30 21bf 0c92 c63e 5725 6f3e
000000b0: 9b36 16bf a833 a1bc 0e7b df3c d281 a3bd
000000c0: 26a0 a7bd 163b f2bd 9884 40be 3b9a cfbd
000000d0: b42e 3bbe a8ea 90be d453 07bf 2f20 253d
000000e0: 8919 913e 9c3f 1cbf ddfc 813d c7e7 373e
000000f0: a4d8 d2be e2a6 3f3e 1fad ae3d 511e fdbc
00000100: 997f 7cbd 0dba e9bd 760f 863d 4aa8 a13d
00000110: 878d 8a3c 0717 62bc 5bc7 85bc d8dc 883d
00000120: 5546 3e3c f7d2 87be 0450 643e 5175 4c3d
00000130: 9f11 1ebf feef 4b3e 4851 f83e 0010 a3be
00000140: 9d3f 543d 14c0 40be fa1d 8b3e 1947 013e
00000150: bccc e2bd 7546 a33e 3942 33bd 9c42 8ebe
00000160: 2573 953e a229 eabd 0ebb c1be 2d1a 3c3e
00000170: 3a4a c63e 95a6 c6be 14df 1f3c 414d b33e
00000180: 85c6 7dbe b502 07be 4405 433e 1887 1c3e
00000190: 9230 a0be cf30 95be f267 973e 3467 84be
000001a0: 29a1 9ebe ef6b f13e 74c0 283d 1901 12be
000001b0: 3363 0d3d ab49 333e fcd2 29bd b510 f1bd
000001c0: aab8 1d3c 0b15 793c 1686 6abd 7dc5 d2bc
000001d0: 0786 073d 66a3 bdbc 90cd c03d 8774 923d
000001e0: a6ed 00be ac34 de3d e447 0c3d 1c7e 40be
000001f0: 906e 063e 9055 c6bd 2d9c ba3e 6d05 623e
00000200: 3a32 01bf a080 b63d 33bb ca3e dfdc f2be
00000210: 3ae9 89be b217 46bd a6c4 ea3d d859 18be
00000220: 9258 af3d 62f9 17be df22 b33d 8646 c73d
00000230: 4be3 bbbe 078a b53e b438 c53d e55d 58be
00000240: bd71 08bd 6e03 29bc 128e 2bbd fd65 8bbb
00000250: ead0 dfbd 3d32 2ebe 30bd e23d 7dbb 96bd
00000260: df0f d4bd 9258 7b3e d810 563e 23aa 9ebd
00000270: c11f 833e 7648 7e3e c9ff 72bd cf5b b33d
00000280: ba23 bf3d fb2d 0ebe 9d7d 553e e400 9abb
00000290: 619a 32be 14d0 d03d da07 95bc f3cd 04be
000002a0: 13af 7dbd e4c6 a9bb 8217 e5bd da84 11be
000002b0: 3154 933d 310f a9bd bacf 5fbe 526d 5a3d
000002c0: 41b2 e6bd 070f 213d 8b16 5b3e ad55 d93d
000002d0: e34c 33be 5bf8 803d 1d80 363a ac06 11bf
000002e0: 5411 90be 2dd5 3f3d c719 63bf ccf5 04bf
000002f0: 11af d83d 8bce 04be 6de6 1dbe adb7 c9bd
00000300: 5726 ce3d 229a 1e3d 9d1e 0f3d cb27 b8bb
00000310: a582 c0bc a88f b83c b72c 8abc f75f aabe
00000320: 1eb6 0cbf 504a 6ebe 6cda 2cbf 723e 17bf
00000330: 0b3a ddbe 1c3a 0bbf 41cb d9be 4d18 d4bd
00000340: 48ae 31bd f3fc 3c3c 0c3c 7a3e 2134 453e
00000350: 4c0e 043e 79d8 763e 1ca0 2c3e 5896 b03d
00000360: c6bd d83d 213b 0a3e 06fc 69be e955 93be
00000370: 86d6 47be e48c 4d3e cedc ddbd 1da8 9ebd
00000380: a23b a53e aee5 a83b e65c cf3c a194 a2b9
00000390: 0b83 033e b95b be3e aa0c 3e3e 71b1 dabe
000003a0: 4ee3 7cbe 5923 393d fb5d d83d a793 af3d
000003b0: d7e0 06be 05ea 353e b1ff 363d e88d d0bc
000003c0: 66a3 8b3e 7618 af3c 051b afbd e54b 82be
000003d0: 2fa5 88be 5f11 c6bd 4c71 4bbd aec2 9a3d
000003e0: c456 393e 798b 713e 3d0a b93e 9a35 c03e
000003f0: af11 db3d a290 92bd 9d0f 95be 8376 2f3e
-0.09194383 0.20740272 0.34008738 -0.4274921 0.24496508 0.39035755 -0.42723775 -0.114400096
0.1454566 -0.06899428 -0.037894253 0.23860124 -0.12533896 -0.14655082 0.1896831 -0.05474662
-0.15086205 0.09353605 -0.31261256 -0.13607208 0.16949916 -0.2409519 -0.035375845 0.17195879
-0.24676616 0.11191325 0.13650545 -0.16200596 0.19935258 0.13251439 -0.27528805 0.22253254
0.19457912 -0.12737925 0.00181681 0.020617668 0.21755871 0.015838603 -0.56690264 0.31079218
-0.112954505 -0.62965 0.387833 0.23354088 -0.5867707 -0.019677952 0.027280357 -0.07983746
-0.08184843 -0.11827676 -0.1880058 -0.10136839 -0.18279535 -0.2830403 -0.52862287 0.040313896
0.28339794 -0.6103456 0.06347058 0.1795951 -0.4118091 0.18716004 0.08529114 -0.030898245
-0.061645124 -0.114124395 0.06545918 0.07893427 0.016913189 -0.013799435 -0.016330412 0.066827476
0.011613448 -0.2652814 0.22296149 0.04991657 -0.6174564 0.19915769 0.48499513 -0.31848145
0.05181848 -0.18823272 0.27171308 0.12624778 -0.11074206 0.31889692 -0.043764327 -0.27785194
0.2918941 -0.11433722 -0.37838024 0.1836936 0.38728505 -0.38798967 0.009757776 0.35019878
-0.2478276 -0.13184626 0.19044977 0.15285909 -0.31287056 -0.291388 0.2957149 -0.25859988
-0.3098233 0.4715266 0.041199163 -0.14258231 0.034518432 0.17508571 -0.041460976 -0.11770765
0.009626547 0.015202771 -0.05725678 -0.025728935 0.033086803 -0.023149204 0.09414208 0.07151132
-0.12590656 0.1084989 0.034248248 -0.18798107 0.13128114 -0.096842885 0.36447278 0.22072382
-0.50467265 0.08911252 0.39595947 -0.47434136 -0.2693575 -0.04836244 0.11463289 -0.14878023
0.08561815 -0.14841226 0.087468855 0.09730248 -0.36696848 0.3545687 0.09629956 -0.21129568
-0.033311594 -0.010315759 -0.041883536 -0.0042541013 -0.10928519 -0.17011352 0.11071241 -0.07359979
-0.1035459 0.24545506 0.20904863 -0.07747295 0.25610164 0.24832329 -0.059325967 0.087577455
0.09332986 -0.13884728 0.20848699 -0.004699813 -0.17441703 0.10195938 -0.01819222 -0.12969188
-0.061934542 -0.0051811803 -0.111861244 -0.14210835 0.071937926 -0.08254851 -0.21856585 0.053326912
-0.11264468 0.03932097 0.21395318 0.106120445 -0.17509799 0.0629737 0.00069618394 -0.56650805
-0.2813822 0.04683416 -0.8871121 -0.51937556 0.10580266 -0.12969415 -0.15419932 -0.098494865
0.100659065 0.03872121 0.034941304 -0.005619978 -0.023499796 0.022529438 -0.016867025 -0.3327634
-0.5496539 -0.23270535 -0.67520785 -0.5907966 -0.43208346 -0.5438554 -0.42537883 -0.103561975
-0.0433791 0.011534917 0.24436969 0.19258167 0.12896079 0.24106015 0.16857952 0.08622426
0.105830714 0.13499118 -0.22850046 -0.28776482 -0.19515428 0.20073277 -0.10833131 -0.07746909
0.3227206 0.005154333 0.025312852 -0.00031009785 0.12842958 0.37179354 0.18559518 -0.42713502
-0.24696085 0.045199726 0.105648 0.08573084 -0.13171707 0.17765053 0.04467744 -0.025458291
0.272731 0.021373969 -0.085500754 -0.25448528 -0.26688525 -0.09671282 -0.049668595 0.075566635
0.18099505 0.23588361 0.36140624 0.37540895 0.10696732 -0.07156493 -0.29113474 0.17135052

conv2.bias f4 [16]
00000000: 59dd 7cba 810e bdb8 c479 b5b9 4c4a 3eba
00000010: e0c1 0dba 665e 56ba fd79 1bb9 cad8 6939
00000020: af54 89ba e0a5 023a bf1a 3b3a fc75 11ba
00000030: 8795 8c3a 2332 bfb8 3e4d 17b9 7c2a 3f38
-0.00096460205 -9.014924e-05 -0.00034613733 -0.0007258996 -0.0005407613 -0.00081775186 -0.00014827396 0.00022301372
-0.0010477508 0.0004983824 0.00071374694 -0.0005548892 0.0010725715 -9.1169284e-05 -0.00014429257 4.5577515e-05

bn2.weight f4 [16]
00000000: 404e b03f af99 973f 5dee 833f 0b29 8b3f
00000010: b335 a53f 3c32 813f 3f6c 2d3f bb81 8d3f
00000020: cfee 4f3f 289e db3f b37f 773f 930c 763f
00000030: 6dd7 a83f a24d 543f 3adf 7e3f 2bbb 443f
1.377388 1.1843776 1.0307118 1.08719 1.2907013 1.0093455 0.67743295 1.1055216
0.8122377 1.715764 0.9667923 0.96112937 1.3190743 0.8293096 0.99559367 0.76848096

bn2.bias f4 [16]
00000000: 7bb9 70be e649 b13e 96f1 183e 196c 403f
00000010: 906d 1ebe ddb2 df3e d941 523f a2d7 5cbd
00000020: 273b 383f 5298 10be c23c b5bd 7384 71bd
00000030: af18 68be 7b17 f63d 528c c53e a5b8 9e3e
-0.23508255 0.34626693 0.14935908 0.75164944 -0.15471482 0.4369115 0.82131726 -0.05391658
0.7196526 -0.14120606 -0.08849479 -0.058964204 -0.22665666 0.12016197 0.38583618 0.31000248

bn2.running_mean f4 [16]
00000000: 9917 81bf f40d fabf aef4 ebbf b24b 23c0
00000010: 5f17 aebf 4804 86be c9f6 1ec0 22ca 10bf
00000020: d2d9 2abf 1197 d7be 85e1 00c0 a9c4 2ec0
00000030: cc86 b2bf e95f 4abd 979f 433e 5e1d 8a3f
-1.0085326 -1.9535508 -1.8434045 -2.551495 -1.3600882 -0.2617514 -2.4838126 -0.5655843
-0.6673862 -0.42107442 -2.0137646 -2.7307532 -1.3947387 -0.049407873 0.19103847 1.0790212

bn2.running_var f4 [16]
00000000: 15cf 3d41 f016 1e41 45eb ea40 fcac a940
00000010: dc37 6d41 122b da40 dd9f 9240 c73c 1641
00000020: 6fad a340 dc28 2b42 646c 2640 93c3 2140
00000030: ec69 3c41 892c 0840 449f ce40 0694 3f40
11.863057 9.8806 7.3412194 5.3023663 14.826138 6.8177576 4.5820146 9.389838
5.114921 42.7899 2.6003656 2.527562 11.77586 2.1277182 6.4569416 2.9934096

conv3.weight f4 [32, 16, 3, 3]
00000000: 4d80 c7bd aaa3 95bc 11aa 573e 231a 2bbe
00000010: bd93 7ebd 695a 2b3e b154 1abe 1fd5 8ebd
00000020: 84fc 993d 450c 9c3c 30a9 513d 656b 973c
00000030: d125 283e 78ca b93d 7676 63bd d601 963e
00000040: 3e79 303e 1612 98bd cbb0 3abe b403 fbbc
00000050: fc3e a3ba 67a8 2fbd 7c75 c2bd bd7b 3ebe
00000060: 21dd 033e 1410 b53d fa3a d5bb d23f 713e
00000070: 9c0c 903e 6a9c 843e d9ea 4a3e 39f1 b33e
00000080: c672 953e 6de6 24be 2f81 84bd 33fc 08be
00000090: 1ade dd3c da56 f63d 1024 013c d7b9 a6bd
000000a0: af8e c2bd f751 91be 2e6d dcbd 1e78 78be
000000b0: d1f6 aabe fffd 3abe c917 22be 7463 22be
000000c0: 289d 4bbd e8ee d6bc 54f0 f4bd 72e6 503e
000000d0: 2e70 4b3e c6db d73d ae7e 2fbd 13e5 b83d
000000e0: 937b 443e b9c4 dfbd bf2a 1fba a986 7abc
000000f0: 8828 153c b72e 1d3d 2b7a 46be b6df 9d3e
00000100: 2216 e63e 470f 333e 746e be3e 751e 043f
00000110: 2617 413e 89a0 193e 381b 523e 4a28 fe3d
00000120: 1b6f 9b3d d752 163c 16e5 683b 4b41 683d
00000130: 9d57 b5bc 5a5f 37bb d05a adbd 4a20 7abd
00000140: 61f5 743d 332e a23d d700 b13e 68e2 903e
00000150: 9982 1b3e b027 cc3e bc62 5d3e 349f 1d3e
00000160: 66e2 223e 362b c63d c7a9 01bd 85f6 06be
00000170: 3e38 8fbe b0a8 bb3c d7ef acbd 19d4 84be
00000180: f198 f23d 55a8 303c ce1d 47be 2745 4b3e
00000190: 1295 d63c 7561 c7be 537b 383e ee74 26bd
000001a0: efbd adbe bd57 dd3d 08f2 92bd c463 85be
000001b0: 2849 43be 5ef1 a7bd 5f62 113d 9992 d1be
000001c0: af19 b5be 67ca babd e16e 3dbe c046 64be
000001d0: 8715 f4bd 82d6 08be 0bdd efbd 634a d03d
000001e0: ac8f 26be 3206 8cbd c31c 0f3e 614a 8a3d
000001f0: f15b 0b3e 3caa 933e 9865 53bd 39fc a23c
00000200: 4b5e 273e bac1 f23c f6fe 713d 072d 043e
00000210: 0854 66be d971 37be e53a 12bd 825e 92bd
00000220: 20b2 8dbd 9ef9 0cbe 0311 05bd 73db c6bd
00000230: 8d59 4cbe 9db5 43bd 82d8 08be 8555 98be
00000240: ae78 023c 77a2 bd3c d2d0 0f3e 360d 90bd
00000250: ea48 043c 60ab 40bd c7f7 90bc ae41 ba3d
00000260: 74f0 ccbc 7207 abbd 9920 fa3c 054b e53d
00000270: a1eb d53d 2c9d d43d 7fcd 173e f615 8f3d
00000280: 8c3d db3c a32f 2ebd c301 503d ed2a fd3d
00000290: 1cdf 213d 55f1 643e 303a e73d 59c0 81bd
000002a0: 34a4 4d3e e563 dcbc 31fe 2fbe 5413 6f3c
000002b0: 55f1 e43d 7b93 593c ac96 9bbb 8989 76bd
000002c0: 8cb0 17be 8a47 9fbd a67c e9bd 6df9 8fbe
000002d0: 0e46 8b3e fa6e d23e 61eb 993e 1139 243d
000002e0: 68a8 c03d 8e7a 683e 3a91 fbbd 9df1 07be
000002f0: 1497 533c 2088 c2be a79b c6be e7c0 2fbe
00000300: 3950 07be 2e25 74be a5ce dbbd 6064 b5bb
00000310: dc60 14be 9ccd 1cbc 1a38 253e bba1 d03e
00000320: 6df3 893e 0648 823e 4187 9f3e 170a b53d
00000330: 0d4d f73c 9635 ab3d fb27 a43c 64c3 583e
00000340: caa6 503e 2775 213d 04de 203d d1e8 f6bd
00000350: fe63 22be d74d 4abe 7e5c a1be b8cf 30be
00000360: 0481 143e 32bf 6b3e 430f 6c3e 9c6a b73d
00000370: d699 433e 151e 7b3d 50bd 53be 40e4 6b3d
00000380: c740 79bd c7a6 343d 8942 f03d 994c 193e
00000390: dbe6 a1bd 3f28 4bbe 3887 e6bd a2ae d4be
000003a0: 21ce 01bf 2d54 a9be 39d1 823e c891 993d
000003b0: f7e1 20be 61df 07bd 9271 ffbd 678f 87be
000003c0: bccb 96be bb89 9dbe e30d 8dbe ecde 29bc
000003d0: 9906 67be 649b 68be 8da6 98be 91b0 95be
000003e0: 3b73 01bd 7ba0 8ebe abac 3fbe b042 8f3c
000003f0: bdc5 bdbb cf0c 013c 956e 9bbc 06d4 8cbd
-0.09741268 -0.018266518 0.21060969 -0.16709189 -0.062152613 0.16733707 -0.1507137 -0.069742434
0.07518867 0.01904882 0.05118674 0.018483827 0.16420676 0.09071821 -0.055532895 0.29298276
0.1723375 -0.074253246 -0.18231504 -0.030641414 -0.0012454684 -0.04288521 -0.094950646 -0.1860189
0.12877323 0.08840957 -0.0065072747 0.23559502 0.2813462 0.25900584 0.1981615 0.35144976
0.29189128 -0.16103525 -0.06469952 -0.13377456 0.027083445 0.12028284 0.007882133 -0.08140915
-0.09499871 -0.28382847 -0.10763012 -0.24264571 -0.3339143 -0.18260954 -0.15829386 -0.15858251
-0.049710423 -0.026236966 -0.119599015 0.20400408 0.19867012 0.10539965 -0.04284542 0.090280674
0.19187765 -0.10926194 -0.00060717383 -0.015290895 0.009103902 0.03837463 -0.19382541 0.3083474
0.4493876 0.17486297 0.37193644 0.51608974 0.18856487 0.15002646 0.20518196 0.12410028
0.07589551 0.009175024 0.0035536936 0.056702893 -0.022136504 -0.0027980418 -0.08464587 -0.06106595
0.059804324 0.07918968 0.34570953 0.28297734 0.15186538 0.3987403 0.21619695 0.15392762
0.15906677 0.096762106 -0.031656053 -0.13179977 -0.27972597 0.022907585 -0.08444183 -0.25943068
0.118455775 0.010782321 -0.19444963 0.19850598 0.02619413 -0.3894154 0.18015794 -0.040638857
-0.3393397 0.108077504 -0.0717507 -0.26052678 -0.19070876 -0.08200334 0.035494205 -0.40932158
-0.35371158 -0.091206364 -0.18499328 -0.22292614 -0.119181685 -0.13363078 -0.117120825 0.10170438
-0.16265744 -0.06837119 0.13975815 0.06752468 0.13609292 0.28840816 -0.05161056 0.01989566
0.16344564 0.029633392 0.05908104 0.12907802 -0.22492993 -0.17914523 -0.035700697 -0.07146932
-0.0691874 -0.13767096 -0.032486927 -0.09709825 -0.19956036 -0.04778062 -0.13363841 -0.29752746
0.007963343 0.023148758 0.14044502 -0.0703377 0.008074025 -0.047038436 -0.017696274 0.09094559
-0.025017 -0.083510295 0.030533122 0.111959495 0.10445333 0.10381541 0.14824484 0.069866106
0.026762746 -0.0425259 0.05078293 0.12361703 0.039519414 0.22357686 0.11290395 -0.063355155
0.2008217 -0.026903102 -0.1718681 0.0145920105 0.11178843 0.013279791 -0.004748186 -0.060189757
-0.14813441 -0.07777317 -0.11400728 -0.28119984 0.27201885 0.41100293 0.30062392 0.040093485
0.09407121 0.22703001 -0.12283559 -0.13275762 0.012914438 -0.3799448 -0.38790628 -0.1716343
-0.13214196 -0.23842308 -0.10732774 -0.0055356473 -0.14490074 -0.0095705055 0.16134682 0.4074839
0.26943532 0.25445575 0.31157878 0.08839815 0.030188108 0.0835983 0.020038595 0.21168286
0.20376125 0.039418366 0.03927423 -0.12056125 -0.15858456 -0.19756256 -0.31515878 -0.17266738
0.1450234 0.23022154 0.23052697 0.08955881 0.19101653 0.061307985 -0.20677686 0.057590723
-0.060852792 0.044104364 0.117314406 0.14970626 -0.0790536 -0.19839571 -0.1125626 -0.41539484
-0.5070515 -0.33072034 0.2555025 0.07498509 -0.15711199 -0.033172015 -0.12472834 -0.26476595
-0.29452312 -0.30769143 -0.27549657 -0.01036809 -0.2256111 -0.22715527 -0.29814568 -0.29236272
-0.031604033 -0.27856812 -0.18718211 0.017487854 -0.0057913945 0.007876589 -0.018973628 -0.06876378

conv3.bias f4 [32]
00000000: bad4 bd39 2ff6 603a f385 2639 fb89 b5b7
00000010: fd33 3b3a 3a6c 64b8 a486 82b9 af92 08ba
00000020: 3929 22ba f62b 793a 22cd 6039 bbf9 8d3a
00000030: cd8f 07ba 689f 53b9 2573 643a ad99 b439
00000040: 66a7 7f39 a8b8 99b9 61b4 253a 92bb 4b39
00000050: 2a7d 11ba c74e a2b9 2726 fe39 25ea 1bb8
00000060: 287b b038 2afa 153a 84c5 84ba 22bc 64ba
00000070: 8363 733a 91ed 02ba 3eb4 8fba 624e 4a39
0.00036207383 0.0008581606 0.00015880894 -2.1641134e-05 0.0007141231 -5.446023e-05 -0.00024895847 -0.0005209846
-0.0006185952 0.0009505147 0.00021438723 0.0010831872 -0.00051712693 -0.00020181912 0.00087146676 0.00034446773
0.00024381056 -0.00029320014 0.0006321129 0.00019429464 -0.0005549962 -0.00030957742 0.0004847508 -3.7172944e-05
8.4152736e-05 0.0005721176 -0.0010129665 -0.0008725544 0.0009284543 -0.00049945066 -0.001096375 0.00019293421

bn3.weight f4 [32]
00000000: c5fa 273f fbe0 2e3f a055 843f edc7 8a3f
00000010: da7c 1d3f 00e1 8e3f eab0 503f d441 1c3f
00000020: 243f 313f a6a4 b03f 39ee e73f 1e5e 353f
00000030: 25ca 973f 1b5c 6e3f 97a3 333f 1702 5f3f
00000040: c4b8 543f 908d 5e3f c825 473f ba07 1e3f
00000050: d4bd 863f 4979 2c3f 9ec0 4a3f 564d 3e3f
00000060: 558d 9d3f 33e1 383f 2390 4d3f 12b3 7b3f
00000070: 2e1f 813f cade 863f c5d4 673f 2706 693f
0.6561702 0.6831204 1.0338631 1.0842263 0.61518633 1.1162415 0.8151995 0.61037946
0.6923697 1.3800247 1.8119575 0.70846736 1.1858565 0.9310929 0.70171493 0.87112564
0.8309443 0.8693476 0.77792025 0.6173054 1.0526681 0.67372566 0.7920016 0.74336755
1.2308756 0.72218627 0.8029806 0.98320115 1.008764 1.053674 0.90559036 0.9102501

bn3.bias f4 [32]
00000000: 3156 e43e 1d7e c83d 8445 313d 74b3 fd3d
00000010: 2d8f c53e f44a b2bd 4bf4 9abd cdd2 a03e
00000020: f776 fb3d f034 0fbf 2be9 39bf daa7 1b3e
00000030: 9285 8fbd e87b 24be 6eac 463e fc90 8cbe
00000040: c21c 413d dbac 43be 44f0 c63c b764 5b3e
00000050: 9e33 dbbe d36f 403e 9df2 06be fafb df3c
00000060: 61d5 10be 9571 153e 203c 17be 515c 8a3e
00000070: f2a9 30be b839 c7bd a829 eebd 5f44 a0be
0.4459701 0.09789679 0.043279186 0.123877436 0.38585797 -0.087057024 -0.075661264 0.31410828
0.1227855 -0.5594015 -0.7262141 0.15200749 -0.070078984 -0.16062891 0.19401714 -0.27454364
0.047146566 -0.19108908 0.02428449 0.21425138 -0.42812818 0.18792658 -0.13178487 0.027341831
-0.14143898 0.1459411 -0.1476903 0.27023557 -0.17252329 -0.09727806 -0.11629039 -0.31302163

bn3.running_mean f4 [32]
00000000: 575a 933f 1a52 0d3c f475 15c0 1ddd 8dc0
00000010: dbae 65c0 3ef0 10bf bbe4 3abc 44af 16bf
00000020: c1c1 8640 175e 563e e0bc 2ec0 19b5 a0bf
00000030: 5022 5ac0 b7c3 52bf 3bb3 2e40 cfc8 ad3f
00000040: ae1c c93e dc31 82c0 1adc e0be aa83 2e40
00000050: c6bb 88c0 11bf dcbf 33b1 c6bd f9cf b8bf
00000060: 3a0b 0dbf fd89 b43e 5607 e6bf 8e31 05c0
00000070: 8e44 b0c0 388a 8ec0 6ce9 a8bf a327 fcbf
1.1511945 0.008625532 -2.3353243 -4.4332414 -3.5887973 -0.5661658 -0.011407073 -0.58861184
4.2111516 0.2093433 -2.730278 -1.2555267 -3.4083443 -0.8232989 2.7296894 1.3576907
0.39279693 -4.0685863 -0.43917924 2.7267861 -4.2729216 -1.7245809 -0.09701767 -1.4438468
-0.55095255 0.35261527 -1.7970989 -2.0811496 -5.5083685 -4.4543724 -1.3196235 -1.9699596

bn3.running_var f4 [32]
00000000: 31c7 0140 df51 3e40 93fd 7440 5041 cc40
00000010: 1353 7940 d90c fe40 6fa5 4640 21ac 8a40
00000020: 3641 2240 e03c 6340 30c6 1641 7100 4740
00000030: ea8d dd40 b32b 5440 0762 8640 971d 6a40
00000040: 023a 8440 b791 8740 0b2e 5f40 6ff1 2740
00000050: f001 3440 9be4 6240 6f99 4540 6687 4340
00000060: 22ed 1841 572b 5840 ae0b 5140 988d 9840
00000070: c32b 7c40 eaf4 8240 68fd 6840 ab3c 2040
2.0277827 2.973747 3.827977 6.3829727 3.8956954 7.9390683 3.1038473 4.333512
2.5352302 3.5505905 9.423386 3.109402 6.9235735 3.3151672 4.199466 3.658056
4.132081 4.2365375 3.4871852 2.624111 2.8126183 3.545203 3.0874898 3.055139
9.557894 3.3776453 3.2663379 4.7672844 3.940171 4.0923967 3.6404667 2.5037029

conv4.weight f4 [32, 32, 3, 3]
00000000: f23d a8bd 7ec3 f5bd e358 a03c 98d2 b43e
00000010: c6e4 1a3e 9f5c fd3b 684c ef3d d8f4 af3d
00000020: 49f0 a2bd d2e8 cb3a 6cc0 8c3c 64bf 153d
00000030: a00c a33d e17c 153e 5c03 23bd 1c59 0c3e
00000040: 1d3d 9ebd 7c84 99be c5fb 103d 1164 3cbb
00000050: 137c 66be 3394 8ebd 90b9 103e 3d45 fbbd
00000060: 74d7 3d3e 2ad6 0c3e 3c43 4f3e 7e09 c93d
00000070: e8d0 d53d 7ca2 7f3d dfb7 363e 612b 06bd
00000080: ea70 62be bcd7 753d a209 a4be b5f6 e4bd
00000090: a606 38be d23c 9d3d 4d7c ae3d d009 58bb
000000a0: 915b bc3c 0bb3 4cbe e1bb bd3d 61db fabd
000000b0: 72d8 9fbd fb8f 193e 02a3 323d 19dc 14be
000000c0: c592 a03e 4acb d3be 6ae9 41bf ab65 433e
000000d0: 36aa e5be 33fd 3ebf 459d 02bc ce94 8fbd
000000e0: 1aa7 843e 1073 92bc 1b9a 793d 1f41 ec3a
000000f0: 10b2 1e3e a1b2 c43e 37a3 80bb 7a7f 45bd
00000100: 80ad 9bbd 71a8 263e 2b2f 033e 5cbe 2dbe
00000110: f90a 53bd 3332 523e 9236 373e 0a53 b43d
00000120: bf20 7f3e 0e8e 903c a507 103e c873 e13d
00000130: e8b0 60be 5c18 c2be f322 033e bf46 80be
00000140: 45cb d1be 6e77 dd3c 12e6 dabd 1713 2fbe
00000150: b8be fe3d 5058 d73c d3a3 eabd fd08 07bd
00000160: ef1b 15be a350 42be 28f4 24be ba78 3a3c
00000170: 7818 37ba a1fb c4bd c3c5 6c3e 90e9 d93d
00000180: 27a0 a5bb 5d8d 1a3e b96a 5d3c 8f66 7c3d
00000190: 593e a4bc 6227 95bd af78 87bc 56db 77be
000001a0: 182f d5bd fbf1 cbbc 6774 2ebe 0b37 49be
000001b0: 538a 0b3e fa27 5ebd a018 b23d 1b5f a9bd
000001c0: c462 29bd 032c bc3d 0f0e cebd cfeb c2bc
000001d0: f29d 8cbc 070b 89bd 1c59 62bd 1cb7 253c
000001e0: c013 46bd 5f0e bebb 2c13 083e 3a13 aa3d
000001f0: 65db 99bd 21f9 25be e210 94bd c548 79bd
00000200: 0b82 c63c cce7 56be 9ac6 b9bb 7663 013e
00000210: f67b 08be 59bd c13d 207a 323e bee6 063e
00000220: 29d0 243d 1ab1 a7bc c756 8e3e 73c7 6bbe
00000230: 3c96 36be a732 9b3e 9ae2 b1be f89a b4be
00000240: 8973 8c3c 264c f03c 8374 173c 972b 2bbc
00000250: b934 a9bd bc7e 4c3e 49a1 3e3c 951c 2cbe
00000260: 73d3 1e3e 8313 3b3d fc26 fcbd 9fa2 a6bd
00000270: 1b9e 98bd cee1 543d 517c 263e 5e20 4dbe
00000280: 8dbb 2bbd 134b 5b3e 12dd 1e3d 8563 643d
00000290: 8a50 a63c 5578 033e 8106 2d3e 442b 06be
000002a0: 559f fe3d 090a 6e3d 0faf 32bd 7a7a 093e
000002b0: 36d3 2bbc 799e 633c 3f3b 243d 7e8c 9cbd
000002c0: 94aa 1a3d f04f 36be 82c2 41be 29e8 b7bc
000002d0: 156d 9dbd b0c8 483d b722 eebc 9069 8c3e
000002e0: 2437 043d 72a8 8fbe 9856 c93d cdd4 91be
000002f0: 6c6e 65be e315 af3d e650 d9bd 02e8 5d3c
00000300: 8c9d c23d 8598 66be 3500 bfbe 579c 613e
00000310: 6221 953e 632c 203c d340 103e 597d 563e
00000320: 2322 91bd 3703 a4bd cdf8 6ebe 5356 bebd
00000330: f98c bd3d b0fe 1fbe 9b0c b3be d3bc 0b3d
00000340: e317 373d 3636 9b3d 18e8 7b3e d704 9c3d
00000350: b9e6 8bbd eda0 9d3e 871e 103e 4915 d1be
00000360: e6d3 393e f4e8 3bbe da75 9abe 2ef6 593e
00000370: 9b1f 40bf 66c5 38bf c16c 953d 369c a9be
00000380: e52e a1be 6574 243e 01f3 973d f066 f63c
00000390: be79 a33e 3fa3 c6bd 2453 bdbe d2ec 953e
000003a0: 7211 adbe 0cc1 05bf dc0a cb3d 7b3d f93d
000003b0: 41e9 583e 524f b13d b8c8 abbd 8777 35bd
000003c0: 95e9 c13d 27a7 47be 9fc4 43be efab 2fbd
000003d0: c32a 22be f317 83bd 0ba2 b4be 1a8c 633e
000003e0: c89f b73e e253 28be ad0c 933e e90b 993e
000003f0: 4515 963d 5158 9abd 67f3 3cbe 8022 b8bd
-0.0821494 -0.12000178 0.019573634 0.3531692 0.15126333 0.0077319886 0.11684495 0.08591622
-0.07955987 0.0015557057 0.017181598 0.036559477 0.079613924 0.14598419 -0.039798126 0.13705868
-0.077265 -0.2998389 0.035396356 -0.0028746168 -0.22508268 -0.069618605 0.14133286 -0.122690655
0.1853922 0.13753572 0.20240492 0.098162636 0.10440236 0.062410817 0.17843579 -0.032756213
-0.22113386 0.060020193 -0.320386 -0.11179868 -0.17971286 0.07677616 0.08519802 -0.0032964833
0.022992881 -0.19990174 0.09264351 -0.122488745 -0.078049555 0.1499633 0.043612488 -0.14537086
0.31361976 -0.41366035 -0.75746787 0.19081752 -0.44856423 -0.746051 -0.007972066 -0.07010804
0.25908738 -0.017877132 0.060937982 0.0018024779 0.15497613 0.38417533 -0.0039257067 -0.048217274
-0.07601452 0.16275193 0.12810962 -0.16967148 -0.051524136 0.20526962 0.1789191 0.08804901
0.24914835 0.017645862 0.14065416 0.11008412 -0.21942484 -0.3790921 0.12806301 -0.25053975
-0.40975395 0.027034488 -0.10688414 -0.17097126 0.124387205 0.026287228 -0.11457028 -0.032967556
-0.14561437 -0.18976073 -0.16108763 0.0113813225 -0.0006984542 -0.09618307 0.23122315 0.10640252
-0.005054492 0.15092988 0.013514214 0.061621245 -0.02004926 -0.07282902 -0.016537039 -0.24204764
-0.10409373 -0.024895659 -0.17036591 -0.19649903 0.13626985 -0.054237343 0.08696103 -0.08270093
-0.041353956 0.09188082 -0.10061275 -0.023794083 -0.017165158 -0.066915564 -0.055260763 0.010114457
-0.04835868 -0.005800053 0.13288563 0.083044484 -0.07512549 -0.16208316 -0.07229783 -0.060860414
0.024231931 -0.20986861 -0.005669427 0.12635598 -0.13328537 0.09459943 0.174294 0.13173959
0.04023758 -0.02047019 0.2780058 -0.23025303 -0.17830747 0.30312082 -0.34743196 -0.35274482
0.017144935 0.029333185 0.009244087 -0.010447404 -0.08262009 0.1997022 0.011635133 -0.16807778
0.15510349 0.045672905 -0.12312123 -0.08136486 -0.07452031 0.051973157 0.1625836 -0.20031878
-0.04192691 0.21415357 0.038785048 0.05575897 0.020302076 0.12838872 0.16897012 -0.13102442
0.12432734 0.05811504 -0.04362398 0.13425627 -0.010487368 0.013892763 0.040095564 -0.07643984
0.037760332 -0.17803931 -0.18921855 -0.02244957 -0.07686821 0.049019516 -0.029069288 0.27424288
0.03227915 -0.280582 0.098309696 -0.28482667 -0.22405404 0.085490964 -0.10611133 0.0135440845
0.09502706 -0.22519119 -0.37304845 0.22032295 0.29127032 0.009776208 0.14087228 0.20946254
-0.07086589 -0.08008426 -0.23337097 -0.09293809 0.09255404 -0.156245 -0.34970555 0.034115624
0.044700515 0.07578699 0.24600255 0.076181106 -0.06831116 0.3078684 0.14074145 -0.40836552
0.18147239 -0.18350583 -0.3016804 0.21285316 -0.75048226 -0.72176206 0.07296134 -0.33126992
-0.3148109 0.16060026 0.07419396 0.030078381 0.3192882 -0.096991055 -0.36977494 0.29282242
-0.33802372 -0.5224769 0.09914181 0.121699296 0.2118273 0.08657707 -0.083878934 -0.044303443
0.0946838 -0.19497357 -0.19117974 -0.042888578 -0.15836625 -0.06401052 -0.3527988 0.22221413
0.3586409 -0.16438249 0.28720608 0.298919 0.073282756 -0.07536376 -0.18452226 -0.08990955

conv4.bias f4 [32]
00000000: 7f4a 8239 30c5 f8b9 7a6c 303a 2b31 a739
00000010: f66a eeb9 34c9 28ba e903 2f3a e343 3e3a
00000020: 758b 433a 5cc0 cc39 a6ff 70b9 f2bd 5637
00000030: ee31 2c3a 489a bbb9 a15a 103a b05d 45ba
00000040: 34cc f4b6 d2f1 9db9 f69e a3b9 1400 053a
00000050: 974b 6336 0a43 06ba f1f8 cab9 1e7d 1b3a
00000060: c296 273a 02b8 77b9 7e95 43ba 48db a339
00000070: cf60 403a fb44 abb9 33c3 88b9 ccac 35ba
0.00024851036 -0.00047449162 0.00067300315 0.00031889355 -0.0004547459 -0.0006438673 0.0006676303 0.0007258041
0.00074594404 0.0003905323 -0.0002298342 1.2799619e-05 0.00065687194 -0.00035782368 0.0005506669 -0.0007528914
-7.295539e-06 -0.00030125544 -0.00031208218 0.0005073559 3.3869635e-06 -0.0005121684 -0.00038713918 0.00059314247
0.0006393009 -0.00023624304 -0.0007460936 0.0003125316 0.00073386444 -0.00032667056 -0.00026085376 -0.0006930351

bn4.weight f4 [32]
00000000: e903 933f 8593 653f b611 553f eb24 773f
00000010: 2c5d 7a3f 7964 903f 81d3 873f 0990 573f
00000020: 5c27 853f 914c 6a3f fc17 583f 7803 713f
00000030: ae0f 823f dc89 5a3f 288a 373f 49d7 a33f
00000040: 8a18 833f 91ce 613f 8ccc 803f 6e58 4b3f
00000050: 95db 413f 9475 873f 8278 583f d5e3 5f3f
00000060: 9c4c 443f 59e2 413f 786f 833f 3947 933f
00000070: 2689 293f 2688 7f3f 152c 4d3f 96f9 873f
1.1485568 0.8967822 0.8323015 0.9654071 0.9779842 1.1280662 1.0611421 0.84204155
1.0402637 0.9152308 0.844116 0.9414592 1.0161035 0.85366607 0.71695185 1.2800075
1.0241864 0.8820582 1.0062423 0.7943181 0.7572568 1.0582757 0.8455888 0.8745702
0.76679397 0.75736004 1.0268393 1.150611 0.66224897 0.9981712 0.8014539 1.0623043

bn4.bias f4 [32]
00000000: f2cf 8fbe 5e4d 2c3c e106 d03b 33c7 76bd
00000010: 6f58 d8be 865c adbe 39e9 b5be c222 263e
00000020: 15e6 b6be b2a2 78be dcd0 4dbe e5dd 873e
00000030: 49bb 8bbd 6973 01be cdc7 cc3d 782f 41bf
00000040: 08d6 debe eb23 383e eb58 b5be 3ce6 c13d
00000050: 7d34 293e 9da1 fabe d753 00be 847a 62be
00000060: 5f17 9d3e d0e4 b23e 0026 4fbe 275e d3be
00000070: 7c50 803e 6be5 0f3c 0c6e c73e edcc e43c
-0.28088337 0.010516493 0.0063484763 -0.060248565 -0.4225497 -0.33859652 -0.35529497 0.16224197
-0.35722414 -0.24280813 -0.20099205 0.2653648 -0.06822831 -0.12641682 0.099990465 -0.75463057
-0.43522668 0.17982452 -0.35419402 0.09467742 0.16523929 -0.48951426 -0.12531982 -0.22117049
0.30681893 0.34940195 -0.2022934 -0.4128277 0.25061405 0.008782725 0.38951147 0.027929747

bn4.running_mean f4 [32]
00000000: f265 90bf 4c8a 66bd c36d fb3f 1165 33c0
00000010: a2c1 03c0 b00e 7ebf 7cde bdbf bea4 8a3e
00000020: 8df3 a0be e021 6a3d b7ef 673f b540 31c0
00000030: b435 cbbe d205 263f de85 aebf 9503 f6bf
00000040: 7ea8 9abf 8f7e 5f3f e653 84bf cc4f bcbf
00000050: e8e9 c1bf 39b5 a8bf 86ab ddbe 7109 543f
00000060: bede e8bf d9b3 c53f 76b4 90bf 3462 49bf
00000070: 9023 fa3e 4c10 33c0 1af5 25c0 32c4 4dbf
-1.1281111 -0.056284234 1.9642872 -2.8030436 -2.0586934 -0.9924116 -1.4833522 0.27078813
-0.31435814 0.057161212 0.9060015 -2.7695744 -0.3968941 0.6485263 -1.3634603 -1.9219843
-1.208267 0.8730249 -1.0338104 -1.4711852 -1.5149508 -1.3180305 -0.43294924 0.82826906
-1.8192976 1.544551 -1.1305072 -0.7866547 0.48855257 -2.7978697 -2.5930848 -0.80377495

bn4.running_var f4 [32]
00000000: e524 7040 b43f 6b40 4fab 3440 2de4 9740
00000010: 55cb 5640 8ada 5c40 8256 7140 41c2 3440
00000020: f1c6 3040 4a5e 4f40 0137 0a40 3ee2 b940
00000030: 0d07 5540 bdf7 2e40 2a99 1740 6726 4c40
00000040: d2ff 5240 3edb 5040 4ce0 6140 674c 7540
00000050: 53a2 5b40 d1c5 5a40 d139 2740 37c5 2340
00000060: 266b 8440 03e0 8e40 0c26 4340 2a98 6e40
00000070: ac9a 1f40 4c5c b640 c748 9b40 1bdb 6640
3.7522519 3.6757631 2.8229558 4.7466035 3.3561604 3.4508386 3.770905 2.8243563
2.7621424 3.24013 2.1596072 5.8088675 3.3285553 2.7338707 2.3687234 3.189844
3.296864 3.2633815 3.529315 3.8327882 3.4317825 3.4183238 2.6129038 2.558912
4.1380796 4.464845 3.0491972 3.7280374 2.4938154 5.6987667 4.852634 3.6071231

conv5.weight f4 [32, 32, 3, 3]
00000000: 7884 2dbe c6b0 80be d4eb f9bd b310 70bd
00000010: bc1a 28be 6f38 63bd 1d19 21be 548c 9fbd
00000020: e1b9 c73d 6ece 123d d503 c1bc bbbb 03be
00000030: 2632 a0bc 9351 bd3d 9eaa 733d 303e 55be
00000040: 07b4 e2bd c82b 8bbd d971 403e ba31 363e
00000050: d481 133d f939 8b3d 07d6 1d3e c680 193e
00000060: 19ba d23c 7e34 503e 611d 883e 2033 48be
00000070: 576f e93c 8384 9ebd fec6 26be 4373 093d
00000080: 37db 8dbb cd16 1cbe 872a af3c 6102 c1bd
00000090: c97a 8f3d 78d6 5bbd 9033 41bd 5f4c 48be
000000a0: 1777 5ebe 67de 13be b0c0 64be a7ef 4bbe
000000b0: 6fab ddbd bc1f bfbc 1ed7 a3bc 4799 86bd
000000c0: 55ce e53d a133 0f3e 868d 123e 564c b93d
000000d0: 3455 783e 6023 913e 978c 67bd 8524 6dbd
000000e0: 206c 7cbd 4482 72be 81bf c3bd 3732 05be
000000f0: 3689 93be 865b 8fbd 2e8d b4bd ce2d a83d
00000100: dc5d adbc dcf6 453c 2bbc c4ba 6020 39bd
00000110: d815 e13d a50d 17be de49 99bd 174b 0f3e
00000120: 2c24 993e 75d6 cb3d 1beb 203d 20ea 193e
00000130: 79ef 01bd e4bc 0fbe ab4b 20be ed4f 9dbe
00000140: 8f6a 82be 020e f8bd 6207 94bd f9dc 2d3d
00000150: 8ac5 e7bc 4b6d 8ebd 7ee9 bfbd 78ad 7fbd
00000160: 3547 dcbd a010 2cbe 6edd af3d 6086 363e
00000170: 7fc1 d63e 1e9d d43d 3195 063e 76b2 533e
00000180: e60e 3f3e 2784 363e 2a27 5a3e dd68 84bd
00000190: 7e59 44be 07f5 52be efb3 fabd d07d 0cbe
000001a0: 3287 5f3d 4277 523d d391 ce3d ad33 a73e
000001b0: 9a0e b03e d7c5 383e 2b40 0c3e 1555 4cbb
000001c0: 0ebe e53c 37a5 7a3e fe07 18bd 303a 66bd
000001d0: b0e7 563d a87b aabc 6e06 ee3d e891 08bd
000001e0: 3bd3 aebd 46c5 9cbd db68 7bbe e74b c3bd
000001f0: 97a6 3dbe 6a8a b0be aee5 9fbd e138 8dbc
00000200: df16 ae3d 8ac7 d1bd cac4 02be 98f9 9dbd
00000210: d9ff d6bd 271c 6dbd 338e 803c b365 213e
00000220: 1332 9d3e 091c 873e 0514 2f3e 7577 313e
00000230: 34af 113e 9296 c73d 1c04 a3bd e46e f7bd
00000240: 03f5 823e b3a7 ab3e 9994 6b3e 8445 2a3e
00000250: fc05 ab3d 79d8 a43d aa4a ab3d 9a54 82bd
00000260: fbd0 c13c 2e7e 9e3e e5e3 f43d ee16 b53d
00000270: 9e79 993e add5 093d 2c4e 81bc 286a b33e
00000280: 4296 14bc 1ae9 b5bd 6933 d23b 22e9 ca3d
00000290: 24d0 403d 6d1c acbb ccba 453d c8d0 c13d
000002a0: 59eb 8a3a 4901 2bbe 8006 363c a5d8 95bd
000002b0: dfcb eebd b9cb 67bc 7c85 d2bd 3cd4 9ebd
000002c0: c438 803c fe49 64be 7b51 ffbd 0803 2e3b
000002d0: 34ee 2fbe 3fdf 83bc 4479 9c3d 4f4a acbc
000002e0: 4991 b3bd 4deb a6bc bf2b 4c3c 9087 2dbe
000002f0: 8001 a6bd 96f8 ec3c 7456 ae3c e0dc cfbc
00000300: 5da1 56be 2623 04be 456a 8d3d a996 24be
00000310: f678 a8be 424a 88bd e05f 973e 063c e03d
00000320: c09c 1c3d fcc0 ee3d 455f ab3b 7ad0 b7bc
00000330: 5518 0f3d 3e24 95bd a2b4 09be 05dc e9bd
00000340: 9c48 f23c a1d8 d7bd 7bec fdbd a609 7e3d
00000350: 724c aabc 70d0 50bd 1e96 413e 6b8e 703d
00000360: ed30 fabd 9d22 353d 8dfe 5f3e f4ac 8f3c
00000370: 5336 8c3d 326f 19be a680 023e 65e1 123e
00000380: 7e90 46be 22d9 7e3d 9026 10bd dc48 3ebe
00000390: ef52 f33d 5831 873d 865a 913a 24f0 34bd
000003a0: b170 513d 7830 de3d 6b24 0dbd 58f0 193d
000003b0: 18ee 30bd fb07 56bd 21d3 b43d 4169 223e
000003c0: 989c 063e c528 8e3d 2713 4a3e c000 f33d
000003d0: ddf3 62bd 164c 9bbd 90a6 a93d b31d 7b3c
000003e0: b95d eb3c af5e d23c 5bc2 1a3e bf8a 3c3e
000003f0: d4bc 883d 782d 2d3e 6d2d 0cbe 84f6 16be
-0.16945064 -0.25134867 -0.12203184 -0.058609676 -0.16416448 -0.05547374 -0.15732236 -0.07790437
0.097522505 0.035841398 -0.023561398 -0.12864582 -0.019555163 0.09244075 0.059488885 -0.20824504
-0.11069494 -0.0679546 0.1879343 0.17792407 0.036012486 0.06798167 0.15413676 0.1499053
0.025723504 0.20332524 0.26584914 -0.19550753 0.028495474 -0.07740118 -0.16286847 0.033557188
-0.004329111 -0.15243073 0.021382583 -0.09424282 0.07005841 -0.05367133 -0.047168314 -0.19560383
-0.21725117 -0.14440309 -0.2233913 -0.19915639 -0.10823714 -0.023330562 -0.020000037 -0.06572204
0.11220995 0.13984539 0.143118 0.09047763 0.24251252 0.283473 -0.05653056 -0.057896156
-0.061626554 -0.23682505 -0.09558011 -0.13007437 -0.2881562 -0.069998786 -0.088159904 0.082118616
-0.02116292 0.012082782 -0.0015009692 -0.04519689 0.109904945 -0.14751299 -0.07484792 0.13993488
0.2991041 0.09953014 0.039286714 0.15030718 -0.03172252 -0.140369 -0.15653865 -0.3072504
-0.25471923 -0.12112047 -0.07227971 0.042447064 -0.028292436 -0.0695444 -0.09370707 -0.062421292
-0.10755769 -0.16803217 0.08587156 0.17824697 0.419445 0.1038153 0.1314285 0.20673546
0.18658027 0.1782385 0.21304002 -0.064653136 -0.19174764 -0.20601283 -0.12241351 -0.13719869
0.05457229 0.051383264 0.100864075 0.32656613 0.3438614 0.1804422 0.13696353 -0.0031178643
0.028044727 0.24477087 -0.037116997 -0.056207836 0.05246705 -0.020810917 0.1162232 -0.033342272
-0.08536383 -0.076548144 -0.24551718 -0.095359616 -0.1852058 -0.34480602 -0.0780748 -0.017239036
0.08500456 -0.10243137 -0.12770382 -0.07713622 -0.10498018 -0.057888176 0.015692806 0.15761451
0.30702266 0.26388577 0.1709748 0.17330725 0.14226991 0.09745516 -0.07959768 -0.120816976
0.25577554 0.33526382 0.23005904 0.1662808 0.08350751 0.080491014 0.083638504 -0.06363793
0.02365922 0.30955642 0.1195753 0.08842264 0.299756 0.033651043 -0.015784346 0.35041928
-0.009069027 -0.08882351 0.00641482 0.09907748 0.0470735 -0.005252412 0.048273847 0.0946365
0.0010598704 -0.16699709 0.011109948 -0.07316712 -0.11659979 -0.014147692 -0.102793664 -0.07755324
0.015652068 -0.22293851 -0.12466713 0.00265521 -0.17180711 -0.016097663 0.07640317 -0.021031527
-0.08767945 -0.020375872 0.012461602 -0.16946244 -0.08105755 0.028927129 0.021281458 -0.025373876
-0.20959993 -0.12904033 0.06905035 -0.16073097 -0.32904786 -0.066547886 0.29565334 0.109489486
0.038235426 0.116579026 0.005229863 -0.022438277 0.034935314 -0.07282303 -0.13447812 -0.114189185
0.029575638 -0.105393656 -0.12398621 0.06202092 -0.020788405 -0.05098003 0.18904921 0.05872957
-0.12216363 0.044222463 0.21874447 0.017538525 0.06846299 -0.14983824 0.12744388 0.14343794
-0.19391057 0.062218793 -0.035193026 -0.18582481 0.11881053 0.066012084 0.00110896 -0.04417433
0.05113286 0.108490884 -0.03445856 0.037582725 -0.043195814 -0.052253705 0.08829332 0.15860464
0.13145673 0.0694137 0.19733869 0.118653774 -0.055408347 -0.075828716 0.082837224 0.015326905
0.028731214 0.025679914 0.15113203 0.18412302 0.06676641 0.16911876 -0.13689204 -0.14742476

conv5.bias f4 [32]
00000000: 9493 69b7 affe eb39 6dba 0dba 34dd 3dba
00000010: 69f4 37ba 1988 2aba 5968 173a 8982 293a
00000020: 0528 c639 c227 27ba c0ec 7939 3dd3 3eba
00000030: 0265 9139 6cfc 043a 1c8f 9e39 4867 b6b9
00000040: 0975 233a cb8d b339 7ebe 4739 cbcd b939
00000050: a07a ca39 e66d eeb9 1879 f339 7d72 30ba
00000060: 0cd7 3b3a aeca 093a 1d4b 2cb9 2082 47b9
00000070: 7ec6 463a e12c ff38 f702 2e39 691d 02ba
-1.3922243e-05 0.00045012447 -0.0005406503 -0.00072427397 -0.0007017316 -0.00065052655 0.0005775742 0.00064662896
0.0003779532 -0.0006376469 0.00023834687 -0.0007279402 0.00027731812 0.0005073014 0.00030242733 -0.00034790696
0.0006235396 0.00034247185 0.00019049083 0.00035439277 0.00038619805 -0.00045476778 0.00046438794 -0.0006730927
0.00071655284 0.0005256337 -0.0001643118 -0.00019026594 0.0007582678 0.00012167707 0.00016595038 -0.0004963489

bn5.weight f4 [32]
00000000: 4b7f 323f 6047 763f 5986 6a3f 5ff5 4b3f
00000010: 45e5 643f c87a 403f 02b8 5c3f 6d84 3b3f
00000020: 2c58 4d3f d892 983f a881 7f3f 29f3 583f
00000030: 402d 303f 9879 423f 8c7b 2e3f 6558 643f
00000040: ac5e 693f 6416 443f 9001 5c3f 4ea8 5f3f
00000050: 5e21 653f 0525 7a3f af37 523f 358b 813f
00000060: b2ad 4f3f 8d12 3a3f 3050 6d3f afe6 5d3f
00000070: 2d4a 763f d342 363f 7e8d 643f 76ea 813f
0.69725484 0.9620266 0.9161125 0.7967128 0.8941234 0.7518735 0.86218274 0.7324894
0.80212665 1.1919813 0.99807215 0.8474603 0.68819046 0.7596679 0.6815727 0.8919738
0.9116008 0.76596665 0.85939884 0.8736619 0.8950404 0.9771274 0.82116216 1.0120608
0.81124413 0.72684556 0.9270048 0.8668012 0.96206933 0.71195716 0.892784 1.0149677

bn5.bias f4 [32]
00000000: 0bff ec3e 2f90 1bbe 87df dcbb bd79 543e
00000010: cbdf 743d 4c93 a83e 7def bc3e 85fa b63e
00000020: a812 5a3d 6a28 36bf c60e 55bd d7d0 223e
00000030: d9cd fc3e 3249 c03e 17cc 573f 036b 01be
00000040: 7d12 ffbd 569c 1c3e c5ec 23be 1e61 acbd
00000050: 00f6 fb3c e71e 4cbe 8bed 253e d7f7 b8be
00000060: a785 bd3e 0884 c63e 2cb2 5fbd 5285 d0bc
00000070: 5bca c13e 0a1b ca3e c6a7 ad3e 4b0e cfbe
0.46288332 -0.1519172 -0.0067405137 0.20749564 0.059783738 0.3292488 0.36901465 0.35738006
0.05324045 -0.71155417 -0.052016042 0.15899979 0.493758 0.37555844 0.8429579 -0.12638478
-0.12454698 0.15294012 -0.16008289 -0.08416961 0.03075695 -0.19933663 0.16203897 -0.36126587
0.3701603 0.38772607 -0.054613277 -0.025454197 0.37849697 0.39473754 0.33917063 -0.40440592

bn5.running_mean f4 [32]
00000000: db09 9dbf aae5 9dbf 9649 36bf eed3 1b40
00000010: 7274 f5bf 109f 0dbf 7ffc b1bf 4780 c43f
00000020: 25d9 3bbf 363d b5bf 39b9 09bf 3014 e4bf
00000030: 5df4 b9bf 9a3b a6bf 9c64 93bf 8792 11c0
00000040: a78a a03f 6af3 88bf eaa8 16c0 6621 88bf
00000050: 372b debe 781e 20c0 abad 09c0 d947 753e
00000060: 944f df3f 5189 3cbe 1c7f 28be edc4 2a3f
00000070: 9b56 6440 08f1 2e40 8f3f c7bf b292 9ebf
-1.2268633 -1.2335713 -0.71206033 2.4348102 -1.9176161 -0.55320835 -1.3905181 1.5351647
-0.7337821 -1.4159305 -0.5379825 -1.7818661 -1.4527699 -1.2986939 -1.1515079 -2.2745683
1.2542313 -1.0699284 -2.3540597 -1.0635192 -0.43392345 -2.5018597 -2.1512249 0.23953189
1.744616 -0.18411757 -0.16454738 0.66706735 3.567786 2.7334614 -1.5566272 -1.2388518

bn5.running_var f4 [32]
00000000: bd3a 6d40 8240 5f40 5e24 6640 b3be 2040
00000010: d609 8240 b7a1 3240 d250 4640 737e 7540
00000020: 6494 2140 9af4 2240 6ff8 7e40 26a0 8140
00000030: 29dc 5640 37af 5740 d828 8340 42f0 2f40
00000040: ab87 3c40 cf4f 7d40 52d8 0e40 444f 5240
00000050: 8d8b 3a40 d215 5840 d96d 4340 9fb3 3240
00000060: 86ce 4740 dbe3 6740 6a60 6240 6c86 2f40
00000070: 5d63 9740 f752 6840 52f2 bd40 9e6c 0a40
3.70671 3.4883122 3.5959697 2.5116394 4.0637007 2.7911203 3.0986829 3.8358428
2.524682 2.5461793 3.9839132 4.0507994 3.3571875 3.3700693 4.098736 2.7490392
2.9457805 3.9579961 2.2319531 3.286088 2.9147675 3.3763318 3.0535796 2.7922132
3.1219802 3.6232822 3.5371346 2.7425795 4.7308793 3.6300638 5.93583 2.1628795
