model_weights/Tiny10/CIFAR10/in18-gn18/110000.pt (torch_old, 358762 bytes, 50 tensors)

conv1.weight f4 [16, 3, 3, 3]
0	0xbe29d3db	-0.16584723
1	0x3da3c21f	0.0799601
2	0xbe9f9c3c	-0.31173885
3	0x3a54b8a4	0.0008114672
4	0x3ec21dd3	0.3791338
5	0xbd047704	-0.032340065
6	0xbd84eb99	-0.06490249
7	0x3e322b68	0.1739937
8	0xbcdbdf85	-0.02683998
9	0xbe19f510	-0.1503489
10	0x3df97b41	0.12181712
11	0xbec632dc	-0.38710678
12	0x3ea27007	0.31726095
13	0x3f4bab57	0.7955832
14	0x3e458f20	0.19292879
15	0x3d1d6ca6	0.038433693
16	0x3ebcae27	0.36851618
17	0x3cbbee76	0.022940855
18	0x3cc144ee	0.023592439
19	0x3ebefa81	0.37300494
20	0x3e1c4dc3	0.15264039
21	0xbe16bfb6	-0.1472157
22	0x3e13004c	0.14355582
23	0xbdf94007	-0.12170415
24	0xbec98ddb	-0.3936604
25	0xbf036a31	-0.5133391
26	0xbf19f111	-0.60133463
27	0x3e3b9d96	0.18321833
28	0x3f594e29	0.8488489
29	0xbba2a725	-0.004963773
30	0x3e996b22	0.29964548
31	0x3c6b3819	0.014356636
32	0x3e44e6c9	0.19228663
33	0x3f62a5ad	0.8853405
34	0xbf517764	-0.818228
35	0xbfa1775f	-1.2614554
36	0x3ec6242c	0.38699472
37	0x3e1eca76	0.1550692
38	0xbe87fcb4	-0.26559985
39	0xbd3dbffc	-0.04632567
40	0xbf4c7737	-0.7986941
41	0x3e29e8a8	0.16592658
42	0x3f25df91	0.6479426
43	0xbf22cfc2	-0.63598263
44	0xbeefebc5	-0.46859565
45	0xbf1d002b	-0.6132838
46	0xbe9c5730	-0.3053527
47	0xbe816099	-0.2526901
48	0xbf515de9	-0.8178392
49	0xbdfc50fa	-0.123201326
50	0x3fb98d9c	1.4496341
51	0xbed11a9a	-0.40840608
52	0x3ea4bbc2	0.32174498
53	0x3fa4ce11	1.2875386
54	0x3dc2cd0f	0.09511768
55	0xbe1e6e6b	-0.15471809
56	0x3f2cac60	0.67450523
57	0xbf20015f	-0.6250209
58	0x3fe88e22	1.8168375
59	0xbf47f433	-0.78106993
60	0xbf439126	-0.76393354
61	0xbef64ebe	-0.4810695
62	0x3dd0e374	0.10199633
63	0x3c940a0e	0.0180712
64	0xbf40810a	-0.751969
65	0xbf055669	-0.52084976
66	0xbd594315	-0.05304249
67	0x3fbf06b4	1.4923921
68	0xbfaced1c	-1.350986
69	0x3f0575a1	0.5213261
70	0x3f0bc7fd	0.5460203
71	0x3de3a544	0.11115506
72	0x3e0a02cb	0.13477628
73	0xbe9b4cbf	-0.3033199
74	0x3f474bee	0.77850235
75	0xbf07d460	-0.53058434
76	0x3f5fc96e	0.8741673
77	0xbed936da	-0.4242466
78	0xbe42e449	-0.19032396
79	0xbe4126ce	-0.18862459
80	0xbdfd0819	-0.1235506
81	0xbf174bf6	-0.5910028
82	0xbf92093a	-1.1409066
83	0xbf348cca	-0.7052733
84	0xbe2119c0	-0.15732479
85	0x3ea036a7	0.31291696
86	0xbd12655f	-0.035741206
87	0x3f335399	0.70049435
88	0x3fc6fa1a	1.5545075
89	0x3f047e24	0.51754975
90	0x3f446c1c	0.7672746
91	0x3f054650	0.52060413
92	0xbbafb00c	-0.0053615626
93	0x3e9260d2	0.28589493
94	0x3e4f932e	0.20270988
95	0xbf390acb	-0.72282094
96	0xbe0665df	-0.13124798
97	0xbf0b2b62	-0.5436307
98	0xbfabd29d	-1.3423649
99	0xbe06cec5	-0.13164814
100	0x3f2fbe72	0.6864997
101	0x3f094288	0.53617144
102	0xbf165bb4	-0.5873368
103	0x3f0bd558	0.5462241
104	0x3ea4c6c1	0.32182887
105	0xbf013674	-0.50473714
106	0x3c6dc183	0.014511469
107	0xbeb5f8fd	-0.35541525
108	0xbe9fdad2	-0.31221634
109	0x3d926573	0.07148256
110	0x3f0fe7a7	0.5621285
111	0xbf3302e8	-0.6992631
112	0x3e2f4d07	0.17119227
113	0x3f886603	1.0656132
114	0xbf3b62d8	-0.731977
115	0xbda7abd2	-0.08187069
116	0x3f779526	0.9671196
117	0x3ef6a60d	0.48173562
118	0xbe6bcf79	-0.23028363
119	0xbe7bff7d	-0.2460918
120	0x3e435ca5	0.1907831
121	0xbf4ccac2	-0.79996884
122	0xbf8bfe3d	-1.0936962
123	0x3dd1dd6e	0.102473125
124	0xbf4050bd	-0.75123197
125	0xbf4581c5	-0.7715114
126	0xbeba88fe	-0.36432642
127	0xbe1af46a	-0.15132299
128	0xbe835f37	-0.2565858
129	0x3f3ca66a	0.7369143
130	0x3f4db61f	0.8035602
131	0xbe16966e	-0.14705822
132	0x3f22e6a5	0.63633186
133	0x3f5a7c15	0.85345584
134	0x3d589f60	0.052886367
135	0x3e8a1ebd	0.26976576
136	0x3e2f10a1	0.17096187
137	0xbd24cd3a	-0.04023478
138	0x3ea2f481	0.31827167
139	0x3e4ced44	0.20012385
140	0x3d04b779	0.032401536
141	0x3e027e40	0.12743473
142	0x3d097eae	0.033568077
143	0xbe48434f	-0.19556926
144	0x3d140785	0.036139984
145	0x3d7d866b	0.06189577
146	0xbdcaf6a6	-0.09910326
147	0xbd224526	-0.039616726
148	0x3cfbb2d9	0.03072493
149	0xbc767685	-0.015042906
150	0xbe57d23d	-0.21076293
151	0xbda95704	-0.0826855
152	0xbe0ffdbb	-0.14061634
153	0x3ea921d1	0.33033612
154	0x3ee037a4	0.4379245
155	0x3ee74fd4	0.45178092
156	0xbce0f8de	-0.02746242
157	0x3ddebf1e	0.108762965
158	0x3e8e1739	0.27752092
159	0xbec7d49a	-0.3902939
160	0xbe4d4c32	-0.20048597
161	0xbd74293d	-0.05960964
162	0x3ec98c5d	0.393649
163	0x3f226189	0.63430077
164	0x3d98773e	0.07444619
165	0x3f618401	0.88092047
166	0x3f79b161	0.97536284
167	0x3ebc0ff9	0.36730936
168	0x3e526fee	0.2055051
169	0x3e71d237	0.23615347
170	0xbc9b9af8	-0.018994793
171	0xbf211b05	-0.62931854
172	0xbf4726b6	-0.77793443
173	0xbf223b75	-0.63371974
174	0xbe07b548	-0.13252747
175	0xbf28bf35	-0.6591676
176	0xbedfff62	-0.4374953
177	0xbd6636fa	-0.056204773
178	0xbf002294	-0.5005276
179	0xbe1d89e8	-0.15384638
180	0xbed2e610	-0.4119115
181	0x3d0caca5	0.034344334
182	0x3e6cb35e	0.23115298
183	0x3c41226e	0.011787994
184	0x3e39c0a2	0.1813989
185	0x3f057af8	0.5214076
186	0xbe68f737	-0.22750555
187	0xbdffdfe8	-0.124938786
188	0x3e8bec99	0.27328947
189	0x3df84d70	0.12124145
190	0xbeca6b10	-0.39534807
191	0xbe311f91	-0.17297198
192	0xbdf6a7e4	-0.12043741
193	0xbf40a187	-0.7524647
194	0xbf02b3e4	-0.5105574
195	0xbd696a21	-0.056985978
196	0xbefe472a	-0.4966367
197	0xbeca0b13	-0.39461574
198	0x3df33d34	0.11876908
199	0xbd4c1418	-0.04982385
200	0x3e629e82	0.22130778
201	0xbca75cb6	-0.02042995
202	0xbe8aa8ba	-0.27081853
203	0xbbcebeab	-0.0063093505
204	0x3c465c38	0.012106948
205	0xbdfd8143	-0.1237817
206	0x3cdfd3c9	0.027322667
207	0x3d5fdf95	0.054656584
208	0x3d5dcf65	0.054152865
209	0x3de46a9d	0.11153147
210	0x3e7b16e6	0.24520454
211	0x3e79e5aa	0.24404016
212	0x3e9eed26	0.31040305
213	0x3ebd54cc	0.36978757
214	0x3ed6fe9d	0.4199113
215	0x3eee7c33	0.4657913
216	0x3f07aab5	0.52994853
217	0xbf030cf1	-0.5119162
218	0xbf987e7a	-1.1913598
219	0x3e986b42	0.2976933
220	0x3ebeca0a	0.3726352
221	0x3e29aef1	0.16570641
222	0xbdac45de	-0.084117636
223	0x3c2a7515	0.010403891
224	0x3da849cb	0.082172
225	0xbe571f26	-0.21007976
226	0xbf46847a	-0.77545893
227	0xbf868a42	-1.0510943
228	0x3d455ac8	0.04818228
229	0x3f2b6938	0.66957426
230	0x3f388fd9	0.72094494
231	0x3c5997d5	0.0132808285
232	0x3f002170	0.5005102
233	0x3f24a228	0.6430993
234	0xbdf03236	-0.11728327
235	0xbf69d383	-0.91338366
236	0xbf9d1c01	-1.2274171
237	0x3e8d95d3	0.2765337
238	0x3f0056f4	0.5013268
239	0x3efb982d	0.49139538
240	0xbd437f66	-0.04772892
241	0x3e9fdf32	0.31224972
242	0x3f265e51	0.64987665
243	0x3e802770	0.25030088
244	0xbd9fe39b	-0.07807084
245	0xbe0cec31	-0.13761975
246	0xbf0d07d1	-0.5509005
247	0x3c82dfd2	0.015975866
248	0x3ee59813	0.44842586
249	0xbeec293f	-0.46125218
250	0x3d634ffb	0.055496197
251	0x3eb2f110	0.3494954
252	0xbe61505a	-0.22003308
253	0xbe300b3b	-0.17191784
254	0x3ed8d7f3	0.42352256
255	0xbf917505	-1.1363837

conv1.bias f4 [16]
0	0xbadcef08	-0.0016855905
1	0xb9d5da90	-0.00040789368
2	0x3a159475	0.0005706021
3	0xba8f54bb	-0.0010935286
4	0xbadd6724	-0.00168917
5	0xb9fa48a9	-0.00047737852
6	0xbb21bc91	-0.0024679045
7	0xb9fd5eb5	-0.00048326483
8	0x3ad4e8c7	0.001624369
9	0xbb00cb74	-0.0019652518
10	0x3a28b310	0.0006435374
11	0x3a90ba07	0.0011041769
12	0xbae56b77	-0.001750334
13	0xbae53234	-0.0017486275
14	0x3a3ff2ac	0.00073222327
15	0xb9ed523a	-0.00045265426

bn1.weight f4 [16]
0	0x3f80f082	1.0073397
1	0x3f2fdd0f	0.68696684
2	0x3f94750d	1.1598221
3	0x3f2e2aca	0.6803404
4	0x3f04dd7a	0.51900446
5	0x3ee3776e	0.44427055
6	0x3ec744b4	0.38919604
7	0x3ed8bbfa	0.42330915
8	0x3f4ed38e	0.80791557
9	0x3f8e131d	1.1099583
10	0x3f8a65dc	1.0812335
11	0x3ebb63d0	0.36599588
12	0x3f8e2a16	1.1106594
13	0x3fa9051a	1.3204682
14	0x3f8d7c1c	1.10535
15	0x3f96ba62	1.177563

bn1.bias f4 [16]
0	0xbf7cfa68	-0.9881959
1	0x3f5fb45a	0.8738457
2	0x3f9c03fa	1.2188714
3	0x3f57cc17	0.8429579
4	0x3f201b40	0.6254158
5	0x3de8d5a5	0.113688745
6	0x3e91c017	0.28466865
7	0x3e2774a3	0.16353087
8	0x3f280512	0.65632737
9	0x3d2e4536	0.042546473
10	0xbedda851	-0.43292478
11	0x3dbbe5b8	0.09174675
12	0x3f5c9bf5	0.8617547
13	0xbf6a9a8f	-0.9164209
14	0x3cba7ad2	0.022763643
15	0xbf85a169	-1.0439883

bn1.running_mean f4 [16]
0	0xbd316d1c	-0.043316945
1	0xbc01bc96	-0.007918498
2	0x3d2eb28a	0.042650737
3	0x3d3c6061	0.04599035
4	0x3c9741c2	0.018463973
5	0xbe80947a	-0.2511328
6	0x3c14e3d6	0.009087523
7	0x3dd59c8a	0.10430248
8	0xbdbdef6c	-0.09274182
9	0x3d2ebe26	0.04266181
10	0x3ea2abb5	0.31771627
11	0xbdee959a	-0.11649628
12	0xbd498c30	-0.04920596
13	0x3e8bc61c	0.27299583
14	0x3c1a8735	0.00943165
15	0x3e5da0a3	0.2164331

bn1.running_var f4 [16]
0	0x3fce63e7	1.6124238
1	0x3fb19fb1	1.3876859
2	0x3fe7074b	1.8049101
3	0x3ff1a09d	1.887714
4	0x3fdf312a	1.7436879
5	0x408a1068	4.3145027
6	0x40613f74	3.5194979
7	0x409798cc	4.737402
8	0x41685162	14.519869
9	0x41a7a158	20.953781
10	0x40b2948a	5.580632
11	0x408399c2	4.1125193
12	0x402d9333	2.7121093
13	0x407b8cef	3.930477
14	0x41a02cd4	20.021889
15	0x406897fd	3.6342766

conv2.weight f4 [16, 16, 3, 3]
0	0xbe18941d	-0.1490025
1	0xbb3a4405	-0.002842189
2	0x3d8d0ca7	0.06887179
3	0xbd590113	-0.05297954
4	0x3e355519	0.17708243
5	0x3ea34c2a	0.31894046
6	0xbe1aa20a	-0.15100875
7	0x3ce9dfc5	0.028549084
8	0x3d843a1e	0.064563975
9	0xbedd971a	-0.43279344
10	0xbf0a5e0c	-0.54049754
11	0x3e0b5f3d	0.1361055
12	0xbe235174	-0.1594904
13	0xbca6daf6	-0.02036808
14	0x3e04378d	0.12911816
15	0x3e799ccb	0.24376218
16	0x3f00d86d	0.5033024
17	0x3ef7d16f	0.48401973
18	0x3e9caeda	0.3060215
19	0xbee4090c	-0.44538152
20	0xbde55010	-0.11196911
21	0xbe4fb81c	-0.20285076
22	0xbe3425fa	-0.17592612
23	0x3d38484b	0.04499082
24	0x3dd114d7	0.10209053
25	0x3ea373ca	0.31924278
26	0x3dadf224	0.0849345
27	0xbedfea22	-0.43733317
28	0x3dc25619	0.09489078
29	0x3d9b7c06	0.07592015
30	0xbd3e4499	-0.04645214
31	0x3e4f6cd0	0.20256352
32	0x3e9c4832	0.3052383
33	0xbe87531f	-0.26430604
34	0xbeb98c84	-0.36240017
35	0xbd020423	-0.031742226
36	0xbdc3ce1c	-0.095607966
37	0xbe6788e0	-0.22610807
38	0xbe7ed153	-0.24884538
39	0x3edfeb7c	0.43734348
40	0x3dee0b8d	0.11623297
41	0xbe12f6c0	-0.1435194
42	0x3e96a159	0.29419973
43	0x3e91c098	0.2846725
44	0x3e78879e	0.24270484
45	0xbe2ddd16	-0.16978869
46	0xbc258918	-0.0101034865
47	0xbcd9f3b5	-0.026605466
48	0xbe6aab85	-0.22916992
49	0x3dae020a	0.08496483
50	0x3e759c3a	0.23985377
51	0x3d3f1d79	0.046658967
52	0x3e565717	0.2093166
53	0x3e8105e2	0.251998
54	0xbea88939	-0.32917193
55	0xbd017670	-0.03160709
56	0x3d890a54	0.06691423
57	0xbe412911	-0.18863322
58	0x3e16f988	0.14743626
59	0x3e6acce4	0.22929722
60	0xbe36447a	-0.17799559
61	0xbcaaa373	-0.020829892
62	0x3cd8d671	0.026469441
63	0xbe767b21	-0.24070407
64	0xbec956e7	-0.39324114
65	0xbeb686ba	-0.35649663
66	0xbdba09ac	-0.09083876
67	0xbe888893	-0.26666698
68	0xbe878968	-0.2647202
69	0x3e4d0f47	0.20025359
70	0x3d50d290	0.050982058
71	0x3d7f711f	0.06236374
72	0xbd79a638	-0.060949534
73	0xbd484156	-0.048890434
74	0x3c6c7004	0.0144310035
75	0x3c9bfa0d	0.019040132
76	0xbdc71d91	-0.09722436
77	0xbe651753	-0.22372179
78	0xbec669e5	-0.38752666
79	0xbea54fa2	-0.32287318
80	0xbe6cef12	-0.23138073
81	0x3f019fbc	0.5063436
82	0x3d6d8991	0.05799252
83	0xbe9360e1	-0.2878485
84	0x3c8cd31a	0.017190505
85	0x3c9824b7	0.018572195
86	0xbdeba400	-0.1150589
87	0xbe88471d	-0.26616755
88	0xbe3d700f	-0.18499778
89	0x3d839428	0.06424743
90	0xbd8451f5	-0.064609446
91	0xbd538b95	-0.051646788
92	0x3d075f4f	0.033049878
93	0xbe152bbd	-0.14567466
94	0x3cb5576f	0.022136418
95	0xbc170bec	-0.009219151
96	0xbafd4878	-0.0019323966
97	0x3e839439	0.25699022
98	0x3e41b3cc	0.18916243
99	0xbd3cf110	-0.046128333
100	0xbd934b9a	-0.07192154
101	0xbd0ad6f5	-0.033896405
102	0x3cefd01f	0.029274045
103	0x3c60b297	0.013714454
104	0x3d198a5b	0.03748546
105	0x3d9ed3e5	0.077552594
106	0x3da32241	0.07965518
107	0x3d0ac98d	0.03388362
108	0x3e4819fb	0.19541161
109	0x3de4142c	0.1113666
110	0xbdfaf55a	-0.12253828
111	0x3e8e55f5	0.27799955
112	0xbe66e560	-0.22548437
113	0xbe66f6f9	-0.2255515
114	0xbe8f4a1b	-0.27986225
115	0x3d7e09dd	0.062021125
116	0x3bf64401	0.007515431
117	0xbd4797be	-0.048728697
118	0xbe9d508f	-0.30725524
119	0xbe9e849e	-0.30960554
120	0xbe019e02	-0.12657931
121	0xbebd4a21	-0.36970618
122	0xbeb2f517	-0.34952614
123	0x3e2c8cbd	0.16850562
124	0x3e026e39	0.12737359
125	0x3dc57a4d	0.09642468
126	0xbe4650c4	-0.19366747
127	0xbe9ad2f9	-0.30239084
128	0xbe4a2464	-0.19740444
129	0xbe1831aa	-0.14862695
130	0xbdb7ebaf	-0.089805
131	0xbd8e6ed2	-0.06954731
132	0xbd874125	-0.06604222
133	0x3e187e66	0.14891967
134	0x3e8c1e81	0.27367023
135	0xbecbe6a5	-0.39824405
136	0xbeb2a34a	-0.34890205
137	0xbeb44e12	-0.35215813
138	0xbbf9c7d4	-0.0076226983
139	0xbc3b522f	-0.011433168
140	0xbda97fd0	-0.082763314
141	0x3e02d89d	0.12777944
142	0xbd1b8292	-0.03796632
143	0xbe35213e	-0.17688462
144	0x3e200146	0.15625486
145	0x3e3ef45b	0.18647902
146	0xbdfed9c3	-0.124438785
147	0x3c7cb3b8	0.015423708
148	0x3e7878a5	0.24264772
149	0xbdf31e1b	-0.118709765
150	0xbe23cf99	-0.15997161
151	0xbe700193	-0.234381
152	0xbed670a5	-0.41882816
153	0xbe4666a8	-0.19375098
154	0xbecd77e1	-0.40130523
155	0xbdbc2adc	-0.09187862
156	0xbea638ea	-0.32465297
157	0xbe2b6e05	-0.16741188
158	0x3ed44bed	0.41464177
159	0xbe44b391	-0.19209124
160	0x3e6d9af7	0.23203646
161	0x3ea5fd76	0.32419938
162	0xbc350988	-0.011049636
163	0x3ebb38c6	0.36566752
164	0x3df2f7d4	0.11863676
165	0xbed3facc	-0.4140228
166	0x3ebf4c96	0.37363118
167	0x3e87df35	0.2653748
168	0xbe9e8ca0	-0.30966663
169	0xbee66b46	-0.45003718
170	0xbdf2c57a	-0.11854072
171	0xbec4560d	-0.38346902
172	0xbe725e72	-0.2366884
173	0x3e3955ae	0.1809909
174	0xbefb24d9	-0.4905155
175	0xbe1e4b96	-0.15458521
176	0x3ea1ac1a	0.31576616
177	0xbcfbf6ac	-0.03075727
178	0x3df0ecc4	0.117639095
179	0x3ed236cc	0.41057432
180	0xbf14c137	-0.5810732
181	0xbf0804ce	-0.5313233
182	0x3e4b9d5a	0.19884244
183	0xbf1e8e64	-0.6193602
184	0xbf3ae99f	-0.7301273
185	0xbdd580e7	-0.10424977
186	0x3e80c6f9	0.25151804
187	0x3e831e12	0.2560888
188	0x3f0a2591	0.5396357
189	0xbe1a687c	-0.1507892
190	0xbe67bca1	-0.2263055
191	0xbe7f3f42	-0.24926475
192	0xbdd59d57	-0.10430401
193	0xbc69b7ef	-0.014265045
194	0x3d62f08b	0.05540518
195	0xbd00d1eb	-0.031450193
196	0x3c6e6d8b	0.014552484
197	0x3da27b14	0.079336315
198	0xbe980834	-0.29693758
199	0xbe94fbbc	-0.29098308
200	0x3e3a7bcb	0.18211286
201	0xbedeaeef	-0.4349284
202	0xbef7f1b8	-0.48426604
203	0x3c84b7ef	0.016200988
204	0xbe8d96a6	-0.27653998
205	0xbea966ac	-0.33086145
206	0x3d6af860	0.057365775
207	0xbe08a78b	-0.13345163
208	0xbe98c493	-0.29837474
209	0xbe81a7e8	-0.25323415
210	0xbc1cd09c	-0.009571221
211	0xbe05d10c	-0.13068026
212	0xbda043a1	-0.07825399
213	0x3e0e0f70	0.13873076
214	0x3df529dc	0.11970875
215	0x3e5acf1e	0.21368071
216	0x3d9a2071	0.07525719
217	0x3e14aed0	0.1451981
218	0xbd94ddca	-0.072688654
219	0x3e8e12d9	0.27748755
220	0xbd198363	-0.037478816
221	0xbeb168fd	-0.34650412
222	0x3ee34361	0.44387344
223	0x3e31224f	0.17298244
224	0xbeb0204b	-0.34399638
225	0x3c9e3ad1	0.019315155
226	0xbd17208a	-0.036896266
227	0xbe365b4e	-0.17808267
228	0x3bc9f6d9	0.0061634597
229	0xbd8a6473	-0.067574404
230	0xbd09586e	-0.0335316
231	0x3d188563	0.037236582
232	0xbdb4c773	-0.088271044
233	0x3d49a87d	0.04923295
234	0xbd19d67e	-0.03755807
235	0xbd74b7f4	-0.059745744
236	0x3ada82f6	0.001667111
237	0xbda56e47	-0.08077674
238	0xbe60263d	-0.21889587
239	0xbe16745e	-0.14692828
240	0xbd95a229	-0.0730632
241	0x3df22818	0.118240535
242	0x3d74cf6e	0.059768133
243	0xbd9946ea	-0.07484229
244	0xbd5f6067	-0.054535296
245	0xbe46c996	-0.19412836
246	0xbccc945e	-0.02497309
247	0x3cfa8666	0.030581664
248	0xbde8dc35	-0.11370126
249	0xbdb6aa32	-0.08919181
250	0xbd917198	-0.071017444
251	0xbe5f391d	-0.2179913
252	0xbdaee25f	-0.085392706
253	0x3e452f60	0.19256353
254	0x3d9b4ede	0.07583402
255	0xbf11fc6d	-0.57025796

conv2.bias f4 [16]
0	0x39bf071f	0.00036435665
1	0x3950ff40	0.00019931514
2	0x39db8777	0.00041871864
3	0x3a865ade	0.0010250469
4	0x39f2d75c	0.00046318292
5	0xb9ae35d2	-0.00033227965
6	0xba33fcf6	-0.0006866002
7	0x3a4a2256	0.0007710805
8	0x3a6d1d01	0.00090451544
9	0x3a300d1b	0.000671582
10	0xb9ef18b6	-0.00045604043
11	0xba64e268	-0.0008731247
12	0xb9bf5f1b	-0.00036501218
13	0xb89b82ac	-7.4153155e-05
14	0x3897dd08	7.2414114e-05
15	0x3a5c7b9e	0.00084107544

bn2.weight f4 [16]
0	0x3f4d3b46	0.8016857
1	0x3f96eff7	1.1791981
2	0x3f9dee10	1.2338276
3	0x3f4d0301	0.8008271
4	0x3f733f6d	0.95018655
5	0x3f853870	1.0407848
6	0x3fa46b0f	1.2845172
7	0x3f5b22a3	0.85599726
8	0x3f91099f	1.1331061
9	0x3fd4e838	1.6633368
10	0x3f882d3a	1.0638802
11	0x3f902db6	1.126395
12	0x3f54dbf8	0.83148146
13	0x3f82686c	1.0188117
14	0x3f40f3d4	0.7537205
15	0x3f5f2c5f	0.8717708

bn2.bias f4 [16]
0	0x3f380bd8	0.7189307
1	0xbeb74f68	-0.3580277
2	0xbe81aeaa	-0.2532857
3	0x3b8ef556	0.0043627424
4	0xbe2a2631	-0.16616131
5	0x3eb6ace8	0.35678792
6	0x3e585d68	0.21129382
7	0xbcc341f5	-0.023835162
8	0xbd948788	-0.07252413
9	0xbe20ce5d	-0.15703721
10	0xbdcb2d09	-0.09920699
11	0x3f9c5564	1.2213559
12	0x3f52acee	0.8229512
13	0xbd9c7b76	-0.07640736
14	0xbe82c4c4	-0.25540745
15	0xbd8aa375	-0.06769458

bn2.running_mean f4 [16]
0	0xbfd60d69	-1.6722842
1	0xc036b2d1	-2.854664
2	0xbfd0a7fb	-1.6301264
3	0x3f89705f	1.0737418
4	0xbe2c3783	-0.16818051
5	0xc03dda4a	-2.9664483
6	0xc0005e64	-2.0057611
7	0xc0308ab3	-2.7584655
8	0xbf79bcee	-0.9755391
9	0xbf0a1c18	-0.5394912
10	0xbe8421bd	-0.2580699
11	0xbfb6d59f	-1.4283942
12	0xbfac6c87	-1.347062
13	0xbf8a8daa	-1.0824482
14	0x3fd90752	1.6955359
15	0xbf706d51	-0.93916804

bn2.running_var f4 [16]
0	0x4088dc06	4.2768583
1	0x40224800	2.5356445
2	0x411bde19	9.741723
3	0x401cca06	2.4498305
4	0x4096c4dc	4.7115307
5	0x4101d3d7	8.114219
6	0x4127de97	10.491843
7	0x403485ad	2.820659
8	0x411b2414	9.696308
9	0x420303b2	32.75361
10	0x408eeac2	4.466157
11	0x40d72a3f	6.723907
12	0x40814f33	4.040918
13	0x40e823cf	7.254371
14	0x3fdf84b2	1.746237
15	0x40666a3c	3.600234

conv3.weight f4 [32, 16, 3, 3]
0	0xbddc70f5	-0.10763732
1	0xbe00f2af	-0.12592576
2	0x3da10def	0.07863986
3	0x3db70067	0.089356236
4	0xbbad7e4c	-0.005294597
5	0x3dce512e	0.100740775
6	0x3e1e4a38	0.15458
7	0x3e6e5704	0.23275381
8	0x3e44c6fc	0.19216532
9	0x3eb0e83c	0.3455218
10	0x3ef06fd4	0.46960318
11	0x3e34f112	0.17670086
12	0x3f19ce70	0.60080624
13	0x3f4216d1	0.75816065
14	0x3e8888b6	0.26666802
15	0x3e918834	0.28424227
16	0x3e2e08da	0.16995564
17	0xbd8653b6	-0.06558935
18	0x3d94cbb2	0.07265414
19	0xbd289a31	-0.041162673
20	0xbd84e6da	-0.06489344
21	0x3e198005	0.14990242
22	0x3d8448a8	0.064591706
23	0xbd200079	-0.03906295
24	0x3dff4abb	0.124654256
25	0x3d37cde6	0.044874094
26	0x3a644656	0.00087079906
27	0xbcd121aa	-0.025528748
28	0xbce2c41a	-0.0276814
29	0xbd083558	-0.033253998
30	0x3dcd1b69	0.10014994
31	0x3de05f76	0.10955708
32	0x3d69fb7d	0.057124604
33	0x3da56b97	0.08077162
34	0x3e023c0b	0.12718217
35	0xbc639ca8	-0.01389233
36	0x3bbfa545	0.005848559
37	0x3d8992ce	0.06717454
38	0x3c376845	0.011194293
39	0x3bf4c043	0.0074692084
40	0xbccb0a2d	-0.024785126
41	0xbd8c147a	-0.06839843
42	0xbcfb2506	-0.030657303
43	0xbdb8af00	-0.090177536
44	0xbdf9e327	-0.12201529
45	0x3d251b32	0.04030914
46	0xbb447d0a	-0.0029981756
47	0xbdd3744d	-0.10324917
48	0xbe128609	-0.14308943
49	0xbe0d8638	-0.13820732
50	0xbe3303a4	-0.17481858
51	0xbdd2779b	-0.10276719
52	0xbddea311	-0.10870946
53	0xbdd344b8	-0.103158414
54	0xbd977786	-0.07395844
55	0xbd62577a	-0.055259205
56	0xbda2baa0	-0.07945752
57	0x3e2562fd	0.16151042
58	0x3d8ef849	0.069809504
59	0xbdc3f0ab	-0.09567388
60	0x3e4bd3c0	0.19904995
61	0x3d491419	0.049091432
62	0xbdb22e2a	-0.08700211
63	0xbde3467b	-0.110974275
64	0xbe39990b	-0.18124788
65	0xbe8fc312	-0.28078514
66	0x3c87373a	0.016505826
67	0xbdcfb1a3	-0.101413034
68	0xbe92d434	-0.28677523
69	0x3d47ed9d	0.04881059
70	0xbe36258b	-0.17787759
71	0xbeb28a3b	-0.34871086
72	0xbe2fdc6e	-0.17173931
73	0xbdcd8382	-0.10034849
74	0xbc56e8ed	-0.013117057
75	0xbdcf4499	-0.10120506
76	0xbd8c0d41	-0.068384655
77	0x3d8fbf9a	0.07018967
78	0xbd18a12b	-0.037263077
79	0x3d3a7d22	0.045529492
80	0x3cdd5cb4	0.027021743
81	0xbdebf0b3	-0.11520519
82	0xbdea37d5	-0.1143643
83	0xbba86ab5	-0.0051396736
84	0xbda8f7e8	-0.08250409
85	0xbd6d584d	-0.05794554
86	0x3d260d5b	0.04054008
87	0xbe03f2a2	-0.12885526
88	0x3c66fde4	0.014098618
89	0x3d5850ee	0.052811556
90	0x3e7034af	0.23457597
91	0x3d94d6a5	0.07267503
92	0x3d731c7f	0.059353348
93	0xbb7533b2	-0.0037414846
94	0xbdacb697	-0.08433264
95	0xbd0f2d30	-0.034955204
96	0xbd404d53	-0.046948742
97	0xbcd78dac	-0.026312672
98	0x3e0116fa	0.12606421
99	0x3e24cb58	0.16093194
100	0x3bf18529	0.0073706103
101	0xbd8ef2d3	-0.06979909
102	0x3e317815	0.17330964
103	0x3d281eed	0.041045118
104	0xbdd249cc	-0.10267982
105	0x3dc54af7	0.09633439
106	0x3dae7c8b	0.085198484
107	0x3dbb55c8	0.09147221
108	0xbc03422c	-0.008011382
109	0x3dd0d93f	0.101976864
110	0x3d9b3af6	0.07579605
111	0x3e901490	0.28140688
112	0x3ea11af9	0.3146589
113	0x3983115b	0.00024999198
114	0x3e89e271	0.26930574
115	0x3e014ebd	0.12627693
116	0xbe43ae54	-0.1910947
117	0x3db09fdf	0.08624243
118	0x3dc4f1de	0.09616445
119	0x3df8eafc	0.12154195
120	0x3dcabdb7	0.098994665
121	0x3df74a85	0.1207476
122	0x3e0cb0cd	0.13739319
123	0x3d1b9ab6	0.03798934
124	0x3e098a46	0.13431653
125	0x3dec1f8e	0.11529456
126	0x3e4dad08	0.20085537
127	0x3e96462f	0.2935042
128	0x3d31be81	0.04339457
129	0x3e074f85	0.13213928
130	0x3e2c2f02	0.16814807
131	0x3ce773f0	0.028253525
132	0x3d0adfef	0.033904966
133	0x3d8f2e35	0.06991235
134	0x3cf395c7	0.029734505
135	0x3d780a83	0.0605569
136	0x3cbaa050	0.022781521
137	0xbdb4c299	-0.08826179
138	0xbcc13ffe	-0.023590084
139	0xbd29a257	-0.041414585
140	0xbe3c5cd6	-0.18394789
141	0x3d8869e5	0.06660823
142	0x3c0e22a2	0.008675249
143	0xbe2ad865	-0.1668411
144	0x3c99bb31	0.018766018
145	0x3cd1e85c	0.025623493
146	0xbe090552	-0.13380936
147	0xbe943133	-0.28943786
148	0xbe3f2643	-0.1866694
149	0xbe86a407	-0.26297018
150	0xbe1f6ed7	-0.15569626
151	0xbdce151c	-0.1006262
152	0x3d439266	0.04774704
153	0x3ea17198	0.31531978
154	0xbdbe391b	-0.09288236
155	0xbe9147a0	-0.28374958
156	0xbd5ee78b	-0.054420035
157	0xbea4bca4	-0.3217517
158	0xbe078d4f	-0.13237499
159	0xbe4c747b	-0.19966309
160	0xbe1d7b2a	-0.15379015
161	0x3e4db013	0.20086698
162	0x3eeccb72	0.46248966
163	0x3f26f604	0.6521914
164	0x3e8b7f84	0.27245724
165	0x3f04f59b	0.51937264
166	0x3f2b160b	0.6683051
167	0x3eeaa078	0.45825553
168	0x3e289840	0.16464329
169	0x3eca5a76	0.3952214
170	0x3eea51d8	0.45765567
171	0x3ea35855	0.3190333
172	0x3e3fe4b3	0.18739586
173	0xbe604e92	-0.21904972
174	0xbd133577	-0.03593966
175	0xbe0ae5ca	-0.1356422
176	0xbe40f421	-0.18843128
177	0xbd278917	-0.040902223
178	0xbd2a8a59	-0.041635845
179	0xbc8aa21c	-0.016923003
180	0xbe1bacc7	-0.15202628
181	0xbe3bf5bc	-0.18355459
182	0xbe25745f	-0.16157673
183	0x3d3a3c59	0.04546771
184	0xbdfea8c7	-0.124345355
185	0xbe2a9e4a	-0.16661945
186	0xbdd4b636	-0.103863165
187	0x3db7df75	0.08978168
188	0x3db00bbd	0.08595989
189	0x3e69188b	0.22763269
190	0x3e045c60	0.12925863
191	0xbe381231	-0.1797569
192	0x3ee73ad3	0.45162067
193	0x3dc32d6c	0.09530148
194	0xbe5edc34	-0.21763688
195	0x3ec6d75b	0.38836178
196	0xbd4ad5ce	-0.049520306
197	0xbe28908c	-0.1646139
198	0x3da5313c	0.08066031
199	0x3e229110	0.1587565
200	0xbe286880	-0.16446114
201	0xbd98b57d	-0.07456491
202	0xbe006f08	-0.12542355
203	0xbe1ef8f0	-0.1552465
204	0xbe17c172	-0.14819887
205	0xbe9e5e7f	-0.3093147
206	0xbe19f1e2	-0.15033677
207	0xbc9d3235	-0.01918898
208	0x3d9d6c1c	0.07686636
209	0xbc131a1c	-0.008978393
210	0xbd8748b6	-0.066056654
211	0x3e03c734	0.12868959
212	0x3e5a2dbb	0.21306507
213	0x3bdff0ed	0.0068341405
214	0x3d72f241	0.059313063
215	0x3dea5984	0.11442855
216	0xbbbd6fb7	-0.0057811397
217	0x3ddbc542	0.10730983
218	0x3e90076e	0.28130668
219	0xbd2af3a1	-0.04173625
220	0x3e406fe3	0.18792681
221	0x3dc9994e	0.09843694
222	0xbda27593	-0.07932582
223	0x3d9b244c	0.075752825
224	0xbe159fae	-0.14611694
225	0xbe4f3540	-0.20235157
226	0xbe5bd887	-0.21469317
227	0xbd27d30f	-0.040972766
228	0xbd8df0b8	-0.06930679
229	0xbc6ca2f2	-0.014443146
230	0xbd6fb856	-0.058525406
231	0x3de99cf0	0.114068866
232	0x3dd8484e	0.10560666
233	0xbdbc44c1	-0.09192801
234	0x3d06fb30	0.032954395
235	0xbd02f1ee	-0.031969003
236	0xbcc6e7b4	-0.024280407
237	0xbdd80e98	-0.105496585
238	0xbc940052	-0.018066559
239	0x3d1d9ae2	0.038477786
240	0x3e0bdaf6	0.13657746
241	0x3e47f25e	0.1952605
242	0x3e36be51	0.17846037
243	0xbd33da21	-0.043909196
244	0x3ddf7c26	0.10912351
245	0xbe1145b6	-0.14186749
246	0x3e57d996	0.21079096
247	0xbe32521c	-0.17414135
248	0xbe517ad8	-0.20457017
249	0x3e0e5856	0.13900885
250	0x3d95bc64	0.07311323
251	0xbe357dff	-0.17723845
252	0x3eb093b3	0.34487686
253	0x3d10ce80	0.035353184
254	0xbf11f8d6	-0.5702032
255	0x3e04764c	0.12935752

conv3.bias f4 [32]
0	0x3a45843c	0.0007534658
1	0x3a38a896	0.0007044164
2	0x39e11d20	0.00042937044
3	0x39d5971a	0.00040739105
4	0x398ec164	0.00027228438
5	0x3a8f0fa7	0.0010914699
6	0xb77307da	-1.4485757e-05
7	0x3a3f0f81	0.0007288382
8	0xba3eecf0	-0.0007283231
9	0xba482233	-0.00076344906
10	0x395e5f34	0.00021207036
11	0x393f1f6f	0.0001822689
12	0x3a69531b	0.00089006283
13	0x390ee5e8	0.00013627822
14	0x398e25a2	0.0002711239
15	0x3a65b395	0.00087624165
16	0xb88358d3	-6.2631116e-05
17	0x39be60a8	0.00036311639
18	0x3a0dd24e	0.0005410061
19	0x3a68c964	0.0008880107
20	0xba2c952d	-0.0006583508
21	0xba8f3dc6	-0.0010928444
22	0x39fc0aba	0.00048073177
23	0x3a7ddacc	0.00096837874
24	0xb9d8d743	-0.00041359113
25	0x39a9b4b2	0.0003236882
26	0xba32cab6	-0.00068203674
27	0x3a8a6b65	0.001056057
28	0xba496bba	-0.0007683594
29	0x38cae03b	9.673877e-05
30	0x3a213e41	0.0006150939
31	0x3a629318	0.00086431345

bn3.weight f4 [32]
0	0x3f1bec1d	0.60907155
1	0x3f55ca0f	0.8351144
2	0x3f89bae6	1.0760162
3	0x3f60edc5	0.8786281
4	0x3f60798b	0.8768546
5	0x3f47dbbc	0.78069663
6	0x3f8ca21c	1.0986972
7	0x3f8e15a4	1.1100354
8	0x3f4d76eb	0.8025958
9	0x3f81ff6b	1.0156072
10	0x3f6ddb48	0.9291272
11	0x3f2bec66	0.6715759
12	0x3f58bf56	0.84666955
13	0x3f364017	0.71191543
14	0x3f5c0a31	0.8595305
15	0x3f35779f	0.7088565
16	0x3f3aa77c	0.7291181
17	0x3f502632	0.8130828
18	0x3f86f1a9	1.0542499
19	0x3f53517f	0.8254623
20	0x3f768677	0.9629893
21	0x3f5be3c0	0.85894394
22	0x3f9220e2	1.1416285
23	0x3f598214	0.8496411
24	0x3f61c804	0.88195825
25	0x3fe9b12d	1.8257195
26	0x3f5cb396	0.86211526
27	0x3f370681	0.714943
28	0x3f9560d8	1.1670179
29	0x3f61f9fb	0.88272065
30	0x3f4b385f	0.7938289
31	0x3fa1f955	1.2654215

bn3.bias f4 [32]
0	0x3e03d55f	0.12874363
1	0x3cb92d11	0.022604497
2	0x3e82f201	0.2557526
3	0xbddd1ddb	-0.1079671
4	0xbd8e8324	-0.06958607
5	0x3e175535	0.14778598
6	0xbd17bb8d	-0.037044097
7	0xbd1acd82	-0.037793644
8	0x3e4bd65e	0.19905993
9	0xbe2457d5	-0.1604913
10	0xbe8d309b	-0.27576146
11	0x3e5018e6	0.20321998
12	0xbdcb3864	-0.09922865
13	0x3ec3536a	0.38149577
14	0xbd455c04	-0.048183456
15	0x3db796f4	0.08964339
16	0xbe624080	-0.22094917
17	0xbe5125a4	-0.20424515
18	0x3bb746fc	0.005593179
19	0x3c1ee79b	0.009698774
20	0x3e05b80f	0.13058494
21	0xbc7277e0	-0.014799088
22	0xbec2bf93	-0.38036785
23	0xbe04eb00	-0.1298027
24	0xbd9b84dd	-0.07593701
25	0xbecf6f6c	-0.40514696
26	0xbe07ac26	-0.13249263
27	0xbe2b9d40	-0.16759205
28	0x3dc20ca2	0.09475066
29	0x3c385d48	0.011252709
30	0x3d386858	0.045021385
31	0xbd65c16f	-0.056092676

bn3.running_mean f4 [32]
0	0x400d9d4d	2.2127259
1	0xc0094e6c	-2.1454115
2	0xbfd5c915	-1.670199
3	0x406e0d95	3.719579
4	0x3d9fa856	0.077957794
5	0xc003b2f9	-2.0577986
6	0xbde9648f	-0.11396133
7	0x3c6a8158	0.0143130645
8	0x3f8deeec	1.1088538
9	0xc078bd37	-3.8865488
10	0xbf83969d	-1.0280339
11	0x3ff78c63	1.9339718
12	0x402131df	2.518669
13	0xbed7bbfd	-0.4213561
14	0xbf282891	-0.656869
15	0xbfe35faa	-1.7763569
16	0x3ecf123c	0.404436
17	0xbf6d4f6b	-0.9269931
18	0x3f3a7385	0.7283252
19	0xc042dc8b	-3.0447109
20	0xbf2ce676	-0.67539155
21	0x4006cb4e	2.1061587
22	0xc087051f	-4.219375
23	0xbff1d1b9	-1.8892127
24	0x3ffccde1	1.9750329
25	0xc082082e	-4.0634985
26	0xc00b923e	-2.180801
27	0xbea1fd2c	-0.31638467
28	0xbdd517ec	-0.10404953
29	0xbe1d348d	-0.15352078
30	0xc00492f6	-2.0714698
31	0x3fb5dd54	1.4208169

bn3.running_var f4 [32]
0	0x4008bf08	2.1366596
1	0x408297e7	4.081043
2	0x404f804a	3.2422051
3	0x406f42de	3.7384562
4	0x40102ea7	2.2528474
5	0x405704f9	3.3596785
6	0x40e519ad	7.1593843
7	0x40db62d9	6.8558164
8	0x405d1cb3	3.4548767
9	0x40811247	4.033481
10	0x3fedee78	1.85884
11	0x405e8288	3.476717
12	0x40383582	2.8782659
13	0x406a76cc	3.6635008
14	0x401eb120	2.4795609
15	0x4035e5ae	2.8421435
16	0x3fad9464	1.356091
17	0x403108d3	2.7661636
18	0x40d5175a	6.6591005
19	0x40284cc8	2.6296864
20	0x40342350	2.8146553
21	0x403208a3	2.7817771
22	0x409151f7	4.5412555
23	0x4052cd0c	3.293765
24	0x40582981	3.3775332
25	0x41370198	11.437889
26	0x402bbc78	2.6833782
27	0x3fb202eb	1.390714
28	0x40a88d83	5.2672744
29	0x407b88ea	3.9302316
30	0x4066384a	3.5971856
31	0x40e68af9	7.2044644

conv4.weight f4 [32, 32, 3, 3]
0	0xbba631f4	-0.005071873
1	0x3df608d7	0.12013405
2	0x3e95bca2	0.29245478
3	0xbcdfeac5	-0.027333627
4	0xbdf74c93	-0.12075152
5	0xbe4c06e8	-0.1992451
6	0xbdef87d3	-0.11695828
7	0xbdc90053	-0.09814515
8	0xbe5d0f11	-0.21587779
9	0x3dfb7acc	0.12279281
10	0x3ddc8f60	0.10769534
11	0xbd2c6884	-0.04209186
12	0xbc10bbe9	-0.008833864
13	0xbd766067	-0.06015053
14	0xbdc9d679	-0.098553605
15	0xbd2ce071	-0.04220623
16	0xbe7beae3	-0.24601321
17	0x3da02670	0.07819831
18	0xbedf962b	-0.43669257
19	0xbef5cb09	-0.48006466
20	0xbe62aaa6	-0.2213541
21	0x3d1ed45d	0.038776744
22	0xbb9de20c	-0.0048182067
23	0x3e542a49	0.20719256
24	0x3d809d33	0.06279983
25	0xbc451b00	-0.012030363
26	0x3c88027e	0.01660275
27	0x3ed26adf	0.4109716
28	0x3f0c2afb	0.54753083
29	0x3e55f78f	0.20895217
30	0x3c42e07b	0.011894341
31	0xbe38a613	-0.18032102
32	0xbe443510	-0.19160867
33	0xbd560c3f	-0.052257773
34	0x3d3e9e2c	0.046537563
35	0xbdc04926	-0.09388952
36	0x3e6dad2a	0.23210588
37	0x3e5dfd13	0.21678571
38	0xbcb2fd98	-0.021849439
39	0x3dfabf11	0.12243474
40	0xbc0ffcf0	-0.008788332
41	0xbe10b7a4	-0.14132553
42	0xbe488a59	-0.19584025
43	0xbe2935e8	-0.1652447
44	0xbe39a78f	-0.18130325
45	0xbdbb9225	-0.09158734
46	0xbeaf6cc8	-0.3426268
47	0xbe3687bb	-0.17825215
48	0xbdf2dfe9	-0.11859114
49	0x3d6dc6f5	0.05805107
50	0x3e0bf4c7	0.13667594
51	0x3e511407	0.20417796
52	0x3e542451	0.20716979
53	0x3e9f03a7	0.31057474
54	0x3dc60d1c	0.09670469
55	0x3e7a02ef	0.24415182
56	0x3e97fcff	0.29685208
57	0xbd70d991	-0.058801237
58	0x3da73745	0.08164839
59	0x3e00f19b	0.12592165
60	0xbeb9a064	-0.3625518
61	0xbe7902a4	-0.24317414
62	0xbeb75220	-0.35804844
63	0x3dfffbce	0.124992
64	0x3e8b7b28	0.27242398
65	0x3e3580cf	0.17724918
66	0xbd9dadda	-0.07699175
67	0xbe54b0e2	-0.207706
68	0xbe1e885c	-0.15481704
69	0xbe9a272b	-0.30108008
70	0xbe192864	-0.14956814
71	0xbe65e4e4	-0.22450596
72	0x3dbe3788	0.092879355
73	0x3c03aef5	0.0080373185
74	0xbdef06f3	-0.11671247
75	0x3d95309d	0.07284663
76	0x3daca80c	0.0843049
77	0x3e413798	0.18868864
78	0xbd305cbb	-0.043057185
79	0xbd03a12b	-0.032136124
80	0x3d62f049	0.055404935
81	0x3e34ca48	0.17655289
82	0x3eda3c6e	0.4262423
83	0x3ed19b4c	0.40938795
84	0xb88b59b4	-6.644745e-05
85	0x3d42cef8	0.047560662
86	0xbd80488a	-0.06263836
87	0xbe73566c	-0.23763436
88	0x3c0bf02c	0.008541148
89	0xbdc1681b	-0.09443685
90	0x3c06e6a9	0.008233705
91	0xbca393af	-0.019967882
92	0xbd3f0929	-0.046639595
93	0x3d02ee7d	0.03196572
94	0x3cc24317	0.023713632
95	0x3dce16c6	0.100629374
96	0x3e0a9c3c	0.13536161
97	0x3e055027	0.13018857
98	0x3e72b9c7	0.23703681
99	0xbdca11c6	-0.09866671
100	0xbe4cfa04	-0.20017248
101	0xbe7e8bdb	-0.24858038
102	0x3dda729b	0.106663905
103	0x3e1cd5d4	0.15315944
104	0x3e73f9cc	0.23825759
105	0xbe829692	-0.255055
106	0xbe3e5681	-0.18587686
107	0xbe79e090	-0.2440207
108	0x3d7fcea6	0.062452935
109	0x3e55fdba	0.2089757
110	0x3e6d3dc0	0.23168087
111	0xbe0e4fa9	-0.13897575
112	0xbdada645	-0.08478979
113	0x3ea9e5c3	0.33183107
114	0xbe16ff6e	-0.14745876
115	0x3d38cdb9	0.045118067
116	0xbe87bdbd	-0.26511946
117	0xbb0a6d41	-0.002112225
118	0xbe32f343	-0.1747561
119	0xbdcc1e9a	-0.09966774
120	0x3d8fae0a	0.07015617
121	0xbdd2587c	-0.10270783
122	0xbdc23517	-0.09482782
123	0x3e6b347f	0.22969244
124	0x3cf08ec6	0.029364955
125	0x3e07b334	0.13251954
126	0xbc0bedb4	-0.00854056
127	0x3e22d761	0.15902473
128	0x3de1c726	0.11024313
129	0x3dfdd8ce	0.12394868
130	0x3e8f13fc	0.27944934
131	0x3e9b739e	0.30361646
132	0xbcc23132	-0.023705099
133	0x3d861037	0.065460615
134	0x3e9aa73c	0.30205715
135	0xbe8b667f	-0.27226636
136	0xbd7d9544	-0.06190993
137	0xbe52b07d	-0.20575137
138	0x3d979c5c	0.0740287
139	0xbe0c018c	-0.13672465
140	0x3d7fc9d4	0.062448338
141	0x3dd9f17b	0.10641762
142	0x3e3bc728	0.18337691
143	0x3c85bd61	0.016325654
144	0xbe00cbf5	-0.12577803
145	0xbdd7265d	-0.10505364
146	0xbc75653b	-0.0149777485
147	0xbdb71437	-0.089394026
148	0xbc0062af	-0.007836028
149	0xbd9860a4	-0.07440308
150	0xbd981af3	-0.07427015
151	0xbd532d9c	-0.05155717
152	0xbd345ff1	-0.04403681
153	0xbd995c9a	-0.074883655
154	0x3d92ab36	0.07161562
155	0x3d8e89ba	0.06959863
156	0x3c19ab3a	0.0093792025
157	0x3ddc06b7	0.10743468
158	0x3cdcc9a2	0.026951615
159	0xbe02b836	-0.12765583
160	0xbe60a84e	-0.21939203
161	0xbec634a1	-0.38712028
162	0x3e9cee98	0.30650783
163	0x3e68565f	0.22689198
164	0x3e05465b	0.1301512
165	0xbde7e2e6	-0.11322574
166	0xbe19406e	-0.14965984
167	0xbe606282	-0.21912578
168	0xbe95ce34	-0.29258883
169	0xbcd360f5	-0.025803069
170	0xbebc42b0	-0.3676963
171	0xbe09ce4e	-0.13457605
172	0xbdcf5fed	-0.10125718
173	0xbe6ff68c	-0.23433894
174	0x3e1c1fea	0.15246549
175	0x3df63b4f	0.12023031
176	0x3d5936a5	0.05303063
177	0xbe3652a3	-0.17804961
178	0xbe23d1e4	-0.15998036
179	0x3da4845a	0.080330566
180	0xb8346dac	-4.3017484e-05
181	0x3e755b25	0.2396055
182	0x3e677fef	0.22607397
183	0x3d475626	0.048666142
184	0x3e2eb3fa	0.17060843
185	0x3de0e098	0.10980338
186	0xbd16e7de	-0.03684222
187	0xbd47ee4b	-0.04881124
188	0x3ce9eddd	0.028555805
189	0x3e5e9f8a	0.21740547
190	0x3e5d41e0	0.2160716
191	0x3e221bae	0.15830871
192	0xbde90103	-0.11377146
193	0xbe1bd2fc	-0.15217203
194	0xbdfcc3a3	-0.12342002
195	0xbeb58b6d	-0.35457936
196	0xbe0f83a4	-0.1401506
197	0xbe4768ea	-0.19473615
198	0x3e09c8e4	0.1345554
199	0x3e81ce18	0.2535255
200	0xbaf6f2e4	-0.0018840698
201	0xbc1ae21e	-0.009453325
202	0xbd444a7f	-0.047922608
203	0x3e09522e	0.13410255
204	0xbd78888c	-0.060677096
205	0x3ddbbbae	0.107291564
206	0xbdeb9337	-0.115026884
207	0xbd95e29a	-0.073186114
208	0x3e463914	0.19357711
209	0xbd5bbbdb	-0.05364595
210	0xbe241939	-0.16025247
211	0x3d5847e8	0.05280295
212	0xbcb913ea	-0.022592504
213	0x3c557070	0.0130272955
214	0xbe00d865	-0.12582548
215	0xbdd6ad9d	-0.10482333
216	0xbda1c030	-0.07897985
217	0xbdf97661	-0.12180782
218	0xbd34866a	-0.0440735
219	0x3d04ac18	0.032390684
220	0x3d5220a4	0.05130066
221	0xbd4abb24	-0.049494877
222	0x3dde980f	0.108688466
223	0xbdf16f00	-0.1178875
224	0x3cb01786	0.021495592
225	0x3e0b5097	0.13604961
226	0x3db985b4	0.09058705
227	0xbbbfe5ed	-0.0058562667
228	0xbd3320ed	-0.043732572
229	0xbcf34153	-0.029694235
230	0xbe28f0ed	-0.16498156
231	0xbe39cedd	-0.18145318
232	0xbdc871c4	-0.09787324
233	0xbe16e553	-0.14735918
234	0xbe59c47a	-0.21266356
235	0xbe848e3a	-0.2588976
236	0xbe985676	-0.29753464
237	0xbe3f7910	-0.18698525
238	0xbe3bc358	-0.18336236
239	0xbdaf90b9	-0.085725255
240	0xbdcb5ce3	-0.09929826
241	0xbe5582ef	-0.20850728
242	0xbbba33e1	-0.005682454
243	0xbd80c4d1	-0.0628754
244	0xbd59d86e	-0.05318492
245	0x3d586d3a	0.05283854
246	0xb9a519fd	-0.00031490615
247	0xbd9e61db	-0.07733508
248	0xbdd316a2	-0.10307051
249	0x3b87787e	0.004134237
250	0xbe170e8c	-0.14751643
251	0xbd5102e9	-0.051028166
252	0x3e841f46	0.2580511
253	0x3eab1e61	0.33421615
254	0x3bf18b8c	0.0073713716
255	0x3e7db402	0.24775699

conv4.bias f4 [32]
0	0xb983b63a	-0.00025122036
1	0xb93eba96	-0.0001818932
2	0x3a2ce50b	0.00065954094
3	0x3a2d9669	0.0006621839
4	0x3a42782e	0.0007418421
5	0x39bc3eb1	0.00035904863
6	0x38ef3d85	0.00011407867
7	0xb9e49eec	-0.00043605955
8	0x3a3b2f61	0.0007140544
9	0x3a06aea2	0.00051377167
10	0x3a24945c	0.0006278211
11	0x3a11a927	0.00055565167
12	0xb890d0d2	-6.905351e-05
13	0xb80e2692	-3.389136e-05
14	0x390f1e88	0.00013648917
15	0xb9f476d8	-0.00046627852
16	0xb903a059	-0.00012552868
17	0x395cd22c	0.0002105913
18	0xb9b411e7	-0.00034345614
19	0xb5af6b84	-1.3069807e-06
20	0xb99857fa	-0.00029057247
21	0xba00cf31	-0.00049136864
22	0x39f3b7cb	0.00046485508
23	0x3a368ae1	0.00069634436
24	0x3a1c6ce0	0.00059671514
25	0xb94d572b	-0.00019582796
26	0xb9a376d5	-0.0003117832
27	0x39c9146b	0.0003835292
28	0x387605a8	5.865624e-05
29	0x3a452257	0.00075200706
30	0xba4ba81e	-0.0007768887
31	0xb982d8d6	-0.00024957088

bn4.weight f4 [32]
0	0x3f8fe200	1.1240845
1	0x3f67d403	0.9055788
2	0x3f597d25	0.8495658
3	0x3f88fe97	1.0702695
4	0x3f7a6c1b	0.97821206
5	0x3f59e33a	0.85112345
6	0x3f6de006	0.9291996
7	0x3f8664a9	1.0499469
8	0x3f5b9c91	0.85785776
9	0x3fb677e3	1.4255337
10	0x3f446638	0.76718473
11	0x3f781615	0.96908695
12	0x3f4e5f33	0.8061401
13	0x3f73716b	0.9509494
14	0x3f556b73	0.8336708
15	0x3f4c52d6	0.798139
16	0x3f4ddb65	0.80412894
17	0x3f688994	0.9083493
18	0x3f43d79a	0.76500857
19	0x3f72ad19	0.94795376
20	0x3f6e0705	0.9297946
21	0x3f488fcc	0.78344417
22	0x3f8729f0	1.0559673
23	0x3f8e126d	1.1099373
24	0x3f6ef28e	0.9333886
25	0x3f41edcf	0.7575349
26	0x3f828181	1.0195771
27	0x3f69f29f	0.91385835
28	0x3f96dbed	1.1785866
29	0x3f949e23	1.161076
30	0x3f8637be	1.0485761
31	0x3f786527	0.97029346

bn4.bias f4 [32]
0	0xbe815147	-0.25257322
1	0x3d2fef09	0.04295257
2	0xbe191c5d	-0.14952226
3	0xbecb2935	-0.39679876
4	0xbea7d6e4	-0.32781136
5	0xbdf872b0	-0.1213125
6	0xbe71d1a1	-0.23615123
7	0xbebde3af	-0.3708777
8	0x3e066e25	0.13127954
9	0xbf91845d	-1.1368519
10	0x3e3c31e9	0.18378414
11	0xbe110cb0	-0.14164996
12	0x3ee16d63	0.44028768
13	0xbdc48c70	-0.09597099
14	0x3e130b09	0.14359678
15	0x3e0c6e59	0.1371397
16	0xbe0883dc	-0.1333155
17	0xbe378344	-0.17921168
18	0x3e33f649	0.17574419
19	0xbe89f810	-0.2694707
20	0xbe18a187	-0.14905368
21	0x3eece116	0.46265477
22	0xbe8cb985	-0.2748529
23	0xbe03fdb0	-0.12889743
24	0xbf07e1cc	-0.53078914
25	0x3efc5fcd	0.4929184
26	0xbe8def05	-0.2772142
27	0x3e2ffe75	0.17186911
28	0xbee4062b	-0.44535956
29	0xbf131eee	-0.5746907
30	0xbebf0c48	-0.37314057
31	0xbe929031	-0.28625634

bn4.running_mean f4 [32]
0	0xbf19b7ae	-0.600459
1	0x3f898fee	1.0747049
2	0x3e880ff4	0.2657467
3	0x3e7c8133	0.2465866
4	0x3db5e1c6	0.088809535
5	0x3f854ea5	1.0414625
6	0x3f030895	0.5118497
7	0xbf826aa6	-1.0188797
8	0x3f3a7120	0.72828865
9	0xbf91dfea	-1.1396458
10	0x4038d6f4	2.8881197
11	0xbf5bd69c	-0.8587434
12	0xc060dc60	-3.5134506
13	0x3e0713ae	0.13191101
14	0x3f037bea	0.5136095
15	0xbebd4868	-0.36969304
16	0x3eae5710	0.34050798
17	0xbfc64225	-1.5488936
18	0xbd6983e3	-0.057010543
19	0xbf2f3421	-0.6843892
20	0xc019f23b	-2.4054096
21	0x3d83425a	0.0640914
22	0x3f0162f7	0.50541633
23	0x3d9e2594	0.07722011
24	0xbf849c45	-1.036019
25	0x3f4d4239	0.8017917
26	0xc03e289f	-2.9712293
27	0x3e852ab6	0.26009148
28	0xbf4599af	-0.7718763
29	0xbfad05e6	-1.3517425
30	0xbe72bf10	-0.23705697
31	0x3e3ab70a	0.18233886

bn4.running_var f4 [32]
0	0x40844a1d	4.134047
1	0x408d47e8	4.4150276
2	0x404ee1fd	3.2325432
3	0x40412874	3.018094
4	0x4047fc4f	3.1247747
5	0x4025b4d2	2.5891614
6	0x401cb94f	2.4488103
7	0x4046260a	3.0960717
8	0x40a13923	5.0382247
9	0x40602a96	3.5025992
10	0x40601361	3.5011828
11	0x4045fd5b	3.0935886
12	0x40c89546	6.268222
13	0x4056e79d	3.3578866
14	0x4053a80b	3.3071315
15	0x403f0b0a	2.9850488
16	0x402f2dbe	2.737167
17	0x4056c1ff	3.3555906
18	0x407d1f90	3.9550514
19	0x405407dc	3.3129797
20	0x40971554	4.7213535
21	0x40875fc0	4.230438
22	0x406ddb99	3.7165282
23	0x408cfe30	4.4060287
24	0x40117116	2.2725272
25	0x407e74bd	3.9758751
26	0x40811efd	4.0350327
27	0x4084808d	4.140692
28	0x40849985	4.14374
29	0x4068560a	3.6302514
30	0x4032936d	2.7902482
31	0x4040b937	3.0113046

conv5.weight f4 [32, 32, 3, 3]
0	0x3ddfca5c	0.10927269
1	0xbd4c3e4b	-0.049864095
2	0xbd16e0b9	-0.036835406
3	0x3dcaec0b	0.09908303
4	0xbdb034bf	-0.086038105
5	0xbde07d18	-0.1096136
6	0x3e62a7bf	0.22134303
7	0x3ddc44f6	0.10755341
8	0xbe2fd6cf	-0.17171787
9	0x3e8a2e82	0.26988608
10	0xbc7abf59	-0.01530441
11	0x3d82b4fc	0.06382176
12	0x3dbf6f1b	0.093473636
13	0x3d21f396	0.039538942
14	0x3ea167ad	0.3152441
15	0xbdb98863	-0.09059217
16	0x3db32e6d	0.087490894
17	0x3e63a3e8	0.22230494
18	0xbd71ed6a	-0.059064306
19	0xbd8c9a5a	-0.06865378
20	0xbe172559	-0.14760341
21	0xbd8514bb	-0.06498095
22	0xbdc44fb7	-0.09585517
23	0xbe6d28b9	-0.23160066
24	0xbd94e6e8	-0.07270604
25	0xbe2d5a25	-0.16928919
26	0xbde70dc5	-0.11281923
27	0xbcb43984	-0.022000082
28	0xbc7e3800	-0.015516281
29	0x3ef17f1e	0.47167295
30	0xbd995612	-0.0748712
31	0x3d9db8c9	0.077012606
32	0x3e8ee617	0.2790992
33	0xbe80f91b	-0.25190052
34	0x3e02b58d	0.12764569
35	0x3e06a02f	0.13147043
36	0xbe8c6b98	-0.27425838
37	0xbe74e3f4	-0.23915082
38	0xbcc3dc20	-0.023908675
39	0xbdb6a7ee	-0.08918749
40	0xbe0003e4	-0.12501484
41	0xbd47b68f	-0.048758086
42	0x3e33ab87	0.17545901
43	0x3e017131	0.12640835
44	0x3e9bf477	0.3045995
45	0x3e8bd289	0.27309063
46	0x3df751fa	0.12076183
47	0xbc3ec7d5	-0.011644323
48	0x3e2083a6	0.1567522
49	0xbcba0394	-0.022706784
50	0xbe5d939a	-0.21638337
51	0x3e7ee68d	0.24892636
52	0xbdc3810f	-0.095461
53	0xbe2fdc30	-0.17173839
54	0xbdca8b4d	-0.09889851
55	0x3de6b9d1	0.112659104
56	0x3de78077	0.113037996
57	0xbc0d9dbc	-0.008643564
58	0xbddb3119	-0.10702724
59	0xbd8a308d	-0.067475416
60	0xbde6ecff	-0.11275672
61	0xbdf988ff	-0.12184333
62	0xbe92ece2	-0.28696352
63	0xbdbd7134	-0.092501074
64	0xbd8afe40	-0.067867756
65	0x3c893469	0.016748624
66	0x3de3df15	0.11126534
67	0xbe3aac9d	-0.18229909
68	0xbe927a55	-0.28608957
69	0xbdc2bcd3	-0.095086716
70	0xbe87db59	-0.26534536
71	0xbe1e7f2c	-0.154782
72	0x3e7485e7	0.23879205
73	0x3e90b32c	0.28261697
74	0x3e9aa9b5	0.302076
75	0x3dc03e47	0.093868785
76	0x3ca72e91	0.020407947
77	0xbe0c906d	-0.13726969
78	0x3e51f1ee	0.20502445
79	0xbe296074	-0.165407
80	0xbedffc44	-0.4374715
81	0xbc71124c	-0.014713835
82	0x3d959fb0	0.073058486
83	0x3e8215ef	0.2540736
84	0xbe3cd368	-0.1844002
85	0x3d010098	0.031494707
86	0x3dbeb8c1	0.09312583
87	0xbe539854	-0.20663577
88	0x3d0a2e41	0.033735517
89	0xbd550162	-0.052003272
90	0x3da9b5ef	0.08286654
91	0x3c549e6c	0.012977224
92	0x3e1accf8	0.15117252
93	0xbe5b33f9	-0.21406545
94	0xbe3c46f5	-0.18386443
95	0xbd5d0494	-0.053959444
96	0xbe23530a	-0.15949646
97	0x3ced3d9d	0.028960044
98	0x3d5f0f10	0.054457724
99	0xbe21130d	-0.15729924
100	0xbe4eb7a9	-0.20187248
101	0xbd51dd15	-0.05123623
102	0xbe541ee3	-0.20714907
103	0xbdeeb995	-0.11656491
104	0xbc364f73	-0.011127341
105	0xbe8495e7	-0.25895616
106	0xbdf99cab	-0.12188085
107	0xbdf14285	-0.11780266
108	0x3b9c74de	0.004774674
109	0x3d96fae7	0.073720746
110	0x3e184f5d	0.14874025
111	0xbea98e8d	-0.3311657
112	0xbe87d888	-0.26532388
113	0xbe536e79	-0.2064761
114	0xbd877fa4	-0.066161424
115	0xbe907a47	-0.2821829
116	0xbe9855a4	-0.2975284
117	0xbcd06908	-0.025440708
118	0x3d443202	0.047899254
119	0x3dbd1c5f	0.09233927
120	0xbca79af7	-0.020459635
121	0xbdd5bb4c	-0.10436115
122	0xbde259e5	-0.11052302
123	0xbed3aded	-0.41343632
124	0xbe9d7736	-0.30755013
125	0xbd79107f	-0.060806748
126	0xbda5cd4e	-0.080957994
127	0xbc2cca1e	-0.010546235
128	0x3cb658cf	0.022259144
129	0xbda639cd	-0.081164934
130	0xbd997812	-0.07493605
131	0x3beec027	0.00728609
132	0x3ed2f2b6	0.412008
133	0xbdb989ef	-0.09059512
134	0xbe17bc90	-0.14818025
135	0xbdd3be83	-0.103390716
136	0xbcfb133b	-0.030648818
137	0xbe31e63d	-0.17372985
138	0xbdf03e4f	-0.117306344
139	0xbd995811	-0.074875005
140	0xbe6db5f0	-0.23213935
141	0x3e9c14f0	0.30484724
142	0x3e1e428d	0.15455075
143	0xbe42ed92	-0.19035938
144	0x3e6a1999	0.22861327
145	0x3d09c08f	0.033630904
146	0x3d8f9b50	0.070120454
147	0xbc9fca9a	-0.019505788
148	0xbcadb84f	-0.02120605
149	0x3d60f31d	0.05491935
150	0xbe4aa3be	-0.19789025
151	0xbb68983b	-0.0035491127
152	0xbd645027	-0.0557405
153	0x3db37672	0.08762826
154	0xbc53bedc	-0.012923922
155	0x3eacb017	0.33728096
156	0xba0953ac	-0.00052386033
157	0xbc9c1a47	-0.019055499
158	0x3e55db02	0.20884326
159	0x3e9cc7a4	0.30621064
160	0x3ef553a3	0.47915372
161	0x3dfe3100	0.1241169
162	0x3eaf2a14	0.3421179
163	0x3e5452f3	0.20734768
164	0xbd29b0d9	-0.04142842
165	0x3e1b090b	0.15140168
166	0xbe329eb1	-0.17443348
167	0xbea803b6	-0.3281533
168	0xbd94a374	-0.07257739
169	0xbe1aa9d3	-0.15103845
170	0xbdab78a6	-0.08372621
171	0xbc5a3120	-0.013317376
172	0x3dac39d0	0.08409464
173	0x3e00d3aa	0.12580743
174	0xbd4e116d	-0.050309587
175	0xbdae7bf8	-0.08519739
176	0xbccc156e	-0.024912562
177	0xbf05eb17	-0.52311844
178	0xbde725f3	-0.11286535
179	0x3d130049	0.035888944
180	0x3e475941	0.19467641
181	0x3e886478	0.26639152
182	0x3eb5bd32	0.35495907
183	0xbba5667a	-0.0050476165
184	0x3baa85d7	0.0052039432
185	0x3cb6feaf	0.02233824
186	0xbd5ab24b	-0.05339269
187	0xbe1b3a74	-0.15159017
188	0xbd980dc5	-0.07424501
189	0x3e2b89b2	0.16751745
190	0x3e0c275b	0.13686888
191	0xbd27abd8	-0.040935367
192	0x3bb19bbb	0.005420176
193	0xbda3f3cd	-0.08005486
194	0xbe544bfb	-0.20732109
195	0xbdba98af	-0.09111153
196	0xbe4157cf	-0.18881153
197	0xbcc2e7fc	-0.02379226
198	0x3e735b07	0.23765193
199	0x3e3854d5	0.18001111
200	0x3ec697d7	0.3878772
201	0xbdc1e5f8	-0.09467691
202	0xbcef14d4	-0.029184736
203	0x3dcc89ae	0.09987198
204	0xbda99936	-0.08281176
205	0xbcd453e9	-0.025918918
206	0xbdc8bdc3	-0.09801819
207	0xbdf07ab7	-0.11742156
208	0x3d6ae07d	0.057342995
209	0x3e81eb45	0.2537481
210	0xbd329a42	-0.043604143
211	0x3e0f8d03	0.14018635
212	0x3e0d5ca1	0.13804866
213	0x3e18c06e	0.14917156
214	0x3df9c615	0.12195984
215	0xbd5829fa	-0.052774407
216	0xbe9573be	-0.29189867
217	0xbe112ba9	-0.14176811
218	0x3db57b68	0.088614285
219	0xbe191f78	-0.1495341
220	0xbc0ad9ea	-0.008474806
221	0xbc877fb1	-0.01654038
222	0xbc10e4ec	-0.008843642
223	0x3d3d1062	0.046158202
224	0x3d8be40b	0.06830605
225	0x3d8e2015	0.06939713
226	0x3e0cedad	0.13762541
227	0x3d16ba60	0.036798835
228	0xbde4a4b2	-0.11164226
229	0xbd30f231	-0.04319972
230	0xbcaa3bc8	-0.020780459
231	0xbe86234b	-0.261988
232	0xbde0d16c	-0.10977444
233	0x3c7dc397	0.015488527
234	0xbce2148f	-0.027597694
235	0x3cc6cee4	0.024268575
236	0x3ea5f559	0.32413748
237	0xbdd08cb1	-0.10183085
238	0xbe116ec2	-0.14202407
239	0xbd83baca	-0.064321116
240	0xbe4aded2	-0.19811562
241	0xbe266594	-0.16249686
242	0xbe3f8130	-0.18701625
243	0x3e5505b2	0.20802954
244	0x3e0b0b33	0.13578491
245	0x3e31debf	0.17370127
246	0x3d23c2f2	0.039980836
247	0x3d26706e	0.040634565
248	0x3dd10711	0.10206426
249	0xbd77bab6	-0.060480796
250	0x3d02555c	0.031819686
251	0x3dbef1be	0.093234524
252	0x3dfd772f	0.12376248
253	0x3d83ec2f	0.06441533
254	0xbe254a4e	-0.16141626
255	0xbe80b411	-0.2513738

conv5.bias f4 [32]
0	0xba372d2c	-0.0006987627
1	0xba303789	-0.00067221426
2	0xb8dd0bfb	-0.00010540333
3	0x39c199cb	0.00036926413
4	0xb9c609a3	-0.00037772683
5	0xb989f348	-0.00026311935
6	0xba2af35c	-0.0006521249
7	0x384f9fb6	4.950139e-05
8	0xb8e7b048	-0.00011047773
9	0xb9b63f83	-0.00034761065
10	0x39afb314	0.00033512025
11	0xb95a7a88	-0.00020835747
12	0x394b9348	0.00019414455
13	0x39f5892d	0.00046832245
14	0x3a282c4a	0.0006415291
15	0xb937e47a	-0.00017537354
16	0xba0e50c9	-0.0005428908
17	0x3957e0f5	0.00020587801
18	0xb9e157b9	-0.00042980703
19	0xb96eebab	-0.00022785242
20	0x3a4afef5	0.000774368
21	0xba206355	-0.0006118317
22	0xba1aa744	-0.00058995583
23	0x3a280d23	0.0006410649
24	0x39a9856d	0.00032333602
25	0xba278e29	-0.0006391728
26	0xb9f928e6	-0.00047523453
27	0x37c3e3db	2.3351915e-05
28	0xb9d3363e	-0.0004028547
29	0xb92ef84b	-0.0001668643
30	0x381f0935	3.791713e-05
31	0xb91b0632	-0.0001478426

bn5.weight f4 [32]
0	0x3f6771c6	0.9040798
1	0x3f63d5fc	0.8899839
2	0x3f3bd128	0.7336602
3	0x3f5551d3	0.8332798
4	0x3f38bca9	0.7216287
5	0x3f7bd639	0.9837375
6	0x3f5b84a0	0.85749245
7	0x3f2ec5cc	0.68270564
8	0x3f7ff113	0.99977225
9	0x3f6063fd	0.8765257
10	0x3f45dac5	0.7728694
11	0x3f5fecbe	0.87470615
12	0x3f573f4d	0.84080964
13	0x3f6a7d21	0.9159718
14	0x3f42bc48	0.76068544
15	0x3f885c27	1.0653123
16	0x3f5c1ce9	0.85981613
17	0x3f43146e	0.7620305
18	0x3f592ae5	0.84831077
19	0x3f3f2cfa	0.74678004
20	0x3f31b0df	0.6941051
21	0x3f6937da	0.9110085
22	0x3f29ef47	0.66380733
23	0x3f7117be	0.9417685
24	0x3f2ebfd9	0.68261486
25	0x3f4f3517	0.80940384
26	0x3f9efff1	1.2421857
27	0x3f47d044	0.78052163
28	0x3f654d8e	0.89571464
29	0x3f36bc96	0.7138151
30	0x3f352341	0.7075692
31	0x3f801a45	1.0008017

bn5.bias f4 [32]
0	0xbe100002	-0.14062503
1	0x3eaf5464	0.34244072
2	0x3e6e4197	0.23267208
3	0x3ed414e7	0.41422197
4	0x3e994f9b	0.29943547
5	0xbe933b2a	-0.28756076
6	0x3de07194	0.10959163
7	0x3ee6c0b6	0.45068902
8	0x3d3cc10a	0.046082534
9	0x3d23c02c	0.03997819
10	0x3e5ed194	0.21759635
11	0x3e546592	0.20741871
12	0x3d543400	0.051807404
13	0xbcaadfc3	-0.020858651
14	0x3eb81ed6	0.35961026
15	0xbe216a09	-0.15763105
16	0xbd78ef17	-0.06077489
17	0x3e445d0b	0.19176118
18	0x3e0a4913	0.13504438
19	0x3e9a646e	0.30154747
20	0x3eeaf2d2	0.45888382
21	0x3ed220ae	0.41040558
22	0x3ee38caa	0.44443256
23	0x3e0627c4	0.13101107
24	0x3f0fdc42	0.5619546
25	0x3e77f94e	0.24216196
26	0xbf72b8dd	-0.9481333
27	0x3e40cfdf	0.18829297
28	0x3e8963a1	0.26833823
29	0x3e8b16d0	0.27165842
30	0x3ea09b9d	0.31368724
31	0xbe534d29	-0.20634903

bn5.running_mean f4 [32]
0	0xbf658c3c	-0.89667106
1	0x40cf31ac	6.4748135
2	0xc04b72fe	-3.1788936
3	0xbfb0c39a	-1.3809693
4	0x3fc848ff	1.5647277
5	0x3d191d64	0.037381545
6	0xbf694eb0	-0.9113569
7	0xbdaabc61	-0.08336712
8	0xc08bec0d	-4.372565
9	0x3ef41138	0.47669387
10	0xbf2e6da5	-0.68136054
11	0x3d381c2b	0.044948738
12	0xbf7a8c7e	-0.97870624
13	0xbd044b83	-0.032298576
14	0x3bf287dd	0.00740145
15	0xbf555940	-0.8333931
16	0xbf91fb3a	-1.1404793
17	0x3e8a702a	0.270387
18	0x3f0fd87a	0.5618969
19	0xc01e1056	-2.469747
20	0xbee5e38f	-0.44900176
21	0x3f2ba8ca	0.67054427
22	0xbf908be4	-1.1292691
23	0xc0323f0f	-2.7850988
24	0x3e8bc3aa	0.27297717
25	0xc00067ae	-2.006328
26	0xc054e685	-3.3265698
27	0x3eb16b56	0.34652203
28	0xbf4c2310	-0.79741
29	0xbf4dc944	-0.8038523
30	0x3f806f7b	1.0034021
31	0xbfaced87	-1.3509988

bn5.running_var f4 [32]
0	0x405558e6	3.333551
1	0x40840e7b	4.1267676
2	0x405b9e15	3.4315236
3	0x408ef9cc	4.467993
4	0x405a0678	3.4066448
5	0x40587245	3.3819745
6	0x4081e4a9	4.0591626
7	0x4039ab0d	2.901065
8	0x40835d7c	4.1051617
9	0x4042020e	3.0313754
10	0x406c33bb	3.6906574
11	0x4049626d	3.1466324
12	0x40756544	3.8343058
13	0x40614a0d	3.5201447
14	0x4061d6e6	3.5287414
15	0x406c59a4	3.6929712
16	0x4048ca1d	3.137336
17	0x4037bb2a	2.8707986
18	0x40675f83	3.6152046
19	0x40881702	4.2528086
20	0x405b7a51	3.4293406
21	0x40a051ac	5.0099697
22	0x403e96fe	2.9779658
23	0x40a9e0b5	5.30868
24	0x407ecef8	3.9813824
25	0x40767838	3.8510876
26	0x4039bfd6	2.9023337
27	0x40315ab1	2.7711604
28	0x409f5b6d	4.9799104
29	0x402257aa	2.5366006
30	0x4056c204	3.3555918
31	0x408163b9	4.043423
