model_weights/Tiny10/CIFAR10/in0-gn0/110000.pt (torch_old, 358762 bytes, 50 tensors)

conv1.weight f4 [16, 3, 3, 3]
0.21778324 -0.34863326 0.16703986 0.14643791 -0.2638152 0.34346578 -0.0151900975 -0.07005519
0.06730716 -0.1597735 -0.6053768 -0.2391997 0.022818536 -0.24379775 0.20802246 0.16950086
0.21229911 0.22719696 0.04905998 -0.28872052 -0.13242981 -0.005081703 -0.29866102 -0.06618516
-0.08406186 -0.19842184 -0.23536582 0.07855822 0.049156975 -0.4011659 0.14212881 0.23900045
-0.045207225 0.33639675 0.42652133 0.14354135 -0.07787511 -0.05549111 -0.24388249 -0.19608396
-0.17238162 -0.12656474 0.11933706 0.018204773 -0.026369037 0.439667 0.5038879 0.23051745
0.05681508 0.06937512 0.1541241 -0.20660493 -0.37313846 -0.27061212 0.4456611 0.5650873
0.33571687 0.25458673 0.025347816 0.009884576 -0.44850206 -0.8552111 -0.42495114 -0.17534512
0.04036839 -0.05540998 0.015566735 0.014456671 0.01742898 -0.29788482 -0.5165616 -0.20540124
-0.40206668 -0.28270465 -0.20605917 0.21600457 0.23309252 0.23109342 0.3343497 0.13141325
0.23847334 0.36341813 0.6102813 0.20891479 0.037139628 0.19472128 0.10541817 -0.45896322
-0.37637004 -0.007987503 0.4502163 0.8422124 0.66273016 -0.06672456 -0.07370752 -0.09355026
-0.4816697 -0.69694614 -0.57761 0.5167726 0.86772245 0.61208385 -0.050304715 -0.09219962
-0.28505322 -0.39461428 -0.64700794 -0.9448752 -0.4176569 0.035348486 -0.6211604 0.58125293
-2.1086445 0.7835003 0.22548084 0.6668453 0.9404201 0.18479781 0.3492969 -0.045779333
1.3903184 -1.8529931 0.52526623 0.072149806 -0.40177462 -0.41744038 -0.5366094 0.7210106
0.051950503 0.6705255 -0.68121463 0.88816863 -0.318241 -0.59725124 -0.17015667 0.12653467
0.029721929 -0.053525973 0.2310222 0.37824166 0.09498038 0.2661541 0.5345479 0.3468559
-0.10320238 -0.3329007 -0.10716092 -0.6678406 -0.7736434 -0.5459755 -0.6923963 -0.73264074
-0.3859759 0.18253508 0.2722719 0.12840827 0.26462716 0.4570139 0.19779767 0.16283602
0.36694926 0.2587663 0.5946177 -0.06320741 -0.3989582 -0.15412882 0.031437892 0.43184376
-0.40676916 -0.38385403 0.4912304 -0.2973544 -0.11224734 0.30229253 -1.0069183 -0.18043974
1.0932107 -0.65239924 -0.28047776 1.0997537 -0.3268536 -0.2043691 -0.03771331 -0.805567
-0.016286388 0.9790081 -0.5815133 -0.19390374 0.9930347 -0.0052768565 0.1919049 0.034318455
0.07996494 -0.09466704 -0.06224439 0.22576244 -0.0830584 -0.0764251 -0.053977817 -0.24898066
-0.31681854 0.060577754 -0.4788895 -0.40901703 0.40949768 -0.029712904 -0.032297403 -0.041684814
0.13650306 0.4031679 -0.21458393 -0.31781048 0.17222327 -0.18945153 -0.33425805 0.043390173
-0.33256182 -0.16636412 -0.019416057 -0.37017646 -0.18963857 -0.11775027 -0.042863835 0.43666407
-0.066084355 -0.56435347 -0.31741637 -0.1453983 -0.31696403 -0.010109118 0.041990012 -0.072888665
0.6109971 0.26029408 -0.41714674 -0.19407792 0.016100693 -0.12270818 0.08224156 0.10181416
0.030475989 0.5446978 0.17418863 -0.021495571 -0.012757751 0.5272407 -0.39124286 -0.54790664
-0.023894176 -0.6065021 -0.65110165 -0.09150357 -0.31466764 -0.24699277 0.22075218 -0.10284969
00000000: 9202 5f3e 0f80 b2be 7f0c 2b3e d2f3 153e
00000010: c912 87be bfda af3e e3df 78bc 1879 8fbd
00000020: 56d8 893d aa9b 23be f9f9 1abf c4f0 74be
00000030: f0ed ba3c 1ea6 79be d703 553e a291 2d3e
00000040: f064 593e 52a6 683e 1ef3 483d 2dd3 93be
00000050: ae9b 07be 6a84 a6bb 19ea 98be 168c 87bd
00000060: a028 acbd 182f 4bbe bd03 71be 22e3 a03d
00000070: d358 493d 9e65 cdbe 378a 113e 89bc 743e
00000080: 362b 39bd 323c ac3e 0161 da3e 81fc 123e
00000090: fc7c 9fbd a54a 63bd 55bc 79be 3cca 48be
000000a0: cf84 30be 309a 01be fd66 f43d 2d22 953c
000000b0: e103 d8bc 081c e13e ccfe 003f c40c 6c3e
000000c0: eeb6 683d 8b14 8e3d b5d2 1d3e 3e90 53be
000000d0: 010c bfbe ac8d 8abe b12d e43e 90a9 103f
000000e0: 15e3 ab3e 3159 823e 39a6 cf3c ebf2 213c
000000f0: 10a2 e5be 1def 5abf 3293 d9be ac8d 33be
00000100: 5359 253d 93f5 62bd 9e0b 7f3c acdb 6c3c
00000110: 38c7 8e3c 5c84 98be 623d 04bf b454 52be
00000120: afdb cdbe aabe 90be 2d01 53be 4d30 5d3e
00000130: ceaf 6e3e c1a3 6c3e e22f ab3e 3291 063e
00000140: 5b32 743e f111 ba3e 653b 1c3f c2ed 553e
00000150: b91f 183d 0465 473e 7be5 d73d 3afd eabe
00000160: 93b3 c0be 04de 02bc c082 e63e 3b9b 573f
00000170: afa8 293f e3a6 88bd f8f3 96bd 4797 bfbd
00000180: 699d f6be 106b 32bf 40de 13bf 364b 043f
00000190: 0f23 5e3f 87b1 1c3f 510c 4ebd 28d3 bcbd
000001a0: 7ff2 91be e20a cabe 50a2 25bf 57e3 71bf
000001b0: 20d7 d5be 93c9 103d 5e04 1fbf fecc 143f
000001c0: 08f4 06c0 7a93 483f 73e4 663e 60b6 2a3f
000001d0: 5fbf 703f a33b 3d3e 0bd7 b23e 1c83 3bbd
000001e0: f4f5 b13f e12e edbf d977 063f 47c3 933d
000001f0: 67b5 cdbe bfba d5be 3c5f 09bf 2794 383f
00000200: 0dca 543d 8fa7 2b3f 1564 2ebf 055f 633f
00000210: 7cf0 a2be 75e5 18bf 8d3d 2ebe 4e92 013e
00000220: 677b f33c 0d3e 5bbd 1591 6c3e e4a8 c13e
00000230: 1385 c23d 5a45 883e 22d8 083f 1997 b13e
00000240: c55b d3bd f671 aabe 2f77 dbbd 9af7 2abf
00000250: 7e0d 46bf 0dc5 0bbf e240 31bf 588e 3bbf
00000260: a29e c5be 7aea 3a3e 3967 8b3e 757d 033e
00000270: 367d 873e bafd e93e 798b 4a3e 7cbe 263e
00000280: c6e0 bb3e 047d 843e de38 183f e372 81bd
00000290: 4044 ccbe f2d3 1dbe 05c5 003d a01a dd3e
000002a0: 0c44 d0be 8488 c4be 8d82 fb3e d63e 98be
000002b0: efe1 e5bd 16c6 9a3e b3e2 80bf 32c5 38be
000002c0: 54ee 8b3f a303 27bf c89a 8fbe bbc4 8c3f
000002d0: 5b59 a7be 2246 51be 4679 1abd a439 4ebf
000002e0: 086b 85bc 46a0 7a3f 0ede 14bf b48e 46be
000002f0: 8637 7e3f 7be9 acbb b882 443e 8291 0c3d
00000300: a9c4 a33d cbe0 c1bd f9f3 7ebd 452e 673e
00000310: 861a aabd c384 9cbd d817 5dbd c9f4 7ebe
00000320: 0a36 a2be 6120 783d 0131 f5be ae6a d1be
00000330: aea9 d13e 7a68 f3bc 484a 04bd b2bd 2abd
00000340: 75c7 0b3e 066c ce3e e4bb 5bbe 0eb8 a2be
00000350: 4c5b 303e 95ff 41be df23 abbe e5b9 313d
00000360: 8b45 aabe 5b5b 2abe 6c0e 9fbc c587 bdbe
00000370: 9d30 42be 0e27 f1bd fd91 2fbd 6f92 df3e
00000380: 3c57 87bd 7879 10bf 6684 a2be 4be3 14be
00000390: 1c49 a2be b7a0 25bc b8fd 2b3d a746 95bd
000003a0: 4e6a 1c3f 4445 853e 4294 d5be 5dbc 46be
000003b0: 9ae5 833c 6d4e fbbd 436e a83d f183 d03d
000003c0: c8a8 f93c 5171 0b3f 815e 323e 7b17 b0bc
000003d0: e305 51bc 3ff9 063f fc50 c8be 9c43 0cbf
000003e0: b8bd c3bc b943 1bbf 99ae 26bf 3966 bbbd
000003f0: 1e1c a1be aceb 7cbe dc0c 623e dca2 d2bd

conv1.bias f4 [16]
0.0021636148 0.00016707086 -0.0016974222 -0.0009126087 0.00055474526 -0.0019420298 0.001265835 -0.0023138719
-0.0024471222 -0.0024741567 -0.000516795 0.001713094 -0.002409672 0.002119501 -0.0010189257 0.0007464279
00000000: 6fcb 0d3b be2f 2f39 0a7c deba 223c 6fba
00000010: 536c 113a b58b feba 60ea a53a 54a4 17bb
00000020: e65f 20bb 7625 22bb 8679 07ba e589 e03a
00000030: 96eb 1dbb 53e7 0a3b 798d 85ba eeab 433a

bn1.weight f4 [16]
1.2784401 0.34845063 1.1947391 0.7198458 1.3482112 0.53487456 0.9258291 0.5895981
1.0429137 0.40591285 0.66750795 0.48011482 1.1155053 1.1067216 0.38546652 0.6001709
00000000: eda3 a33f 1f68 b23e 36ed 983f d047 383f
00000010: 2f92 ac3f 8aed 083f 2303 6d3f e7ef 163f
00000020: 327e 853f cfd3 cf3e cde1 2a3f 9cd1 f53e
00000030: e1c8 8e3f 0ea9 8d3f de5b c53e cda4 193f

bn1.bias f4 [16]
-0.99001783 0.084076285 -0.73554254 0.5458958 1.5731673 0.109128386 0.50965136 -0.00121221
-0.503493 0.33224955 0.12076198 0.26855773 1.2490947 0.72280127 0.18011239 0.22292563
00000000: cf71 7dbf 3030 ac3d 844c 3cbf d4bf 0b3f
00000010: 8c5d c93f b47e df3d 8378 023f 05e3 9eba
00000020: ebe4 00bf 9d1c aa3e 0f52 f73d 6680 893e
00000030: 56e2 9f3f 8109 393f 626f 383e 9e46 643e

bn1.running_mean f4 [16]
0.27951145 -0.14458235 0.18378617 0.0138545735 0.003783263 0.08998347 0.0071044425 0.2571336
0.22837457 -0.08633276 -0.04427899 0.11669448 0.041455224 -0.03631192 0.007330436 -0.07024422
00000000: 201c 8f3e 650d 14be 7132 3c3e 4bfe 623c
00000010: 9ff0 773b 4149 b83d 62cc e83b 04a7 833e
00000020: 06db 693e 3bcf b0bd e35d 35bd 84fd ee3d
00000030: f4cc 293d cfbb 14bd 2734 f03b 34dc 8fbd

bn1.running_var f4 [16]
4.315766 1.4234453 2.429583 19.15327 2.9178941 1.8352561 13.942859 2.835834
6.5003 4.210887 7.2087564 4.797112 2.2859657 7.0201373 2.423326 3.0498822
00000000: c11a 8a40 7533 b63f 4a7e 1b40 e639 9941
00000010: c7be 3a40 ace9 ea3f f315 5f41 4e7e 3540
00000020: 7502 d040 96bf 8640 22ae e640 f181 9940
00000030: 434d 1240 f7a4 e040 c617 1b40 4531 4340

conv2.weight f4 [16, 16, 3, 3]
0.05732605 0.22892085 0.03839524 0.019354966 0.04220278 -0.0078074154 -0.08964403 -0.02864886
-0.12854584 -0.08919772 -0.08607763 0.13645265 -0.17286758 -0.01294646 0.11438972 -0.16682075
0.026611626 0.084184736 -0.1273483 0.057257935 -0.07691214 -0.022770796 0.12093239 -0.07931108
0.13158736 -0.024577472 -0.0480168 -0.054314833 -0.20524293 0.29970703 -0.027640147 -0.18486223
0.3197732 0.059819754 -0.11353278 -0.029885223 -0.022255423 0.24169874 -0.16968505 -0.35096696
1.3106626 -1.1360264 -1.21089 1.7523371 -0.5963668 0.10637118 0.037375875 -0.04599361
-0.04045067 -0.10865646 -0.1230497 0.09740406 -0.018283308 -0.0744049 -0.4011056 0.47740534
-0.22877842 -0.29872993 0.34165773 -0.30650297 -0.18874484 0.31975588 0.27478445 0.05035924
-0.032397255 -0.038960673 0.12246068 0.107134715 -0.12094803 0.079169594 0.13705891 -0.17629674
0.10362403 -0.22318104 -0.06661565 0.39238125 -0.27233833 -0.0400297 0.20023651 -0.27638453
0.13696826 -0.04240751 0.120563194 0.1007548 -0.115712024 0.07867085 -0.04645538 -0.18318734
0.13167542 0.030778533 0.068461634 0.022726176 0.0017090369 -0.07574235 0.06351526 0.105566695
-0.15068474 -0.07265062 0.06540773 0.15745105 0.029707149 0.206151 -0.012794711 -0.10814469
0.034166466 -0.05893319 -0.14300308 -0.1105849 -0.3159507 0.43164444 -0.08121821 -0.35724577
-0.1468912 0.50996536 -0.16195191 -0.61823565 0.7829486 -0.16803986 0.2888772 -0.49972928
-0.14829424 0.5141373 -0.17090712 -0.6687969 0.81314516 -0.16865338 0.068014085 0.10778538
0.073112614 -0.013929855 0.05329371 0.124661 -0.1842993 -0.27672145 0.024426818 0.093706705
0.07428434 -0.06704725 0.028850377 -0.06294037 -0.23466657 0.21934514 0.06914752 -0.19119474
0.25522405 0.27683383 0.33939278 0.16040331 0.1470417 0.193864 -0.40123805 -0.4249714
-0.41188294 -0.19877243 -0.067894034 -0.072882764 -0.11487434 -0.084408596 -0.16470587 -0.12017251
-0.08426722 -0.13865842 -0.11408486 -0.1751849 -0.26181367 -0.008747995 0.11135066 -0.11279811
0.1763763 0.09352684 -0.12325512 0.12282579 0.23331477 -0.08623177 -0.4601901 -0.33495858
-0.20028684 0.14568709 0.075154774 0.12542033 -0.09809383 -0.06286085 -0.04635284 -0.095672406
-0.5529175 -0.27423546 0.2236504 0.40705442 0.047444902 -0.18333237 0.11271276 0.041804682
-0.13741374 -0.04661442 -0.13811834 0.051974297 0.18580075 0.10161701 -0.22958194 -0.26678395
0.43647155 0.07383142 -0.25683963 0.08587323 0.2180105 -0.035953302 -0.2954463 0.23634161
0.2597045 0.09084594 -0.11484496 -0.14374174 -0.22322226 -0.079271555 -0.10624511 -0.19239123
0.085134245 0.061978012 0.06696338 0.08064405 0.163991 0.08478013 0.03768665 0.036537185
-0.011290596 -0.3423412 -0.4388508 -0.45339274 -0.0028831789 0.0940963 0.10481411 0.28978086
0.44674876 0.4107813 0.060941186 0.022411576 0.1091818 -0.11138421 -0.098119706 -0.16640198
-0.079179965 0.060275804 0.058075387 -0.43545863 -0.449876 -0.64382017 -0.053806193 0.05153237
-0.10226583 0.3621916 0.51416105 0.43714765 0.06290855 0.072070695 -0.5032264 -0.31067038
00000000: b8ce 6a3d 3a6a 6a3e 5444 1d3d 4e8e 9e3c
00000010: d2dc 2c3d 59d5 ffbb 4a97 b7bd 04b1 eabc
00000020: 85a1 03be 4bad b6bd 7849 b0bd 3eba 0b3e
00000030: 3304 31be 641d 54bc 2845 ea3d 0fd3 2abe
00000040: a000 da3c 0c69 ac3d 9867 02be 4c87 6a3d
00000050: 1d84 9dbd d289 babc 67ab f73d d96d a2bd
00000060: d6be 063e b256 c9bc 44ad 44bd 3b79 5ebd
00000070: 342b 52be 3373 993e 976d e2bc 864c 3dbe
00000080: 50b9 a33e 8f05 753d e083 e8bd dbd1 f4bc
00000090: 0151 b6bc e07f 773e ebc1 2dbe f1b1 b3be
000000a0: cbc3 a73f 5069 91bf 72fe 9abf 954c e03f
000000b0: 7fab 18bf 22d9 d93d 7217 193d cc63 3cbd
000000c0: 9aaf 25bd 4787 debd 7b01 fcbd c87b c73d
000000d0: e0c6 95bc 9961 98bd b75d cdbe 796e f43e
000000e0: e444 6abe 21f3 98be c3ed ae3e f5ed 9cbe
000000f0: 5446 41be 0bb7 a33e 8cb0 8c3e 7e45 4e3d
00000100: fcb2 04bd 3a95 1fbd aacc fa3d 7269 db3d
00000110: 9ab3 f7bd ab23 a23d 2c59 0c3e 2287 34be
00000120: d638 d43d 9289 64be c96d 88bd 32e6 c83e
00000130: ee6f 8bbe 2ff6 23bd cd0a 4d3e 4682 8dbe
00000140: 6841 0c3e 7fb3 2dbd d6e9 f63d 8858 ce3d
00000150: 6dfa ecbd 2f1e a13d ff47 3ebd 7695 3bbe
00000160: ecd5 063e 4323 fc3c 9d35 8c3d 3f2c ba3c
00000170: c301 e03a ce1e 9bbd 4a14 823d 5a33 d83d
00000180: 1a4d 1abe d9c9 94bd 7df4 853d d93a 213e
00000190: 685c f33c 3f19 533e e8a0 51bc f77a ddbd
000001a0: 23f2 0b3d ee63 71bd 666f 12be 567a e2bd
000001b0: 4ac4 a1be 8000 dd3e bc55 a6bd ebe8 b6be
000001c0: a66a 16be 178d 023f b9d6 25be b144 1ebf
000001d0: 526f 483f a412 2cbe b6e7 933e 84dc ffbe
000001e0: 72da 17be 819e 033f 4702 2fbe 4636 2bbf
000001f0: 482a 503f 79b3 2cbe f84a 8b3d 95be dc3d
00000200: 11bc 953d 0c3a 64bc 814a 5a3d 444e ff3d
00000210: f5b8 3cbe 6fae 8dbe c01a c83c 4de9 bf3d
00000220: 6322 983d 1250 89bd a057 ec3c e1e6 80bd
00000230: 6f4c 70be 039c 603e 379d 8d3d 8ec8 43be
00000240: baac 823e 2abd 8d3e e4c4 ad3e c440 243e
00000250: 1992 163e 4984 463e 136f cdbe da95 d9be
00000260: 52e2 d2be 008b 4bbe 070c 8bbd 8f43 95bd
00000270: 3d43 ebbd 6ade acbd a8a8 28be 011d f6bd
00000280: 4b94 acbd 79fc 0dbe 53a5 e9bd ac63 33be
00000290: 710c 86be c053 0fbc d10b e43d b202 e7bd
000002a0: fd9b 343e 008b bf3d 2e6d fcbd 168c fb3d
000002b0: 11ea 6e3e 489a b0bd 099e ebbe b17f abbe
000002c0: fe17 4dbe ff2e 153e bfea 993d 306e 003e
000002d0: 6be5 c8bd 30bd 80bd 7adc 3dbd e5ef c3bd
000002e0: 008c 0dbf 9768 8cbe 9c04 653e 7069 d03e
000002f0: 9655 423d 7bbb 3bbe f3d5 e63d 633b 2b3d
00000300: 30b6 0cbe c3ee 3ebd e56e 0dbe 00e3 543d
00000310: 8d42 3e3e 941c d03d 8717 6bbe e897 88be
00000320: 3379 df3e ed34 973d 7c80 83be 4ede af3d
00000330: 253e 5f3e c543 13bd bd44 97be 8903 723e
00000340: fdf7 843e 700d ba3d d633 ebbd 0931 13be
00000350: 6094 64be 2059 a2bd 0997 d9bd 3502 45be
00000360: dd5a ae3d a8dc 7d3d 1924 893d b528 a53d
00000370: 42ed 273e 34a1 ad3d 515d 1a3d 04a8 153d
00000380: 31fc 38bc 5947 afbe 0db1 e0be 1823 e8be
00000390: b7f3 3cbb 90b5 c03d c8a8 d63d 285e 943e
000003a0: 41bc e43e ed51 d23e 779d 793d 7b98 b73c
000003b0: b59a df3d 681d e4bd fcf2 c8bd 4865 2abe
000003c0: 1b29 a2bd c3e3 763d 75e0 6d3d 6ff4 debe
000003d0: 2656 e6be 66d1 24bf e263 5cbd 9b13 533d
000003e0: bf70 d1bd 2d71 b93e 0fa0 033f d1d1 df3e
000003f0: 33d6 803d cd99 933d 72d3 00bf 3010 9fbe

conv2.bias f4 [16]
-0.00010903382 -1.9231955e-05 -0.0008217236 0.0010771619 -0.00047601885 0.00064212235 -0.0006182888 7.593603e-06
0.0003777622 -0.0010124267 0.00050587056 -0.00084457145 0.00015388758 -0.00021862033 0.000632448 0.0010727819
00000000: 16a9 e4b8 4f54 a1b7 f068 57ba 8e2f 8d3a
00000010: 2b92 f9b9 1a54 283a a914 22ba 8ecc fe36
00000020: 620e c639 67b3 84ba 669c 043a 3b66 5dba
00000030: e25c 2139 733d 65b9 deca 253a 969c 8c3a

bn2.weight f4 [16]
1.41192 1.0998585 1.2798772 1.0360788 1.2306625 0.73921305 1.069869 0.72269654
0.7724997 1.244796 1.1013168 0.87093705 1.220535 1.1155455 0.85763294 1.2953787
00000000: cbb9 b43f 2ac8 8c3f 04d3 a33f 3b9e 843f
00000010: 5986 9d3f 113d 3d3f 78f1 883f a402 393f
00000020: 8ac2 453f 7a55 9f3f f3f7 8c3f bbf5 5e3f
00000030: 7e3a 9c3f 32ca 8e3f d58d 5b3f f8ce a53f

bn2.bias f4 [16]
-0.022114642 -0.1364196 -0.053399604 -0.15289204 -0.19882008 0.7750897 -0.09000269 0.122211434
0.88177013 0.022375964 0.04237347 0.39240146 -0.03102673 -0.082709335 0.053758096 0.93713087
00000000: c429 b5bc 94b1 0bbe 8bb9 5abd bb8f 1cbe
00000010: 7e97 4bbe 476c 463f 5553 b8bd fd49 fa3d
00000020: b0bb 613f cc4d b73c ce8f 2d3d d8e8 c83e
00000030: c52b febc 8363 a9bd 7331 5c3d cfe7 6f3f

bn2.running_mean f4 [16]
-0.43075415 -1.8458679 -1.359216 -0.9896039 -1.6966627 -0.2893544 -1.7505507 1.5697733
-0.6178866 1.1841409 -2.4488516 -0.29663655 -0.5214141 -0.16544582 -1.4353157 -0.98922586
00000000: cf8b dcbe 6645 ecbf cafa adbf ae56 7dbf
00000010: 3e2c d9bf 4326 94be 0c12 e0bf 55ee c83f
00000020: d12d 1ebf ee91 973f fcb9 1cc0 bfe0 97be
00000030: 657b 05bf a16a 29be 6db8 b7bf e83d 7dbf

bn2.running_var f4 [16]
28.446898 2.2082095 14.671277 5.4726057 8.49452 2.4473195 5.610565 3.8424094
3.6349525 13.161921 4.8810654 4.308874 10.241466 8.817675 2.4936228 7.101018
00000000: 3f93 e341 4e53 0d40 8dbd 6a41 961f af40
00000010: 8ee9 0741 e2a0 1c40 c089 b340 09ea 7540
00000020: 10a3 6840 3a97 5241 b031 9c40 4ce2 8940
00000030: 0bdd 2341 3215 0d41 8497 1f40 8a3b e340

conv3.weight f4 [32, 16, 3, 3]
0.12759365 0.30460703 0.19497508 0.18278801 0.7198101 0.5111515 0.12593572 0.64320916
0.3873678 -0.11206145 -0.102997325 -0.10672877 -0.0861859 -0.12737034 -0.18575561 -0.20736723
-0.1401333 -0.0787347 -0.06809894 0.011148349 0.015875999 0.05648571 0.29848817 0.19906178
0.09050039 0.29799536 0.28561747 -0.15356109 -0.025791498 -0.14389338 -0.20008747 -0.15745337
-0.08770657 -0.23594369 -0.14656933 -0.0387151 -0.078395925 -0.14722341 -0.12877631 -0.09644338
-0.062592775 -0.059179585 0.10808945 0.041440435 0.02973563 0.06575586 0.12872626 -0.27374655
0.11587226 0.26999158 -0.20975854 0.25583375 0.3710288 -0.122145824 -0.06184422 -0.046215624
-0.09679884 -0.011124638 -0.06073602 -0.09839128 0.10935875 0.016727418 -0.17575282 0.16093488
0.16699994 0.20516059 -0.053478714 -0.073412195 -0.07913953 -0.29780787 -0.18508033 -0.24915856
-0.1350894 -0.400455 0.3984952 -0.025466435 -0.3498078 0.37986553 -0.10646151 -0.39025196
0.3075413 0.028152714 0.07989687 -0.0633299 0.010987034 -0.088925675 -0.06356826 -0.0069097676
-0.20585349 -0.29436854 0.04366871 -0.07727057 0.008399715 0.11899256 -0.10259225 0.033189382
0.016573409 -0.111154675 -0.07749542 0.07417408 0.044185463 0.11531235 0.06199798 0.106616996
0.083501436 0.051861983 0.0066804113 0.0012151233 -0.0813918 -0.019127175 0.036254574 -0.24374402
-0.15654728 -0.021509012 -0.18514268 -0.112315446 -0.028158931 -0.2135155 -0.3241353 -0.01034248
-0.10345156 -0.061625563 0.15881303 -0.0045565767 0.04717722 0.44931328 -0.23217283 -0.1341189
0.099082686 -0.12881063 -0.030379921 0.24053347 -0.08813422 0.1492622 0.28271082 0.21373343
-0.10329836 -0.19789585 0.3077716 -0.23593253 -0.31384557 0.19856831 -0.128754 -0.36946613
0.096641615 0.1936961 0.09118876 0.11092509 0.14828716 0.13617863 0.11830443 0.09200875
-0.0632198 -0.07686186 -0.08607939 -0.29874685 -0.007405539 -0.07985078 -0.31361458 0.08485083
-0.05731952 -0.26221952 0.18548627 0.021305649 -0.14429004 0.16906486 -0.09034158 -0.15584652
0.03404021 -0.11616088 -0.04821943 -0.34772053 -0.2996178 -0.37155738 -0.4671961 -0.45943213
-0.4774507 -0.39248317 -0.3956164 -0.40502918 0.10168701 0.05295606 -0.014181308 0.04401545
-0.14696129 -0.25986245 -0.116470344 -0.24789435 -0.2759094 -0.20030323 -0.17631297 -0.19068028
-0.035752337 -0.085738875 -0.030464932 0.16392173 0.116701566 0.03265347 0.06471277 -0.07373732
-0.2617781 -0.17367572 -0.31197256 -0.4012991 -0.5575911 -0.5788947 -0.56948346 -0.074269295
-0.07675722 0.08784684 -0.036055204 -0.059676286 0.12867138 0.089923754 0.029064663 0.11200685
-0.12711671 -0.009684284 -0.0115803145 -0.15989943 -0.097130015 -0.09188338 0.019002132 0.015736092
-0.030331794 -0.040532656 0.14735295 0.0896385 -0.16582681 0.024244739 0.086119995 -0.15505286
0.11134104 0.21593447 0.14128721 0.1758478 -0.10936831 0.24804604 0.11416343 -0.005455804
0.11482882 0.0978034 0.051219784 0.18153243 0.018427052 0.010856175 0.0396175 -0.1053246
-0.007852675 0.021701422 -0.011987934 0.015538759 -0.092662185 -0.18578386 -0.22951084 -0.07865715
00000000: e9a7 023e 74f5 9b3e 8ca7 473e c82c 3b3e
00000010: 7a45 383f d3da 023f 4bf5 003e 5ba9 243f
00000020: 1355 c63e 7980 e5bd 43f0 d2bd 9d94 dabd
00000030: 3c82 b0bd 5f6d 02be b836 3ebe 1358 54be
00000040: 1b7f 0fbe a93f a1bd 7577 8bbd 91a7 363c
00000050: 620e 823c 8f5d 673d 71d3 983e dad6 4b3e
00000060: 4558 b93d d992 983e 743c 923e 1e3f 1dbe
00000070: b148 d3bc c958 13be bbe3 4cbe 753b 21be
00000080: 819f b3bd 399b 71be 4516 16be ba93 1ebd
00000090: 0b8e a0bd bcc1 16be f0dd 03be 1b84 c5bd
000000a0: a430 80bd 4b66 72bd 005e dd3d 72bd 293d
000000b0: 2398 f33c 02ab 863d d1d0 033e 8228 8cbe
000000c0: 6f4e ed3d 563c 8a3e f1ca 56be a4fc 823e
000000d0: 7df7 bd3e 9727 fabd 5d50 7dbd 984c 3dbd
000000e0: 783e c6bd 1d44 36bc 55c6 78bd 5e81 c9bd
000000f0: 7bf7 df3d f007 893c 8cf8 33be 1dcc 243e
00000100: 0802 2b3e 9e15 523e 7f0c 5bbd 2259 96bd
00000110: e813 a2bd 467a 98be b385 3dbe 6c23 7fbe
00000120: e054 0abe 7008 cdbe 9007 cc3e fc9e d0bc
00000130: 021a b3be bc7d c23e 7e08 dabd 1bcf c7be
00000140: 0e76 9d3e 85a0 e63c f8a0 a33d 1bb3 81bd
00000150: f602 343c aa1e b6bd 1330 82bd 556b e2bb
00000160: 42cb 52be 79b7 96be f6dd 323d 0840 9ebd
00000170: f59e 093c 5fb2 f33d e31b d2bd 97f1 073d
00000180: f5c4 873c 10a5 e3bd ebb5 9ebd 94e8 973d
00000190: d1fb 343d e228 ec3d 98f1 7d3d 035a da3d
000001a0: cd02 ab3d 3b6d 543d 5ae7 da3b c644 9f3a
000001b0: beb0 a6bd 98b0 9cbc ad7f 143d 0898 79be
000001c0: ee4d 20be ab33 b0bc 0b96 3dbe a405 e6bd
000001d0: 8fad e6bc cfa3 5abe 10f5 a5be 8173 29bc
000001e0: 69de d3bd 166b 7cbd e29f 223e 564f 95bb
000001f0: e73c 413d 640c e63e b7be 6dbe 7756 09be
00000200: ddeb ca3d efe6 03be 50df f8bc 684e 763e
00000210: b77f b4bd 31d8 183e 79bf 903e f0dc 5a3e
00000220: 178e d3bd 36a5 4abe 3d94 9d3e 4c98 71be
00000230: 5eb0 a0be 7e55 4b3e 17d8 03be aa2a bdbe
00000240: 0aec c53d 4558 463e 2cc1 ba3d b22c e33d
00000250: 97d8 173e 6972 0b3e 9849 f23d 156f bc3d
00000260: 6279 81bd c069 9dbd 644a b0bd 59f5 98be
00000270: 2aaa f2bb ce88 a3bd 1792 a0be 46c6 ad3d
00000280: dfc7 6abd a341 86be 1df0 3d3e 2f89 ae3c
00000290: c5c0 13be 571f 2d3e 0205 b9bd 3b96 1fbe
000002a0: bf6d 0b3d c1e5 edbd bd81 45bd 6d08 b2be
000002b0: 8167 99be c53c bebe 5434 efbe b03a ebbe
000002c0: 6b74 f4be 8ef3 c8be 3c8e cabe fc5f cfbe
000002d0: 4741 d03d 74e8 583d b858 68bc 8b49 343d
000002e0: 057d 16be b10c 85be 0188 eebd 04d8 7dbe
000002f0: ff43 8dbe 4a1c 4dbe 638b 34be b141 43be
00000300: 0b71 12bd dd97 afbd 9891 f9bc 19db 273e
00000310: 3b01 ef3d a5bf 053d 2188 843d 9803 97bd
00000320: c707 86be 0cd8 31be deba 9fbe 1377 cdbe
00000330: 4abe 0ebf 7132 14bf abc9 11bf 801a 98bd
00000340: e432 9dbd 0be9 b33d 9fae 13bd 1f6f 74bd
00000350: 6ec2 033e f229 b83d 0419 ee3c d963 e53d
00000360: e22a 02be d5aa 1ebc 5cbb 3dbc adbc 23be
00000370: 1aec c6bd 5b2d bcbd 5caa 9b3c fae8 803c
00000380: 627a f8bc 9205 26bd b1e3 163e 6494 b73d
00000390: 81ce 29be e79c c63c ae5f b03d 2dc6 1ebe
000003a0: c506 e43d ed1d 5d3e 98ad 103e 7211 343e
000003b0: 7efc dfbd c8ff 7d3e 84ce e93d 9ac6 b2bb
000003c0: 5f2b eb3d 264d c83d d6cb 513d a3e3 393e
000003d0: 54f4 963c 19de 313c f645 223d 6db4 d7bd
000003e0: 82a8 00bc 2ec7 b13c 0a69 44bc 4796 7e3c
000003f0: acc5 bdbd 203e 3ebe e404 6bbe 0017 a1bd

conv3.bias f4 [32]
0.00094085047 -0.00071320415 0.0009130542 -0.00011200131 0.00021676277 -0.0010823405 0.0010002955 -1.24595435e-05
-0.0005528307 -0.0007870617 0.00020078942 -0.0010420082 0.0008182789 0.0006044273 0.00095655274 0.0009816941
-0.00065025897 -0.0002988873 0.0006754745 0.0007062128 0.0010805153 -0.00045575423 0.00015864063 -3.7453265e-05
0.00063549954 -0.0005406712 0.0009977956 -0.00032663654 0.000547789 0.00083235983 -0.0011010225 0.0002055038
00000000: 68a3 763a 52f6 3aba 085a 6f3a 3fe2 eab8
00000010: d04a 6339 52dd 8dba 591c 833a 5509 51b7
00000020: d7eb 10ba d152 4eba 008b 5239 fe93 88ba
00000030: c481 563a 6e72 1e3a 2bc1 7a3a 30ac 803a
00000040: 2476 2aba f9b3 9cb9 5412 313a 2421 393a
00000050: 14a0 8d3a 4cf2 eeb9 c558 2639 2317 1db8
00000060: a797 263a d4bb 0dba 77c8 823a 6a40 abb9
00000070: 7f99 0f3a b932 5a3a 2f50 90ba 827c 5739

bn3.weight f4 [32]
0.75458676 0.9585468 0.7989025 0.83739996 1.1262153 0.9359134 0.94514704 0.5998752
1.0315009 1.0042479 0.7129132 0.6702162 0.8806143 0.94365805 0.87310195 0.81561697
0.70552945 0.970509 1.5463432 0.93505687 0.9041322 1.0339057 1.1853489 0.75069606
0.80180097 0.8433455 0.69922113 0.966135 1.1931968 1.3465725 0.726511 0.848898
00000000: 992c 413f 5363 753f e084 4c3f d85f 563f
00000010: d327 903f 0598 6f3f 28f5 713f 6c91 193f
00000020: 3908 843f 328b 803f 7b81 363f 4a93 2b3f
00000030: f06f 613f 9393 713f 9c83 5f3f 46cc 503f
00000040: 949d 343f 4773 783f 93ee c53f e35f 6f3f
00000050: 3575 673f 0657 843f 83b9 973f 9e2d 403f
00000060: d442 4d3f 7ee5 573f 2800 333f a054 773f
00000070: acba 983f 7d5c ac3f a0fc 393f 6151 593f

bn3.bias f4 [32]
0.270575 0.25934646 -0.19267672 0.5057506 -0.1821993 -0.2226827 -0.28403825 0.23744048
-0.16239072 -0.32391375 0.1773692 0.15424338 -0.13800512 -0.0860138 0.0466986 0.06665524
-0.13929752 0.09143706 -0.24262412 -0.08730875 -0.0853589 -0.34641582 -0.15168291 0.14671679
-0.37538978 -0.032706473 -0.078088544 0.49758345 0.057042006 -0.28963107 0.17943354 0.2513478
00000000: ce88 8a3e 0fc9 843e 0c4d 45be df78 013f
00000010: 7492 3abe ef06 64be 766d 91be 9923 733e
00000020: c149 26be 06d8 a5be 46a0 353e faf1 1d3e
00000030: 3751 0dbe 0128 b0bd 0847 3f3d 8b82 883d
00000040: 02a4 0ebe 5a43 bb3d 7572 78be eece b2bd
00000050: a6d0 aebd 6a5d b1be c452 1bbe ed3c 163e
00000060: 1733 c0be 39f7 05bd e3ec 9fbd 42c3 fe3e
00000070: e1a4 693d 864a 94be 6dbd 373e a9b0 803e

bn3.running_mean f4 [32]
-0.15599436 -5.00591 1.7958772 -1.0271089 -0.18209554 0.09115308 1.582533 0.81740093
-0.96785116 -1.5650322 -2.4343202 -0.8005322 -1.0239135 -2.5240383 -0.98666054 -0.88468915
3.9523375 -0.24973412 -4.0576982 0.29845878 -1.6180153 0.13518324 -0.64707583 -0.5076146
1.7078291 -0.014820336 -1.7538089 -0.31320283 -3.342927 -0.7600373 4.203084 -0.45840117
00000000: fcbc 1fbe 6a30 a0c0 4edf e53f 4e78 83bf
00000010: 4177 3abe 77ae ba3d 7190 ca3f 3041 513f
00000020: 18c5 77bf fa52 c8bf e7cb 1bc0 aeef 4cbf
00000030: 990f 83bf d889 21c0 c995 7cbf fd7a 62bf
00000040: 19f3 7c40 4dba 7fbe aad8 81c0 97cf 983e
00000050: 201b cfbf 7a6d 0a3e c3a6 25bf 08f3 01bf
00000060: 259a da3f ffd0 72bc cf7c e0bf 1f5c a0be
00000070: 84f2 55c0 ce91 42bf aa7f 8640 8fb3 eabe

bn3.running_var f4 [32]
3.665935 5.144252 3.073682 5.4970827 11.753288 4.0742974 3.0721169 4.173897
4.7013545 3.5816998 4.32459 2.245338 4.51095 4.5176544 3.7018476 4.274133
1.6692995 2.962814 10.924867 2.6700377 5.424572 3.1273897 13.428604 3.9114215
2.6858327 4.7360687 2.001977 6.8071566 6.6302633 7.357293 3.3037765 3.4132097
00000000: ae9e 6a40 b69d a440 35b7 4440 1ae8 af40
00000010: 780d 3c41 a560 8240 909d 4440 9090 8540
00000020: 7f71 9640 923a 6540 0b63 8a40 9eb3 0f40
00000030: b459 9040 a090 9040 12eb 6c40 b3c5 8840
00000040: 9bab d53f bf9e 3d40 41cc 2e41 e6e1 2a40
00000050: 1896 ad40 2727 4840 90db 5641 bb54 7a40
00000060: afe4 2b40 e08d 9740 6420 0040 3ad4 d940
00000070: 1e2b d440 f26e eb40 1371 5340 0772 5a40

conv4.weight f4 [32, 32, 3, 3]
0.10786333 0.18764544 -0.08119734 0.10832407 0.13920109 -0.2965581 0.21027845 0.076655924
-0.35472545 -0.27678525 0.026557507 0.5735908 -0.26918975 -0.007856506 0.33803052 -0.42589584
-0.0025743395 0.55720925 -0.07966176 0.026382444 0.119137794 -0.19344987 -0.14846021 0.26110452
-0.17918378 0.030629393 0.19934452 -0.17773981 -0.13759089 0.18010306 -0.2777716 -0.13892218
0.32072887 -0.29879212 -0.1477669 0.6513824 -0.03213604 -0.0815542 0.06094518 -0.13991503
-0.13582242 0.2645915 -0.10584122 0.057660226 0.28017044 -0.22621396 -0.025476292 -0.04529806
-0.22039533 0.04592838 0.02386481 0.21789391 0.3590743 -0.13246958 -0.03389115 0.110486776
0.09713695 -0.30825636 0.15937507 0.40123683 -0.40409872 -0.104286045 0.31141028 -0.11722852
-0.015686655 0.27231058 -0.07839517 -0.047060788 0.37394848 -0.092073984 -0.12466122 0.35054973
0.034570687 0.0025745053 -0.25301763 0.040864713 0.03438246 -0.099645294 0.15579173 -0.12691177
-0.37242565 0.052815434 0.1177201 -0.023310551 0.025587417 -0.0013666516 0.0838209 -0.058570925
-0.1026562 0.046553593 0.018903045 -0.025692865 -0.044461284 0.01058512 -0.09551471 0.16164315
-0.32502094 0.029107641 0.13037568 0.078565255 -0.0936542 -0.23743509 -0.013605427 -0.0123582175
-0.10642114 -0.024400255 0.1485545 -0.034448992 0.11192825 0.047194377 -0.27675414 -0.0088154925
0.047501855 -0.32012695 0.0071099247 0.031462003 -0.32799977 0.07061234 0.09392995 -0.07733304
0.021654932 0.1839591 -0.19387119 0.21197975 0.10684537 -0.30119133 0.09030986 -0.11476457
-0.04918345 -0.16027443 -0.073294386 0.19900537 -0.16706736 -0.09680013 0.20792252 -0.19851735
-0.18737501 -0.33088967 0.05309221 0.011814957 -0.07060738 0.041534267 0.15841675 -0.02420395
0.07588917 0.04517998 -0.04432055 0.047292914 0.060914155 -0.06644671 0.014070259 0.06973137
-0.031576093 0.11046412 -0.046927106 0.012600223 0.090202495 -0.10092197 0.11646701 0.019948686
-0.030056462 0.1279729 -0.27845445 -0.24708246 0.160602 -0.4020412 -0.23149993 0.39785096
-0.3392263 -0.24932244 0.57104266 0.05619205 0.1018334 -0.115111366 -0.06460795 -0.12517764
-0.040224135 -0.04401235 -0.055349067 -0.006818817 0.06438159 -0.053293053 -0.19859663 -0.07122935
-0.028550165 -0.24225882 -0.05907345 0.047079273 -0.11957616 0.08126752 0.11204656 0.19128314
-0.13186494 -0.049389318 0.1415202 -0.08111794 -0.05090897 0.30063933 -0.14427489 -0.07040792
0.14339557 -0.1753449 -0.06348145 0.31212407 0.012443056 -0.03504699 0.2760211 0.10527371
0.044884562 -0.18238682 -0.06963449 0.053695414 0.08295232 -0.039911352 0.13209268 -0.019637423
0.2189037 0.11181203 -0.06357279 0.027232837 -0.043739215 0.05014745 -0.13111323 -0.07809841
-0.026780415 0.13659707 0.053230494 -0.08036886 0.042084605 -0.15570793 -0.20685299 0.26498562
0.007945527 -0.13063455 0.11054381 0.17707941 -0.08982176 -0.06342191 0.23304984 -0.058449674
-0.19362143 0.20982538 -0.10603753 -0.20694594 0.0036055772 -0.1278395 0.086004674 0.07609204
-0.077561654 0.05956048 -0.049819022 0.03355741 -0.35498267 -0.16443348 0.25784388 0.07501648
00000000: 73e7 dc3d 2026 403e ca4a a6bd 03d9 dd3d
00000010: bb8a 0e3e 77d6 97be 3c53 573e c8fd 9c3d
00000020: 939e b5be ccb6 8dbe 218f d93c d9d6 123f
00000030: 3dd3 89be 93b8 00bc 5612 ad3e 050f dabe
00000040: 40b6 28bb 44a5 0e3f b425 a3bd ff1f d83c
00000050: 84fe f33d b917 46be f405 18be 7eaf 853e
00000060: f47b 37be 7eea fa3c f820 4c3e 6d01 36be
00000070: a0e4 0cbe f06c 383e 1438 8ebe 9e41 0ebe
00000080: 9336 a43e 48fb 98be 3550 17be ffc0 263f
00000090: 15a1 03bd e305 a7bd a7a1 793d e345 0fbe
000000a0: 0815 0bbe 8978 873e 48c3 d8bd 212d 6c3d
000000b0: 8072 8f3e a2a4 67be a8b3 d0bc 758a 39bd
000000c0: 50af 61be 661f 3c3d 2280 c33c 951f 5f3e
000000d0: 96d8 b73e 1ba6 07be 72d1 0abd e446 e23d
000000e0: bdef c63d c7d3 9dbe 3833 233e ea6e cd3e
000000f0: 07e6 cebe ec93 d5bd 2b71 9f3e 8215 f0bd
00000100: 4d81 80bc 4b6c 8b3e a68d a0bd d0c2 40bd
00000110: 2d76 bf3e 4991 bcbd 624e ffbd 417b b33e
00000120: fe99 0d3d 08b9 283b 878b 81be c261 273d
00000130: 9fd4 0c3d d512 ccbd de87 1f3e 29f5 01be
00000140: 93ae bebe ff54 583d 3c17 f13d c5f5 bebc
00000150: b49c d13c 3821 b3ba 4baa ab3d 11e8 6fbd
00000160: 6a3d d2bd fbae 3e3d 8fda 9a3c d879 d2bc
00000170: 091d 36bd 366d 2d3c 379d c3bd c885 253e
00000180: 2569 a6be 2673 ee3c 3481 053e d2e6 a03d
00000190: c6cd bfbd 2f22 73be 4ce9 5ebc 1f7a 4abc
000001a0: 54f3 d9bd 0be3 c7bc ac1e 183e 631a 0dbd
000001b0: a33a e53d e44e 413d b8b2 8dbe db6e 10bc
000001c0: 4e91 423d aee7 a3be 5ffa e83b 4dde 003d
000001d0: 96ef a7be 349d 903d 585e c03d c960 9ebd
000001e0: af65 b13c c65f 3c3e 2b86 46be 3811 593e
000001f0: bfd1 da3d c035 9abe 60f4 b83d b009 ebbd
00000200: 9674 49bd fb1e 24be 5e1b 96bd 10c8 4b3e
00000210: b513 2bbe 263f c6bd a4e9 543e 2248 4bbe
00000220: 3cdf 3fbe 5f6a a9be 3877 593d 8593 413c
00000230: 9a9a 90bd d61f 2a3d 0038 223e 5d47 c6bc
00000240: c86b 9b3d a50e 393d 7789 35bd 37b6 413d
00000250: 1f81 793d 3615 88bd f286 663c 52cf 8e3d
00000260: ef55 01bd 033b e23d a336 40bd 2a71 4e3c
00000270: 16bc b83d 2eb0 cebd 4186 ee3d 6d6b a33c
00000280: f838 f6bc 540b 033e 9591 8ebe 2f03 7dbe
00000290: da74 243e 58d8 cdbe 510e 6dbe 1fb3 cb3e
000002a0: 12af adbe 624e 7fbe da2f 123f a329 663d
000002b0: 088e d03d 82bf ebbd 2c51 84bd 912e 00be
000002c0: 10c2 24bd 4b46 34bd b4b5 62bd 6270 dfbb
000002d0: 7fda 833d d149 5abd ea5c 4bbe b2e0 91bd
000002e0: 09e2 e9bc b212 78be 00f7 71bd 32d6 403d
000002f0: 59e4 f4bd 966f a63d ab78 e53d badf 433e
00000300: 9a07 07be 744c 4abd acea 103e 2a21 a6bd
00000310: ed85 50bd 66ed 993e ccbc 13be 0732 90bd
00000320: 4ad6 123e 9d8d 33be 9002 82bd bace 9f3e
00000330: f6dd 4b3c 6f8d 0fbd a352 8d3e be99 d73d
00000340: e0d8 373d 9cc3 3abe 879c 8ebd b9ef 5b3d
00000350: e8e2 a93d 167a 23bd 4e43 073e a9de a0bc
00000360: 4b28 603e b5fd e43d 7332 82bd 6617 df3c
00000370: e427 33bd 6a67 4d3d 8c42 06be 0ff2 9fbd
00000380: 9a62 dbbc 1ae0 0b3e 3808 5a3d 6e98 a4bd
00000390: e860 2c3d e671 1fbe 45d1 53be 32ac 873e
000003a0: f52d 023c 10c5 05be cb64 e23d 4e54 353e
000003b0: 79f4 b7bd 59e3 81bd 9ea4 6e3e ed68 6fbd
000003c0: b244 46be 77dc 563e 342a d9bd a3e9 53be
000003d0: 8c4b 6c3b 5ce8 02be 3823 b03d 25d6 9b3d
000003e0: a5d8 9ebd b1f5 733d 080f 4cbd 7f73 093d
000003f0: 4ac0 b5be 4061 28be 1d04 843e 3ea2 993d

conv4.bias f4 [32]
0.00072970375 0.000615786 0.00020658784 0.00066371186 0.00014570373 -0.0003397138 -0.00052364403 0.00072886737
-0.00013745937 0.00016662825 -0.00016430001 0.0004614338 4.6681525e-05 -0.000101690035 -0.00038459012 0.0007066706
0.0007571222 0.00041378135 -3.6917987e-05 0.00052906334 0.0006721146 -0.00023266263 -0.0005918601 -0.00070913165
-0.00032707356 -0.0005192562 -0.00026766237 -0.00016679992 -0.0005790714 0.0004894323 0.00068211986 0.00068275625
00000000: 9749 3f3a b36c 213a 809f 5839 f3fc 2d3a
00000010: 0cc8 1839 9d1b b2b9 2845 09ba 7611 3f3a
00000020: f822 10b9 eeb8 2e39 f347 2cb9 99ec f139
00000030: e8cb 4338 6c42 d5b8 d0a2 c9b9 dc3f 393a
00000040: 9c79 463a cbf0 d839 63d8 1ab8 d7b0 0a3a
00000050: d930 303a e6f6 73b9 0f27 1bba 05e5 39ba
00000060: 127b abb9 b21e 08ba 0955 8cb9 03e7 2eb9
00000070: d3cc 17ba 3f4d 003a 4ad0 323a fffa 323a

bn4.weight f4 [32]
1.1837133 1.0117847 0.75262994 1.0450299 1.0826633 0.7840851 1.0681081 0.79680485
1.0604428 0.86209077 0.78493047 0.9472405 0.8498438 1.0482197 1.0862924 0.67221874
0.8102994 0.77673733 0.96713656 1.0688196 0.94050145 0.9347619 0.54197246 1.077423
1.0121726 0.7275971 1.0377473 1.0103014 1.1625929 0.85853845 1.1064109 1.0783834
00000000: eb83 973f 2982 813f 5bac 403f 8ac3 853f
00000010: b694 8a3f cdb9 483f c4b7 883f 67fb 4b3f
00000020: 97bc 873f fbb1 5c3f 34f1 483f 5a7e 723f
00000030: 5d8f 593f 102c 863f a10b 8b3f 8716 2c3f
00000040: c86f 4f3f 42d8 463f 4396 773f 15cf 883f
00000050: b4c4 703f 8e4c 6f3f b5be 0a3f ffe8 893f
00000060: df8e 813f ce43 3a3f e7d4 843f 8e51 813f
00000070: d8cf 943f 2dc9 5b3f df9e 8d3f 7808 8a3f

bn4.bias f4 [32]
-0.2978628 -0.29981235 0.16765425 -0.24841303 -0.51504016 0.062328808 -0.46952492 0.05212271
-0.5149227 0.16280232 0.20352952 0.15285417 0.34254974 -0.35887623 -0.22403902 0.3739563
0.002387894 0.14315625 -0.37060016 -0.16996169 -0.030209882 0.30700138 0.3787619 -0.46390295
-0.24970464 0.44802085 -0.33434302 -0.17618419 -0.34137815 -0.022103677 -0.70351964 -0.35393727
00000000: 7981 98be 0181 99be 8ead 2b3e fc5f 7ebe
00000010: acd9 03bf 7e4c 7f3d 9265 f0be 9f7e 553d
00000020: f9d1 03bf a7b5 263e 0b6a 503e ce85 1c3e
00000030: ae62 af3e a0be b7be 7c6a 65be 3377 bf3e
00000040: 377e 1c3b 8d97 123e 4ebf bdbe 700a 2ebe
00000050: b77a f7bc 492f 9d3e 14ed c13e b084 edbe
00000060: 93b2 7fbe fd62 e53e 022f abbe a169 34be
00000070: 1ec9 aebe c512 b5bc dd19 34bf 4437 b5be

bn4.running_mean f4 [32]
-0.79426646 -0.99831104 -0.89090025 -1.3325654 -0.30669263 -2.2633464 -1.9192009 -2.7044966
-0.7693495 -1.9603128 2.9528227 -2.984046 -2.1694374 -1.8649318 -2.2455442 -1.8778849
-3.2326498 0.05190391 -2.598579 -0.36770982 -0.38303655 2.1504757 0.06865497 -1.2460808
-0.51453876 0.49709237 -2.2781837 -2.9843 -4.72429 -0.020720202 0.1547772 -1.2667347
00000000: 0c55 4bbf 5091 7fbf 0a12 64bf 8191 aabf
00000010: d106 9dbe abda 10c0 60a8 f5bf 7916 2dc0
00000020: 17f4 44bf 88eb fabf 0cfb 3c40 9cfa 3ec0
00000030: 10d8 0ac0 16b6 eebf ffb6 0fc0 885e f0bf
00000040: bce3 4ec0 3299 543d 1e4f 26c0 7644 bcbe
00000050: 5e1d c4be 65a1 0940 fa9a 8c3d 937f 9fbf
00000060: d0b8 03bf e482 fe3e c3cd 11c0 c5fe 3ec0
00000070: 622d 97c0 6abd a9bc ea7d 1e3e 5d24 a2bf

bn4.running_var f4 [32]
4.839558 3.928289 4.1356754 3.645114 3.1225505 2.9055138 3.2500825 2.903917
2.9107182 4.333679 3.2663596 6.528284 4.411624 2.8911982 3.888666 3.4280298
4.0647407 3.8842878 2.676199 3.9260569 2.2970119 4.527473 3.519217 3.3610976
3.2558553 3.372539 3.0629778 3.7888384 4.8648586 4.2861543 3.4218342 3.274178
00000000: a9dd 9a40 1669 7b40 7457 8440 8c49 6940
00000010: ded7 4740 f0f3 3940 5a01 5040 c7d9 3940
00000020: 3549 3a40 80ad 8a40 090c 5140 b4e7 d040
00000030: 062c 8d40 6409 3940 e7df 7840 d764 5b40
00000040: 5b12 8240 2c98 7840 d846 2b40 8444 7b40
00000050: 3e02 1340 0fe1 9040 da3a 6140 391c 5740
00000060: ef5f 5040 aed7 5740 d407 4440 547c 7240
00000070: ecac 9b40 2d28 8940 55ff 5a40 228c 5140

conv5.weight f4 [32, 32, 3, 3]
0.22182937 -0.01514914 -0.17418905 -0.05418854 -0.124525495 -0.06832042 -0.14860795 -0.2265298
-0.21982487 -0.31431782 0.10390257 -0.015720215 -0.33926463 -0.22930849 -0.4374114 -0.10702018
0.06490044 -0.11037151 -0.044791535 -0.34507012 -0.4264288 0.1207771 -0.080206364 -0.2517719
-0.117938764 0.31196702 0.22645399 -0.030170664 0.1800814 0.042642936 -0.08303521 0.13865304
0.25301135 -0.21417724 0.18507399 0.3127372 0.07720642 0.23074742 -0.046356343 0.016367055
0.0025068438 -0.27663836 0.21594158 0.16827242 -0.06653229 -0.10373398 -0.047746263 0.011213865
0.09297021 -0.020718494 0.09724434 0.06531721 -0.01992934 -0.16055588 -0.044709116 0.24253596
0.07453031 -0.20890605 -0.079967305 -0.24635684 -0.15632576 -0.10267635 -0.2007478 0.27007008
-0.19143179 -0.21489623 0.15277526 -0.12797473 0.1478664 -0.0015832346 -0.05379201 -0.03149386
-0.13262433 -0.15585127 -0.06109661 -0.021438045 -0.0632662 0.04757074 -0.06507387 -0.24020544
-0.16499287 -0.07405962 -0.078499794 0.28210804 -0.13955036 -0.084591605 -0.07330021 -0.059465293
-0.07447027 -0.09572988 -0.18800513 -0.03075797 0.02737734 0.06038387 0.027489593 -0.030170528
-0.17618637 -0.06951455 -0.096526876 -0.5255771 0.011230667 0.1602098 -0.16143255 0.055264503
0.00018839116 -0.19997044 0.007155405 0.0043606968 0.22619694 0.13515218 -0.30589545 -0.07392596
0.036890317 -0.19514015 -0.20560023 -0.039211627 -0.06326281 -0.03458652 -0.024591278 0.10143458
-0.057819657 0.1528247 0.10597872 -0.15872964 -0.10494235 -0.17031026 -0.23961489 -0.12496317
-0.048166458 0.034592733 -0.042798962 -0.048047997 -0.10173368 -0.09077533 -0.09803267 -0.012267229
0.22232506 -0.11495477 -0.13624352 0.046869703 -0.18518105 -0.064375736 -0.124752685 -0.14960775
-0.06431606 0.02014636 -0.22864367 -0.19105871 -0.00077428215 -0.092155084 -0.24297623 -0.052459914
0.053865228 -0.12834534 -0.16354142 -0.021576049 0.1010734 -0.026995802 -0.07493604 0.08919674
-0.16138297 -0.24467221 0.195563 -0.08899849 0.05015743 -0.24879847 -0.388572 -0.13028568
-0.20486632 -0.19942224 0.011650191 -0.3059798 -0.11033364 0.02948527 -0.092010885 -0.027966531
0.029023064 -0.13086997 0.00060763373 -0.11646184 0.26006022 0.0574529 0.015583005 -0.0055814246
-0.030826228 -0.099223614 -0.2243143 0.08789709 -0.072381794 -0.08050043 0.023720002 0.09397919
-0.0368062 0.09427298 0.17206194 -0.12102911 -0.05426924 0.05716093 -0.0083658 0.034147
0.106610656 -0.0013400164 0.035073116 0.033844236 0.036705635 0.13883892 -0.004573498 0.08570925
-0.006159435 -0.22613691 -0.020896973 0.18138403 0.039365288 -0.34349656 -0.024154723 -0.069393694
-0.03412916 0.07242421 0.3439097 -0.18270151 -0.09347015 -0.038806967 -0.12013704 -0.10864583
-0.01730402 0.014307544 0.10990349 -0.10504125 0.008929905 0.16763791 0.04359217 -0.13296182
0.0013711101 -0.08921306 0.19832644 0.11561532 -0.03350366 -0.2764716 -0.064575374 -0.25745106
0.06782772 0.13021526 0.15640226 -0.18239783 -0.16026776 0.011550613 -0.046940945 0.07226705
0.16433333 -0.22174996 -0.15256456 -0.114544235 0.03590816 0.23991755 0.32299826 -0.4631655
00000000: 3d27 633e 1934 78bc 9d5e 32be cdf4 5dbd
00000010: 3907 ffbd 94eb 8bbd af2c 18be 6ef7 67be
00000020: c519 61be 44ee a0be dfca d43d aec7 80bc
00000030: 18b4 adbe d8cf 6abe 63f4 dfbe 652d dbbd
00000040: 86ea 843d 750a e2bd 5477 37bd 08ad b0be
00000050: e054 dabe fc59 f73d 3c43 a4bd 3fe8 80be
00000060: e189 f1bd 24ba 9f3e 8ee3 673e 7828 f7bc
00000070: 4267 383e 5caa 2e3d 5d0e aabd 10fb 0d3e
00000080: b48a 813e 4751 5bbe 0984 3d3e 171f a03e
00000090: 661e 9e3d 0d49 6c3e 26e0 3dbd 3414 863c
000000a0: dc49 243b 8ba3 8dbe ca1f 5d3e 9b4f 2c3e
000000b0: 1542 88bd 7b72 d4bd 9691 43bd 5cba 373c
000000c0: 2a67 be3d d5b9 a9bc 0a28 c73d 08c5 853d
000000d0: db42 a3bc c368 24be e820 37bd 595b 783e
000000e0: 59a3 983d 78eb 55be e6c5 a3bd f844 7cbe
000000f0: dc13 20be fa47 d2bd d590 4dbe a046 8a3e
00000100: b206 44be c20d 5cbe 1e71 1c3e cf0b 03be
00000110: 4a6a 173e 8a84 cfba 0355 5cbd b5ff 00bd
00000120: acce 07be 7a97 1fbe 7040 7abd d79e afbc
00000130: b691 81bd 89d9 423d 7345 85bd 6af8 75be
00000140: e4f3 28be 92ac 97bd 80c4 a0bd 7770 903e
00000150: 4ae6 0ebe 5d3e adbd 6c1e 96bd e191 73bd
00000160: de83 98bd 070e c4bd 6b84 40be 23f8 fbbc
00000170: 7146 e03c 1455 773d db31 e13c 2f28 f7bc
00000180: 336a 34be a55d 8ebd e2af c5bd 398c 06bf
00000190: d500 383c 0a0e 243e 934e 25be 085d 623d
000001a0: de8a 4539 0dc5 4cbe e377 ea3b 2de4 8e3b
000001b0: 2ca0 673e 5565 0a3e 549e 9cbe 7e66 97bd
000001c0: 4d1a 173d d2d2 47be de88 52be 5f9c 20bd
000001d0: ef8f 81bd 98aa 0dbd a673 c9bc efbc cf3d
000001e0: 4ed4 6cbd 147e 1c3e 5f0b d93d 068a 22be
000001f0: 04ec d6bd d065 2ebe 9b5d 75be b1ec ffbd
00000200: 314a 45bd 1cb1 0d3d f74d 2fbd facd 44bd
00000210: bf59 d0bd 6be8 b9bd 5ac5 c8bd 7dfc 48bc
00000220: 2ea9 633e 686d ebbd 6c83 0bbe 72fa 3f3d
00000230: 1aa0 3dbe 6dd7 83bd 567e ffbd c632 19be
00000240: 23b8 83bd fb09 a53c 9121 6abe e5a4 43be
00000250: 32f9 4aba cebb bcbd c3ce 78be 35e0 56bd
00000260: c9a1 5c3d f66c 03be 6777 27be 41c0 b0bc
00000270: 92ff ce3d 4d26 ddbc 1178 99bd c8ac b63d
00000280: 9441 25be 5a8b 7abe ab41 483e d744 b6bd
00000290: e171 4d3d 07c5 7ebe e9f2 c6be 9c69 05be
000002a0: 7ac8 51be 5835 4cbe 71e0 3e3c 62a9 9cbe
000002b0: 9af6 e1bd 188b f13c 3470 bcbd 111a e5bc
000002c0: c7c1 ed3c c702 06be 9c49 1f3a 8c83 eebd
000002d0: 9d26 853e bb53 6b3d dc4f 7f3c 62e4 b6bb
000002e0: 4987 fcbc c035 cbbd a6b2 65be 6403 b43d
000002f0: e83c 94bd 69dd a4bd 7350 c23c 2978 c03d
00000300: 19c2 16bd 3112 c13d 0131 303e 1cde f7bd
00000310: 6c49 5ebd 9421 6a3d b510 09bc badd 0b3d
00000320: b056 da3d 7da3 afba d4a8 0f3d 41a0 0a3d
00000330: a658 163d ca2b 0e3e 48dd 95bb 5588 af3d
00000340: 16d5 c9bb 6f90 67be 2130 abbc bcbc 393e
00000350: 7f3d 213d c8de afbe 20e0 c5bc 481e 8ebd
00000360: 05cb 0bbd 2553 943d ef14 b03e 1b16 3bbe
00000370: 476d bfbd 0ef4 1ebd 690a f6bd b481 debd
00000380: 29c1 8dbc 306a 6a3c 1515 e13d de1f d7bd
00000390: bc4e 123c 46a9 2b3e b48d 323d 2527 08be
000003a0: d2b6 b33a 56b5 b6bd 1616 4b3e bac7 ec3d
000003b0: 223b 09bd b08d 8dbe 1840 84bd a0d0 83be
000003c0: 42e9 8a3d 2657 053e ea27 203e 7fc6 3abe
000003d0: 3b1d 24be c83e 3d3c 2645 40bd bf00 943d
000003e0: ff46 283e 6c12 63be e239 1cbe 2b96 eabd
000003f0: 6f14 133d f2ac 753e 0760 a53e 0724 edbe

conv5.bias f4 [32]
-0.00037436688 0.0007188397 -0.00031676487 -0.00040961595 7.850584e-05 0.00051340286 0.0006276685 0.00040841207
-0.0004766789 -7.468773e-06 0.00061475876 0.00038608746 -0.00027434513 -0.00016672614 0.0005519888 0.0006944691
0.00060125283 0.00016978382 0.00044185834 0.00042190388 0.00036199007 -0.000271842 0.00031017917 -9.6836666e-05
0.0005235086 0.0005271514 0.00045952658 -0.00066506554 0.0007554749 -0.0007757684 7.480027e-05 -0.00038364076
00000000: ac46 c4b9 8470 3c3a 7613 a6b9 b9c1 d6b9
00000010: 80a3 a438 e295 063a 1f8a 243a 2420 d639
00000020: c2ea f9b9 469c fab6 c327 213a c86b ca39
00000030: fbd5 8fb9 35d3 2eb9 57b3 103a 080d 363a
00000040: 659d 1d3a ff07 3239 39a9 e739 fb32 dd39
00000050: 7cc9 bd39 0486 8eb9 8b9f a239 ca14 cbb8
00000060: 113c 093a 8830 0a3a 9dec f039 cb57 2eba
00000070: 100b 463a f05c 4bba 17de 9c38 6423 c9b9

bn5.weight f4 [32]
1.2050943 0.9782814 0.84658265 0.87271464 0.81097335 0.9297007 0.85128313 0.72427124
0.89698213 0.9775041 0.81094664 0.73438877 1.0092571 0.8508054 0.6783042 0.87682647
0.5375884 0.7159802 0.86791253 0.7928281 0.937416 0.9373596 0.7518066 0.82169235
0.7444873 0.8471578 0.65685004 0.82573247 0.81210256 1.2008992 0.6778476 0.71420646
00000000: 8840 9a3f a670 7a3f a4b9 583f 3a6a 5f3f
00000010: f39b 4f3f dd00 6e3f b1ed 593f d769 393f
00000020: 9fa0 653f b53d 7a3f 339a 4f3f e700 3c3f
00000030: 562f 813f 62ce 593f 58a5 2d3f b377 603f
00000040: 659f 093f 7a4a 373f 842f 5e3f c8f6 4a3f
00000050: 7ffa 6f3f ccf6 6f3f 6676 403f 6e5a 523f
00000060: b896 3e3f 55df 583f 5327 283f 3463 533f
00000070: f4e5 4f3f 11b7 993f 6c87 2d3f 3cd6 363f

bn5.bias f4 [32]
-0.60618174 0.26129517 0.42663985 0.04521492 0.21933174 -0.12195088 -0.06505365 0.5491943
-0.13413788 -0.15705355 0.37698582 0.29281634 -0.35762832 0.11965526 0.5357829 -0.04362111
0.829875 0.18725742 -0.14924034 0.3860525 -0.009542243 -0.04236794 0.33354342 0.21892984
0.2847483 -0.03841314 0.65820557 0.2338094 0.11179038 -0.71157503 0.30774426 0.379001
00000000: ba2e 1bbf 7bc8 853e 8a70 da3e 4833 393d
00000010: 8098 603e 62c1 f9bd d93a 85bd ff97 0c3f
00000020: 715b 09be a5d2 20be 4904 c13e 06ec 953e
00000030: 0f1b b7be d10d f53d 1129 093f 0dac 32bd
00000040: b072 543f 69c0 3f3e 76d2 18be aca8 c53e
00000050: 1157 1cbc 018a 2dbd 34c6 aa3e 252f 603e
00000060: 87ca 913e 1957 1dbd 2980 283f bb6b 6f3e
00000070: 5bf2 e43d c829 36bf a890 9d3e 6b0c c23e

bn5.running_mean f4 [32]
-3.1996806 3.193596 -0.91470563 -1.3891225 -1.0514235 -1.2237779 -0.95462924 0.70199126
0.45953986 -1.4247257 -0.54379684 0.905969 -0.19056526 3.4865208 -1.2105914 -0.68535787
1.8343843 -1.928896 1.2118754 -1.8717202 -3.0969396 -1.1517446 0.8220335 -0.9260585
0.8560417 -0.5112997 -2.853784 -1.0131525 -2.4150138 -1.0342076 1.853858 0.4671967
00000000: 91c7 4cc0 e063 4c40 262a 6abf c4ce b1bf
00000010: 0c95 86bf c1a4 9cbf 9562 74bf b3b5 333f
00000020: cf48 eb3e 695d b6bf 4536 0bbf 96ed 673f
00000030: 8a23 43be 2823 5f40 a9f4 9abf 9d73 2fbf
00000040: 1bcd ea3f 10e6 f6bf bc1e 9b3f 8794 efbf
00000050: 4234 46c0 5e6c 93bf ca70 523f 2b12 6dbf
00000060: 8d25 5b3f 8ae4 02bf 66a4 36c0 fbae 81bf
00000070: 968f 1ac0 ea60 84bf 384b ed3f 6834 ef3e

bn5.running_var f4 [32]
3.168104 4.5534177 3.5438588 4.531777 3.01472 3.0416832 2.8152263 4.0954065
2.704445 3.4417434 3.9845233 3.5889115 3.0718288 3.989386 3.3549225 3.254915
2.6978066 2.9993124 2.042187 4.3044634 3.7953894 3.5316584 4.7994742 4.1602917
3.2815988 2.733095 3.2266812 3.7309728 3.6186082 2.8047934 3.4551125 3.6432657
00000000: 37c2 4a40 99b5 9140 95ce 6240 5104 9140
00000010: 2cf1 4040 f0aa 4240 ab2c 3440 920d 8340
00000020: a015 2d40 8645 5c40 6e02 7f40 bab0 6540
00000030: d898 4440 1a52 7f40 0db7 5640 8750 5040
00000040: dda8 2c40 bcf4 3f40 31b3 0240 2abe 8940
00000050: a9e7 7240 b106 6240 4b95 9940 1c21 8540
00000060: b705 5240 07eb 2e40 f281 4e40 42c8 6e40
00000070: 4797 6740 bc81 3340 9020 5d40 442b 6940
