model_weights/Tiny10/CIFAR10/in7-gn7/110000.pt (torch_old, 358762 bytes, 50 tensors)

conv1.weight f4 [16, 3, 3, 3]
000000 d5 1b 30 3e 3a 6a ed be 09 2c 88 be fe 9e 3a be
       0.17198117 -0.46370107 -0.26596096 -0.18224713
000010 4b cd 5c bf ad ce 0f bf de 06 6c be bf 1f 17 bf
       -0.8625075 -0.5617474 -0.23049495 -0.59032816
000020 85 b5 8e be 09 af 51 3e bc fd 58 bc 8d 16 10 3e
       -0.27872863 0.20476927 -0.013244089 0.14071102
000030 64 0f f0 3d c8 ad 8c bd 39 97 04 3e cc a5 8b bd
       0.117216855 -0.06869084 0.12948312 -0.068187326
000040 b6 1b 25 be 4b 2e ee 3c a3 ef 5c 3e d5 e0 a3 3e
       -0.16123852 0.029074809 0.21575789 0.3200747
000050 90 fb cc 3e 8c 84 cb 3e 58 18 0f 3f 40 e7 07 3f
       0.40035677 0.39749563 0.5589652 0.53087234
000060 8b e7 58 3e c5 30 88 3e b4 0b 62 3e 6f 6d e2 3e
       0.21182077 0.26599708 0.22074777 0.44224116
000070 ac 19 2e 3f 58 a6 43 3f 68 88 0a 3f 22 9d 00 3c
       0.6800792 0.76425695 0.5411439 0.007849963
000080 ec f9 41 3a 83 57 82 be ee 58 15 bf d3 60 15 be
       0.0007399607 -0.2545739 -0.5833882 -0.14587717
000090 21 2a f9 be ac 10 37 bf 4d 58 05 be 39 e9 6c 3e
       -0.48664954 -0.71509814 -0.13021965 0.23135842
0000a0 12 74 7f bf 4f 07 6d bf 1b 27 dd 3e 1c 29 d6 be
       -0.99786484 -0.9258928 0.43193898 -0.4182824
0000b0 39 0e b1 be cf ab e9 be 22 8a 79 be 1f cc c6 bd
       -0.34581164 -0.45638892 -0.243691 -0.09706902
0000c0 35 9e 52 3f a5 13 31 3e 62 65 8f be 95 1c 92 3f
       0.82272655 0.1729265 -0.28007036 1.1414973
0000d0 4f ed 1a 3f 50 fc 1a 3e d9 9e f9 be cc 43 21 bf
       0.60518354 0.15135312 -0.48754004 -0.62994075
0000e0 fb f9 0d be 85 01 5e be ff a6 20 be 6a 7a 4e 3d
       -0.13864891 -0.21680267 -0.15688704 0.050409712
0000f0 6e 96 fe 3d 94 93 ea 3e 2d 3f cf 3e 32 91 7d be
       0.12431036 0.45815718 0.40477887 -0.24762419
000100 ea ff 20 bf 71 59 cd be 30 c7 59 3e 63 a0 71 3d
       -0.62890494 -0.401073 0.2126739 0.058990847
000110 7b b1 aa bc 43 73 22 3f 7f a6 66 3f ec fe 2c 3f
       -0.020836582 0.63457125 0.900978 0.6757648
000120 c4 8c 92 be 25 01 11 bf 54 9a 61 be 29 72 08 bd
       -0.2862302 -0.5664237 -0.22031528 -0.033311997
000130 1c cf a8 be 53 26 b4 be db 12 ed 3e e1 02 a3 3e
       -0.32970512 -0.3518549 0.46303448 0.31838134
000140 06 a1 1e 3d 45 cc df 3e 90 dc 2b 3f 2b c9 38 be
       0.038727783 0.43710533 0.67133427 -0.1804549
000150 35 53 08 3f 07 e9 89 bf cf ed 3c bf 76 9c ff bc
       0.53251964 -1.0774239 -0.7380037 -0.031202536
000160 58 09 f0 3e 57 2e a7 be fd 9d 88 bf 1e 47 c2 3d
       0.4688213 -0.32652542 -1.0673214 0.09486221
000170 aa 22 8e 3f e3 86 39 bf 1e 72 86 bf 31 ad 2e 3f
       1.1104329 -0.72471446 -1.0503576 0.6823302
000180 6f 88 3e bf 56 c7 7b 3f 6a a5 79 3f 6b ca 1a 3f
       -0.7442693 0.9835104 0.97518027 0.60465115
000190 b7 f6 b5 3e c2 98 89 be 30 87 39 3f 81 ec 4a bf
       0.3553979 -0.26874357 0.72471905 -0.79267126
0001a0 70 d3 6e bf 3c 1c ae 3e b8 8a fe 3e da df 27 bf
       -0.9329138 0.34005916 0.4971521 -0.65575945
0001b0 e0 79 7c 3f c8 8f fe 3e 72 66 09 3f 17 c0 38 3e
       0.98623466 0.4971907 0.53671944 0.18042026
0001c0 f2 2c 70 be f7 6e 03 3f 0f f9 05 bd 9e 0b a0 bf
       -0.23454645 0.51341194 -0.032708224 -1.2503545
0001d0 27 2e c6 bf 40 15 08 bf 17 93 69 bf 61 de e8 be
       -1.5482835 -0.53157425 -0.91240066 -0.45482162
0001e0 7c 87 d3 be cb f2 61 bd d7 31 98 3f ff 5c 49 3f
       -0.41314304 -0.055163186 1.189021 0.78657526
0001f0 b3 30 22 3f 21 b8 db 3e 81 26 59 3c c2 27 02 bf
       0.6335556 0.42913917 0.013253809 -0.50841916
000200 21 a9 04 bf 22 a0 07 bf d9 91 e2 3d 99 f6 7d 3f
       -0.5182057 -0.5297872 0.110629745 0.99204403
000210 a9 55 be be cd 27 1f 3d cc 34 46 3e 77 a0 c8 be
       -0.3717473 0.038856316 0.19356078 -0.39184925
000220 0a 69 0e bf f0 a1 40 bf 3f f1 9f 3f 6a 64 aa 3f
       -0.55629027 -0.75247097 1.2495497 1.3311894
000230 3a ac b3 be 63 1f 8c 3f 4f 25 85 3f 35 19 f1 be
       -0.35092336 1.0947078 1.0402011 -0.47089544
000240 09 47 2c bf d3 96 8f be 1d 46 39 3f 39 8d 75 bf
       -0.6729589 -0.28044757 0.7237261 -0.95918614
000250 06 20 51 be 15 30 a9 3e 00 75 41 bf 8f 75 1d bf
       -0.20422372 0.33044496 -0.7556915 -0.61507505
000260 2e 25 43 3c 67 9a 30 3f 98 c9 96 3e 6d 00 e8 3d
       0.01191072 0.689856 0.2945068 0.11328206
000270 41 95 2f 3e 35 26 39 3e c5 93 75 3e e2 d6 1f bf
       0.1714678 0.18080981 0.23982151 -0.6243726
000280 a7 12 3d bf 33 d6 8e bc 99 68 28 bf df 1a 40 bd
       -0.73856586 -0.017436123 -0.65784603 -0.046900626
000290 a2 46 28 3f 16 48 94 bf 09 77 10 bd c4 98 8d 3f
       0.6573278 -1.1584499 -0.03526977 1.1062245
0002a0 05 5c 3c bf 6a d7 58 3e ff 36 25 3f ea f2 40 3e
       -0.7357791 0.21175924 0.6453704 0.18842664
0002b0 2f 0b aa 3b 3c d0 5b bd 83 04 94 be d9 81 9e be
       0.0051893215 -0.053665385 -0.28909692 -0.3095844
0002c0 d8 9f a8 bd 93 04 ac 3d 5f d0 6c 3e 25 92 cc 3d
       -0.08233613 0.0839931 0.23126362 0.09988812
0002d0 a0 92 2d 3f c6 46 3a 3e 25 85 f5 be a7 01 f3 3e
       0.67801857 0.1819106 -0.47953144 0.47462198
0002e0 6a 38 a1 bc a3 4f 20 bf e2 4f bf 3e 23 cb de 3d
       -0.01968022 -0.62621516 0.37365633 0.10878589
0002f0 5f 8c 0a bf 78 f3 e6 bd e9 18 bb 3d 7f fa 05 bb
       -0.5412044 -0.11276907 0.091356106 -0.0020443497
000300 a3 21 d4 bd c1 eb 88 3e 8f 3e 2b 3d 72 a5 a2 3d
       -0.10357978 0.26742366 0.041807707 0.079417124
000310 c1 29 90 3e 55 0e 1b bd 82 de 72 bd 79 a5 69 3e
       0.28156856 -0.037855465 -0.05929423 0.22817029
000320 82 6b c8 bd 85 7d d0 3d d3 4c 0b 3f 6c 05 0b 3e
       -0.097861305 0.10180191 0.544141 0.13576287
000330 f9 48 c4 3b a1 1e 88 3e 0f d1 8a bd 0d dc 02 3e
       0.0059901443 0.26585868 -0.06778156 0.12779255
000340 b9 23 78 3e 93 29 b9 bd f6 11 2f bc 76 5b fe 3d
       0.24232377 -0.09041133 -0.010685435 0.124197885
000350 5f 98 17 be d5 60 36 be cf 7c e5 bd 25 11 5b be
       -0.14804219 -0.17810376 -0.11205446 -0.21393259
000360 61 24 c5 be 50 d9 85 be 96 62 67 be eb 58 f7 bd
       -0.38504317 -0.2614236 -0.22596201 -0.12077507
000370 3d 4b 56 3e bc b0 ea bd f2 9a 82 3d 03 d0 90 3e
       0.20927139 -0.11459491 0.0637721 0.282837
000380 66 7c bd 3c 1c 18 c4 be be 19 4a be 99 f4 8c be
       0.023130607 -0.38299644 -0.19736382 -0.27530363
000390 ac 65 17 3e e2 d6 26 3f 6e 63 8c 3e a9 18 15 bd
       0.14784878 0.65171635 0.2741961 -0.03640047
0003a0 a8 ed fa 3e 51 b6 97 3e a0 9c ae 3e 48 33 09 3f
       0.49009442 0.29631284 0.3410387 0.53593874
0003b0 bd 39 e6 3e 3e 4c c0 bd 08 00 b4 3d d8 3b b6 bd
       0.44965926 -0.09389542 0.087890685 -0.08898133
0003c0 96 f2 3d bf e5 34 2d bf 4c a6 22 bf d6 0a 1d 3d
       -0.7419828 -0.67658836 -0.63535 0.038340412
0003d0 af e6 c5 bd 8d e7 b2 be d8 e7 ba 3e f4 8d 14 bf
       -0.0966314 -0.34942284 0.36505008 -0.58029103
0003e0 61 8e be be 82 3d 1a 3f 11 ec 67 be af b1 8f be
       -0.37218 0.60250103 -0.22648646 -0.2806525
0003f0 9b ab 3d 3c b5 56 0b 3e 43 ac 33 3e ff 83 79 3e
       0.011576558 0.13607295 0.17546181 0.24366759

conv1.bias f4 [16]
000000 4e d2 03 3a 6f ce 43 3a 2a 67 14 3b fc bc 53 37
       0.0005028591 0.00074694207 0.0022644498 1.2620581e-05
000010 d7 89 e1 3a 67 ac 5e ba 41 69 f3 ba 3b d7 81 b9
       0.0017207217 -0.0008494318 -0.0018570797 -0.00024765157
000020 4d 56 ad 3a 69 53 82 ba 35 81 0d bb 4f 5f cb ba
       0.0013224572 -0.0009943071 -0.0021591906 -0.0015516075
000030 34 7c ec 39 43 25 1f 3b 97 a9 13 39 01 9c 06 bb
       0.00045105966 0.0024283684 0.0001408219 -0.0020539763

bn1.weight f4 [16]
000000 cc 73 fe 3e 9b 67 0c 3f 42 03 20 3f e8 fc 79 3f
       0.4969772 0.5484559 0.6250497 0.9765153
000010 76 b0 3c 3f b4 10 10 3f ea d1 2d 3f 14 30 6f 3f
       0.7370676 0.56275487 0.6789843 0.93432736
000020 7b b6 66 3f 95 b3 a9 3f d5 f1 8a 3f e8 0f 3c 3f
       0.90122193 1.3257929 1.0855051 0.7346177
000030 a6 70 30 3f e1 0a a5 3f b9 f7 b4 3e 00 99 2b 3f
       0.6892189 1.2893945 0.35345247 0.67030334

bn1.bias f4 [16]
000000 05 a0 b8 3e dc 39 fd 3e 12 ec 03 3f 23 dd 62 3f
       0.36059585 0.49458206 0.5153209 0.8861868
000010 b3 af 0f 3f d7 71 f1 3e 6a 51 ab bd 9f 96 27 bf
       0.5612747 0.47157165 -0.08365138 -0.65464205
000020 05 50 0d bf d9 fe 4a bf 2d 2e ad 3f b2 18 f5 3e
       -0.55200225 -0.79295117 1.3529717 0.47870404
000030 d7 65 76 3e 8b 81 50 bf f6 12 1a 3e bf 6d b2 3e
       0.24062286 -0.81447667 0.15046296 0.34849355

bn1.running_mean f4 [16]
000000 ec 97 2a bc 46 6c 32 3d 1e a0 e9 bb 87 18 97 ba
       -0.010412198 0.04356029 -0.007129683 -0.0011527695
000010 c6 d4 0e 3d 8e ef 52 3d 9f 47 89 3a 39 d7 8f be
       0.034870885 0.05149799 0.0010473615 -0.2809389
000020 1a d2 c8 3d 90 89 9f 3e 32 40 b6 bc cb 86 79 bd
       0.09805699 0.3115964 -0.022247408 -0.060919564
000030 90 92 ce 3d 01 85 b5 3e be 94 96 be 3e e1 dd 3d
       0.10086548 0.35453036 -0.29410356 0.10833977

bn1.running_var f4 [16]
000000 6a bf cc 40 62 fc 86 40 42 88 3e 41 a2 21 09 40
       6.398366 4.2183084 11.908266 2.1426778
000010 4f dd 05 40 9f 0d 08 40 9b 82 a8 3f 87 66 49 40
       2.0916326 2.1258314 1.3164858 3.1468828
000020 44 11 7b 3f 5c 03 89 40 79 e5 b2 3f 1b 88 81 41
       0.9807322 4.28166 1.397628 16.191458
000030 f2 59 4e 40 9f e3 cc 40 a5 4b 5e 40 7b ba d9 40
       3.2242398 6.402786 3.473367 6.8040137

conv2.weight f4 [16, 16, 3, 3]
000000 d4 ef 50 be 3a 1a e2 bd 7e 46 07 3e e1 42 30 be
       -0.20403987 -0.110401586 0.13210484 -0.17213012
000010 cc 6a b9 3d 7f 46 9f 3e 34 2c a9 bd 02 46 1f 3e
       0.09053573 0.31108472 -0.08260384 0.1555405
000020 f9 82 8f 3e 6a 86 a5 be 79 50 b1 3d aa a3 a0 3e
       0.28029612 -0.32329112 0.08657927 0.31374866
000030 20 82 79 3e 78 1b bb 3e 81 93 a8 bd 93 26 71 3e
       0.24366045 0.36544394 -0.08231259 0.23549871
000040 88 f9 85 3c f4 30 96 be bf 9e 8b bd 8e fe b8 be
       0.016354337 -0.29334223 -0.06817388 -0.3613171
000050 7d 18 81 be 44 b3 e7 be 6d 41 b1 be 76 6b d3 3d
       -0.25213996 -0.45253956 -0.34620228 0.10323231
000060 e0 85 76 be da 45 a5 3d 70 d0 a3 3e bb ce 82 be
       -0.24074507 0.08069964 0.31994963 -0.25548348
000070 ea ab cb be ae f0 37 3c 64 d6 f2 be 91 7b 10 3f
       -0.39779598 0.011226816 -0.47429192 0.5643855
000080 5b 39 5b 3e d2 10 62 3e e9 73 d9 3e 4a b5 db be
       0.21408598 0.22076729 0.42471245 -0.4291175
000090 41 3f 31 3e 66 fc e0 3c f8 04 fc 3c 1b f9 93 be
       0.17309286 0.027464103 0.030764088 -0.2890099
0000a0 1e 18 2f be ad c4 35 3e 2c 4b 48 be 8b 6a df 3e
       -0.17099044 0.17750807 -0.19559926 0.43635973
0000b0 79 be 47 bd 99 e8 04 3f 7b fa cb 3e 0a 00 8e be
       -0.048765633 0.51917416 0.3983954 -0.27734405
0000c0 b1 78 f8 3e 66 88 7a be 24 8e 08 bf ee 91 6e bd
       0.4852958 -0.24466094 -0.5334189 -0.05824464
0000d0 e1 fc 0d bf 4f 48 a5 bd fb 48 45 3e 75 6f a5 be
       -0.5546399 -0.080704324 0.19266121 -0.32311597
0000e0 d6 ee 71 be 93 09 61 3d 17 27 38 bd 28 49 72 3d
       -0.23626265 0.05494077 -0.044959154 0.0591518
0000f0 f4 f6 a7 bd 63 62 4b 3e 69 8b 42 3e be f3 96 bd
       -0.082013994 0.1986175 0.18998493 -0.07370709
000100 16 4a 3e 3e 1f fd 21 3e cd 7e 29 bd eb 03 1c 3e
       0.18582949 0.15819214 -0.041380692 0.1523587
000110 37 d2 00 3e 9a d9 80 bd 14 cd 87 bd 79 06 8d ba
       0.1258019 -0.06291504 -0.066309124 -0.0010759375
000120 94 72 84 be 27 42 23 be f7 d9 f6 bd a6 ab 50 be
       -0.25868666 -0.15943204 -0.12053292 -0.20377979
000130 7b f9 87 3c 45 c3 17 3e b2 d1 27 be e5 43 0e bd
       0.016598454 0.14820583 -0.16388586 -0.034732718
000140 1a 02 cc 3d 4c d3 01 bf 14 84 95 bb 6c ff e7 3e
       0.09961338 -0.5071304 -0.004562864 0.4531206
000150 1d c8 05 3d f2 86 54 3e cd 5a 3e 3d eb e9 13 3e
       0.032661546 0.20754603 0.046473313 0.14444701
000160 7e 22 0a be 89 d7 bf be 49 8b f7 be 58 5c 32 bf
       -0.1348972 -0.37469128 -0.48348454 -0.69672155
000170 3b 28 48 3e a3 73 16 bf 17 00 57 3f 81 35 ed 3e
       0.19546597 -0.587702 0.8398451 0.46329883
000180 c9 37 5c 3e db 47 b1 3e f3 af f9 be f2 45 16 3d
       0.21505655 0.34625134 -0.4876705 0.0366878
000190 62 ed 0d 3e 29 b5 eb bc 2f fa 1a 3e 14 31 24 3e
       0.13860086 -0.028772907 0.151345 0.16034347
0001a0 5a 2b 38 3d 74 14 6b 3d df 4e ba 3c 76 d7 3a bd
       0.04496322 0.057392552 0.022742687 -0.045615636
0001b0 4b a6 90 3d 66 25 bb be d2 56 8b be 5a c8 b2 bd
       0.07062968 -0.3655197 -0.27214676 -0.0872962
0001c0 fc 92 bf be b6 59 8f 3e b4 73 b7 be a8 f9 08 3e
       -0.37416828 0.27998132 -0.35830462 0.13376486
0001d0 c3 44 f5 3e be 6f ea 3d e6 c1 95 be 8a 41 f0 bb
       0.47904024 0.114470944 -0.29249495 -0.0073320316
0001e0 0b 55 89 be aa 0e ad 3b 51 93 9c 3e b3 31 25 bc
       -0.26822695 0.005281289 0.30581143 -0.01008265
0001f0 a8 d4 8a 3d ae 8e 1d bd b6 27 0d be e8 61 09 be
       0.06778842 -0.038466148 -0.1378468 -0.13416255
000200 0a 2c 4c bd 34 a5 9d bd 1f 3e 6c bd 91 da e4 bb
       -0.049846686 -0.076975256 -0.05767643 -0.006984063
000210 fa 17 b5 bd d3 24 02 be d0 26 b7 bd 23 c8 94 be
       -0.08842464 -0.1270936 -0.0894295 -0.29058942
000220 2c 97 83 3e 54 10 76 3e eb 80 0c 3e 9f ee b7 3e
       0.25701272 0.24029666 0.13721053 0.3592424
000230 63 cc 05 be ca 4a 72 3e 63 42 53 bd 1c 98 b3 be
       -0.13066249 0.23661342 -0.051576983 -0.35076988
000240 aa dc db 3d 1f 0c 30 3e e8 26 52 3e e5 08 9d bc
       0.10735448 0.17192124 0.20522654 -0.01916928
000250 d2 3e 93 bd 5f e7 6a bc c3 3a 2e 3d ed 9c b2 bd
       -0.071897164 -0.01433739 0.04253651 -0.087213375
000260 59 e1 87 bd cf 23 f8 3d be 5d 14 3e 72 71 aa bd
       -0.066347785 0.12116205 0.14488885 -0.08322419
000270 f2 d9 15 be 4c 3c 93 3d d1 94 22 3e ea b7 6f 3c
       -0.14633921 0.07189235 0.15877081 0.014631251
000280 a4 92 98 bd 6d e9 b3 3d 95 08 80 bd bb 37 48 3e
       -0.074498445 0.08784757 -0.06251637 0.1955251
000290 54 b7 75 3d 5c 6b ab be 87 50 b7 3c 2e 89 69 3d
       0.05998929 -0.33480346 0.022377266 0.05701559
0002a0 ff 9e f4 bd 16 56 4b bb 5a a9 01 3e ba 18 26 3e
       -0.119443886 -0.0031026653 0.12662259 0.1622037
0002b0 58 b5 cf 3e 36 6c 4d bd f7 e2 ea be 6b c3 e1 bd
       0.40568042 -0.050152026 -0.45876285 -0.11023601
0002c0 31 ca 3e 3d f6 63 e7 3e 0d 7d 04 bf 59 00 3a 3e
       0.046579544 0.45193452 -0.5175331 0.18164195
0002d0 d1 8b cc be 5d 80 1c be 5f 4b 0d 3f 53 8b 82 3e
       -0.3995042 -0.15283342 0.5519313 0.2549692
0002e0 11 da 34 bf 5e c8 f3 3d af de d8 3e 78 62 fc bd
       -0.7064524 0.119034514 0.42357394 -0.12323469
0002f0 cc d7 35 be 2e 61 c1 3e 30 15 81 3c 8d 75 01 bf
       -0.17758101 0.37769455 0.015757173 -0.50569993
000300 f0 b5 1c 3e cd 4e 97 3e de 84 29 be 0a db ae bc
       0.15303779 0.29552308 -0.16554591 -0.02134468
000310 53 6b f7 3c 10 2a 63 3e 85 ec 0b bd f2 47 b4 be
       0.030202543 0.22184014 -0.03416111 -0.3521114
000320 5b 0f 2e 3e ad f2 1a 3e 96 4e 05 be 6b 6a a7 bc
       0.16998045 0.15131636 -0.1301826 -0.020436486
000330 5d 41 3b 3e 8c cd 34 3e 39 48 b1 bd db 54 12 bc
       0.18286653 0.17656535 -0.086563535 -0.008931364
000340 0b 5e 17 3b 0f 88 1c 3d ef 3d 21 bc cd 70 10 bc
       0.0023096825 0.038215693 -0.009841426 -0.008815956
000350 7e 60 40 3d 25 11 75 3d 54 62 f6 3d 10 5d 07 3e
       0.046967022 0.059830803 0.12030473 0.13219094
000360 65 bb 88 bd 36 62 84 bd b6 37 9a bd ae 44 63 be
       -0.06676368 -0.06464045 -0.07530157 -0.22194168
000370 14 59 d5 bd 8f a8 13 be f7 3a 95 bd b1 55 08 bd
       -0.10417381 -0.14419769 -0.07286637 -0.033284847
000380 5c e8 3f 3d a5 13 0e be a8 93 2a 3e da 1e cf 3e
       0.046852455 -0.13874681 0.16657889 0.40453225
000390 6a 5d 07 be 70 4d 9c be 99 71 9c 3e 16 53 97 bc
       -0.13219228 -0.3052783 0.30555418 -0.018472236
0003a0 16 90 a1 be 7a 6c 3b be 18 85 13 bf c9 e9 94 3e
       -0.3155524 -0.183031 -0.5762496 0.29084614
0003b0 17 fe 02 3f ae 5e 5e bd d0 c4 84 bf 0d 90 47 3f
       0.5116896 -0.054289512 -1.0372562 0.7795418
0003c0 4c 4c 30 3f a8 66 b2 be 2c 90 a6 be 3c b5 3d 3d
       0.6886642 -0.34843946 -0.3253187 0.046315417
0003d0 54 3a 03 3e 45 7c d6 bc e9 0a 52 be 6c 57 b2 3d
       0.12815219 -0.026182303 -0.20511974 0.08708081
0003e0 36 0d b5 3e 89 16 75 be 83 34 15 be d7 8a 42 3e
       0.35361642 -0.23934378 -0.14570813 0.18998276
0003f0 6a 82 b6 3d ca 09 ff 3d 90 2d a5 be ff 76 14 be
       0.08911593 0.12453039 -0.32261324 -0.14498518

conv2.bias f4 [16]
000000 6d bd 86 3a e8 46 12 3a ed 75 fc 38 45 c4 37 ba
       0.0010279842 0.0005580024 0.00012038262 -0.00070101424
000010 72 9f 14 39 a3 68 02 b9 a2 c8 91 38 15 46 80 3a
       0.00014173778 -0.00012436746 6.9515096e-05 0.0009786511
000020 bf ee 52 37 6d 9c 5f ba dc 8d 1f 3a 44 39 88 ba
       1.2572563e-05 -0.0008530084 0.00060865073 -0.0010393043
000030 58 72 ba 39 48 77 10 3a f0 c0 79 3a 32 83 5d ba
       0.00035561877 0.00055109384 0.0009527346 -0.00084500306

bn2.weight f4 [16]
000000 53 56 9f 3f 5c dc 98 3f 94 12 46 3f 15 72 92 3f
       1.2448219 1.1942248 0.773721 1.1441065
000010 eb b6 3d 3f 00 14 7a 3f 22 a8 67 3f 9c 73 6b 3f
       0.74107236 0.9768677 0.90490925 0.9197328
000020 2d 02 6f 3f 92 d7 4a 3f 81 5e 72 3f 0f dc 46 3f
       0.93362695 0.79235184 0.9467545 0.7767953
000030 a2 a0 b5 3f c3 83 68 3f fc 3d a9 3f d5 3f a8 3f
       1.4189646 0.9082605 1.3222041 1.314448

bn2.bias f4 [16]
000000 88 d6 f0 bd 38 f2 b0 bd 57 af 88 3e 3d 8b 8e bd
       -0.117596686 -0.086399496 0.26696274 -0.06960151
000010 84 a3 9f 3c c7 d4 6f 3e 97 33 70 be fe 63 2a 3f
       0.01948715 0.23421012 -0.2345718 0.66558826
000020 82 72 30 3e 58 98 07 3f e2 3a 23 3f 0f 6b 0d 3f
       0.17231181 0.52966833 0.63761723 0.55241483
000030 32 3d 0a bd ad e3 4f be f7 e9 4d 3f 3f ad 6f bf
       -0.033749767 -0.20301695 0.8043513 -0.9362373

bn2.running_mean f4 [16]
000000 38 cc 35 bf 1d 6e c9 be 2a fc 45 3f 35 c2 37 bf
       -0.7101474 -0.39341822 0.77337897 -0.7178071
000010 80 96 9e 3f 96 fb 09 3f a1 24 84 be 8a b1 60 c0
       1.2389679 0.53899515 -0.25809196 -3.5108361
000020 fd 1d 09 c0 02 bd fa bf 3a 66 0e 3f 06 41 17 bf
       -2.1424553 -1.9588931 0.55624735 -0.5908359
000030 8d b1 0d bf 30 35 4f bf 17 92 a5 be bb 78 8d 3f
       -0.55349046 -0.8094053 -0.3233802 1.1052469

bn2.running_var f4 [16]
000000 bb e4 19 41 fa 00 23 41 c2 3b 0c 40 9e 22 08 41
       9.618342 10.187738 2.1911473 8.508451
000010 cc 7e d5 3f 79 d1 80 40 c9 94 b2 3f 39 25 d0 40
       1.667932 4.0255704 1.3951656 6.504544
000020 ce f6 38 40 ac d2 61 40 36 e7 b4 40 a5 bf 88 40
       2.8900638 3.5284834 5.653224 4.273394
000030 85 42 83 41 24 35 df 3f b7 99 ed 40 e0 69 e0 3f
       16.40748 1.7438092 7.425014 1.753231

conv3.weight f4 [32, 16, 3, 3]
000000 2a 98 04 3e 5f ac 0f 3e 50 34 80 3d 78 db ad bd
       0.12948671 0.14030598 0.06259978 -0.08489126
000010 08 b0 5f bd 9c 65 29 bc a9 2b 11 be 9b fa ee bd
       -0.054611236 -0.010339167 -0.14176811 -0.11668893
000020 e1 1f d2 3d 49 ac 26 3c 6d 9d 44 be 73 77 b6 bd
       0.10259987 0.010172912 -0.19200678 -0.08909502
000030 49 76 3c 3d b3 55 86 be 1b ad 9f be 40 fe 07 3d
       0.046011243 -0.26237258 -0.31186756 0.033201456
000040 26 9b ff bd 00 64 6d be 3d 8f 10 bd 1c 84 95 3b
       -0.12480764 -0.23182678 -0.035292853 0.004562868
000050 89 f9 f6 bc 4a f3 73 3d d6 01 3f 3d ad 42 e0 3d
       -0.030148285 0.05955819 0.04663261 0.109502174
000060 60 19 03 bd c8 37 97 3c da 1b 1f 3e aa 4c cf be
       -0.03200662 0.018459216 0.15537968 -0.40488178
000070 a5 18 42 bf 9f 22 fd be 79 d5 3a bf a5 8d c1 bf
       -0.75818855 -0.49440476 -0.72981983 -1.5121351
000080 d9 d6 8c bf 88 f1 df be f0 5a 7c bf 00 c1 43 bf
       -1.1003066 -0.4373896 -0.9857626 -0.7646637
000090 c4 fd e9 3c fd 20 12 bd 51 61 ea 3d 1c b8 e0 3a
       0.028563388 -0.03567599 0.11444343 0.0017144713
0000a0 fb 67 1c be 94 f1 bd bd e1 14 81 bd a3 a3 c7 bd
       -0.1527404 -0.09274593 -0.063028105 -0.09748008
0000b0 93 7b 07 be d1 34 18 3e f6 a1 a2 3d 74 be 56 bd
       -0.13230734 0.14863898 0.07941048 -0.052427724
0000c0 f0 0f 7d 3d 8e 3b e3 bd d1 6d b3 bc 8d fc 0b 3e
       0.061782777 -0.110953435 -0.02190295 0.13670559
0000d0 07 ed 4c be bb 7e f0 bd 1e b6 25 bd 34 b0 98 3d
       -0.20012294 -0.11742922 -0.040456884 0.07455483
0000e0 b4 e1 37 3e 76 e2 2e 3d 4a d4 80 3d 82 f2 30 3e
       0.17957193 0.04269644 0.06290491 0.1728001
0000f0 f7 57 64 3d c0 6e e9 bd ce 39 a0 bd 75 f5 20 3e
       0.055747952 -0.11398077 -0.07823525 0.15718634
000100 4b 17 8d 3e d9 06 fc 3d 6f 3a 34 3e 2b f4 a6 3d
       0.27556834 0.123059936 0.17600416 0.0815204
000110 79 21 9a 39 d7 42 2c 3e 7f e8 e4 bd 59 70 2e be
       0.00029398108 0.16822372 -0.111771576 -0.17035045
000120 9c b4 c7 3c 0d 9c d1 3d f1 cf d1 3d 10 b5 be 3c
       0.024378113 0.102348424 0.1024474 0.023279697
000130 88 fa f7 3b 4a e6 b5 bc 36 b1 1f 3e 5c 45 79 bd
       0.0075677074 -0.022204537 0.15594944 -0.060857162
000140 44 66 6e be 8e f7 94 bd 6f aa b7 bd 30 bc aa bb
       -0.23281199 -0.0727378 -0.089680545 -0.005210422
000150 fa 9f 0b be 3c a8 a7 bd 81 d5 02 3e 20 2f 21 be
       -0.13635245 -0.08186385 0.12776758 -0.15740633
000160 ee 48 02 be dd 69 4a 3a 64 12 94 3c 92 ef b5 bc
       -0.12723133 0.00077214633 0.018075176 -0.022208963
000170 9f 71 84 bc 37 0c 8d bd 1f 71 36 bd 4b 81 ac 3d
       -0.01616746 -0.068870954 -0.044541474 0.08423098
000180 05 e9 1f 3e 9d 7a 49 3c 38 b7 10 be 91 1b 6f bb
       0.15616234 0.0122973 -0.14132392 -0.0036484937
000190 b0 b2 15 3e b5 36 a4 3d d3 65 9c 3d 03 62 c3 3d
       0.14618945 0.08018247 0.07636609 0.095401786
0001a0 f7 dd 07 bd 80 01 81 3e f4 69 33 3e 61 bc 48 bb
       -0.033170667 0.25196457 0.17520887 -0.003062986
0001b0 81 4a b9 3d 42 d6 f1 3d c2 ed 17 3e 25 d5 f0 3d
       0.090474136 0.118084446 0.14836791 0.11759404
0001c0 1a 36 b2 3d 24 28 1d 3e ea c7 ad 3d 05 13 05 bd
       0.08701725 0.15347344 0.08485396 -0.03248884
0001d0 fe af 30 3c 46 ba 26 3e 03 4b d7 3c 3f a2 28 3d
       0.010784147 0.16281995 0.026280886 0.041170355
0001e0 4d e2 59 3e b8 0a 93 3c f7 8f c7 3d ee ff 2c 3c
       0.21277733 0.017949447 0.09744256 0.010559065
0001f0 ec 7b b8 bd 64 b0 b6 bc c0 ae 1a 3e 5d 5e 00 3e
       -0.09008011 -0.022300906 0.15105724 0.12535997
000200 d2 18 21 3e f6 1c d3 3d a4 ca bd 3c 20 e7 9d 3d
       0.15732124 0.10308258 0.023167916 0.07710099
000210 87 37 e5 3b 0e 65 fa bc 8e c3 59 be 19 63 58 bd
       0.0069951448 -0.030565765 -0.21266004 -0.052828882
000220 19 31 94 3d d4 6d d9 3d 16 27 09 3d f5 56 84 3d
       0.07235927 0.10616651 0.03348454 0.06461898
000230 15 bc 2f 3e 80 b5 a1 3e b8 7b 2a 3e 86 0c 2f 3e
       0.17161591 0.31583786 0.16648757 0.17094621
000240 32 2b bb 3e d4 c6 49 3e 05 d8 13 3e be e0 9b 3e
       0.36556393 0.19704753 0.14437874 0.30444902
000250 ba 13 d2 3e d5 de 4a 3e 7b dd 27 3e 17 3b a2 3d
       0.41030675 0.19811566 0.16393082 0.07921427
000260 33 7d 2f be 1d 42 c0 bb be 72 a8 bc 91 f2 d8 bb
       -0.17137603 -0.0058672563 -0.020562526 -0.006620713
000270 c4 92 88 bd ac ea 36 3d ff 3d 77 3d 4c 1b a8 3d
       -0.06668618 0.044657394 0.06036186 0.082083315
000280 39 1f 3c 3e f5 06 a7 3d 30 3c df bd 13 3d 46 bd
       0.18371285 0.08155624 -0.10900152 -0.04839809
000290 3c dd d2 bb e1 b3 e4 bd 4a 8a c2 bd 1f 75 7b 3d
       -0.0064350646 -0.11167122 -0.09499033 0.061390992
0002a0 b9 6e 92 bd ac 5c 9b 3d 21 13 e0 3d bc 50 af 3d
       -0.07150025 0.07586035 0.109411485 0.08560321
0002b0 e3 d7 07 3d 21 e5 c7 bd de 02 69 3d f1 81 04 3d
       0.03316487 -0.097605 0.0568875 0.032350484
0002c0 ef 92 a8 bc bd 53 30 bd 47 f4 cf 3c 49 ea a3 3d
       -0.020577876 -0.04304861 0.025385035 0.08003671
0002d0 3d eb f0 bb be ba bd bd a6 3b bd bb a8 ef ca 3c
       -0.0073522613 -0.09264134 -0.005774933 0.02477248
0002e0 b2 bb 42 bd fd e0 fa bb 4c d0 83 3d 2c 53 90 3d
       -0.04754228 -0.007656215 0.06436214 0.07047114
0002f0 07 96 85 bc 31 51 a0 be 68 13 40 3d 46 f7 97 3e
       -0.01630689 -0.31311944 0.046893507 0.29680842
000300 c0 82 9c bc e6 d4 4d 3e c5 72 2b 3e 72 2a 4d 3e
       -0.019105315 0.20100746 0.16743 0.20035723
000310 1c e2 6c 3e c5 92 98 be 9b 15 f1 3d 78 78 e1 3d
       0.23133129 -0.29799476 0.11771699 0.11009306
000320 94 2a d3 bc e1 4c eb 3b bf 4b 91 bd 18 49 a7 be
       -0.025777139 0.0071807955 -0.070945255 -0.32672954
000330 99 94 ef bd 46 8f 72 be db 4b 7f be 84 a6 2d bf
       -0.11698265 -0.23687467 -0.2493128 -0.6783221
000340 35 39 94 be 3f d6 33 3e c6 b8 8d be cc 45 7a 3e
       -0.28949896 0.17562197 -0.27680033 0.24440688
000350 9f 31 0a 3f 44 12 e5 3e 71 a6 24 3f cd 44 96 3e
       0.53981966 0.44740498 0.6431647 0.29349366
000360 a7 07 c0 bd 74 46 08 be 79 39 8d be 6c fd a8 be
       -0.093764596 -0.13308126 -0.2758291 -0.33005846
000370 23 9e 13 be eb 4d ba bc be dd f5 bd 89 c2 2d 3e
       -0.14415793 -0.022742232 -0.120051846 0.1696874
000380 65 12 85 3d e6 7d 6f 3e f7 bd 35 be 93 ac 43 be
       0.06497649 0.2338787 -0.17748247 -0.191088
000390 b3 da 61 be 5a b5 9d be 61 8c 9b bd 1c 4b b7 be
       -0.22056083 -0.30802423 -0.075951345 -0.3579949
0003a0 59 85 4d be a3 a0 85 3e 5d 18 71 be ff f1 07 be
       -0.200704 0.2609912 -0.2354445 -0.13275908
0003b0 ce 35 03 be 5d 79 b7 bd b5 a4 33 3e 38 be 7f 3e
       -0.12813494 -0.08958695 0.175433 0.24974906
0003c0 63 de 9d 3d 5c 0c 35 3e 03 0b 29 3d aa ea 33 3e
       0.077084325 0.17680496 0.041270267 0.17569986
0003d0 cd 8d 0b 3d 2c 67 8b ba 9d ce 0b bc 57 c3 b9 bd
       0.03407078 -0.0010635606 -0.008533147 -0.09070461
0003e0 22 d0 28 be f5 d5 81 be 8b 39 c0 bd fb 04 ef ba
       -0.16485646 -0.2535855 -0.093859755 -0.0018235737
0003f0 af 0f df 3a 4a 3a c7 bc 59 40 4c bd 23 63 b2 bd
       0.0017018224 -0.024319787 -0.049866054 -0.08710315

conv3.bias f4 [32]
000000 e5 a6 c7 b9 03 a5 2c 39 7b 09 0b ba 5d 29 18 ba
       -0.00038080584 0.0001646467 -0.0005303842 -0.00058045035
000010 19 e7 48 ba e9 62 de b8 88 24 a8 39 29 28 45 ba
       -0.0007663831 -0.000106042084 0.00032070675 -0.0007520938
000020 14 f4 6f ba 3d 2a 5a b9 12 0d 6a 3a 93 ea 8a 3a
       -0.0009153497 -0.00020805835 0.0008928339 0.0010598473
000030 f2 1d 85 ba cb 72 f8 b9 86 74 95 b9 10 71 b4 39
       -0.0010156019 -0.00047387774 -0.0002850631 0.00034416514
000040 7b c6 75 ba 01 ce 71 38 64 d9 07 3a fd fb d4 b8
       -0.0009375584 5.7650734e-05 0.0005182235 -0.00010155884
000050 98 5e 60 ba 44 a5 89 b9 0b 71 75 39 69 b1 91 b9
       -0.00085590174 -0.0002625381 0.00023407133 -0.00027788736
000060 38 55 de b8 66 6e 3d 38 e9 f8 76 ba 2a a9 2d 3a
       -0.00010601658 4.5163928e-05 -0.0009421246 0.00066246337
000070 89 44 29 ba 05 33 86 3a dd 21 51 ba 64 70 05 b8
       -0.0006457051 0.0010238594 -0.00079777633 -3.1814343e-05

bn3.weight f4 [32]
000000 f2 e8 8f 3f 5f 9d 6a 3f e4 4d 50 3f da d2 20 3f
       1.1242964 0.9164638 0.8136885 0.62821734
000010 09 b1 7a 3f 05 5c 63 3f b1 76 44 3f 0c 65 4b 3f
       0.97926384 0.88812286 0.7674361 0.7945106
000020 09 86 82 3f 6c e9 97 3f 25 b3 a4 3f 87 14 68 3f
       1.0197154 1.186811 1.286717 0.9065632
000030 76 20 50 3f 70 13 9f 3f 58 2a 27 3f 26 80 7d 3f
       0.8129953 1.2427807 0.65298986 0.99023664
000040 9c fe 1a 3f 36 9a 6f 3f a5 e1 5e 3f 51 80 5f 3f
       0.60544753 0.9359468 0.87063056 0.8730517
000050 6a cd 52 3f b7 0a 9a 3f 94 35 8a 3f c5 e3 7c 3f
       0.82344687 1.203452 1.0797601 0.9878505
000060 42 88 40 3f 5d aa 68 3f 23 4f 80 3f 10 5f 65 3f
       0.7520791 0.90884954 1.0024151 0.8959818
000070 62 4d 72 3f 73 af 39 3f 21 a9 51 3f 10 2b 64 3f
       0.94649327 0.7253334 0.81898695 0.8912821

bn3.bias f4 [32]
000000 2a 55 0f 3e 44 76 38 be c3 37 22 3d 2f 8a 90 3e
       0.13997331 -0.18013865 0.03960396 0.28230426
000010 d3 77 b7 bd 85 df c5 bd f5 ac 68 3d 07 61 41 3d
       -0.089584015 -0.096617736 0.05680557 0.047211673
000020 cf 42 6b 3d 1f 90 0b be b0 cf b0 be 18 ac de bd
       0.05743676 -0.13629197 -0.34533453 -0.10872668
000030 d3 54 01 3f 5e 4a 1f be 54 0f 86 3d aa 53 5f 3d
       0.50520056 -0.15555713 0.06545892 0.054523148
000040 c1 31 9f 3d 9e 51 21 be 1e d2 8e be aa 8a 2e bd
       0.07773162 -0.1575379 -0.27894682 -0.04261271
000050 0f b7 c3 bd 5e b8 b7 bc 5e 81 54 be 19 69 07 be
       -0.095564 -0.02242678 -0.20752475 -0.13223685
000060 31 50 00 3d 6d 94 15 3d a5 2a 4b bc 3f 4d 27 3e
       0.031326476 0.036518503 -0.012400304 0.16338061
000070 6e e5 9a be 39 7a 95 bc 00 9d 07 3d 99 b1 21 bc
       -0.30253166 -0.018246757 0.03310871 -0.009869003

bn3.running_mean f4 [32]
000000 b3 96 8a bf 46 69 0f bf 4f 83 03 40 92 b3 8d 3f
       -1.082724 -0.5602001 2.0548894 1.1070426
000010 0a 6d c1 3d 9d 87 0a 40 39 b5 dd 3f fb 93 96 40
       0.09444626 2.1645272 1.732093 4.705564
000020 c5 13 d2 bf 0f 11 c4 be a8 cf 27 c0 ac df 3c 3d
       -1.6412283 -0.38294265 -2.6220493 0.046111748
000030 c5 72 5d bf 59 a7 84 bf 76 f5 f8 bf 87 00 47 c0
       -0.8650325 -1.036357 -1.9449909 -3.1094072
000040 d4 03 6f 3f a8 2b 46 c0 fa c4 09 3f 7e f0 88 bf
       0.93365216 -3.0964146 0.5381619 -1.0698392
000050 90 55 b5 be b6 c4 cb bf 7a 87 6a bf e1 4a 63 bf
       -0.35416842 -1.5919406 -0.9161297 -0.8878613
000060 e1 ab ae bf 27 85 2a c0 2e 48 2f bf fb 4b 30 c0
       -1.3646203 -2.664377 -0.6846951 -2.7546375
000070 70 04 8e bf 48 28 d9 3e 3e 63 00 c0 7c 2b 45 40
       -1.1095104 0.42413545 -2.0060573 3.080779

bn3.running_var f4 [32]
000000 ef 8f 98 40 74 ea 7c 40 b1 85 72 40 fc e9 42 40
       4.76757 3.95181 3.7894099 3.0455313
000010 46 f6 8c 40 ae 79 98 40 29 ea 49 40 a9 8a 9a 40
       4.4050627 4.7648535 3.154917 4.8294263
000020 a1 16 5d 40 41 74 23 41 bd 86 a8 40 45 9d 83 40
       3.4545062 10.215882 5.2664475 4.112948
000030 30 96 9b 40 2d 61 26 41 47 90 0e 40 b6 25 a4 40
       4.8620834 10.398725 2.227556 5.1296034
000040 26 e1 0e 40 cc cb 81 40 59 f4 ff 3f 19 70 d6 3f
       2.232492 4.0561275 1.9996444 1.675296
000050 47 9c 1f 40 74 e3 89 40 77 8b 9c 40 13 72 6b 40
       2.4939134 4.3090153 4.8920245 3.6788375
000060 03 a9 92 40 3e bd a0 40 48 32 b0 40 e6 8f 80 40
       4.5831313 5.023101 5.506138 4.0175657
000070 90 3a 43 40 04 a9 33 40 4d d5 2f 40 4d 39 ad 40
       3.0504494 2.807191 2.7473938 5.4132447

conv4.weight f4 [32, 32, 3, 3]
000000 8b c2 21 3d 34 0d 17 3d a8 64 74 3e 28 2e 44 be
       0.03949217 0.036877826 0.23866522 -0.19158232
000010 36 0a 59 be b8 c1 8b 3d 95 4d 6c 3c 89 24 5a 3d
       -0.21195301 0.06824058 0.014422794 0.0532575
000020 db af 81 3e 44 fd 16 be cc 9a 2b be 8d ba 21 bd
       0.2532948 -0.1474505 -0.16758269 -0.03948455
000030 5f 50 45 be d9 47 ce bd 22 4d c7 bd bd 72 eb 3d
       -0.1926894 -0.100722976 -0.09731509 0.11496494
000040 8d f4 f9 bb 5b 9f 1a be 98 9a 62 3e 7a c6 2f bd
       -0.0076280297 -0.15099852 0.22129285 -0.04291389
000050 ba 87 ea bd 02 84 94 bd 9d 75 fa bb 5d 87 b3 bc
       -0.11451669 -0.07251741 -0.007643415 -0.021915132
000060 45 64 1f be 71 5e 69 bd ff fe 71 3d 71 04 ac bd
       -0.15565594 -0.056974832 0.059081074 -0.08399285
000070 32 e4 cf bd e9 d8 9d 3b 19 c9 13 be 6c 07 2d bd
       -0.10150947 0.0048171175 -0.14432181 -0.042243406
000080 d7 c2 16 3e 57 b7 00 be 24 0c 02 3b 76 fb 31 3e
       0.14722763 -0.12569939 0.0019843662 0.17381081
000090 f6 a1 4f bd 6d 4f 4c 3d 80 04 20 3e 01 76 05 bc
       -0.050691567 0.049880434 0.15626717 -0.00814581
0000a0 2d 54 de 3c f5 cd dd 3d f3 bb 85 bd a0 bf 03 bd
       0.027139748 0.10830299 -0.06529989 -0.03216517
0000b0 3f fd 25 3c b8 c5 73 3e b5 2d f4 bd 33 78 83 bd
       0.010131179 0.23805892 -0.119227804 -0.064194106
0000c0 4b 46 c0 3d 3a dc 27 be 18 ef d5 bd 9e 38 01 bd
       0.09388407 -0.16392604 -0.10445994 -0.031548135
0000d0 55 39 af 3c a2 75 af 3c 83 3f 98 be 4e b0 30 3d
       0.021389643 0.021418396 -0.29735956 0.043136887
0000e0 05 11 b1 3e c2 81 5c be 16 e3 e0 bd 19 8c 3a 3e
       0.34583297 -0.21533874 -0.10980813 0.18217506
0000f0 9b f5 a3 bd 3d e4 6c bd 9a d4 87 3d 88 ab e0 bd
       -0.0800583 -0.057834852 0.066323474 -0.10970217
000100 86 b5 fb 3b 10 56 11 be fe af cd bd dd 0a 1a be
       0.0076815514 -0.14192986 -0.100433335 -0.15043207
000110 f7 95 82 be a3 d4 0c 3e d8 ab e1 3d a3 ca 26 bd
       -0.2550504 0.1375299 0.11019105 -0.040720593
000120 fd b0 40 3e 07 ef 72 3d 7c 30 d8 bd e4 d5 be bd
       0.18817516 0.059309985 -0.10556123 -0.0931814
000130 50 23 d3 bd 18 b3 f6 bd c8 cd 39 3e fb 63 cb 3d
       -0.1030947 -0.12045878 0.18144906 0.09931179
000140 42 2c 40 3e 4a 96 35 bd 69 e5 4d 3d 6a 40 0c 3e
       0.18766883 -0.04433278 0.05026761 0.13696447
000150 bd 10 c7 bc 5a 50 c9 3d 5a d8 dd 3d 3b 7a e9 bd
       -0.024299974 0.09829779 0.108322814 -0.11400267
000160 e6 49 38 be 14 08 70 3d de 54 a9 bd b4 f0 8b 3d
       -0.1799694 0.058601454 -0.0826814 0.0683302
000170 78 1e d7 3e e9 a6 4b 3d 36 50 3d 3e 75 16 8a 3e
       0.42015433 0.049719725 0.1848763 0.26970258
000180 49 1b 83 3d 43 ff a9 3e 3f 6c ac 3e 29 9b 5f 3d
       0.064016886 0.33202562 0.33676335 0.05459133
000190 90 d1 c9 3d 8b b8 89 3e 92 35 65 3d 57 ae 7b 3e
       0.09854424 0.26898608 0.05595929 0.24578224
0001a0 5a b6 3e 3e 62 6b 46 3e 68 5f f0 bb e4 60 4e be
       0.18624249 0.19376901 -0.007335592 -0.20154148
0001b0 bd 90 3e bd 18 91 07 3e 85 8f 29 3f dd 83 85 3d
       -0.046524752 0.13238943 0.6623462 0.065192915
0001c0 5d 77 71 3d 44 de 47 3e f3 89 4d 3e b3 61 01 3e
       0.058951724 0.19518381 0.20072155 0.12634926
0001d0 6d d1 14 3e c8 f6 fc bd ea f9 a0 3d ce a9 68 3e
       0.14533015 -0.12351757 0.07860167 0.22721025
0001e0 22 c1 41 bd f3 0a b3 bc 53 41 10 3e aa 28 c2 bd
       -0.047303326 -0.021855807 0.14087419 -0.09480412
0001f0 04 d9 61 be c8 82 82 bd 01 72 cc 3d 55 2f 0e 3e
       -0.22055441 -0.06372601 0.09982682 0.13885243
000200 dd 35 c4 bd ac e0 78 3e ff 81 2d 3e e3 31 95 bd
       -0.09580586 0.24304456 0.16944121 -0.07284906
000210 fd 2f 01 3e 90 92 8c 3d 61 1d f0 bd 26 11 60 be
       0.12615962 0.06863892 -0.117243536 -0.21881542
000220 99 4e 7a 3d b3 bb 75 3e d3 60 6c 3d 3b 05 8e 3d
       0.061110113 0.23997383 0.057709526 0.069345914
000230 29 41 f8 3d 7d d3 1e 3d b0 37 e3 bd 18 df d0 3d
       0.12121803 0.03877591 -0.11094606 0.10198802
000240 8c 58 e4 bd d5 aa 65 3d 2a 3b d8 3d 45 b7 fe 3c
       -0.111497015 0.05607112 0.1055816 0.03109325
000250 a9 5a 26 3e 81 b1 b2 3d 84 55 93 3e f4 c1 ec 3d
       0.16245522 0.087252624 0.2877618 0.11560431
000260 bf 71 2a be 5f ba 6d bd e0 3e 82 bd d4 96 86 bd
       -0.16644953 -0.058039065 -0.06359649 -0.06571737
000270 6b fd ee bb 21 cf c1 bc 08 10 49 3d 5d da 09 bd
       -0.0072933934 -0.023658337 0.049087554 -0.033655513
000280 ae 3b d9 bc d4 d5 08 3e 6f e5 56 bd 4d 4e 86 3c
       -0.026517715 0.13362819 -0.0524649 0.016394759
000290 46 7f 13 3b 91 06 20 be 53 88 a6 bd f0 b2 23 bd
       0.002250628 -0.15627505 -0.081314705 -0.03996557
0002a0 41 87 4e bd 23 1f d5 bc 0f 5e ad 3d 2c e4 ed bd
       -0.050421957 -0.026015824 0.08465206 -0.11615786
0002b0 2f a3 80 3c 9f 26 02 3d 53 a5 a1 3d 64 4d 32 3e
       0.015702812 0.031775113 0.07892861 0.17412335
0002c0 d1 47 4a bc d4 22 e6 3e b7 d8 0d 3e b9 c7 67 3e
       -0.012346224 0.44948447 0.13852201 0.22634782
0002d0 86 fa c0 3d 4f d3 59 3e 7a 50 6c 3e 55 a2 18 3e
       0.094227836 0.21272014 0.23077574 0.14905675
0002e0 2b 06 80 3e 27 df 80 3e 6e 9a 4c 3e 82 8f d2 3d
       0.25004706 0.25170252 0.19980785 0.10281278
0002f0 8d 7d 2e bb 99 94 f3 3d 29 e1 24 bd b3 06 5a be
       -0.0026625127 0.11893577 -0.040253792 -0.21291618
000300 22 4c 79 3d ab ed f2 bd 55 33 ef bd 07 91 d6 3d
       0.06086362 -0.11861738 -0.11679713 0.104768805
000310 b0 63 e6 bc 59 21 6d 3e 7d f7 aa bd df a9 82 be
       -0.028123707 0.23157252 -0.08347986 -0.25520226
000320 d2 47 5e be 97 f8 45 be 56 f3 1b be d7 93 d4 bc
       -0.21707085 -0.19333111 -0.15229544 -0.025949402
000330 35 c5 9c 3e 7c 69 27 3e 65 ac 18 3d dc 80 5f bd
       0.30619207 0.16348833 0.037273783 -0.05456625
000340 75 c8 ac bd f2 75 1e be da b3 57 be 66 41 5d be
       -0.08436672 -0.1547468 -0.21064702 -0.21606979
000350 0f d0 24 be 1d a6 da 3d 17 75 65 bc 33 2d ca bc
       -0.16094993 0.10676215 -0.014004967 -0.024679756
000360 9a cd 11 3e a8 95 fc 3b e1 cf 17 bd d2 eb 87 3d
       0.14238587 0.00770827 -0.037063483 0.06636776
000370 55 61 e6 3d b6 39 75 ba 8b 43 75 3e 66 47 64 3e
       0.11249033 -0.0009354608 0.23951547 0.22292861
000380 57 23 60 3e df 40 8d 3e 37 3d 88 3d b0 ae 3b be
       0.21888481 0.27588555 0.06652301 -0.18328357
000390 34 10 83 bb 71 12 a3 3c da 1b 10 be 17 dc 94 3c
       -0.0039997343 0.019906254 -0.14073125 0.018171353
0003a0 f6 69 8d bc 4f a4 2e be dd a8 cc bc 93 f5 28 bc
       -0.01726244 -0.17054866 -0.024982864 -0.010312456
0003b0 39 e7 98 3d 9d 47 8d bc df db 6a 3d 0b 06 4b 3c
       0.07465977 -0.017246062 0.05733859 0.0123915775
0003c0 41 da 38 bd ac a1 19 bc 41 0b 2e 3e 76 e1 55 be
       -0.04513002 -0.0093769245 0.1699648 -0.20886788
0003d0 b7 8e 45 bd 5d 3a 5f 3e ad 2f 06 3e f1 42 35 3e
       -0.048231807 0.21799608 0.13104124 0.17701317
0003e0 9b dd 2a 3e 7a 40 0f 3f a7 8b 2f bb e4 08 63 be
       0.16686098 0.5595776 -0.002678612 -0.2217136
0003f0 48 88 40 3e 44 12 98 3c b5 70 4b be cf d7 8b 3d
       0.18801987 0.018563397 -0.19867213 0.068282716

conv4.bias f4 [32]
000000 ec 0b ac b8 f9 1a 1f ba 3f 43 5a 39 9e 65 d9 b9
       -8.20382e-05 -0.0006069388 0.00020815151 -0.00041465176
000010 98 c5 02 ba 9c 81 57 b9 75 79 42 ba 6d 3f 18 ba
       -0.000498855 -0.00020552281 -0.0007418611 -0.0005807791
000020 e9 97 0d 3a 2a b5 8d b9 4c 9b 19 b9 b9 cf 1e ba
       0.00054013595 -0.00027028593 -0.0001464907 -0.0006058175
000030 92 fe 39 39 8d cd 25 ba e7 08 43 3a 33 23 34 ba
       0.0001773781 -0.000632488 0.0007439986 -0.00068717
000040 00 79 b1 39 c1 cd 4a b9 bc e8 8a b9 a2 95 07 3a
       0.00033850223 -0.0001934087 -0.00026494812 0.00051721383
000050 60 57 46 3a 1e c2 04 ba 0d 31 9e 38 b9 08 85 b9
       0.00075661205 -0.0005064326 7.5431635e-05 -0.00025374236
000060 61 8a 2c b9 f3 38 26 38 ec 73 3e 3a f5 f7 19 b7
       -0.00016454748 3.9630522e-05 0.00072651985 -9.177243e-06
000070 3d 16 c0 b9 e7 bc b7 b8 82 3d 86 b9 c9 99 32 3a
       -0.00036637663 -8.761306e-05 -0.000256043 0.0006813077

bn4.weight f4 [32]
000000 be 14 56 3f 3a 52 92 3f 77 df 72 3f cb fc 65 3f
       0.836254 1.1431344 0.9487223 0.89838856
000010 c0 db 8c 3f d9 de 76 3f 2c a0 57 3f f9 5e 4d 3f
       1.1004562 0.9643379 0.8422878 0.8022304
000020 bb 9b 80 3f a7 5f 71 3f 61 be 86 3f 62 dc 67 3f
       1.0047525 0.9428658 1.0526849 0.9057065
000030 2d 81 80 3f 9a 82 56 3f ba 6d b6 3f 95 75 63 3f
       1.0039421 0.8379303 1.4252236 0.8885129
000040 39 62 8f 3f ec 37 20 3f 78 2d 54 3f d2 da 45 3f
       1.120185 0.6258533 0.8288188 0.7728702
000050 3c 31 5b 3f b1 24 63 3f a0 b9 6c 3f d8 bb 87 3f
       0.85622 0.8872786 0.9247074 1.06042
000060 0c d4 31 3f 3f ed 6b 3f 14 8a 07 3f 91 79 79 3f
       0.6946418 0.92158884 0.52945065 0.9745112
000070 0b 78 68 3f 58 9c a1 3f a0 db 67 3f 8e 49 80 3f
       0.9080817 1.2625837 0.90569496 1.0022447

bn4.bias f4 [32]
000000 47 e8 7d 3d 0e 90 b7 be 7e 38 1b be 91 e5 0d 3e
       0.061989095 -0.35852093 -0.15158269 0.13857104
000010 36 95 a2 be af d0 f3 be ae 4b b2 bc 24 78 ef bd
       -0.31754464 -0.4762015 -0.021764603 -0.11692837
000020 8e ee 46 be e6 e4 cc be ee 00 63 be 38 cc 67 3e
       -0.19426939 -0.40018386 -0.22168323 0.22636497
000030 9d 32 af be 79 4c 9a 3b f0 71 26 bf 5b a5 91 3d
       -0.34218302 0.0047088233 -0.65017605 0.07111617
000040 7c b7 ab be bf 5f fc 3e 54 d5 27 3e 9c 29 e7 3d
       -0.33538425 0.49291798 0.16389972 0.11287233
000050 ea 72 b8 3e 19 ff 25 be 16 b4 df 3d 00 ef 98 be
       0.36025172 -0.16210593 0.109230205 -0.29869843
000060 88 fa 21 3e 02 4f 08 be 08 66 15 3f ed 17 93 3b
       0.15818226 -0.13311389 0.5835881 0.004488936
000070 53 f2 83 be 8f 37 1c bf b7 f4 b5 be 59 62 8c be
       -0.25770816 -0.61022276 -0.35538265 -0.27418783

bn4.running_mean f4 [32]
000000 9b e7 27 40 9c 51 6e bf 24 1d 05 bf 2b 1f 30 c0
       2.623511 -0.93093276 -0.5199759 -2.7519023
000010 98 e0 2e be a1 aa 2a 3f 4e 5a 57 3f 32 d2 bf 3f
       -0.17077863 0.6666661 0.8412217 1.4986022
000020 93 aa c2 be bf c6 e4 be d3 0f ac 3e 5f 26 c5 bf
       -0.38020763 -0.4468288 0.33605823 -1.5402335
000030 f8 57 0d bf 18 35 91 bf 8f c6 c3 bf 66 46 e5 3f
       -0.55212355 -1.1344328 -1.529497 1.7912109
000040 5d ef 8c bf d5 70 83 3f c8 4c 01 bf 91 a6 9e bf
       -1.1010548 1.0268809 -0.50507784 -1.2394582
000050 85 4b c6 be b4 43 e3 bf e4 19 bd 3f d0 b2 02 c0
       -0.38729492 -1.7755036 1.4773526 -2.0421638
000060 0b da 6d 3f 81 b5 ba 3d 52 99 e3 bf 99 26 6d c0
       0.9291083 0.091166504 -1.7781165 -3.7054808
000070 5f ca 6c bf db 87 b9 bf ae 5e 92 bd 97 1f 18 be
       -0.92496294 -1.4494585 -0.07146965 -0.148558

bn4.running_var f4 [32]
000000 75 f7 62 40 2a d8 62 40 3b 7a 46 40 d6 21 5f 40
       3.5463536 3.5444436 3.1012104 3.4864402
000010 5d 72 4b 40 c5 e8 09 40 1f 3c 3f 40 f4 a3 06 40
       3.1788552 2.1548321 2.9880445 2.103757
000020 5a e3 51 40 cf 18 3a 40 de a8 8b 40 51 fc aa 40
       3.2795014 2.9077642 4.3643637 5.3433003
000030 58 83 55 40 93 d1 7f 40 11 9e 95 40 03 7c 86 40
       3.3361416 3.9971664 4.675545 4.202638
000040 44 fd 90 40 f6 7b 51 40 fd e7 71 40 8a 68 56 40
       4.530916 3.273191 3.7797844 3.3501306
000050 0d 29 91 40 52 10 76 40 fe f4 87 40 c8 0d 3f 40
       4.536261 3.844746 4.2486563 2.9852161
000060 0f d2 28 40 31 04 39 40 12 14 92 40 76 2b 83 40
       2.637821 2.8908808 4.56495 4.0990553
000070 09 34 24 40 63 cb 60 40 55 2c 35 40 c3 54 5b 40
       2.565676 3.5124137 2.8308308 3.4270484

conv5.weight f4 [32, 32, 3, 3]
000000 a4 4e b5 3d c1 21 27 3d 8d 86 6d 3e b5 9d 53 bd
       0.0885289 0.040803675 0.23195858 -0.051664073
000010 43 86 df 3d 5b b1 c9 3e f2 56 cd bd 39 f9 43 be
       0.1091428 0.39393124 -0.10026349 -0.1913804
000020 fa 76 ca bc 35 3e 47 bc b3 f1 33 3d e6 86 f3 bc
       -0.024714936 -0.012160827 0.043931674 -0.02972741
000030 07 e3 ae bd 27 de 6f b9 17 46 5f 3d d0 d3 26 be
       -0.08539396 -0.00022875574 0.054510202 -0.16291738
000040 a0 33 1c be 1d 20 80 bd a2 a8 9e 3d 07 49 1d be
       -0.15254068 -0.06256125 0.07747008 -0.15359889
000050 e4 bf e6 bc fd f4 cc bd e9 80 18 be 33 de d8 bd
       -0.028167672 -0.10007665 -0.14892925 -0.10589256
000060 bf cf 0c be 29 58 c5 bd b3 7a df bd e6 dd 99 be
       -0.13751124 -0.09635956 -0.10912075 -0.30052108
000070 17 2a 32 3e 96 05 92 3e d5 79 cf bd d8 bd c7 3d
       0.17398869 0.28519887 -0.101306595 0.09753007
000080 62 b9 08 be ab f3 8f 3e 60 0a 62 3e de ff 3c be
       -0.13351968 0.2811559 0.2207427 -0.1845698
000090 78 b6 07 be 7f 58 80 3d 5d fa d9 3d f3 83 d4 bd
       -0.132532 0.06266879 0.10643456 -0.1037673
0000a0 fb 31 1e be 0d c7 ed bd 9f b7 46 3d a9 4e b3 bd
       -0.15448754 -0.116102315 0.04851496 -0.087552376
0000b0 57 e7 23 bd 17 d3 74 bb cc 02 56 3d de 92 60 be
       -0.040015545 -0.0037357265 0.05224876 -0.21931025
0000c0 c1 bc ac 3d cf 32 1e bd 27 cd 8e be d5 c4 0c bc
       0.084344395 -0.038622674 -0.27890894 -0.00859185
0000d0 53 e0 85 be ce 3d 3c be 8f bf 3b 3f 72 dc cd 3e
       -0.26147708 -0.18382952 0.7333917 0.4020725
0000e0 4a 25 4a bd c6 69 58 3d 87 b8 3c 3c f5 39 e2 3d
       -0.049351968 0.05283525 0.011518604 0.11046211
0000f0 03 69 0b be 60 7f 7e 3d f3 62 5b 3e 67 8e a9 bd
       -0.13614278 0.062133193 0.21424465 -0.08279114
000100 6a 0d 4e be 3d 41 59 be 4b 74 92 be b5 95 8c be
       -0.20122305 -0.21216293 -0.2860435 -0.27457967
000110 f6 03 97 be 96 df 9c be d1 a3 94 be 87 b1 e1 be
       -0.2949521 -0.30639333 -0.29031232 -0.44080755
000120 ba d3 c2 3c 2f cc 35 be 67 9b 63 3c 1a aa 01 be
       0.0237826 -0.17753671 0.013892031 -0.12662545
000130 23 55 62 be 7e c1 50 3c 84 79 af 3c 6a 76 d4 bd
       -0.2210279 0.012741445 0.021420248 -0.10374148
000140 83 90 cf 3c 32 27 1f be fc 69 9b bc 42 cc 7f be
       0.025337463 -0.15542296 -0.018971436 -0.24980262
000150 01 8a dd bd 94 81 0b 3c 03 73 f5 bc aa b1 1b bd
       -0.10817338 0.008514781 -0.029962068 -0.03801123
000160 c2 cd 42 3c 7c d1 de 3d 7c 50 c3 bd 96 09 b1 3c
       0.011889877 0.108798 -0.095368356 0.021611016
000170 d4 00 3e 3e 9d ad 4c 3e 65 0d 1c 3d 1c fe c3 3d
       0.18555003 0.19988103 0.03809871 0.09569952
000180 cd b6 be 3e 4c ef 09 3e cd 03 8f 3e a3 eb da bd
       0.3724884 0.13470191 0.27932587 -0.106894754
000190 8c 66 71 3d e0 b1 12 be 4c 20 85 bc 1d 74 8b 3d
       0.058935687 -0.14325666 -0.016250752 0.06809256
0001a0 87 c7 ab 3d a9 09 25 bd 5c 50 17 bd 4a 90 c3 3d
       0.08387666 -0.040292416 -0.03694187 0.09549005
0001b0 60 0d 9d 3e 97 01 c4 3c b5 05 e9 bd bb 6d a0 3d
       0.30674267 0.02392654 -0.11378042 0.078334294
0001c0 a4 11 1a 3c de 1b 0d 3c 2a 2e 06 3e f7 2a 46 3d
       0.00940362 0.008612601 0.13103548 0.04838082
0001d0 fe a6 c9 ba 71 24 0d 3d 74 82 6e be e7 30 38 be
       -0.001538485 0.03445858 -0.23291951 -0.17987405
0001e0 ce a7 8c 3d 18 4d 99 bd 68 83 76 bd 59 fa 89 bd
       0.06867944 -0.074854076 -0.060183913 -0.06737203
0001f0 61 fe 18 bd 08 f7 39 be 44 60 09 be 9b d9 5b be
       -0.03735197 -0.18160641 -0.13415629 -0.21469729
000200 7d 97 b3 bb dd d1 0b be 25 cc ea bc 6d 9c 6d 3e
       -0.0054807053 -0.13654275 -0.028661797 0.23204203
000210 46 54 ac bc 86 86 6a bd 87 e9 a5 3d fb 93 77 bd
       -0.021036278 -0.057257198 0.081011824 -0.06044386
000220 95 4c 97 bd 45 2d 94 3c 6b 9e 6c bd 24 63 31 be
       -0.07387654 0.018087992 -0.057768267 -0.17322975
000230 4c 4b b0 bd d1 61 04 be da 50 df bd e0 1a 52 bd
       -0.08608112 -0.12927939 -0.10904093 -0.05129516
000240 fd e2 97 bc 14 0e 8c bc 3f a2 d5 3d 44 a4 7d bd
       -0.018540854 -0.017096557 0.104313366 -0.061924234
000250 ed d1 6a bd 9a ef d1 bb 95 1b 80 be ea 1c 35 be
       -0.057329107 -0.0064067366 -0.25021043 -0.17686811
000260 62 2c c6 bd 14 56 a6 be 13 ab 91 be 0b 18 17 be
       -0.09676434 -0.32487547 -0.28450832 -0.14755265
000270 95 d7 87 3d 02 82 21 3d bd cd f5 bc a2 cb 46 3e
       0.06632916 0.039430626 -0.03000533 0.19413617
000280 89 e2 0a 3d c4 b7 17 ba 11 12 f7 3d bb 88 85 bd
       0.033907447 -0.0005787576 0.12063993 -0.0652022
000290 09 b1 8b be 20 db 25 be a0 54 1f 3c 22 7c 19 3e
       -0.27283505 -0.16196871 0.009724766 0.14988759
0002a0 dc de 54 bd 3f b3 16 3d d9 06 8d 3e e1 ef b0 be
       -0.051970348 0.036792036 0.27544287 -0.34558013
0002b0 d1 f1 e0 bd e1 b2 3c 3e 18 0f 84 bd d3 12 2f 3d
       -0.10983623 0.18427612 -0.064481914 0.04274256
0002c0 68 c7 6a bd 87 0c 26 bd 78 c3 7d bd e3 8f a7 bd
       -0.057319075 -0.04053929 -0.06195399 -0.08181741
0002d0 61 be 45 bc c4 34 4b 3e 61 03 fc 3e 6b 94 38 be
       -0.012069316 0.19844347 0.49221328 -0.18025367
0002e0 2a 4f dd bd 3a 66 0a bd 96 ff a6 be 5d 47 3e bd
       -0.10806115 -0.033788897 -0.32616872 -0.046454776
0002f0 08 1c 4f bd 71 cf 44 3e 6c 9b 3b 3d fd 7a 54 3d
       -0.050563842 0.19219758 0.04580252 0.051875103
000300 96 fb cc 3d 29 f9 04 3e 2e 7d 15 3e f2 f6 1f bd
       0.10008924 0.12985672 0.14598534 -0.039053865
000310 e1 4e aa 3d dd fa 5d 3e 8e 74 05 3e 8d cc f8 3d
       0.08315826 0.21677728 0.13032743 0.1214839
000320 8a 1b 98 3d 7c 71 54 3d 2b 5c 46 3b 30 16 0b be
       0.07427128 0.05186604 0.0030267339 -0.13582683
000330 39 2a 1a 3e e3 16 94 3c 2e 3b bb bd 21 79 87 3d
       0.15055169 0.01807732 -0.09142147 0.066149004
000340 6b 55 7e 3e 68 df 82 3e a2 9e a4 3e c1 e2 9b 3e
       0.24837272 0.2556107 0.32152277 0.30446437
000350 55 6c 42 bd cb c5 9e 3e d3 d4 85 3e 8c 4d 07 3e
       -0.047466595 0.3101028 0.26138934 0.13213176
000360 95 5e 69 be a0 59 02 bd a2 83 13 3e a3 1f 1a 3d
       -0.22789986 -0.031823754 0.14405683 0.037627827
000370 31 fa 0b be 7f b2 9f ba 7a d1 0e 3e 36 60 51 be
       -0.13669659 -0.0012183933 0.13947096 -0.20446858
000380 3c e5 59 3d ca 99 d7 3d 1b b2 d5 be 4e f0 17 be
       0.05319713 0.1052738 -0.41737446 -0.14837763
000390 51 e5 ba 3d cc 07 c8 bd 63 17 89 bc 6e c2 20 be
       0.0912577 -0.09767112 -0.016734784 -0.15699169
0003a0 44 3d 86 bd 4a 7b 26 3d b5 d2 39 3e 05 2d 9b be
       -0.06554654 0.04064492 0.18146785 -0.30307785
0003b0 c0 e3 f8 be 55 cf fd 3d 39 12 54 be 29 d9 64 be
       -0.4861126 0.12393061 -0.20710076 -0.22348465
0003c0 39 b0 9d 3e 95 d7 1c 3e 38 5d 05 3e 5e 95 61 3c
       0.3079851 0.15316613 0.13023841 0.013768522
0003d0 5c 50 d5 bc 4e 9c b5 3d 2f 32 1b 3d cc ff af bd
       -0.026039295 0.088677034 0.037889656 -0.08593711
0003e0 71 24 49 3d c3 10 96 3d 02 a2 e8 bd 58 94 cc bd
       0.04910702 0.07327416 -0.113590255 -0.09989232
0003f0 8b 10 4c be 42 40 36 be e4 75 31 bc aa ad ca 3d
       -0.19928186 -0.1779795 -0.01083133 0.09896405

conv5.bias f4 [32]
000000 f7 3f 04 3a 5d ec 83 b9 4a 3b d4 b9 8a a9 8f 39
       0.0005044932 -0.00025162371 -0.00040479965 0.00027401402
000010 be ff b4 39 4f cf 3d 3a 85 38 d6 39 7e 23 1a ba
       0.00034522818 0.0007240669 0.0004085937 -0.00058799225
000020 e2 0d 13 ba e3 f7 0b ba 7f 46 de 39 92 53 89 39
       -0.00056096737 -0.0005339367 0.00042395663 0.0002619294
000030 6b 89 f2 b9 d5 ef fc 37 c9 8a 04 b9 50 48 1e ba
       -0.0004626022 3.0152421e-05 -0.00012640202 -0.0006037997
000040 20 d8 3b b9 88 05 15 ba f1 03 e3 b9 65 d2 3f 3a
       -0.00017914223 -0.0005684723 -0.0004329975 0.0007317423
000050 46 fe 27 3a 9f 03 a3 39 2b 5f 28 3a e5 f0 a7 b7
       0.0006408434 0.0003109248 0.00064228725 -2.0020127e-05
000060 d5 de b1 b9 86 48 81 b9 0c 82 15 38 97 4e 90 39
       -0.00033926094 -0.00024658832 3.5645484e-05 0.00027524374
000070 c2 6f 30 3a b5 de 27 3a 40 25 2d ba 7b 9a af 39
       0.00067305204 0.00064037304 -0.0006604977 0.00033493698

bn5.weight f4 [32]
000000 8c ce 78 3f c5 1b 49 3f 3c 45 61 3f 75 30 70 3f
       0.97190166 0.78558 0.8799627 0.9382394
000010 12 a5 3b 3f 1f 35 3e 3f be 29 5d 3f 05 36 42 3f
       0.7329875 0.74299806 0.8639182 0.7586368
000020 19 56 56 3f 8c fc 80 3f e5 b5 69 3f d8 44 82 3f
       0.83725125 1.0077071 0.91293174 1.017726
000030 18 a7 50 3f 16 15 8b 3f 84 6a 6e 3f 04 2e 5d 3f
       0.81504965 1.086581 0.9313128 0.8639834
000040 09 9d 56 3f bd e1 57 3f f0 71 45 3f ac bc 59 3f
       0.83833367 0.84328824 0.7712698 0.85053515
000050 30 31 2e 3f 38 55 52 3f 2e 5c 30 3f d1 9f 8c 3f
       0.68043804 0.82161283 0.68890655 1.0986272
000060 8e 71 66 3f 3b 39 8b 3f fd cb 2b 3f bd 4e 3d 3f
       0.9001702 1.087684 0.67108136 0.7394827
000070 be f2 7a 3f 38 ca 85 3f cf ef 3c 3f 48 fb 31 3f
       0.98026645 1.0452337 0.7380342 0.6952405
