model_weights/Tiny10/CIFAR10/in12-gn12/110000.pt (torch_old, 358762 bytes, 50 tensors)

conv1.weight f4 [16, 3, 3, 3]
000000 d9 f7 40 3e e0 f7 38 3f d4 e8 c4 3e 38 e6 8c be
       0.18844546 0.7225323 0.38458884 -0.27519393
000010 b3 89 d8 bf 97 53 10 3f b7 1d 08 3e 68 be 3a 3d
       -1.6917022 0.5637755 0.13292585 0.04559174
000020 42 8d 5f be 2a 55 ee 3e f2 68 29 be 9b 01 c3 be
       -0.2183123 0.4654935 -0.1654394 -0.38087162
000030 bc 76 80 3e 90 a4 e1 bf b3 0f 65 3e eb 06 cd 3e
       0.25090587 -1.7628345 0.2236927 0.4004434
000040 88 4c 92 3f 83 3a 93 3e 68 9e 1e 3e 98 71 0e 3e
       1.1429605 0.28755578 0.15490115 0.1391052
000050 4b 6b 7e 3d 24 e9 25 3d e4 a3 a5 bf 37 da 02 3f
       0.06211404 0.040505543 -1.294064 0.5111422
000060 a5 f7 85 be 98 30 85 3e 74 63 37 3e d8 e4 23 3f
       -0.261655 0.26013637 0.17909032 0.6402106
000070 1a b1 25 3e 17 72 33 bf 0f ff 7e 3f fd 3a a3 3e
       0.1618084 -0.7009596 0.9960794 0.31880942
000080 52 5c a3 bf 94 ff 57 3f c3 f7 0c 3e 0f 3b 8d bf
       -1.2762549 0.84374356 0.13766389 -1.1033648
000090 c9 89 05 be 01 0d 4e 3d 00 24 77 3e 11 4e ad be
       -0.13040842 0.05030537 0.24134827 -0.33848622
0000a0 a0 0d 8f 3d be ec 0f bd 88 9b e0 bd 1f 87 be 3d
       0.06985021 -0.035137884 -0.10967165 0.09303116
0000b0 89 17 1a 3e 54 63 42 bf ef 09 34 bd 66 0a 1c 3f
       0.1504804 -0.7593281 -0.043954786 0.60953367
0000c0 2e 5e 50 bf 79 d0 bf 3e d8 8c 3c 3f 3a ff 52 bf
       -0.81393707 0.3746374 0.7365241 -0.82420695
0000d0 9b cd bd 3d 33 62 27 3f 4e 0f fc bd 8c 9d fa bd
       0.09267732 0.65384215 -0.12307607 -0.12237081
0000e0 75 ea 38 be f8 97 74 3e fb a7 bf 3e d8 6c 8e 3e
       -0.18058188 0.23886096 0.37432846 0.27817416
0000f0 5b e1 e7 3d 9e 41 e1 3d 1c 98 83 3d d7 31 bc 3c
       0.1132228 0.109988436 0.06425497 0.022972984
000100 05 fd 6b 3d 32 80 1f 3e 0f c4 9b 3d ae b2 87 3e
       0.057614345 0.15576246 0.076057546 0.2650351
000110 31 0c e4 3e 49 3d 3e be b5 71 00 be 24 d7 a3 3d
       0.4454055 -0.18578066 -0.12543376 0.08000019
000120 7d b0 fd 3d 22 5c 1d bc fc a3 39 3e 7f 36 a8 be
       0.12387178 -0.009604486 0.18128961 -0.32854077
000130 80 a4 c9 be c8 3b ff bc 11 04 92 be 71 57 c2 be
       -0.39383316 -0.031156436 -0.28518727 -0.37957337
000140 74 fb a3 bc cc 28 20 bf 20 88 83 bf ed e6 f7 be
       -0.020017363 -0.6256225 -1.0275917 -0.4841837
000150 16 81 51 3e c0 cc fb 3e dd f8 92 3e 18 2e 8b 3f
       0.20459399 0.4917965 0.28705493 1.0873442
000160 48 33 f4 3f ad aa b5 3e e3 21 6d 3e 51 bd 4e bc
       1.907815 0.35481778 0.23157458 -0.012618379
000170 c3 9f 1a 3f 16 a4 89 bf 6e 4e b2 bf 88 68 1f bd
       0.6040003 -1.07532 -1.3930185 -0.03891805
000180 db 0e 03 bf 4a 41 76 bf 16 c8 5a be 91 d9 26 3f
       -0.5119454 -0.96193373 -0.21365389 0.6517573
000190 97 07 4e 3f 2b 49 89 be 2f 9c af 3e 35 85 9f 3e
       0.8048033 -0.26813635 0.34298846 0.31156316
0001a0 61 e3 06 3e 40 07 52 be c9 d0 b1 be 61 c0 4f be
       0.13172676 -0.20510578 -0.34729603 -0.2028823
0001b0 d1 7c c5 3e 49 e1 5f 3f a8 d9 04 3e 35 b5 61 3f
       0.3857179 0.8745313 0.12973654 0.88167125
0001c0 c8 78 77 be 72 1c 86 bd 4c 9c 2f 3f a7 2b 79 bf
       -0.24167168 -0.06548394 0.68597865 -0.97332233
0001d0 3d 15 3f bf 3d d8 9e be 79 1f 13 bd 57 de 24 3f
       -0.7464178 -0.31024352 -0.035918687 0.64401764
0001e0 c6 55 47 bf 1c da 87 bf 62 3e 43 3f 2c e8 28 bf
       -0.77865255 -1.0613437 0.76267064 -0.65979266
0001f0 8a 43 4d bf 4b 75 47 3f ec 72 2a be e4 6d fb be
       -0.8018118 0.7791335 -0.16645402 -0.49107277
000200 13 7f 5c bf da 2f 3c 3f df 7f 52 be 30 52 2a be
       -0.861314 0.73510516 -0.20556591 -0.16632915
000210 16 5e 8a 3f e6 36 a1 3e 2c 1f a7 3e d3 b6 76 be
       1.0809963 0.31487197 0.3264097 -0.2409318
000220 8a 04 31 3d 91 eb d4 3c 6c ab ef 3e eb c1 05 3e
       0.04321722 0.025991233 0.46810472 0.13062255
000230 78 a9 07 bf 0f d7 10 3e 70 75 7c bd f4 bf 8d 3d
       -0.52992964 0.14144538 -0.061635435 0.06921378
000240 5d 33 42 3e 05 82 37 be c5 ff 17 bf de ad 93 3f
       0.18964906 -0.17920692 -0.5937465 1.1537435
000250 d2 0a cb 3d d9 53 89 bf fb c5 23 3f 8d 95 9a bd
       0.09914173 -1.0728713 0.6397397 -0.07548056
000260 f8 e8 85 be 8c 95 7c 3e 04 f8 33 bd 55 b7 cc be
       -0.26154304 0.24666423 -0.043937698 -0.3998362
000270 2f bb 99 3f 45 0e 16 3e 4a 32 a0 bf f3 2d 2b 3f
       1.2010249 0.14653881 -1.2515347 0.6686699
000280 21 49 b0 bd ee 9f 16 bf 6d 63 e1 3d 81 7f 4a be
       -0.08607698 -0.58837783 0.11005292 -0.19775201
000290 d2 1f 0b be 5c 75 64 bc d3 ca 56 be 58 9d 2c bd
       -0.13586357 -0.013943996 -0.20975809 -0.042142242
0002a0 8d 64 15 be 09 6c 08 3d d6 ed 97 3e 60 6d 88 be
       -0.14589138 0.033306155 0.29673642 -0.26645947
0002b0 a5 65 a4 be 7c 76 3e be 43 c8 7f bd 6e 5e 42 bd
       -0.321088 -0.18599886 -0.062446844 -0.047453336
0002c0 21 c7 51 3d 6d c4 db 3d 0e c0 cf 3e 0a a8 e8 3e
       0.051215295 0.107308246 0.40576214 0.45440704
0002d0 4a 61 1a 3d 74 da e6 bd 77 fd 12 be 20 42 1b be
       0.03769044 -0.112721354 -0.14354502 -0.15161943
0002e0 09 80 7b be c6 53 49 be a0 e8 b4 be ee 97 ec bd
       -0.2456056 -0.19660863 -0.3533373 -0.11552416
0002f0 fa f5 99 3c 75 fa ca 3c 3a e3 3d be c4 66 ba be
       0.018794049 0.02477763 -0.18543711 -0.3640653
000300 a8 d5 73 3e cc a2 1f 3e a6 df cd bd 37 91 ab bc
       0.23811972 0.15589446 -0.10052423 -0.020943267
000310 f4 6f 52 bb 90 7f 88 bd 26 70 b9 3e 6c d4 6d 3d
       -0.0032110186 -0.066649556 0.36218375 0.05806391
000320 0d c2 98 be 9e 2a d1 3e 9a fd 97 3e 98 e1 92 bd
       -0.2983555 0.40852827 0.2968567 -0.07171935
000330 cd 32 90 bd 7c fe cf bc b8 f5 8c bd fd 10 dc 3e
       -0.070409395 -0.025389902 -0.06882805 0.4298171
000340 ce 91 30 3e b7 bb 8f bd d5 c4 84 3e 81 63 42 3e
       0.1724312 -0.07018226 0.2593142 0.1898327
000350 f6 74 78 b8 3e 6c 0e be 1e 74 f2 bd 77 62 0a bd
       -5.9236736e-05 -0.13908479 -0.11838554 -0.03378531
000360 13 98 0f 3f 50 85 33 bf cc 83 ed 3e ed 2f d1 bf
       0.5609142 -0.70125294 0.46389616 -1.6342751
000370 99 3e bd 3f 9b fb 9f bc 60 cb bd 3c b8 fb 2a be
       1.4784728 -0.019529155 0.023168266 -0.16697586
000380 0b 9d 31 3d f3 f7 fb bd 70 7f f4 be da ac b7 be
       0.04336266 -0.12303152 -0.47753477 -0.35874063
000390 ad 6b 90 bf ce 0e f1 3f 8c 64 f9 bd 50 94 9e 3d
       -1.128286 1.8832643 -0.12177381 0.07743132
0003a0 e2 42 7b be d7 c4 02 3f b1 85 64 3f 84 d2 3e be
       -0.24537233 0.51081604 0.89266497 -0.18634993
0003b0 48 3c 4f bc 34 d5 03 3d fd 04 83 3f 88 a7 b1 bf
       -0.0126486495 0.03218575 1.0235897 -1.3879251
0003c0 ef 47 87 3e 90 d4 b5 be 7d b9 89 be 2f 7c e2 3d
       0.26422068 -0.35513735 -0.2689933 0.110588424
0003d0 d1 1e 80 bd 3e 29 4d 3e 5f cd 65 3e 12 d2 66 bf
       -0.06255878 0.20035264 0.22441624 -0.9016429
0003e0 0b 77 10 be 7d d0 5d 3e 37 85 c5 be 7a 98 40 3e
       -0.14107911 0.21661563 -0.38578197 0.18808165
0003f0 64 c9 36 bc f6 c5 e6 bd f3 e1 b9 3c ea 72 17 3e
       -0.011156414 -0.11268227 0.022690749 0.1478993

conv1.bias f4 [16]
000000 41 f7 98 3a ff 62 01 3a 44 4c f9 3a 7f 5e 09 ba
       0.0011670367 0.0004935711 0.0019019921 -0.0005240216
000010 e8 61 3b 3a 67 91 ad 36 d1 44 60 ba 82 2f 00 3b
       0.0007148073 5.172729e-06 -0.00085551763 0.0019559567
000020 20 0f 00 bb 91 32 22 bb 22 b4 68 3a a4 f7 24 3a
       -0.0019540265 -0.0024749378 0.00088769395 0.0006293005
000030 b4 e2 42 3a 92 7e 70 3a 24 c9 93 3a b5 56 94 3a
       0.0007434294 0.0009174134 0.0011275155 0.0011317345

bn1.weight f4 [16]
000000 04 72 9b 3f 43 4e 25 3f b1 b2 3f 3f 1f b1 04 3f
       1.214417 0.6457254 0.74882036 0.51832765
000010 07 30 39 3f 31 29 41 3f 89 e9 7f 3f cb ad 50 3f
       0.7233891 0.7545348 0.9996572 0.8151519
000020 87 10 77 3f 77 d7 b1 3f 97 fd 23 3f ac 99 0e 3f
       0.96509594 1.389388 0.6405882 0.55703235
000030 ab 32 88 3f e3 76 fd 3e 94 90 c5 3e 38 fd 2e 3f
       1.0640463 0.49504766 0.38586867 0.6835513

bn1.bias f4 [16]
000000 85 3a 83 3f 0c 29 92 bd 90 61 89 bf 54 5a 1a 3f
       1.0252234 -0.07136735 -1.0732899 0.6029408
000010 5b a2 61 3f b5 5e e5 3e fd b0 44 bf 0a 04 d9 be
       0.8813836 0.44798818 -0.7683256 -0.42385894
000020 a7 46 bb 3f 0e ed 63 bf 50 80 81 3e 25 f5 ec 3e
       1.4630936 -0.8903359 0.25293207 0.4628078
000030 6d c9 3c bf 60 df 67 3e 0e 92 39 3e 36 02 00 3f
       -0.7374485 0.22643805 0.18122122 0.50003374

bn1.running_mean f4 [16]
000000 69 a8 91 bd 59 15 0e 3c e5 bb 99 bd 98 32 17 3d
       -0.071122 0.008672082 -0.07506541 0.036913484
000010 9b fd c7 bc 9d 1b 80 3c 1f b9 86 3e a0 96 38 be
       -0.02441292 0.015638167 0.2631311 -0.18026209
000020 d5 0c 02 3c 02 b3 53 3e 79 4b 57 3d bc 7a a5 3d
       0.00793763 0.20673755 0.05256221 0.0808005
000030 26 b7 33 3e 7b 37 b0 3c 8a 9a da bd 0d 0c 2e bc
       0.17550334 0.02151083 -0.10674007 -0.01062299

bn1.running_var f4 [16]
000000 53 2d 59 40 4c f6 8d 3f b7 06 b4 3f a4 66 0b 40
       3.3933914 1.1090789 1.4064549 2.1781397
000010 0f de f3 3f 9f 0c 6a 41 b7 49 84 40 82 f0 45 40
       1.9052142 14.628081 4.1339984 3.0928044
000020 b8 c4 bf 3f 32 dc 59 40 01 78 2b 41 c0 0e 58 41
       1.4981909 3.4040647 10.716798 13.503601
000030 9e 00 27 40 d8 13 bc 40 2c 2e 14 40 2f d7 36 41
       2.6094127 5.8774223 2.315318 11.427535

conv2.weight f4 [16, 16, 3, 3]
000000 5c a2 39 bd 07 28 36 3f de 44 cc 3c d7 95 1b bf
       -0.045320854 0.71154827 0.024935182 -0.6077551
000010 84 22 c1 bd 80 49 d5 3e 51 ce 48 3e e0 30 db be
       -0.094304115 0.4165764 0.19609953 -0.42810726
000020 ec 10 12 be 73 23 6d 3e 00 13 47 3e 55 50 cd bc
       -0.14264268 0.23158054 0.19440842 -0.02506272
000030 0e 0c f3 bd 2d ae aa 3d 39 0d 0b 3e 5d 42 70 bd
       -0.118675336 0.08334003 0.13579263 -0.05865704
000040 71 2c b3 bd 90 ea 9d 3d 37 1d 39 be f2 b5 5f 3d
       -0.08748711 0.07710755 -0.18077551 0.054616876
000050 e2 a3 86 3e 43 4d 5c be b6 fc 78 bd 7f 3f 16 3e
       0.26296908 -0.21513848 -0.06078788 0.1467266
000060 5b 44 15 be f5 2c 10 be 33 d7 87 bd 61 e4 ed bc
       -0.14576857 -0.1407965 -0.06632843 -0.029039564
000070 17 0e 96 3e e5 69 ed 3e e6 82 fa be df 10 df bd
       0.29307625 0.46369854 -0.48927993 -0.1089189
000080 12 82 f6 3e 3b f6 df be c1 92 d0 be a2 b7 93 3d
       0.4814611 -0.43742546 -0.40736964 0.072127596
000090 84 ed c9 bc 00 b4 c2 3b d4 f8 68 3d 8b 40 3b 3c
       -0.02464939 0.005941868 0.056877926 0.011428962
0000a0 8b b9 0f be 07 3a 38 bc b2 92 e6 3d 95 96 09 be
       -0.14035623 -0.011244304 0.11258449 -0.13436349
0000b0 dd 2a 35 3e d3 3d 62 3e 3a fb 8e bd 45 d5 be be
       0.17692132 0.22093897 -0.069815114 -0.37272087
0000c0 65 f8 86 3e 3d 6a cc 3e a7 42 83 3e b5 c2 a4 be
       0.26361385 0.39924803 0.2563679 -0.321798
0000d0 23 ab f1 bd fe db 83 3e 59 52 6c bd 66 4a 77 be
       -0.1180022 0.25753778 -0.05769572 -0.24149475
0000e0 2d e9 ab be b1 bb c1 3c 8f 65 08 3c dd b6 d2 3c
       -0.33576337 0.023649069 0.008324995 0.025721962
0000f0 a2 e0 fb bd 1b 45 aa 3c 6a 4b 46 3e d6 04 aa bd
       -0.12298705 0.020784905 0.19364706 -0.08301704
000100 97 9d ce bd ce 35 00 3e be 49 a1 3d 3b 08 e0 3d
       -0.100886516 0.12520525 0.07875393 0.1093907
000110 82 31 61 bb 5a 49 41 bd e9 d9 a9 3d 61 31 01 3e
       -0.0034361784 -0.047189094 0.08293516 0.12616493
000120 ef 8a f7 3d c1 e6 72 be d0 a2 a9 be 59 00 99 3e
       0.12087046 -0.23720838 -0.3313203 0.29883078
000130 3c c6 ab bc 7a 01 da be 0a 51 8b 3e bd 88 95 3e
       -0.020968549 -0.42579252 0.27210265 0.29205886
000140 36 f7 ba 3d 66 9a 71 bd fe 64 40 3e fa df 8d 3c
       0.09129183 -0.058985136 0.18788525 0.017318714
000150 64 1f 38 be 6d d7 c8 3c fe f6 ea 3e 59 66 02 be
       -0.17980725 0.024516786 0.45891565 -0.12734355
000160 68 75 d5 be 2d 72 48 be 9f 57 2f bd 59 bd 8b be
       -0.41691136 -0.19574805 -0.04280817 -0.27292898
000170 2d 93 b2 3d 63 63 b7 3d 54 46 ad be 94 b3 4c be
       0.08719478 0.089545034 -0.3384272 -0.19990379
000180 01 c9 f9 3e 35 ab 92 bb 96 bd 8d be df dc 75 be
       0.48786166 -0.004475976 -0.27683705 -0.24010037
000190 62 57 98 bd e2 d8 02 3d 48 6e 03 3e fd 90 61 3a
       -0.07438542 0.031945117 0.12835038 0.0008604674
0001a0 70 91 c3 3c 2b 57 1a 3d 20 d4 28 bd af 83 4d 3d
       0.023873061 0.037680786 -0.041217923 0.05017441
0001b0 17 66 57 be bb 2e 08 3e c0 ee 31 3e ec 55 52 be
       -0.21035038 0.13299076 0.17376232 -0.20540589
0001c0 da 1b 65 be 38 47 b7 3d 1e fd a7 3e 16 69 7d bd
       -0.22373906 0.08949131 0.328103 -0.061867796
0001d0 c2 d1 24 be bf 0b be bc 90 ea 68 be a8 6f 3b be
       -0.16095641 -0.02319896 -0.22745728 -0.18304312
0001e0 af d9 ac 3e 2b f1 76 bd fe 88 94 be 45 a9 c1 3e
       0.3375983 -0.06028859 -0.29010767 0.37824455
0001f0 b6 e1 0c 3e c5 ff cd bd b2 29 43 bc a6 ca cd bd
       0.13757977 -0.1005855 -0.011911796 -0.10048418
000200 a2 9e c2 bd 45 6c 3a 3d ff 14 ac ba 93 26 10 be
       -0.09502913 0.04551341 -0.0013128816 -0.14077215
000210 40 c1 d1 bd 45 91 d3 3c e3 a8 e4 bc 7a 22 98 be
       -0.10241938 0.025826106 -0.027912563 -0.29713804
000220 6a b3 61 3e f0 db e0 3e c8 89 f5 be 47 f5 10 bf
       0.22041097 0.439178 -0.4795668 -0.56624264
000230 d1 48 6c bc 86 1c ac 3e c8 aa c2 be 4a ad 1b bf
       -0.014421658 0.33615512 -0.3802092 -0.60811293
000240 c5 ec 98 be 54 91 43 be a7 ca 31 3e cf 3e 45 be
       -0.2986814 -0.19098407 0.17362462 -0.19262241
000250 66 2c d4 3c d5 2a fe bc 4c e5 52 3d aa 74 66 3e
       0.025900077 -0.031026283 0.051488206 0.22505441
000260 b6 8a 85 3e f9 3b 77 bd 26 5c ed bc 41 05 67 3d
       0.2608239 -0.06035993 -0.028974604 0.056401495
000270 db 38 09 bd e1 49 63 be f9 e4 85 be d2 ce 34 3d
       -0.033501487 -0.22196151 -0.26151255 0.04414255
000280 f4 76 7d be 02 eb 8e be 96 ea 45 be 1d 9b df bd
       -0.24752408 -0.27913672 -0.19327769 -0.109182574
000290 c0 a8 6d 3d f9 5a a8 be b1 0a 84 be 81 b9 dc bd
       0.05802226 -0.32881907 -0.25789407 -0.107775696
0002a0 06 02 96 be 7f 40 93 be 5c 5c 49 be be 99 fc 3e
       -0.2929842 -0.28760144 -0.19664139 0.49336046
0002b0 7b 44 9e 3e 67 e2 ed bd f3 73 31 3e 9f 7c f3 bd
       0.3091162 -0.116154484 0.17329387 -0.11889004
0002c0 d2 c7 06 bf 71 80 37 3e fe 75 6e bd 8e 42 6a be
       -0.5264865 0.1792009 -0.058217995 -0.22876951
0002d0 1d 91 62 be f3 fd 84 bd a8 2c ad be f2 16 8e 3d
       -0.22125669 -0.064937495 -0.33823133 0.0693797
0002e0 8a 7e 9f 3e 5e 6e 98 bd 8b d9 27 bd d1 c9 7f 3d
       0.3115123 -0.07442926 -0.04097895 0.062448326
0002f0 81 da 04 be 29 7a d0 3d 6b ea 58 3e 9d cb 3a 3e
       -0.12973978 0.1017955 0.21183173 0.18241735
000300 b1 87 5f 3e 92 84 22 3e 06 ed 25 bd 36 d5 91 3d
       0.21829106 0.15870884 -0.040509246 0.07120745
000310 21 15 65 3d 97 29 84 bb a9 6b 54 3e 2a 89 d2 bb
       0.055928353 -0.004033278 0.20744194 -0.0064250426
000320 20 3d 34 be 15 c1 9b bd ab 55 ea bd f8 90 f6 bd
       -0.17601442 -0.07605187 -0.11442121 -0.12039369
000330 7a 40 3f be 38 65 9d bd 42 f3 78 bb 5e fe 6d be
       -0.1867694 -0.076853216 -0.003798679 -0.23241565
000340 93 4f e6 bd 67 01 9e bc 86 b5 52 be 9f 86 11 be
       -0.11245646 -0.019287778 -0.20577058 -0.1421151
000350 98 d9 0e be 90 77 f8 bd a1 46 cd bd 5a f1 e0 bd
       -0.13950193 -0.1213218 -0.10023237 -0.10983534
000360 6a 1c 1f bd 4a 36 bb bd e0 86 b8 bd 18 4e 24 3e
       -0.038845457 -0.09141214 -0.090101 0.16045415
000370 15 2e 14 bc d3 ee 82 bc fb 3a ee 3d 8f f8 84 bc
       -0.00904419 -0.01598302 0.116323434 -0.016231803
000380 9d c1 67 be 37 b1 2b bd 94 04 3b be 01 1a 17 bd
       -0.22632451 -0.041917052 -0.18263465 -0.036890034
000390 44 c2 8a bd 67 51 a0 be b0 66 cb bc 1c 50 b3 bc
       -0.067753345 -0.31312105 -0.024829239 -0.021888785
0003a0 04 53 53 be 32 ff f2 3c c0 12 4c be 6f 48 81 be
       -0.20637137 0.029662702 -0.19929028 -0.25250575
0003b0 62 5a fb bd b4 9c 5b be 4b ec 35 be 63 8a 28 bd
       -0.122730985 -0.21446496 -0.1776592 -0.0411476
0003c0 93 c3 a2 bd c7 d0 3f 3d 89 b3 4e bd cf 48 2d bd
       -0.07947459 0.046829965 -0.050464187 -0.042305764
0003d0 0a 5c 00 be 51 12 83 be 22 17 fd 3d e9 89 a3 bd
       -0.1253511 -0.25599912 0.12357928 -0.07985289
0003e0 26 3d 53 be eb 19 0e 3d 39 00 61 be 2a fb 75 be
       -0.20628795 0.034692686 -0.21972741 -0.24021593
0003f0 f8 5a 62 be f4 7c 67 be 1b 11 e2 bd 77 65 84 be
       -0.22105014 -0.2260626 -0.11038419 -0.25858662

conv2.bias f4 [16]
000000 b5 3f a9 39 3e f4 5d ba 0d 95 77 ba 45 f4 84 b8
       0.00032281657 -0.0008466876 -0.00094445125 -6.339749e-05
000010 2d 90 71 ba 46 7d 3f 3a b3 72 6a 39 57 b6 83 3a
       -0.0009214904 0.0007304739 0.00022358708 0.0010048848
000020 5f ad 9b 39 75 35 38 3a 8c 07 45 3a fa 17 0e ba
       0.00029693075 0.00070270087 0.0007516078 -0.0005420443
000030 cc 31 82 ba db 89 7c 39 74 22 18 ba 81 3b 58 ba
       -0.0009933054 0.00024083948 -0.0005803474 -0.0008248613

bn2.weight f4 [16]
000000 b0 01 ad 3f 80 47 55 3f c5 19 6c 3f 25 a1 dc 3f
       1.351614 0.83312225 0.9222682 1.7236677
000010 1d 6c 9c 3f b2 3a 84 3f a9 02 a7 3f 6b e7 ee 3f
       1.2220494 1.0330412 1.3047687 1.8664373
000020 8c d3 83 3f 7b 4b 8e 3f 36 d6 2b 3f 9d e3 34 3f
       1.0298934 1.1116785 0.67123735 0.7065981
000030 7b 24 b2 3f 9b 36 99 3f 81 7b 90 3f 35 3b a4 3f
       1.3917383 1.1969789 1.128769 1.2830569

bn2.bias f4 [16]
000000 ba 0f 9e bd d4 5b 9d 3e 13 c1 94 3e 12 db a5 bd
       -0.07717843 0.30734122 0.29053554 -0.08098425
000010 5e 97 3b be e8 f7 3f 3f c6 af 06 be 12 09 98 bc
       -0.18319461 0.7498765 -0.1315299 -0.018559013
000020 ba 55 34 be a5 f8 ef 3c ce 03 15 3f f6 48 a5 3e
       -0.17610827 0.029293368 0.5820893 0.32282227
000030 eb 6c 4b bd 81 7e 93 bd d0 aa d6 bd 9d 2e e5 3c
       -0.04966442 -0.07201863 -0.10481799 0.027976329

bn2.running_mean f4 [16]
000000 98 a3 46 bf 05 a4 42 c0 67 26 f3 bf 3a 25 d9 be
       -0.77593374 -3.041261 -1.8996094 -0.42411214
000010 de 78 96 bf e4 9c 30 c0 9d fd d0 bf d9 9c 3d be
       -1.1755636 -2.7595758 -1.6327397 -0.18516864
000020 bf f4 cb 3e c6 44 87 3f db 7a c4 3f 7b 64 46 bf
       0.39835164 1.0567863 1.5349993 -0.7749707
000030 6c 85 ba bf f1 ee d0 be 1d 8c 97 3d ce fa d2 3f
       -1.4571967 -0.40807298 0.07399771 1.648279

bn2.running_var f4 [16]
000000 ea a4 ec 40 cb 40 6c 40 7f 84 1d 40 b1 9d 89 41
       7.395131 3.6914546 2.461212 17.201998
000010 ba 0a c3 40 e0 c6 ae 40 bd 2b a0 40 37 fe 00 42
       6.0950594 5.4617767 5.005339 32.248257
000020 0f ea 04 40 56 1b ac 40 aa 3f 1d 40 f9 60 f6 3f
       2.0767858 5.378337 2.4570107 1.9248344
000030 20 8c 24 41 54 3e d5 40 2e 26 81 40 f0 18 fa 40
       10.28421 6.6638584 4.0359106 7.815544

conv3.weight f4 [32, 16, 3, 3]
000000 5f 18 6c 3e a7 ce bf bd 19 f7 35 be 9b de 13 3e
       0.23056172 -0.09365588 -0.17770042 0.14440386
000010 a2 69 3a be 79 5e 63 be 79 93 bc bb cd a2 e2 bd
       -0.18204358 -0.22204007 -0.005754885 -0.11066208
000020 e8 3e 57 3d d7 7f 1d 3b 6b 04 3c bc 08 f5 84 3d
       0.052550226 0.0024032497 -0.011475663 0.064920485
000030 d3 d4 d4 bd 23 1f 3f bd 97 4c 5d 3d b3 de 98 3c
       -0.103921555 -0.046660554 0.05402812 0.018660879
000040 25 91 b7 3d a3 de 2c bc c1 0d 19 3e df 93 f6 3d
       0.08963231 -0.010551128 0.14946653 0.12039923
000050 b9 d4 a6 bc 6a 16 88 3b 68 27 88 3c fa 3c 48 3d
       -0.020365106 0.0041530626 0.016620353 0.048886277
000060 8b 81 d8 be e4 2a 1e be 8a 2b 6d 3b 4b 41 a1 be
       -0.42286333 -0.15446049 0.0036189281 -0.31495127
000070 1a ed 15 bf 68 6d d5 be 94 7c 34 bf cb d9 81 bf
       -0.58564913 -0.41685033 -0.7050259 -1.014459
000080 0a 67 cc be 45 bb 03 bf db 88 0f bf 4c a1 f4 bc
       -0.39922363 -0.51457626 -0.560682 -0.029862069
000090 33 30 a4 bd d5 fa a9 3d 97 45 46 3e ed dc fb bd
       -0.08017006 0.082997955 0.19362484 -0.122979976
0000a0 9a 6e c4 3d 0b b7 be 3e 4d f3 c5 bd 1b 1f 27 3e
       0.09591408 0.37249026 -0.096655466 0.1632046
0000b0 1b 56 bb 3e f6 4b 82 be 32 d0 61 bd 0a cf 90 3e
       0.3658913 -0.2544858 -0.05513019 0.28282958
0000c0 b8 89 88 be 17 28 d5 bd 67 f2 58 3e 41 5e 93 be
       -0.2666757 -0.10408037 0.21186219 -0.28782848
0000d0 a4 53 76 bd ed 23 78 3e c9 05 4b 3d 6a 0d 96 3e
       -0.06013836 0.24232455 0.049566064 0.2930711
0000e0 17 88 af 3e 01 12 a7 bc a6 ba 56 3e 34 e6 b7 3e
       0.34283516 -0.020394327 0.20969638 0.3591782
0000f0 8f 48 c9 bd 1f f0 aa bd 4e 62 a9 3d 10 93 0d be
       -0.098282926 -0.08346581 0.08270703 -0.13825631
000100 45 2b 9c be 0d b7 42 be 94 dd f2 bd 5d 19 80 be
       -0.30501762 -0.19015141 -0.11858669 -0.2501935
000110 c1 ad 97 bd 50 92 25 bc af eb 68 bc e7 40 90 3b
       -0.07406188 -0.010105684 -0.014216348 0.004402268
000120 83 8d 45 bd 16 45 5a be 1e 2f 27 be 55 05 58 bc
       -0.04823066 -0.21315417 -0.16326568 -0.013184865
000130 24 22 8c be 28 87 90 bd 79 0d b0 bc 0f d5 e1 bd
       -0.27369797 -0.07057029 -0.0214908 -0.11026966
000140 a5 8c 58 bc 7b 5e 68 3d 21 40 3f 3e 9c c8 a9 bd
       -0.013217126 0.05673073 0.18676807 -0.08290216
000150 4d b2 89 3e 6f 52 2c 3e 49 f3 98 bc 99 6a a2 3d
       0.26893845 0.16828321 -0.018670695 0.07930488
000160 ed c7 23 be 57 bc 3d be 90 10 82 bd c2 b5 cf bd
       -0.15994234 -0.18528877 -0.06350815 -0.101420894
000170 09 bc a1 bd 11 e0 21 be 4f 17 47 bc 78 5c 86 3d
       -0.07897193 -0.15808131 -0.012151553 0.06560606
000180 27 09 1e be 70 af 9b 3d 1b f1 6b 3e 63 21 ec 3d
       -0.15433179 0.076018214 0.23041193 0.115298055
000190 b2 b6 b9 bb 3a dd 99 bd f4 39 4b bc f6 59 89 bc
       -0.005667531 -0.07512899 -0.012403954 -0.01676653
0001a0 d7 31 2d 3d 7c 4d dc bc 48 b7 9b 3d c6 90 90 3d
       0.04228386 -0.026892416 0.076033175 0.07058863
0001b0 33 83 78 be 0a d5 82 bc 80 81 c3 bd 9d 5d b4 bd
       -0.24268799 -0.015970726 -0.095461845 -0.08806918
0001c0 8b b2 66 bd cb 3c 8b 3d d5 93 92 3d 7e 84 69 3e
       -0.056322616 0.06798705 0.07157103 0.22804448
0001d0 e0 11 a6 3e ae b7 fe bd 54 36 ef be f5 44 c0 be
       0.32435513 -0.12437378 -0.46721137 -0.3755261
0001e0 8f 81 fe bd 8e 54 e3 be 3d 48 7b be 5b b8 99 bd
       -0.12427055 -0.44400448 -0.24539275 -0.07505866
0001f0 91 23 5d be 33 9c 3d bd 16 03 8e be 35 23 a0 be
       -0.21595599 -0.04629154 -0.2773673 -0.3127686
000200 74 e9 8c 3c 62 66 7f be 81 ad 62 be f0 37 53 3e
       0.017201163 -0.249414 -0.22136499 0.20626807
000210 b8 33 2f be 01 69 0c be 54 1c f5 3d 96 e0 75 3d
       -0.17109573 -0.13711931 0.11968294 0.060028635
000220 1c e1 61 3d ec 48 8d 3d 52 03 10 3e 20 32 d7 3e
       0.05514632 0.06898674 0.14063767 0.4203043
000230 8f e0 b3 3e ea 5c 6a 3e 25 93 c9 3e 08 ac 4a 3e
       0.35132262 0.22887006 0.39370075 0.19792187
000240 d0 5f cf bd 47 af db bd de b4 fb 3d 5a 6d 08 be
       -0.10125697 -0.10726791 0.12290357 -0.13322964
000250 03 db e5 3c 23 d0 34 3e af 97 9c bd 41 5a 6c 3d
       0.028058534 0.17657523 -0.07646119 0.05770326
000260 7f 31 ec 3d 81 c0 ea 3c 48 59 b8 3d bf 8e 8e 3e
       0.11532878 0.028656246 0.09001404 0.27843282
000270 c3 de 10 3e 06 2b 47 3e 1f 94 ab 3e 6a 19 de bc
       0.14147477 0.19450006 0.33511445 -0.027111728
000280 69 16 4d bd 21 42 9c 3d 57 72 28 be 7c af fc bd
       -0.0500702 0.076298006 -0.16449867 -0.123381585
000290 4b 10 52 bd e1 4e f6 be bc 69 e7 be d8 46 55 be
       -0.05128507 -0.48107055 -0.45197856 -0.20827806
0002a0 8b 56 d0 be 6d 64 50 be a2 85 61 3d f0 a4 fb 3d
       -0.40691027 -0.2035081 0.055059083 0.12287319
0002b0 61 36 84 3d d7 ad 70 3d 09 c2 bc 3d a7 74 94 3d
       0.064556845 0.058759537 0.09216697 0.07248812
0002c0 19 4b 54 3c 65 2b 5d 3c f1 27 09 bd 44 7f 9f bd
       0.012957358 0.013499116 -0.033485357 -0.07787946
0002d0 4a 87 dc 3c bc ef 35 be 4f 4f b7 bd 71 9d a2 3b
       0.02691998 -0.17767233 -0.08950674 0.004962616
0002e0 97 c7 6f bd d3 18 9a 3c 6a 18 2b 3c 3a fe 32 3e
       -0.058539953 0.018810665 0.0104428325 0.17479792
0002f0 ff 45 c9 3d 01 31 79 be 0f c2 84 be d3 9a 91 be
       0.09827804 -0.243351 -0.25929305 -0.28438434
000300 06 34 06 be 32 82 58 3a 72 6f 6c bd d3 8b 55 bd
       -0.13105783 0.00082591467 -0.05772347 -0.0521353
000310 41 f4 e7 3d d9 01 24 3d 78 55 94 ba 2b 6e 14 3d
       0.113258846 0.040040825 -0.0011316976 0.036237877
000320 03 d4 33 bd 2e 91 e4 3d 4d 08 3c 3e 84 58 5f 3e
       -0.043903362 0.11160503 0.18362541 0.2181111
000330 7b c6 e1 3d 88 b7 3f 3e ab f8 12 3e 9c 63 81 be
       0.11024185 0.18722355 0.14352672 -0.25271308
000340 b9 1b 6a be ed 67 41 be 53 2a 83 3c 2c cc 44 3e
       -0.22862138 -0.18887301 0.016011393 0.1921851
000350 38 81 3b 3e 42 6f 97 3e 61 05 12 3f f6 ba d4 3e
       0.18311012 0.2957707 0.5703946 0.4154889
000360 1a 4d 50 3e 41 d9 e5 3d 7c 97 f8 3d dd e6 e1 bc
       0.20341912 0.112230785 0.12138268 -0.027575905
000370 10 69 8d bd 5c c5 b6 bd e2 34 99 be af b1 84 be
       -0.06904805 -0.08924362 -0.2992316 -0.25916812
000380 73 b2 81 be e0 54 f5 bd 3c 12 99 bc 5a 71 a3 3e
       -0.25331458 -0.11979079 -0.018685453 0.31922418
000390 35 7e 2e be 13 12 72 3c f6 87 66 3e 3e 57 d3 bd
       -0.17040332 0.014774817 0.22512802 -0.103193745
0003a0 e1 cd a2 bc f7 1f d4 3b c0 93 91 3d 7b 1c 32 bc
       -0.019873561 0.006473537 0.07108259 -0.010871048
0003b0 e1 18 b5 bd 13 14 1a be 42 fb 1e be 32 b8 3a be
       -0.08842636 -0.1504672 -0.15525535 -0.18234327
0003c0 8a e2 90 be 5c 85 4d be 3e e2 84 be df c3 7d be
       -0.28297836 -0.20070404 -0.2595386 -0.2478175
0003d0 14 ba 3f be a5 7d 80 be b8 37 93 bc 19 06 a8 bc
       -0.18723327 -0.2509586 -0.017970905 -0.02051072
0003e0 89 10 92 bc 43 4d 2d 3c 8d 71 d4 bd c9 7a 0a be
       -0.01783015 0.010577503 -0.103732206 -0.13523401
0003f0 54 58 2d be c7 02 a8 be 64 7f 3c be 75 ec 61 be
       -0.16928226 -0.3281462 -0.1840797 -0.22062857

conv3.bias f4 [32]
000000 80 38 2f b9 ce 3f 7e 3a 74 98 27 3a 1f 27 13 b9
       -0.00016710348 0.00096988387 0.0006393262 -0.00014033586
000010 38 17 ea 39 d9 51 64 3a bf ea 03 3a a4 1c 48 3a
       0.00044649257 0.0008709706 0.00050322333 0.00076336623
000020 9f 83 fb 39 c6 b4 50 39 77 ab c9 b9 fe d1 80 3a
       0.00047972516 0.00019903769 -0.0003846546 0.0009828208
000030 1b 79 8b 3a b4 03 05 3a 45 78 af b9 f8 4e 20 b9
       0.0010640951 0.0005074099 -0.0003346821 -0.00015288207
000040 b4 ce 91 b8 f4 8d 0a 3a de 33 1c ba d8 2b 82 3a
       -6.95264e-05 0.0005285435 -0.00059586565 0.0009931279
000050 5f a0 2c b9 85 4e b6 39 ed f1 93 b8 cf e0 30 b9
       -0.00016462941 0.00034772247 -7.0545684e-05 -0.00016868416
000060 1c 81 4a ba ea 89 77 ba dd b8 04 3a 04 ba 5e ba
       -0.0007724927 -0.0009442853 0.0005062947 -0.00084963464
000070 92 a3 31 ba 6c 8b 41 3a 1d 02 d6 39 a9 e8 3d b9
       -0.0006776388 0.0007383141 0.00040818835 -0.00018111117

bn3.weight f4 [32]
000000 94 b8 b6 3f 49 61 2b 3f 94 0b 81 3f a6 23 73 3f
       1.4275079 0.6694532 1.0081658 0.9497627
000010 e8 1b 8b 3f 1c 69 2e 3f e0 fe 21 3f 96 fc 5b 3f
       1.0867891 0.68129134 0.63279533 0.8593229
000020 85 13 7e 3f 2f 19 60 3f a9 fd 52 3f d0 31 60 3f
       0.99248534 0.8753843 0.82418305 0.8757601
000030 05 51 77 3f 5a 88 30 3f 80 e3 8a 3f 54 cf 62 3f
       0.96608 0.68958056 1.0850677 0.8859761
000040 bf 61 67 3f d4 01 6f 3f 3c 0d 90 3f 14 33 6b 3f
       0.90383524 0.93362164 1.1254039 0.91874814
000050 b1 33 32 3f ae e8 4d 3f 64 fd 5f 3f 5b 43 33 3f
       0.69610125 0.80433166 0.8749602 0.7002465
000060 86 04 1f 3f a5 59 a7 3f a3 49 79 3f 67 06 d6 3f
       0.6211628 1.3074232 0.97377986 1.6720704
000070 39 84 34 3f 76 f8 80 3f 2e 08 3a 3f 37 86 c1 3f
       0.70514256 1.0075824 0.7266873 1.5119084

bn3.bias f4 [32]
000000 df 60 01 bf af 9a 26 bb db b6 e4 be 55 8f 69 be
       -0.5053844 -0.0025421788 -0.44670758 -0.22808583
000010 5a 95 bc be 9b 20 44 3e ec 35 dd 3e 25 9f 15 be
       -0.36832696 0.19153063 0.43205202 -0.1461149
000020 46 9a 12 bf 15 98 9a bd a5 8c 3d be ab f1 8f be
       -0.5726665 -0.075485386 -0.18510683 -0.28114066
000030 05 5a 10 3e 58 ad bc 3d 4a ee 91 bd 9a 0b 09 bf
       0.1409684 0.0921275 -0.07125528 -0.5353333
000040 69 25 51 be d0 b7 fc 3e 38 54 0e be d5 d2 12 be
       -0.20424427 0.49358988 -0.13899314 -0.14338239
000050 20 57 ae 3d 9e ed 72 bd 16 59 f2 bd 60 a8 bd bd
       0.085127115 -0.05930864 -0.11833398 -0.092606306
000060 f0 e3 55 3e fc 38 bf bd b5 7c 8e 3e 06 4c ea be
       0.20887733 -0.09337041 0.2782952 -0.45761126
000070 e0 f2 1b be ca bc 73 be 40 a8 42 3d b0 1d b6 be
       -0.15229368 -0.23802486 0.047523737 -0.35569525

bn3.running_mean f4 [32]
000000 0e 0a 32 c0 36 24 e9 bf 99 bc 9b bf 69 e0 c9 bf
       -2.7818637 -1.8214176 -1.216693 -1.577161
000010 12 14 3e c0 39 06 d5 bf 29 c3 0d c0 bb 11 c2 be
       -2.969975 -1.6642524 -2.2150366 -0.37904152
000020 0d 77 c0 bf 96 e1 c1 3f 6a 78 54 3e 27 b0 ef 3f
       -1.5036331 1.5146968 0.2074906 1.8725632
000030 50 9b eb bf 2b 13 06 bf c0 d9 ce bf ca a0 0d 40
       -1.8406773 -0.52373 -1.6160202 2.2129388
000040 5b 83 59 c0 15 03 e0 bf 34 92 3b c0 53 e6 6b 3e
       -3.3986423 -1.750094 -2.9307985 0.2303708
000050 ed 7c d4 be 82 02 cb be e7 15 ff be d2 a6 6f 40
       -0.4150156 -0.3965035 -0.49821398 3.744557
000060 2c e7 d8 bf 99 64 1c c0 02 fc d0 bf 0a 85 39 c0
       -1.6945548 -2.44364 -1.6326907 -2.898745
000070 09 5d 33 bf 09 90 08 3e 3b 9e ea 3f 28 60 be bf
       -0.70063835 0.13336195 1.8329538 -1.4873095

bn3.running_var f4 [32]
000000 fa e8 f2 40 69 fa 70 40 5b be 7d 40 ea 44 96 40
       7.5909395 3.7652838 3.9647434 4.6959124
000010 b0 3d e5 40 42 75 5f 40 eb 7c b0 40 71 f5 63 40
       7.16378 3.4915318 5.515249 3.5618556
000020 bc 99 85 40 3e f0 78 40 39 6c 93 40 24 62 8f 40
       4.1750164 3.8896632 4.606961 4.48073
000030 91 28 bc 40 4f 83 66 40 ef c4 cc 40 4a 41 82 40
       5.879952 3.6017644 6.3990397 4.07047
000040 63 bb a0 40 fc 6e 39 41 fc 24 a9 40 f6 af 92 40
       5.0228744 11.589596 5.2857647 4.5839796
000050 f6 ec 3f 40 57 db a1 40 ba 7a 7f 40 1f 8c 81 40
       2.998838 5.058025 3.9918656 4.0483546
000060 b7 bf 45 40 52 33 23 41 c3 77 06 41 62 4b 80 41
       3.0898263 10.200029 8.404239 16.036808
000070 e0 64 94 40 de fc 84 40 13 62 a6 40 76 72 28 41
       4.637314 4.1558676 5.199472 10.527945

conv4.weight f4 [32, 32, 3, 3]
000000 83 ef 5a 3d 32 87 18 be fc 71 42 bd 01 3a 57 3e
       0.053451072 -0.14895323 -0.047471985 0.2101822
000010 0c 36 9d 3c 65 98 34 3d 3b d1 c1 3d 98 56 ee 3d
       0.01919081 0.044090647 0.09463736 0.1163761
000020 38 fb 8c 3c 7b e1 ff bd 7b d8 1c be 5c 2d 7a bd
       0.017209634 -0.12494179 -0.15316956 -0.061078414
000030 3a 7e 61 bc 68 b9 35 be ad 7c bb bd d9 be 36 be
       -0.013763005 -0.17746508 -0.091546394 -0.1784624
000040 46 30 4d be ce 03 4d be 74 b9 df bd ef 41 8e 3d
       -0.20037946 -0.20020983 -0.10924044 0.069461696
000050 e7 62 04 bd ef 1c 56 be b7 f6 01 3e 8e 97 45 3e
       -0.032320883 -0.20909475 0.1269177 0.19296095
000060 b9 85 1e be 8b ed 2e bd 62 89 1a bc c4 21 78 3e
       -0.15480699 -0.042707007 -0.009432169 0.2423163
000070 3e ab a1 3d 50 aa 20 bd ea 5c 5a 3d 12 9c 83 bd
       0.0789399 -0.039224923 0.053311266 -0.064262524
000080 12 35 13 be 98 01 83 be 59 95 7c be f4 d4 6d be
       -0.14375713 -0.25587153 -0.24666347 -0.23225766
000090 57 1e e3 3c 47 fe ec 3d 56 64 85 3e 2f 7a 85 3c
       0.027724428 0.11571937 0.26053113 0.016293613
0000a0 6e 33 b1 bd ca dd 61 3e 65 0e fc bd ad 83 07 be
       -0.086523876 0.22057262 -0.12307433 -0.13233824
0000b0 74 c5 0f be 97 0d df bc b4 4d b4 bd ea fe 3b 3c
       -0.14040166 -0.02722816 -0.08803883 0.0114743505
0000c0 34 fd 92 bc d3 37 d8 3d 9f a7 82 3d 2e b2 1c 3d
       -0.017943002 0.105575226 0.063796274 0.038255863
0000d0 45 96 18 3e fe 05 a1 3e c0 61 98 be 63 dc da be
       0.14901073 0.31449884 -0.29762077 -0.42746267
0000e0 ef 56 31 bd 88 02 b1 bc 1f 88 c1 3d 20 9c eb 3d
       -0.043295797 -0.021607652 0.09449791 0.11504388
0000f0 e9 a0 84 3d b9 5d 9e 3e 4f 75 8e 3d b1 61 92 3d
       0.06476004 0.3093088 0.069559686 0.071475394
000100 8a 90 da bd f3 61 9f 3d 2e 1a 1f 3b 21 e7 4c bd
       -0.106721 0.07782354 0.002427708 -0.05002511
000110 5b 03 86 bd 4b f0 6f be e9 16 9d bc c9 f4 c1 bd
       -0.06543609 -0.23431508 -0.019175963 -0.09470517
000120 78 fe cc 3d 9d 83 cb bd a8 aa 01 3e 47 b7 4b bd
       0.100094736 -0.099372126 0.12662756 -0.049735334
000130 3f 45 29 be 0a 64 01 bc e5 4f 4d be 2c c3 df bd
       -0.16530322 -0.007897386 -0.20050009 -0.10925898
000140 19 a5 2d 3e f3 e9 ad bd 76 d4 50 3d 63 b3 16 3e
       0.16957511 -0.08491888 0.05098387 0.14716868
000150 34 df 08 3e 87 40 85 bd 92 d4 32 3d a8 df 88 3d
       0.13366395 -0.06506448 0.043659754 0.06683284
000160 36 77 58 be c7 31 5c be c3 6c ff be 35 e2 54 be
       -0.21139225 -0.21503364 -0.49887666 -0.20789416
000170 bc a0 22 be ca 7c f4 bd 52 1d 2d be 96 b4 f8 bd
       -0.15881628 -0.11937864 -0.16905716 -0.12143819
000180 7b b3 5a bd 74 fc 53 3d 07 8f 9b bd 87 19 81 3e
       -0.053393822 0.05175443 -0.0759564 0.25214788
000190 3c c4 e8 3d 81 4e b1 3d 5d f0 67 3b da 7a 2c be
       0.11365554 0.086575516 0.003539107 -0.16843739
0001a0 34 99 2a be 5b d0 79 be 84 af b7 bd 54 12 b8 bd
       -0.16660005 -0.24395888 -0.08969024 -0.08987871
0001b0 5c 2e 87 bc c2 cd 53 be 19 d5 de bd eb 5f 22 3e
       -0.016501598 -0.20683959 -0.10880489 0.15856902
0001c0 bb b4 1e be 3f 1c 37 bd 5c ff ea 3d 5e 2f 73 bc
       -0.1549863 -0.044704672 0.11474487 -0.014842836
0001d0 b6 bc 33 3d 97 62 15 be ac 56 b6 3d 08 38 26 3e
       0.04388114 -0.1458839 0.0890325 0.16232312
0001e0 51 2a 89 3d 47 66 83 bb 26 9d d6 3d a0 cc 00 3e
       0.06697524 -0.004009995 0.104791924 0.12578058
0001f0 22 3b a8 3b 64 1f ba 3d 15 fb 22 3d af 4a 3b be
       0.0051340023 0.090880185 0.03979023 -0.18290208
000200 6d 69 8d bd e8 55 1e 3d 64 98 4c be 44 78 e4 bc
       -0.06904874 0.038656145 -0.19980007 -0.027889378
000210 60 42 9d 3e 7f e8 67 3d 0d 75 78 3e bf ff 2a be
       0.30714703 0.05661821 0.24263401 -0.16699122
000220 65 4e 8a bd 6f bd d6 3b 73 74 11 bc b4 65 58 bc
       -0.06753234 0.006553344 -0.008877861 -0.013207842
000230 69 43 9b 3d 88 1f 5d 3d dc bb 93 bd c7 ca 93 bc
       0.07581217 0.05398515 -0.07213566 -0.018041028
000240 5e 74 90 3e 4b b4 b6 3d 03 cb 6b 3d 34 7f 1a 3e
       0.2821378 0.08921107 0.057566654 0.15087587
000250 9d 89 9f bd ac eb 32 be 1e f1 a9 3c 1d 0f 1c bd
       -0.077899195 -0.17472714 0.020744856 -0.03810035
000260 fe 6f a2 bd 1e a0 df 3d 57 54 f2 bd 35 eb 85 be
       -0.07931517 0.10919212 -0.11832493 -0.2615601
000270 c0 62 1f 3e 45 3c b3 bc 1d 7b e4 3c e6 0f 6e 3d
       0.15565014 -0.021879325 0.027890736 0.05812063
000280 35 08 1d 3e 34 6e b0 3e 5c a6 b0 bd 6f ed e8 bd
       0.15335162 0.34459078 -0.086254805 -0.11373412
000290 74 8b ff 3c 08 f0 33 3d f6 ab e2 3c ba 0c 5c 3e
       0.031194426 0.043930084 0.027669888 0.2148923
0002a0 16 db 2a be 99 9f da 3c 8d 8b 39 3e f9 85 4a be
       -0.16685137 0.02668743 0.1811964 -0.19777669
0002b0 8e 0e dc bd 00 98 9b 3e f6 dd 34 3d fe 56 e4 bc
       -0.107449636 0.30389404 0.04415699 -0.027873512
0002c0 ff f5 8b 3e 59 95 de 3d 14 a9 d4 bd bc bb bd be
       0.27336118 0.108683296 -0.103838116 -0.37057292
0002d0 c0 e0 40 3e 9b 7f 9d bd f0 8d 3a be 53 92 9c 3d
       0.18835735 -0.076903544 -0.18218207 0.07645097
0002e0 27 e0 dc bd 57 0f 83 3d ff cc 06 bc 02 8e 06 3d
       -0.10784941 0.0639941 -0.008227586 0.032850273
0002f0 0b 00 01 3d b3 03 7a bb f0 85 3f be 5f 78 87 3e
       0.03149418 -0.0038149178 -0.18703437 0.26459023
000300 38 ad 2d 3e 02 39 95 bd 6c c5 7f 3e 29 6b a4 3d
       0.16960609 -0.07286264 0.24977654 0.08028252
000310 60 cd 1c 3d 3a 79 14 3e a0 ca a0 3e 95 c6 3e 3e
       0.0382818 0.1449937 0.3140459 0.1863044
000320 c2 15 8d 3e e1 5b a7 3d f4 d4 f6 3c 4d 2f 67 3e
       0.27555662 0.081718214 0.03013084 0.22576638
000330 2e e5 83 bd b4 16 9e 3d 80 f8 26 3e c9 b5 90 3e
       -0.06440197 0.07719174 0.16305733 0.2826369
000340 3e c4 94 3e af 9d 07 3e d9 91 e3 3c 2c 6c d2 3d
       0.2905597 0.13243745 0.027779507 0.102745384
000350 95 96 08 3d c4 36 93 bb d1 2d 5f bd 8e 1b ae bd
       0.03334673 -0.0044926126 -0.054487053 -0.085013494
000360 23 69 61 bd 84 56 27 bc e3 f3 a7 bd b0 92 b7 3d
       -0.055031907 -0.010213498 -0.082008146 0.08963525
000370 be 4f 2d 3e 5f 2a 83 3d 5d 67 52 3e 78 a1 9c 3d
       0.1692495 0.06404566 0.20547242 0.07647985
000380 da de 53 bc 2b 5c b8 3e 5f 6d 6b 3e 19 d7 7a be
       -0.01293155 0.3600782 0.2299094 -0.24496116
000390 6c 7f b4 bd 91 29 29 3d b9 5f 56 3e 7d d2 22 be
       -0.08813366 0.041299406 0.20934953 -0.15900607
0003a0 f6 97 08 3c a1 b4 9b 3e 87 75 b7 3d b3 19 7f be
       0.008337012 0.30411246 0.089579634 -0.24912147
0003b0 f1 51 8c be a9 ff 46 3e 6d f7 45 be d0 76 ef bc
       -0.27406266 0.19433464 -0.19332667 -0.029231459
0003c0 3e f0 20 bd 0e 5d 13 3d 67 4e 0b 3e f4 82 32 be
       -0.039291613 0.035977416 0.13604127 -0.17432767
0003d0 3b e4 2f be b6 1a 9c 3e 81 df 0d be 99 e8 cd bd
       -0.17176907 0.3048913 -0.13854791 -0.1005413
0003e0 e5 43 c9 3e 67 1e b9 bd c8 ab 0b 3d ec 81 eb 3e
       0.39309612 -0.09039002 0.03409937 0.4599756
0003f0 ae 9b 01 3e 8e bf 03 3e 40 15 d3 bc 81 d8 be 3b
       0.12657043 0.12866041 -0.025766969 0.005824149

conv4.bias f4 [32]
000000 6c 20 b1 37 66 f9 10 3a 6e d5 17 ba a1 c7 0e ba
       2.1115142e-05 0.00055303273 -0.00057919964 -0.0005446617
000010 04 b8 18 ba e7 d5 b0 39 16 5e 8e b8 1b ae 11 3a
       -0.00058257603 0.00033728706 -6.7886125e-05 0.0005557255
000020 95 0d d0 39 69 49 53 39 c2 f9 6d b8 3a e0 49 3a
       0.0003968297 0.00020149875 -5.673781e-05 0.0007700954
000030 13 1b 08 3a a1 34 21 b8 76 da ad b9 02 22 ee b9
       0.00051920227 -3.8434406e-05 -0.00033159897 -0.00045420235
000040 f0 04 db b9 44 58 8b 37 3b fb 27 b9 ae f9 de b8
       -0.00041774614 1.6611193e-05 -0.00016019952 -0.000106322914
000050 5a 1b 32 b8 2f 50 04 39 40 1c aa b9 cc bc 33 3a
       -4.246398e-05 0.00012618372 -0.00032445975 0.0006856441
000060 a6 8e 2c ba 35 57 f1 b9 a8 f9 5e b8 1e 10 3a 3a
       -0.00065825356 -0.00046032076 -5.3161435e-05 0.00070977386
000070 e1 f5 14 3a 45 5d 49 ba c0 06 8d 39 bd 2b 5d b9
       0.0005682391 -0.000768144 0.00026898645 -0.00021092496

bn4.weight f4 [32]
000000 bb 65 5b 3f 58 91 72 3f c1 ce 48 3f 37 72 33 3f
       0.85702103 0.94753027 0.7844048 0.70096153
000010 4d e0 7a 3f ea dd 72 3f 75 02 7d 3f c5 0d 6f 3f
       0.97998506 0.94869864 0.98831874 0.93380386
000020 eb ad 64 3f da ef 41 3f d3 e1 90 3f e4 90 75 3f
       0.8932788 0.7575661 1.1318916 0.9592421
000030 75 ce 92 3f da 50 a4 3f 6c 3a 8c 3f 83 9e 75 3f
       1.1469256 1.2837174 1.0955329 0.95944995
000040 5d 4b 6d 3f 3d 82 4e 3f 8f 15 7d 3f e6 78 43 3f
       0.9269312 0.8066748 0.9886102 0.7635635
000050 de 90 89 3f 7d d5 73 3f 6e 6e 8f 3f cf 10 90 3f
       1.0747335 0.9524763 1.1205575 1.125513
000060 09 62 6e 3f 3c 63 82 3f 14 d9 76 3f dd 4d 5f 3f
       0.9311834 1.0186534 0.96424985 0.87228185
000070 4b 10 5d 3f 21 d6 85 3f c3 09 54 3f 7a 38 4c 3f
       0.86352986 1.0455972 0.82827395 0.79773676

bn4.bias f4 [32]
000000 d1 fa 76 3c be 34 98 be a2 4f 0c 3e 28 8d bd 3e
       0.015074448 -0.2972774 0.13702253 0.37021756
000010 a1 ae 2f be 2b 10 92 bd 5a bb ca 3c 89 d8 22 be
       -0.1715646 -0.0713199 0.02474754 -0.15902914
000020 ac ad 74 bd 99 44 02 3e 57 80 fa be 14 c1 c5 bd
       -0.05973594 0.1272148 -0.4892604 -0.09655967
000030 93 e8 01 bf 5f 49 54 bf f8 b0 48 be d3 ec 8f 3e
       -0.50745505 -0.82924455 -0.19598758 0.2811037
000040 61 b2 0b 3c e3 14 2d 3e 51 c4 84 be ca 7e 7e 3e
       0.008526416 0.16902499 -0.25931028 0.24853054
000050 cc 25 f5 3b ea cc 0f 3e 78 2a 9b be ff 13 e8 be
       0.0074813124 0.14043012 -0.3030584 -0.45327756
000060 ae c0 e5 bd ee 02 9c be 25 66 77 be f5 ca 31 be
       -0.11218391 -0.30470985 -0.24160059 -0.17362578
000070 02 a8 7b be 13 5b a4 be 72 7d 13 3c f7 f5 4f 3c
       -0.24575809 -0.32100734 0.009002076 0.01269292

bn4.running_mean f4 [32]
000000 3a e9 5f 3f 66 51 f5 bf f8 e5 fe be 70 a9 85 be
       0.8746525 -1.9165466 -0.49784827 -0.26105833
000010 e1 62 c0 bf 38 c1 be 3f 4c b3 b2 3c 16 fd 03 c0
       -1.5030175 1.4902716 0.021814011 -2.0623221
000020 95 d2 88 bd b9 6c 47 be 9c 50 b0 bf 6a d1 5a bf
       -0.0668079 -0.19475068 -1.37746 -0.8547579
000030 89 cf 86 bf 13 1c ae bf 04 00 83 bf 24 3e ab 3f
       -1.0532085 -1.3602318 -1.023438 1.3378339
000040 fb b1 08 c0 f7 ff 34 3f fc f6 cb 3e 5c 5e da be
       -2.135863 0.7070307 0.39836872 -0.42650115
000050 49 06 26 c0 c5 98 d4 bd 8a 78 3c be c7 7b a2 bf
       -2.5941336 -0.10380701 -0.18405357 -1.2694024
000060 1a 60 6f bf 67 25 ae be 75 21 8d be 15 3a dd bf
       -0.93506014 -0.3401291 -0.27564588 -1.728335
000070 6a 8d 1f 3f 3d 45 6b 3d 0f b3 c3 3e 7e 42 a6 bf
       0.62325156 0.057439078 0.38222548 -1.2989042

bn4.running_var f4 [32]
000000 fd c2 34 40 5a c8 3c 40 49 7c 6d 40 55 1d 6f 40
       2.8244011 2.9497285 3.7107108 3.7361653
000010 f8 da 2c 40 60 ae 43 40 2c d2 41 40 29 2d 23 40
       2.7008648 3.057518 3.0284529 2.5496314
000020 f1 40 66 40 36 26 31 40 35 8f 1d 40 f0 71 39 40
       3.5977137 2.7679572 2.4618657 2.8975792
000030 07 e0 46 40 f9 60 27 40 8c e0 6b 40 da fd 62 40
       3.1074235 2.6152937 3.6855803 3.5467439
000040 81 a8 26 40 31 0d 21 40 d6 43 4a 40 cd f2 3f 40
       2.6040347 2.5164301 3.1603904 2.9991944
000050 30 df 78 40 7b ab 5f 40 91 68 59 40 da 01 38 40
       3.8886223 3.4948413 3.3970072 2.875113
000060 8b 34 62 40 05 e8 29 40 fe 5e 36 40 f4 68 01 40
       3.534457 2.6547863 2.8495479 2.0220308
000070 63 26 1e 40 3c d7 52 40 47 6e 33 40 e6 7b 10 40
       2.471093 3.2943869 2.8036058 2.2575622

conv5.weight f4 [32, 32, 3, 3]
000000 89 12 c8 bd c6 66 94 bd 62 14 e7 3b e8 ef bb bd
       -0.0976916 -0.07246165 0.0070519904 -0.09176618
000010 ff 59 e6 bc 57 33 16 3e 24 de cc bd 6f 8f 8f 3c
       -0.028119085 0.14668022 -0.100033075 0.01752445
000020 0f 40 8f 3e 05 88 74 3c 8e 52 ff bd 9c 53 bc bd
       0.2797856 0.014925008 -0.12466918 -0.09195635
000030 36 8c 09 3d 5e f3 87 bb 9d c3 1a bd c3 a7 0c 3e
       0.03358098 -0.0041488847 -0.037784208 0.13735871
000040 af 7f 9e 3c 76 85 0c be 64 d8 90 be d6 f7 24 bd
       0.019347994 -0.13722786 -0.28290093 -0.040275417
000050 e1 f6 90 bd 7a 07 84 bd 26 ee 4d 3a 36 4c 95 bd
       -0.070783384 -0.064467385 0.0007855616 -0.07289927
000060 0e f6 57 3e 12 0a 5e 3e 60 0b 41 3e 06 c5 b5 3d
       0.21089956 0.21683529 0.18851995 0.0887547
000070 63 ed 0e 3d 06 3c 91 be 2b b9 68 bd e2 3f ba bd
       0.03489436 -0.28366107 -0.056817215 -0.09094216
000080 d0 8d 72 be 61 26 b6 bc 40 8f 0a 3d a6 ba ee bd
       -0.2368691 -0.022235097 0.03382802 -0.11656694
000090 78 c3 94 3e 20 75 5b 3d 50 d4 fb 3d 86 5f a2 bb
       0.2905538 0.053578496 0.12296355 -0.004955235
0000a0 54 df 51 3c 91 e8 8c 3d 00 94 3e bd 8a 87 54 3d
       0.012809593 0.06880296 -0.046527863 0.051887073
0000b0 3a b6 e1 3d 89 8e f7 3d 9b fa e2 3d 94 95 1a 3e
       0.11021085 0.12087733 0.110829554 0.15096122
0000c0 5a 0f 4a bd 86 f4 90 bd bf 24 ca bd ff ba 32 be
       -0.049331047 -0.07077889 -0.0987029 -0.17454146
0000d0 09 6e 56 be 11 a4 5b be 33 67 1b 3d ae ce a4 3d
       -0.20940413 -0.21449305 0.037940215 0.080472335
0000e0 c4 41 cb 3d 4f fe 35 3e 74 ee 16 3d a3 da 3f 3e
       0.09924653 0.17772792 0.0368485 0.18735747
0000f0 50 01 ed 3e cb f3 ac 3e 71 b2 0f 3f e8 80 f0 bc
       0.46290064 0.3377975 0.56131655 -0.029358342
000100 06 b5 16 be 3a 77 69 bd e8 1f 18 bd 9f 4d e2 3a
       -0.14717492 -0.05699847 -0.037139803 0.0017265565
000110 ce 8a 0e 3d d3 90 30 3e 1b 72 bd 3d 27 3c dc 3d
       0.034800343 0.17242746 0.092502795 0.10753661
000120 b6 b7 d6 bd ad 1d 3f bd 64 88 a2 3e d7 9f 33 be
       -0.10484259 -0.04665916 0.31744683 -0.17541443
000130 72 27 10 3d f7 b0 91 3e 42 87 32 bf f9 28 af be
       0.035193868 0.28455326 -0.6973764 -0.34210947
000140 2e 3f 2a 3e fc d4 80 3d 24 72 80 3d eb 99 d2 bd
       0.16625664 0.062906235 0.062717706 -0.10283264
000150 0c 1f a4 3d 8b 9a b7 bd d5 c6 4c bd 27 f5 96 bd
       0.08013734 -0.089650236 -0.04999431 -0.07370978
000160 1e 25 a3 bd 37 3a fe 3c 61 fb 3e 3e 6e c5 fd 3d
       -0.07966064 0.031033618 0.18650581 0.12391172
000170 f8 ec 25 3e f9 f7 1a 3e 6e e6 a6 3d 7c 87 2c 3e
       0.16203678 0.15133657 0.0814942 0.16848558
000180 47 af 6e 3e 87 b8 55 3e 0c 0a a8 3e 80 4e 28 bd
       0.2330905 0.20871173 0.32820165 -0.04109049
000190 8e d5 c4 bd f0 4b 20 bd 79 6f 65 bd c7 93 cd bd
       -0.09611045 -0.03913492 -0.05601451 -0.10037952
0001a0 7f 1b 7d 3d 18 01 2e bc 78 91 51 be 2f 61 9b bc
       0.0617938 -0.010620378 -0.20465648 -0.01896724
0001b0 c8 0e 85 bd c6 e8 0e 3e 96 66 57 3e d3 6b 31 bc
       -0.0649696 0.13955984 0.21035227 -0.01082893
0001c0 52 ca 90 3d 3b fc 21 3e b8 b2 f9 bc 4c 36 4b 3d
       0.070698395 0.15818875 -0.030480728 0.04961233
0001d0 31 d7 6c 3e 65 0c c1 3c 76 ed 28 be ea 13 70 be
       0.23128964 0.02356548 -0.16496834 -0.23445097
0001e0 a8 4e c6 bc 64 cf 13 be 3c c9 61 be a3 53 51 3d
       -0.024207428 -0.14434582 -0.22049421 0.051105153
0001f0 0a 52 60 be e9 58 d4 be 43 75 70 bd 6c 1a c1 bd
       -0.21906295 -0.41474083 -0.05870558 -0.09428868
000200 e4 4d 33 be 62 f0 20 be 9a 41 95 3a 5b da 61 bd
       -0.17510182 -0.15716699 0.0011387349 -0.05513988
000210 8d bc 4b 3d e0 a2 94 bd 4a ee 66 be 4a 48 07 be
       0.049740363 -0.072576284 -0.22551838 -0.1321117
000220 8e 3a ed bd 5b f8 8f bc b8 8d b6 bd 01 20 81 bd
       -0.11583434 -0.01757448 -0.089137495 -0.063049324
000230 96 56 b4 3a 05 e5 0a be 72 db cd bd 59 af 97 3e
       0.0013758715 -0.13563927 -0.100516215 0.29625967
000240 46 53 7b bd 3e 69 e5 3c c2 7e 9f bd f1 50 38 be
       -0.061358713 0.028004285 -0.07787849 -0.17999627
000250 6a fa c9 3c 1b 15 cb 3b 40 89 4d be 44 17 61 3d
       0.02465554 0.0061975843 -0.20071888 0.05495383
000260 a5 48 74 3e 4b b8 19 be 62 19 49 3d b4 b5 0c 3e
       0.23855837 -0.15011708 0.049096473 0.13741189
000270 cd d9 cc bc 2c 6f 02 bc eb fd d5 bc c2 88 85 bc
       -0.0250062 -0.007961076 -0.026122054 -0.016300563
000280 d2 9f 58 bd 83 2f 5a be 1c 72 e6 3d db 0e 44 bd
       -0.05288679 -0.21307187 0.112522334 -0.04786573
000290 b6 df 68 3d 1c aa d8 bb 1f 50 8a bc 72 10 07 3e
       0.056853972 -0.0066120755 -0.016883908 0.13189867
0002a0 03 c5 89 3d 5a 3b 16 be a6 4a 9d bc 9a 70 2b be
       0.0672703 -0.14671078 -0.019200634 -0.16742173
0002b0 3d f4 3d bc 66 f6 0b bd 91 45 33 be f9 b9 30 3d
       -0.0115938755 -0.03417053 -0.17507006 0.043146107
0002c0 4f 25 92 3d 64 69 80 be 4d 4e 5b bd 21 ac eb 3d
       0.07136022 -0.25080407 -0.05354147 0.1150744
0002d0 3d 1d 2e be 66 80 13 bd 2d 3c d3 bc 44 1e 21 bd
       -0.17003341 -0.036011122 -0.02578553 -0.039335504
0002e0 73 3a e7 bd 17 d5 b4 bd 26 89 86 be 8b 50 0f be
       -0.11290445 -0.08829706 -0.2627651 -0.13995568
0002f0 2f b9 23 bd 68 6f 84 3e 44 8c 5e 3e df b3 34 3e
       -0.039971527 0.25866246 0.21733195 0.1764674
000300 a6 49 93 3e 15 f3 29 3e aa ed 02 3e e8 6f 0f 3f
       0.28767127 0.16596635 0.12785974 0.5603013
000310 b0 a1 5d 3e 79 d7 d9 3d 50 5c eb bc cb 65 2b bb
       0.2164371 0.10636801 -0.028730541 -0.0026153203
000320 b9 27 29 bd e6 0b 2a 3c 47 94 83 3d 79 3b 31 3d
       -0.041297648 0.010378813 0.06424766 0.04326961
000330 13 2a 10 3d 9f f0 6c 3d d0 47 77 bd 87 3b 69 3e
       0.035196375 0.05784666 -0.06037122 0.22776614
000340 a9 13 00 3e 7d 18 3a be 09 9d b5 3c dd 65 ab bd
       0.125075 -0.18173404 0.022169607 -0.08369038
000350 42 2a e8 bd c9 21 d5 bd d1 7f a9 bd dd de 23 bd
       -0.11336185 -0.10406835 -0.08276332 -0.04000746
000360 d5 62 02 3d 1c 4a 52 3d 16 92 ca bc 7a 14 3d 3d
       0.031832535 0.051340207 -0.024727862 0.046162106
000370 ea cb 22 3d 26 99 82 bc 39 c5 d4 bd 04 fb 0a bb
       0.03974525 -0.015942167 -0.1038918 -0.0021206746
000380 92 9f c0 3c b5 47 b4 bd 0c bc 86 ba a0 3f 23 3e
       0.023513589 -0.088027395 -0.0010279431 0.1594224
000390 11 5b 69 3d f0 04 3c 3d ba 1a b1 3d 9f 04 50 3e
       0.056971613 0.045903146 0.08647676 0.20314263
0003a0 f2 e0 43 3d 60 73 f7 3d 92 26 0d 3c d3 9f 54 3b
       0.047821946 0.12082553 0.008615153 0.0032443895
0003b0 f5 cd a1 3c b4 5c 66 bd 10 4f 05 bc 64 3d fc 3c
       0.019751528 -0.056240752 -0.008136526 0.030790992
0003c0 2d 8e 1f be 8f 72 7a bc 33 9e 06 3d 04 ec 44 bc
       -0.1558158 -0.015286102 0.032865714 -0.012019161
0003d0 6c 74 a3 3d f2 f4 aa 3d b3 24 81 bc 01 c8 3d 3c
       0.0798119 0.08347501 -0.01576457 0.011583329
0003e0 07 a7 bb 3c 55 84 8a bc 78 17 e8 3c 80 36 89 bc
       0.022906793 -0.016908804 0.028331503 -0.01674962
0003f0 40 54 40 3c 61 c1 ae 3d 3c e1 03 be a4 4e a3 bd
       0.011738837 0.08532978 -0.12878889 -0.07973984

conv5.bias f4 [32]
000000 2c b3 0d 3a 64 af d4 b9 fd 71 ec b9 76 8d 24 ba
       0.0005405422 -0.00040566467 -0.00045098356 -0.0006277183
000010 18 29 04 39 b2 bc 30 ba fd 5c 06 b7 4e 9e e2 39
       0.0001260381 -0.0006741985 -8.008673e-06 0.00043224025
000020 29 dd f9 b9 44 e5 39 3a 43 a5 e9 39 33 cb 2f ba
       -0.00047657758 0.0007091353 0.00044564353 -0.0006705999
000030 a6 f3 99 38 cd 0b 07 ba dd 28 2d ba e5 b9 28 ba
       7.3409916e-05 -0.00051516 -0.00066055154 -0.0006436392
000040 fa c9 83 39 a3 be aa b9 07 69 44 3a f5 70 73 b9
       0.0002513675 -0.00032566962 0.0007492457 -0.00023216366
000050 32 4d 25 ba f1 ba 95 39 a6 ed ea b9 9b 7a 0e ba
       -0.00063057535 0.00028558777 -0.0004480902 -0.000543514
000060 52 b9 1a ba d7 a6 b5 b9 96 8d 82 b8 3b d2 ee 38
       -0.00059022487 -0.00034647316 -6.2252555e-05 0.00011387883
000070 06 5a 2c b8 83 66 9c 39 58 a0 95 39 e0 17 00 ba
       -4.1091836e-05 0.00029831016 0.0002853896 -0.000488637

bn5.weight f4 [32]
000000 97 cf 4a 3f b2 43 49 3f a6 6d 88 3f 50 c7 48 3f
       0.79223007 0.7861892 1.0658462 0.78429127
000010 e3 7c 68 3f 6c 5a 37 3f 63 de 56 3f fb b6 84 3f
       0.9081556 0.7162235 0.83933085 1.0368341
000020 4b d8 4c 3f 6f a6 4d 3f 89 9f 79 3f 2e 9a 31 3f
       0.80017537 0.8033208 0.97509056 0.69375885
000030 de 84 70 3f 24 b3 23 3f 82 d7 47 3f 14 fb 1c 3f
       0.9395274 0.6394522 0.78063214 0.61320615
000040 eb 79 4a 3f 27 62 8b 3f 25 39 59 3f 3d 0c 5c 3f
       0.7909228 1.0889329 0.8485282 0.85956174
000050 a1 df 7f 3f 99 65 59 3f 61 32 32 3f 83 f0 3e 3f
       0.99950606 0.8492065 0.6960812 0.7458574
000060 c9 f8 6d 3f da fa 4f 3f 2a 5d 69 3f 09 89 84 3f
       0.9295774 0.81242144 0.9115778 1.035432
000070 ff dd 79 3f 83 df 48 3f 43 0b 59 3f 77 2d 2d 3f
       0.97604364 0.7846605 0.8478281 0.676475
