model_weights/Tiny10/CIFAR10/in10-gn10/110000.pt (torch_old, 358762 bytes, 50 tensors)

conv1.weight f4 [16, 3, 3, 3]
0	0xbf08ca2c	-0.5343349
1	0xbf4238de	-0.7586802
2	0xbf1290d1	-0.5725222
3	0xbe7fda62	-0.2498565
4	0x3e2ae117	0.16687427
5	0x3e6b5710	0.2298243
6	0x3f0ef40e	0.5584115
7	0x3fc47e6c	1.5351081
8	0x3f4ccf2e	0.8000363
9	0x3e810de4	0.2520591
10	0x3dbe7b1e	0.093008265
11	0x3ec4a120	0.3840418
12	0xbf08fadd	-0.53507787
13	0xbf5788a3	-0.84192866
14	0xbe5936da	-0.2121233
15	0xbe8d99f6	-0.27656525
16	0xbf2477ca	-0.64245284
17	0xbedc3295	-0.4300734
18	0x3f2500c6	0.64454305
19	0x3ee911c8	0.4552138
20	0x3e920d4a	0.28525764
21	0x3ec57a60	0.38569927
22	0xbe768b63	-0.2407661
23	0x3dfe7c03	0.12425997
24	0x3c1b3d2c	0.009475034
25	0xbf38839b	-0.72075814
26	0xbec281fb	-0.37989792
27	0xbe39caf9	-0.18143834
28	0xbeb9c08c	-0.36279714
29	0x3e36aeba	0.1784009
30	0x3ebb3377	0.36562702
31	0x3f3f28a3	0.7467138
32	0x3eaa7504	0.332924
33	0xbf1db14d	-0.61598665
34	0xbec5ac17	-0.38607857
35	0xbe802b8b	-0.2503322
36	0xbeb5325a	-0.35389978
37	0xbf556689	-0.8335958
38	0xbeadcc19	-0.33944777
39	0x3f57193b	0.84022874
40	0x3f3fd19e	0.74929225
41	0x3e57e272	0.21082476
42	0x3d2ed91c	0.04268752
43	0xbd050c74	-0.03248258
44	0xbd8e2528	-0.06940681
45	0x3f0b4295	0.5439847
46	0xbe9a7ff0	-0.30175734
47	0xbf13bd5d	-0.5771082
48	0x3fb94091	1.4472829
49	0x3f199b54	0.60002637
50	0xbf55cc5b	-0.83514947
51	0x3e692b19	0.22770347
52	0xbebd3d0a	-0.36960632
53	0xbf743df4	-0.9540703
54	0x3eadaf59	0.33922842
55	0x3e0e7e0d	0.13915272
56	0x3ec7b13f	0.39002416
57	0xbe9eb771	-0.3099933
58	0xbefc3710	-0.4926076
59	0xbdf2ffff	-0.11865234
60	0xbf02aa15	-0.51040775
61	0xbf495335	-0.7864259
62	0xbed4856d	-0.41508046
63	0x3e20ab81	0.15690424
64	0x3d033f1d	0.03204261
65	0x3db7733f	0.08957528
66	0x3e274b8f	0.16337417
67	0x3e2c1f24	0.16808754
68	0x3e854f84	0.26037228
69	0x3ebadcca	0.36496574
70	0x3eb6c2d1	0.35695508
71	0x3ed048f8	0.4068067
72	0xbf193c86	-0.59857976
73	0xbf1f57db	-0.6224343
74	0xbe93e3f5	-0.28884855
75	0xbe6447b1	-0.22292973
76	0xbe1717d3	-0.14755182
77	0xbd921b3f	-0.07134103
78	0x3ef31c49	0.47482517
79	0x3ee78f54	0.45226538
80	0x3e8c15db	0.27360424
81	0x3f20d1ec	0.62820315
82	0xbd829ac7	-0.06377178
83	0xbf51b4e8	-0.81916666
84	0x3faa4d91	1.3304921
85	0xbe135edd	-0.14391656
86	0xbfab1376	-1.3365314
87	0x3f9ae450	1.2100925
88	0x3e0de251	0.13855864
89	0xbf7bbd8e	-0.9833611
90	0xbdfc0e58	-0.12307423
91	0x3e47fcd2	0.19530037
92	0x3eae302d	0.3402113
93	0xbe6f37c1	-0.23361112
94	0xbe959f84	-0.29223263
95	0x3e2cba69	0.16867985
96	0xbdda1034	-0.10647622
97	0xbe84cb22	-0.25936228
98	0x3e85faca	0.261679
99	0xbf31353d	-0.6922186
100	0x3e6eae42	0.23308662
101	0x3f2c0fd3	0.67211646
102	0xbf58df63	-0.8471586
103	0xbe1ec4ac	-0.15504712
104	0x3f5d6ae5	0.86491233
105	0xbf16599a	-0.5873047
106	0xbe8fa1a6	-0.28053015
107	0x3f5559fd	0.83340436
108	0xbebe5789	-0.3717616
109	0xbf81c2a3	-1.0137523
110	0x3f0b8559	0.5450035
111	0xbd516e53	-0.051130604
112	0x3f5b1443	0.8557779
113	0xbeb86527	-0.36014673
114	0xbf430050	-0.7617235
115	0x3e8f842e	0.28030533
116	0x3f4addb6	0.79244554
117	0x3f46a523	0.7759573
118	0x3e772e90	0.24138856
119	0xbe90de47	-0.28294584
120	0x3fa0e1db	1.2568926
121	0x3fb8f935	1.4451052
122	0xbfb25b09	-1.3934032
123	0x3d596b66	0.05308094
124	0xbf237608	-0.63851976
125	0xbfb0e153	-1.3818763
126	0xbf2d1db5	-0.67623454
127	0xbf0e79d8	-0.5565467
128	0x3ee01ee3	0.43773565
129	0xbef320e0	-0.4748602
130	0x3eeacbe3	0.45858678
131	0x3e2aca35	0.16678698
132	0xbed5accb	-0.41733393
133	0x3e92664e	0.28593677
134	0x3f36b4c9	0.71369606
135	0xbdb762d4	-0.08954397
136	0x3dd28a09	0.10280234
137	0x3ea36fef	0.31921336
138	0x3e8cbc55	0.27487436
139	0xbd98e21d	-0.07465003
140	0x3bd50eba	0.0065019997
141	0x3e62d1c4	0.22150332
142	0xbee0bd12	-0.4389425
143	0xbf16c00f	-0.5888681
144	0x3e286a98	0.16446912
145	0x3e24e011	0.161011
146	0x3ebc16c8	0.3673613
147	0x3ea02c7f	0.31283948
148	0xbcc01581	-0.023447754
149	0x3d2cb0de	0.04216086
150	0x3df2d19c	0.11856386
151	0xbee6618a	-0.4499629
152	0xbf1a3ec5	-0.6025203
153	0x3d44a44e	0.048008256
154	0x3e2b61b8	0.16736495
155	0x3ed72046	0.4201681
156	0x3d181dea	0.037137903
157	0xbdf3a248	-0.11896187
158	0x3d2fdd63	0.04293574
159	0xbe321026	-0.17388973
160	0xbf0d7bc4	-0.55266976
161	0xbf00e6c1	-0.503521
162	0x3ec7676d	0.38946095
163	0xbdd875a8	-0.10569316
164	0x3c1050f9	0.008808368
165	0x3eaa4a23	0.33259687
166	0x3cae26b2	0.021258686
167	0x3df999b4	0.1218752
168	0xbd99619a	-0.07489319
169	0x3dff81d1	0.124759324
170	0x3efb8ea2	0.49132258
171	0x3c91b5b4	0.017786838
172	0xbf22db92	-0.6361629
173	0xbee4a53b	-0.4465731
174	0xbe1b8989	-0.15189184
175	0xbf41aede	-0.7565745
176	0xbf1dc8e1	-0.6163464
177	0xbe62a78a	-0.22134224
178	0xbee5d329	-0.44887665
179	0xbe5d2e6c	-0.2159974
180	0x3f014f6c	0.50511813
181	0xbdc0104f	-0.093781106
182	0xbe68a015	-0.22717316
183	0x3f4affd1	0.79296595
184	0x3ea62e28	0.3245709
185	0x3ce12f1c	0.027488284
186	0x3f14eff8	0.58178663
187	0x3efadf06	0.48998278
188	0x3eab77f8	0.33489966
189	0x3c3f9357	0.011692843
190	0x3f172fed	0.59057504
191	0x3ee57587	0.4481623
192	0xbd410193	-0.047120642
193	0xbf9ac1fd	-1.209045
194	0x3ebe7d60	0.3720503
195	0xbd1bc0da	-0.038025714
196	0xbec9b328	-0.39394498
197	0x3e9be7f2	0.30450398
198	0xbe890b28	-0.26766324
199	0xbe4f8000	-0.20263672
200	0xbe9f8e9a	-0.31163484
201	0x3ddae18b	0.1068755
202	0xbf9c0a0f	-1.219057
203	0xbe05c977	-0.13065134
204	0x3ebd5a90	0.36983156
205	0x3d1e5a32	0.038660236
206	0x3e7ed3dc	0.24885505
207	0xbc749d2c	-0.014930051
208	0x3ed92efb	0.42418656
209	0xbe86063a	-0.26176625
210	0x3eb1c824	0.34723008
211	0xbedeed6c	-0.43540514
212	0x3dc145d7	0.09437149
213	0x3d9e66c1	0.077344425
214	0x3d830e9f	0.06399273
215	0xbd38675c	-0.045020446
216	0x3e8e4865	0.27789608
217	0x3c5c2664	0.013436887
218	0xbd7cb918	-0.061699957
219	0x3d16211a	0.03665266
220	0xbec6bce8	-0.38816
221	0xbee0fc6a	-0.43942577
222	0xbc21d87a	-0.009878272
223	0xbed8b66f	-0.42326686
224	0xbf1ada83	-0.6048967
225	0x3e8bc342	0.27297407
226	0x3e3bf4ce	0.18355104
227	0x3d0a3a59	0.03374705
228	0x3e7828e7	0.24234353
229	0x3ca45ce2	0.020063821
230	0xbe0da8c2	-0.13833907
231	0x3e24d720	0.16097689
232	0xbdce6057	-0.10076969
233	0xbebf4a75	-0.37361494
234	0x3e5a3f7a	0.21313277
235	0x3ec8f5be	0.39249986
236	0x3e802fe8	0.2503655
237	0x3e878d88	0.26475167
238	0x3e952c0b	0.29135165
239	0x3dfa9e4a	0.122372225
240	0x3e8356da	0.256522
241	0x3e3c43d8	0.18385255
242	0xbddf9ee3	-0.10918977
243	0xbea55572	-0.32291752
244	0xbf5899db	-0.84609765
245	0xbf408746	-0.7520641
246	0x3e271b6b	0.16319053
247	0xbc9cb311	-0.019128354
248	0xbe33c243	-0.17554574
249	0x3f1e4f90	0.6184015
250	0x3f2eaa34	0.6822846
251	0x3e816cfd	0.25278464
252	0xbe82c7a7	-0.25542948
253	0xbf0a6e46	-0.54074514
254	0xbf03ecb5	-0.5153306
255	0x3d358461	0.0443157

conv1.bias f4 [16]
0	0xb92d6bf2	-0.00016538778
1	0xbad54f8e	-0.001627432
2	0x39fb22a9	0.00047900275
3	0xbb0d1a9e	-0.0021530758
4	0xba9d4d5e	-0.0012001207
5	0x3afea399	0.0019427418
6	0x3a6692b8	0.00087956665
7	0x3a37d6f8	0.0007012929
8	0x3b0a4156	0.0021096072
9	0xba2d6a99	-0.00066153106
10	0x3afbd36e	0.0019212791
11	0x398d95b7	0.00027005162
12	0xbac2007e	-0.0014801172
13	0xba3ea1ce	-0.00072720356
14	0xba5d6449	-0.00084454246
15	0x3b159460	0.0022824034

bn1.weight f4 [16]
0	0x3f0d23b1	0.55132586
1	0x3f76287c	0.96155524
2	0x3f0ab970	0.54189205
3	0x3f4193cf	0.75616163
4	0x3f725fd6	0.94677484
5	0x3f5a78a0	0.8534031
6	0x3f0181a9	0.5058847
7	0x3fb6313a	1.4233773
8	0x3f16d4cc	0.5891845
9	0x3f3cadcd	0.737027
10	0x3f297ff9	0.66210896
11	0x3f9503b3	1.1641754
12	0x3f4d6f20	0.8024769
13	0x3f0258b2	0.5091659
14	0x3f44943c	0.7678869
15	0x3f53009b	0.824228

bn1.bias f4 [16]
0	0x3e8e6792	0.27813393
1	0x3f23048e	0.63678825
2	0x3db49e13	0.08819213
3	0xbe0a33fb	-0.13496391
4	0x3fb1779f	1.386463
5	0xbe07b2d9	-0.13251819
6	0x3e89b5b0	0.2689643
7	0xbf2316cc	-0.6370666
8	0xbdf52195	-0.11969296
9	0x3f1eba1d	0.62002736
10	0x3f1e35cf	0.61800855
11	0x3fd8a68e	1.6925828
12	0x3eeafb74	0.45894969
13	0x3e7d1587	0.24715243
14	0xbef02e12	-0.4691015
15	0xbf172f13	-0.59056205

bn1.running_mean f4 [16]
0	0x3e02a976	0.12759957
1	0x3d879a23	0.06621196
2	0x3d47b09c	0.048752412
3	0x3b4f4843	0.0031628765
4	0x3d13d723	0.036093842
5	0x3e3c9ffd	0.18420406
6	0xbd834dca	-0.064113215
7	0x3e4ff280	0.2030735
8	0xbd8daf06	-0.06918149
9	0xbdaa63f4	-0.08319846
10	0xbc62832a	-0.013825217
11	0xba1d3953	-0.00059976167
12	0x3cc1fd3f	0.023680327
13	0x3dcd2e7b	0.10018631
14	0xbe1daab5	-0.15397151
15	0x3e029d76	0.12755379

bn1.running_var f4 [16]
0	0x3fe6361a	1.798526
1	0x40da199a	6.815625
2	0x3fcb720e	1.5894182
3	0x3f9e2572	1.2355177
4	0x3fbab15e	1.4585378
5	0x40bca5f5	5.8952584
6	0x4080c7fc	4.024412
7	0x4064a8a9	3.5727942
8	0x40a59c9f	5.175369
9	0x41aa2227	21.266676
10	0x401f6cca	2.491015
11	0x3fd015a2	1.6256602
12	0x41873be4	16.904243
13	0x40a72176	5.2228346
14	0x3ff4cad0	1.9124393
15	0x4078078e	3.875461

conv2.weight f4 [16, 16, 3, 3]
0	0x3d93d629	0.07218582
1	0x3dd13e82	0.102170005
2	0xbe609f80	-0.21935844
3	0xbb6ce4f3	-0.0036147207
4	0x3e14510f	0.14484046
5	0x3d8a95bb	0.0676684
6	0xbc17d02b	-0.00926594
7	0x3d24ce5e	0.04023587
8	0xbe9064db	-0.28201947
9	0x3ee0996d	0.43867055
10	0x3f191ed6	0.59812677
11	0x3f12c453	0.57330817
12	0xbf7f5e13	-0.9975292
13	0xbf7d15e2	-0.98861516
14	0xbf6ebd57	-0.9325766
15	0x3e8c3db7	0.27390835
16	0x3f086404	0.5327761
17	0x3f0b9163	0.5451872
18	0xba33a574	-0.00068529625
19	0x3da4f097	0.08053701
20	0xbd647602	-0.055776604
21	0xbe8c9ced	-0.27463475
22	0xbe06d116	-0.13165697
23	0xbde936e3	-0.11387422
24	0x3e013ac0	0.12620068
25	0x3e80ec79	0.25180414
26	0x3e15e38f	0.14637588
27	0xbdf06b06	-0.11739163
28	0x3daccd54	0.08437601
29	0x3d23e162	0.040009864
30	0x3e3d0ba4	0.18461472
31	0x3d192d78	0.037396878
32	0xbdce1e67	-0.100643925
33	0xbe67ba3e	-0.2262964
34	0xbe7e0eb4	-0.24810296
35	0xbc750c96	-0.014956614
36	0x3c81e32c	0.015855394
37	0x3f34fa31	0.7069426
38	0x3f04aad2	0.5182315
39	0xbe0ffeb1	-0.14062001
40	0xbf5cb4eb	-0.8621356
41	0xbf806dc9	-1.0033504
42	0xbd5f395d	-0.054498065
43	0x3eb09948	0.34491944
44	0x3f056d75	0.52120143
45	0xbc71a919	-0.014749789
46	0x3e743c98	0.2385124
47	0x3e01a9a7	0.12662373
48	0xbe6bb767	-0.23019181
49	0xbd689928	-0.056786686
50	0xbcdbdacf	-0.026837735
51	0xbea7d0e5	-0.3277656
52	0xbe12d5d4	-0.14339381
53	0xbe25313c	-0.16132063
54	0xbd5b4ab1	-0.05353803
55	0xbdf178dd	-0.11790631
56	0xbe491877	-0.19638239
57	0xbdebb029	-0.11508209
58	0xbe08e3e1	-0.13368179
59	0xbe0c090d	-0.13675328
60	0x3dd0cffe	0.10195921
61	0x3e0b7b29	0.136212
62	0x3e6ae56f	0.22939084
63	0xbe4dc0ef	-0.2009313
64	0xbea48749	-0.32134464
65	0xbe0ee2b7	-0.13953672
66	0x3efa1992	0.48847634
67	0x3f115dd0	0.5678377
68	0x3ecc1a57	0.39863846
69	0xbe7d8b5d	-0.24760194
70	0xbf00028e	-0.500039
71	0xbd2a59dd	-0.041589607
72	0x3e84fb3b	0.25972924
73	0x3d8fc125	0.07019261
74	0x3d671ad2	0.056422062
75	0xbd90676f	-0.070509784
76	0xbddc7a82	-0.10765554
77	0xbda7f0b1	-0.08200205
78	0xbdbec50e	-0.09314929
79	0xbe107022	-0.14105275
80	0xbde074f2	-0.109598055
81	0x3cfaf874	0.03063605
82	0xbd95cd02	-0.07314493
83	0xbedb3cf3	-0.42819938
84	0xbf17cd23	-0.5929739
85	0xbe405aa5	-0.18784578
86	0xbe96d742	-0.29461104
87	0x3e3da8b4	0.18521386
88	0x3ebccf99	0.36877134
89	0x3ed732fb	0.42031083
90	0xbe0ddce6	-0.13853797
91	0xbddfcf37	-0.10928195
92	0xbd0dfc48	-0.034664422
93	0x3f1dbb0f	0.61613554
94	0x3ec364b0	0.38162756
95	0x3e878a33	0.26472625
96	0xbe5f1a92	-0.2178748
97	0xbece3663	-0.4027587
98	0xbe9a7504	-0.301674
99	0x3e157899	0.14596786
100	0x3e9d84bc	0.3076533
101	0xbe2dd67e	-0.16976354
102	0xbe7f73e4	-0.24946553
103	0xbeea3686	-0.45744723
104	0x3ec9203d	0.39282408
105	0x3d28763a	0.041128375
106	0x3df64f56	0.12026851
107	0xbe3b56bf	-0.1829481
108	0xbdcb0572	-0.09913148
109	0x3e58b605	0.21163185
110	0x3e16fbe8	0.14744532
111	0x3d66d311	0.056353632
112	0xbdd82566	-0.10554008
113	0xbe721c72	-0.23643664
114	0x3b451e6c	0.0030077947
115	0xbd3e9bc7	-0.04653528
116	0x3d212a05	0.039346714
117	0xbe202b87	-0.15641604
118	0xbd46cd86	-0.048535846
119	0x3ba064b1	0.004894816
120	0xbe55c53a	-0.20876017
121	0xbe157889	-0.14596762
122	0xbb14fa67	-0.002273226
123	0x3de24d3b	0.11049887
124	0x3e3975a7	0.18111287
125	0x3eb8075b	0.35943112
126	0x3e26d8de	0.16293666
127	0x3e1d82fc	0.15381998
128	0x3e56455c	0.20924896
129	0xbd7d8054	-0.06188996
130	0xbe138b05	-0.144085
131	0xbe0042b7	-0.1252545
132	0xbd177430	-0.03697604
133	0xbe1040a8	-0.14087164
134	0xbdb8be92	-0.090207234
135	0xbd4d364c	-0.05010061
136	0xbe317f87	-0.17333804
137	0xbe3c87ac	-0.1841113
138	0x3d816ed9	0.06319971
139	0xbbfd8af9	-0.007737514
140	0xbe094ba4	-0.13407761
141	0x3e528865	0.20559843
142	0x3e46a28c	0.19397944
143	0xbc9f4fdf	-0.019447265
144	0xbe10f6a4	-0.14156586
145	0xbf0ec494	-0.55768704
146	0xbebcce4e	-0.36876148
147	0xbdf33834	-0.11875954
148	0xbeca1536	-0.39469308
149	0xbe981d2a	-0.2970975
150	0x3d9223bc	0.07135722
151	0xbdd1f528	-0.10251838
152	0x3dc63154	0.09677377
153	0x3eb37f52	0.35058075
154	0x3e3ad73d	0.1824617
155	0x3e730f38	0.23736274
156	0x3e9ce603	0.30644235
157	0xbb83ddbd	-0.004024236
158	0x3dfb7ee9	0.122800656
159	0xbe8892c2	-0.26674467
160	0xbec57176	-0.38563126
161	0xbe22984c	-0.15878409
162	0xbd90cb30	-0.07070005
163	0x3e6f44e9	0.23366131
164	0x3e55d91b	0.208836
165	0xbd46ebc0	-0.048564672
166	0x3eaa7494	0.33292067
167	0x3ea04145	0.31299797
168	0xbd9c1f50	-0.0762316
169	0x3e6b44be	0.22975442
170	0x3e33c028	0.1755377
171	0x3cd0d26b	0.02549096
172	0x3d626ac3	0.055277597
173	0x3d97d31d	0.074133135
174	0x3d055785	0.03255417
175	0xbd74efa0	-0.059798837
176	0x3cd17153	0.025566733
177	0x3c05c947	0.008165664
178	0x3c310239	0.010803753
179	0xbe256c24	-0.16154534
180	0xbf33f086	-0.70288885
181	0xbe9e04fa	-0.30863172
182	0x3ec8f5f4	0.39250147
183	0xbf1bd664	-0.6087401
184	0x3e2e54b1	0.17024495
185	0x3ee6396c	0.44965684
186	0xbd7306a1	-0.059332494
187	0x3f0b0f38	0.54320097
188	0x3e29ac4a	0.1656963
189	0xbe0dc172	-0.13843325
190	0xbd7d8ba6	-0.061900757
191	0xbe60b44f	-0.21943782
192	0x3dc3324e	0.09531079
193	0x3e1db9cb	0.15402906
194	0x3d151c43	0.036403906
195	0xbd65bef7	-0.05609032
196	0xbd07de1f	-0.033170816
197	0x3b825940	0.0039779246
198	0xbe02a986	-0.1275998
199	0xbe5f327c	-0.21796602
200	0x3d2e3d17	0.04253873
201	0xbe97c275	-0.29640546
202	0xbeab0f6e	-0.3341021
203	0xbe15c02a	-0.14624086
204	0xbe675d6c	-0.22594231
205	0xbe56dc66	-0.20982513
206	0xbd8e5aed	-0.069509365
207	0x3e4bccb9	0.19902314
208	0x3bf8715e	0.007581874
209	0x3e07fed5	0.13280804
210	0xbdaf6139	-0.085634656
211	0xbe92d91c	-0.28681266
212	0xbdbd378f	-0.092391126
213	0xbe52a8a5	-0.20572145
214	0xbed703dc	-0.41995132
215	0xbc2d3381	-0.0105713615
216	0xbdd6ca7f	-0.10487842
217	0x3e2828f9	0.1642188
218	0x3e3e7a68	0.18601382
219	0xbd9c786e	-0.07640158
220	0x3e9038cf	0.28168342
221	0x3eae94f8	0.3409803
222	0xbe2afbfd	-0.16697688
223	0x3e7e1b52	0.2481511
224	0x3e848d00	0.25888824
225	0x3e4a4a59	0.19754924
226	0x3db052fd	0.08609579
227	0x3d84dec0	0.06487799
228	0x3e0086f7	0.12551485
229	0x3e50c963	0.20389323
230	0x3cc09034	0.023506261
231	0x3dba341d	0.09091971
232	0x3ea4d965	0.3219711
233	0xbdada23b	-0.08478209
234	0xbe8c7f7f	-0.27441022
235	0x3e40c496	0.18824992
236	0x3ede5cff	0.43430325
237	0x3d09058d	0.03345256
238	0xbd74b6a7	-0.059744503
239	0x3db1977a	0.0867147
240	0xbd1ee2b3	-0.038790416
241	0xbe3ad363	-0.182447
242	0xbebc22eb	-0.3674539
243	0x3e180a09	0.14847578
244	0xbe1020ca	-0.14075008
245	0xbedd516f	-0.4322619
246	0x3e75a01a	0.23986855
247	0xbdd5ba6a	-0.10435946
248	0xbecce2f1	-0.40016893
249	0x3e8bb272	0.2728458
250	0x3ebccb28	0.36873746
251	0xbcc2c483	-0.023775345
252	0xbe07b246	-0.132516
253	0x3e602d70	0.21892333
254	0x3dfea3d3	0.12433591
255	0xbe98eb72	-0.2986713

conv2.bias f4 [16]
0	0xba0e88fd	-0.0005437283
1	0x39e7f91b	0.0004424535
2	0x3a106572	0.00055082806
3	0xba80b062	-0.0009818191
4	0xb96b47e3	-0.00022438126
5	0x390d81c7	0.00013495154
6	0x39ac96e3	0.00032918816
7	0xb99c7fbb	-0.00029849805
8	0x386c2511	5.6301305e-05
9	0xb74cae9c	-1.2200002e-05
10	0x3a88d8c2	0.0010440575
11	0xba37a898	-0.00070060184
12	0x38a32e9f	7.7811295e-05
13	0xba6d767f	-0.000905849
14	0xb9f8ec7b	-0.00047478438
15	0xb99edc25	-0.0003030013

bn2.weight f4 [16]
0	0x3fdbaca1	1.7162057
1	0x3f469754	0.7757466
2	0x3fb844b2	1.4395964
3	0x3f98c277	1.1934346
4	0x3f87f47f	1.0621489
5	0x3f97f3ad	1.1871239
6	0x3f3b0ffa	0.73071253
7	0x3fb9a452	1.4503272
8	0x3f7eefbd	0.9958456
9	0x3f35f6a6	0.7107948
10	0x3f8081f1	1.0039655
11	0x3fcfe044	1.6240315
12	0x3f8fd9d7	1.1238354
13	0x3f7975b0	0.974452
14	0x3f731360	0.9495144
15	0x3fb5eafa	1.4212334

bn2.bias f4 [16]
0	0xbdd2a40c	-0.10285196
1	0x3f1b461b	0.6065385
2	0x3dab88cd	0.08375702
3	0xbd9f60de	-0.07782148
4	0xbe56b113	-0.20965986
5	0xbdff03d0	-0.12451899
6	0x3edffb8d	0.43746606
7	0xbe50100c	-0.20318621
8	0x3d38f0a5	0.04515137
9	0x3f55bfab	0.8349559
10	0x3dbe5bd6	0.0929486
11	0xbc01ae28	-0.007915057
12	0x3ecff454	0.40616095
13	0x3df988af	0.121842735
14	0xbd0f470e	-0.034979872
15	0xbdfab1d2	-0.12240948

bn2.running_mean f4 [16]
0	0xbf4149d7	-0.75503296
1	0xbe82b3d3	-0.2552782
2	0x3e143294	0.14472419
3	0xbf1d42d1	-0.6143008
4	0xbec70eab	-0.38878378
5	0xbf85139e	-1.0396612
6	0xbfc478b0	-1.5349331
7	0xbed4818f	-0.41505095
8	0x40035132	2.0518308
9	0x3f5dc725	0.86631995
10	0xbc37ccba	-0.011218244
11	0xbe3daaca	-0.18522182
12	0xc07542ca	-3.8322015
13	0x3f276e17	0.6540236
14	0xbe10f6e5	-0.14156683
15	0xbea4e5bb	-0.3220652

bn2.running_var f4 [16]
0	0x41b6b3cd	22.837793
1	0x40737bcb	3.8044307
2	0x419ea60b	19.831076
3	0x40c79f2f	6.2381816
4	0x40081e03	2.1268318
5	0x40c3d629	6.1198926
6	0x408508b2	4.1573114
7	0x413aea69	11.682229
8	0x40c9671c	6.2938366
9	0x40674540	3.6136017
10	0x40ac8189	5.3908124
11	0x41bf5a6e	23.919155
12	0x40f8ffa5	7.7812066
13	0x4088c597	4.27412
14	0x40334eb0	2.8016777
15	0x4140c9f0	12.049301

conv3.weight f4 [32, 16, 3, 3]
0	0xbe3d2686	-0.18471727
1	0x3d59c29a	0.053164102
2	0x3e335dd1	0.17516257
3	0x3cecd8f4	0.028912045
4	0x3e34706d	0.17621012
5	0x3e17b794	0.14816123
6	0x3e29073b	0.16506664
7	0x3da04c3e	0.07827042
8	0x3d81d71a	0.063398555
9	0xbe79c17c	-0.24390215
10	0x3ce68272	0.028138373
11	0x3e2aebe5	0.16691549
12	0x3d02530b	0.031817477
13	0x3e698303	0.22803883
14	0x3e318a01	0.173378
15	0x3e59ef35	0.21282656
16	0x3e5de871	0.216707
17	0x3cffa1ef	0.031205146
18	0xbbb11848	-0.005404506
19	0xbe0159c3	-0.12631898
20	0xbd9fa6b8	-0.07795471
21	0x3a6411d5	0.0008700167
22	0xbdd05f51	-0.1017443
23	0xbd5bc74b	-0.053656857
24	0xbc46ea66	-0.012140846
25	0x3d75576e	0.059897833
26	0xbd4b5af8	-0.0496473
27	0xbe23b663	-0.15987544
28	0xbe1cb362	-0.15302804
29	0xbe5163bf	-0.20448206
30	0xbe3277d8	-0.1742853
31	0xbe87a012	-0.2648931
32	0xbebc58d1	-0.36786512
33	0xbde7a4d9	-0.11310739
34	0xbdd42859	-0.10359258
35	0x3b68bbd8	0.0035512354
36	0x3de1fcfc	0.11034581
37	0x3d44e447	0.048069265
38	0xbd0709f6	-0.032968484
39	0x3dede25d	0.11615441
40	0x3dd358ff	0.10319709
41	0xbcadb911	-0.02120641
42	0x3cd481d1	0.025940808
43	0x3d83db1a	0.06438275
44	0xbdfd7057	-0.12374943
45	0x3be92e5e	0.007116123
46	0x3e37e18c	0.17957133
47	0x3e6ebff5	0.23315413
48	0x3dac6760	0.08418155
49	0x3eaf05bd	0.34184065
50	0x3e4d41ee	0.20044681
51	0x3e02bd57	0.1276754
52	0x3dcceee9	0.10006506
53	0xbb6c9fd8	-0.0036106016
54	0x3ee3a1fe	0.44459528
55	0x3ef0cd37	0.47031567
56	0x3dbf8110	0.093507886
57	0x3eb4312e	0.3519377
58	0x3da6be44	0.08141759
59	0xbe704f23	-0.23467688
60	0xbccebdfe	-0.02523708
61	0xbe8e0a1b	-0.27742085
62	0xbeae9244	-0.34095967
63	0xbe3e77d1	-0.18600394
64	0x3d729c36	0.059231006
65	0x3e22d115	0.15900071
66	0xbe192cb0	-0.14958453
67	0x3db89f34	0.090147406
68	0x3e507126	0.20355663
69	0xbdbfbd1b	-0.09362241
70	0xbcd9fcf2	-0.026609872
71	0xbd20ecbd	-0.03928827
72	0xbcda2145	-0.026627192
73	0xbccb2327	-0.024797035
74	0xbd3b2489	-0.04568914
75	0x3df9a8e4	0.121904165
76	0x3cc184fe	0.023622986
77	0xbe5faea2	-0.21843961
78	0x3e30157b	0.17195694
79	0x3d07d6c7	0.033163812
80	0xbdb6246e	-0.08893667
81	0xbe1a817a	-0.15088454
82	0x3d3c7bf5	0.046016652
83	0x3ec60b2b	0.38680395
84	0x3e0cbaee	0.13743183
85	0x3e5f37d3	0.21798639
86	0x3e8d2715	0.2756888
87	0x3eeebf2d	0.4663023
88	0x3e7bb571	0.24580933
89	0xbc8a6b93	-0.016896999
90	0xbd99d75a	-0.07511778
91	0x3e1ab5a6	0.15108356
92	0x3ebff6c3	0.37492952
93	0x3dfe5b46	0.12419753
94	0x3e8fdcd9	0.2809818
95	0x3e771337	0.24128424
96	0x3e3f3a49	0.18674578
97	0x3db3c1a6	0.0877717
98	0xbe31b13a	-0.17352763
99	0xbe0ca83d	-0.13736053
100	0xbda2f5a8	-0.079570115
101	0x3ae33bef	0.0017336587
102	0xbd329aa2	-0.0436045
103	0xbd0f5326	-0.034991406
104	0xbda1b411	-0.07895673
105	0x3be96b19	0.0071233627
106	0xbe37ff16	-0.17968401
107	0xbdb75331	-0.089514144
108	0xbe2cbbb8	-0.16868484
109	0xbec49ede	-0.38402456
110	0xbec5d331	-0.3863769
111	0xbeb1e1cc	-0.34742582
112	0xbef050dd	-0.46936694
113	0xbeda2007	-0.4260256
114	0xbebf0685	-0.37309662
115	0xbe51deb7	-0.20495115
116	0x3d1db263	0.0385002
117	0xbe6017ff	-0.21884154
118	0x3d232298	0.039827913
119	0x3d96e37f	0.0736761
120	0xbe192caf	-0.14958452
121	0x3d13a19d	0.0360428
122	0x3dc56548	0.096384585
123	0xbe42770f	-0.1899073
124	0xbc49cb16	-0.012316486
125	0x3e282506	0.16420373
126	0xbd37ef30	-0.04490584
127	0xbe416c19	-0.18888892
128	0xbe7967fc	-0.24356073
129	0xbe41ae8d	-0.18914242
130	0xbe8e7ffb	-0.27832016
131	0xbddf5370	-0.10904586
132	0xbe081650	-0.13289762
133	0xbe35fb54	-0.17771655
134	0xbbc2d8c9	-0.005946253
135	0x3e1f00bb	0.15527622
136	0x3d500b76	0.05079218
137	0xbd6f8993	-0.05848081
138	0x3d90591a	0.07048245
139	0xbd6f1702	-0.05837155
140	0xbdffdc93	-0.12493243
141	0x3c0a1ca1	0.008429677
142	0xbc840a85	-0.016118297
143	0x3c816428	0.015794829
144	0xbb896d5a	-0.004193944
145	0x3e0224fa	0.12709418
146	0x3df3bf04	0.11901668
147	0x3e28ae65	0.16472776
148	0x3e6f458b	0.23366372
149	0x3e108782	0.14114192
150	0x3d8d43a2	0.068976656
151	0x3b113281	0.0022155347
152	0xbae4cdbb	-0.0017456332
153	0xbe007aaa	-0.12546793
154	0x3e24bb39	0.16087045
155	0x3ec496f2	0.38396412
156	0xbece420b	-0.40284762
157	0x3b937160	0.0044995993
158	0x3e3ba2d0	0.18323827
159	0xbece5481	-0.40298846
160	0xbe2ba32a	-0.16761461
161	0xbe287b96	-0.16453394
162	0x3e633da5	0.22191484
163	0x3ed83dc0	0.42234612
164	0x3e96650f	0.29373977
165	0x3e7d0152	0.24707535
166	0x3e12c469	0.14332737
167	0xbd5b192f	-0.053490814
168	0x3dfbd71f	0.122968905
169	0x3dde45e2	0.10853173
170	0xbdc69d8a	-0.09698017
171	0xbe9dffc2	-0.3085919
172	0xbd57ade3	-0.052656066
173	0x3dd2d529	0.10294563
174	0xbdb0ed0d	-0.08638964
175	0xbe0448e2	-0.12918428
176	0x3ad327d9	0.0016109898
177	0x3de82e0f	0.1133691
178	0xbcfdb081	-0.030967953
179	0xbd7e0ec9	-0.06202582
180	0xbcc49032	-0.023994539
181	0xbe3f5bd7	-0.18687378
182	0xbe2824d0	-0.16420293
183	0xbeb1b59e	-0.34708875
184	0xbea9288c	-0.33038747
185	0xbe4319d6	-0.19052824
186	0xbe83894d	-0.2569069
187	0xbe8ad2c7	-0.27113935
188	0xbe885ed6	-0.26634854
189	0x3d937a1c	0.07201025
190	0x3d8f6af4	0.070028216
191	0xbcc3cc09	-0.023901002
192	0xbd7c9c0a	-0.061672248
193	0xbde58301	-0.11206628
194	0xbde31bd0	-0.11089289
195	0xbcb6324d	-0.022240782
196	0xbd953ae0	-0.0728662
197	0xbd8c7c1c	-0.068596095
198	0xbe9253f3	-0.28579673
199	0xbee954d8	-0.45572543
200	0xbe11e6db	-0.1424822
201	0xbe391e2c	-0.18077916
202	0xbd40768c	-0.046988055
203	0x3e36b985	0.17844208
204	0x3d694416	0.056949697
205	0x3ecb484e	0.39703602
206	0x3ef3f09f	0.47644517
207	0x3dd2f34b	0.10300311
208	0x3e84b040	0.25915718
209	0x3d78ce6a	0.060743727
210	0x3dcfa92f	0.10139691
211	0x3e927f0f	0.28612563
212	0x3e168d66	0.14702377
213	0x3d9747a3	0.073867105
214	0x3e0c4861	0.13699485
215	0x3dbf40dd	0.093385436
216	0xbd4a9bd9	-0.049465034
217	0xbdbda2ca	-0.09259565
218	0x3c046b87	0.008082277
219	0xbe49049d	-0.19630666
220	0xbe336ee0	-0.17522764
221	0xbe35e39c	-0.17762607
222	0xbe06165a	-0.13094464
223	0xbe21fafc	-0.15818399
224	0xbe35d481	-0.17756845
225	0xbd8d88a6	-0.06910829
226	0xbe2e468a	-0.17019096
227	0xbedd403a	-0.43213063
228	0xbdee2bb1	-0.11629427
229	0xbe42bd3c	-0.190175
230	0xbe9b8905	-0.30377975
231	0x3d9a1a29	0.07524521
232	0x3e1004e0	0.1406436
233	0x3e19645d	0.14979692
234	0xbc172c1f	-0.009226828
235	0x3d5f5772	0.054526754
236	0xbd7adff2	-0.061248727
237	0xbd2bb35a	-0.04191909
238	0xbba166b9	-0.0049255756
239	0x3cd8a477	0.02644561
240	0xbd4fdc0b	-0.05074696
241	0xbc9d6bad	-0.019216383
242	0x3e08c291	0.13355471
243	0x3ea05a86	0.31319064
244	0x3eade962	0.3396712
245	0x3d357e59	0.044309948
246	0x3d589de5	0.052884955
247	0x3e187117	0.1488689
248	0xbbd971c7	-0.006635878
249	0x3da55278	0.0807237
250	0x3d7c863c	0.061651453
251	0xbac0107b	-0.0014653349
252	0xbeb3dff1	-0.3513179
253	0xbee6f6a9	-0.45110062
254	0xbeaa2bd1	-0.33236554
255	0xbe83a73a	-0.2571352

conv3.bias f4 [32]
0	0xb8e99581	-0.00011138153
1	0xba3c2b29	-0.0007178062
2	0xba283646	-0.0006416779
3	0x39ddb584	0.00042287644
4	0xb811ff0b	-3.480822e-05
5	0xb9641927	-0.00021753144
6	0xba4b82ee	-0.00077633455
7	0xba101f94	-0.00054978696
8	0xb988f9ca	-0.0002612605
9	0xba311b59	-0.0006756089
10	0x3a5e3060	0.00084758364
11	0xb95b3507	-0.00020905222
12	0x39a780fc	0.00031948823
13	0xba113908	-0.00055398094
14	0x398625b0	0.0002558655
15	0xb9a39256	-0.00031198811
16	0xb91c2549	-0.00014891209
17	0xba895dc4	-0.0010480215
18	0x3a353b8d	0.0006913476
19	0xba473611	-0.0007599304
20	0xb7aa2e7e	-2.0287229e-05
21	0x3a7ce4ce	0.00096471317
22	0xb87adc25	-5.980967e-05
23	0xba077554	-0.00051673246
24	0x3a3bda56	0.00071660185
25	0x3a75b5f2	0.000937312
26	0x3a0322e0	0.000500245
27	0x3a5ec87b	0.0008498502
28	0xb90dc892	-0.00013521526
29	0xba7a5d42	-0.00095506397
30	0xba417745	-0.0007380138
31	0xba8bd6c7	-0.0010668867

bn3.weight f4 [32]
0	0x3f693646	0.9109844
1	0x3f40738d	0.75176316
2	0x3fc74530	1.5567989
3	0x3f843f3e	1.03318
4	0x3f330d8b	0.6994254
5	0x3f849c73	1.0360245
6	0x3f6dc19f	0.9287357
7	0x3f9ee025	1.2412153
8	0x3f7659ad	0.96230584
9	0x3f378b93	0.7169735
10	0x3f5a2af6	0.85221803
11	0x3f79ec07	0.97625774
12	0x3f50b96a	0.8153292
13	0x3f5c1efa	0.85984766
14	0x3f98d7b6	1.194083
15	0x3f185300	0.5950165
16	0x3f3172ba	0.69315684
17	0x3f71e1b1	0.94485
18	0x3fb5c9bd	1.4202191
19	0x3fc1990d	1.5124832
20	0x3f64fb87	0.894463
21	0x3f4db12a	0.80348456
22	0x3fa346f6	1.275603
23	0x3f84026e	1.0313241
24	0x3f641efe	0.8910979
25	0x3f667dd2	0.90035737
26	0x3f4346a4	0.76279664
27	0x3f31286b	0.692023
28	0x3f5c7bfa	0.86126673
29	0x3f1ed3f4	0.62042165
30	0x3f3cd78c	0.737664
31	0x3f5e2a75	0.86783534

bn3.bias f4 [32]
0	0xbeb50c69	-0.3536103
1	0x3e18b7e4	0.14913899
2	0xbe7f63b7	-0.24940382
3	0x3e04040f	0.12892173
4	0x3d5cf3ce	0.053943448
5	0xbdc579c2	-0.09642364
6	0xbe9ed319	-0.3102043
7	0xbcb8dcb1	-0.022566171
8	0xbe67bb13	-0.22629957
9	0x3ee50ea5	0.44737735
10	0xbddfcd87	-0.10927873
11	0xbeba22ad	-0.3635458
12	0x3c44c936	0.012010863
13	0xbe205e41	-0.15660955
14	0x3dc712ee	0.097204074
15	0x3d69c463	0.057072055
16	0x3d10be4b	0.035337728
17	0xbd117ebe	-0.03552126
18	0xbef1cd7c	-0.47227085
19	0xbe5ce321	-0.21571018
20	0xbdc3505b	-0.09536811
21	0x3e00aedc	0.12566704
22	0x3dd7a825	0.10530118
23	0xbe56df77	-0.20983683
24	0x3e4c642d	0.19960089
25	0xbe177a45	-0.14792736
26	0x3e28516a	0.16437307
27	0xbcd5fe53	-0.026122248
28	0xbe7cc9ad	-0.24686308
29	0x3e558b65	0.20853956
30	0xbafd5fc6	-0.0019330911
31	0xbe9f2b1c	-0.31087577

bn3.running_mean f4 [32]
0	0x3ebccfc4	0.36877263
1	0xc01d7901	-2.4605105
2	0xc03f0052	-2.9843946
3	0xbfba7ec0	-1.4569931
4	0xc03bed0f	-2.936344
5	0xc00c893f	-2.1958768
6	0x3f41a023	0.75634974
7	0xbfee548e	-1.8619554
8	0xc026324b	-2.5968196
9	0xbf538d1b	-0.82637185
10	0xc05ead42	-3.4793248
11	0xbebf2866	-0.3733551
12	0xbfeda563	-1.8566097
13	0x3f02f5df	0.5115642
14	0xbfe4a357	-1.7862347
15	0x40497467	3.1477296
16	0xc0128f41	-2.2899935
17	0xbfc3cdb5	-1.5297152
18	0xbfd52896	-1.6653011
19	0xc02d0b53	-2.7038162
20	0xbf25af83	-0.64720935
21	0xbf886af4	-1.065764
22	0xc01e29ea	-2.4713082
23	0xbf62befe	-0.8857268
24	0xbf9674b4	-1.1754365
25	0x3f869b25	1.0516096
26	0xbe999055	-0.2999293
27	0xbeae8a2a	-0.34089786
28	0xbebf0ac4	-0.373129
29	0x4008c28e	2.1368747
30	0x3de9345e	0.113869414
31	0xbf8a3cc1	-1.0799791

bn3.running_var f4 [32]
0	0x40988650	4.7663956
1	0x40abc6fb	5.3680396
2	0x413f6d86	11.964239
3	0x4100b69d	8.044583
4	0x404b25a1	3.1741717
5	0x409a83e7	4.8286014
6	0x40a4b86c	5.1475124
7	0x410ee32e	8.930464
8	0x40b4f2df	5.6546474
9	0x4096ae4c	4.7087765
10	0x408847cc	4.2587643
11	0x40dbd30b	6.869512
12	0x40768b60	3.8522568
13	0x407283a0	3.7892838
14	0x4127147f	10.442504
15	0x408e6621	4.449967
16	0x40acb9ef	5.397697
17	0x404a6d8c	3.1629362
18	0x4101eee7	8.120826
19	0x413cfa51	11.811112
20	0x40abff1c	5.3748913
21	0x40b5a12d	5.675925
22	0x4149d7dd	12.615201
23	0x40f14a29	7.5403028
24	0x409b6fcc	4.857397
25	0x407b7275	3.928861
26	0x406d033b	3.7033222
27	0x409148ae	4.540122
28	0x406395e6	3.556024
29	0x408174f8	4.0455284
30	0x404a538e	3.1613498
31	0x40627ad8	3.5387478

conv4.weight f4 [32, 32, 3, 3]
0	0x3e61317a	0.2199153
1	0xbdde94df	-0.10868239
2	0xbdece0bc	-0.11566302
3	0xbb32ee79	-0.0027302785
4	0x3b846709	0.004040603
5	0x3de854b7	0.11344283
6	0xbcab013a	-0.020874608
7	0x3d5a9034	0.05336018
8	0x3e0ff531	0.14058377
9	0x3e7cfbf4	0.24705487
10	0xbd07a58f	-0.033116873
11	0x3e51efc7	0.20501624
12	0x3e64258c	0.22279948
13	0xbd4f084d	-0.050545026
14	0xbc19a886	-0.009378558
15	0xbe4464b8	-0.19179046
16	0xbe1c3310	-0.15253854
17	0xbda92b4b	-0.082602106
18	0x3d567e62	0.05236662
19	0x3df8b5a9	0.12144024
20	0x3d99f832	0.075180426
21	0x3d6abd8f	0.057309683
22	0x3d140fd5	0.03614791
23	0x3e0ba6b3	0.1363781
24	0x3e1c1d03	0.15245442
25	0x3dd66d12	0.10470022
26	0x3d341b32	0.043971248
27	0xbebc0743	-0.3672429
28	0xbe91c1e4	-0.2846824
29	0xbdcd1283	-0.100132965
30	0x3e0192b4	0.12653619
31	0xbc59c063	-0.0132904975
32	0x3ce57247	0.028008593
33	0x3dbd63b7	0.09247535
34	0xbdeb327c	-0.114842385
35	0xbe9a0e1e	-0.30088896
36	0x3de93463	0.11386945
37	0x3d85a033	0.06524696
38	0x3e4e0f95	0.20123132
39	0xbe0a99b0	-0.1353519
40	0x3d96125d	0.07327721
41	0x3e2fac1c	0.17155498
42	0xbc88f700	-0.016719341
43	0x3e57de64	0.21080929
44	0xbe0a8784	-0.13528258
45	0xbdc0acce	-0.0940796
46	0x3dac5c02	0.084159866
47	0x3d1f4d38	0.038892
48	0x3d503954	0.050835922
49	0x3db3d4ea	0.087808445
50	0x3df457e4	0.11930826
51	0xbd955b82	-0.07292844
52	0xbdc337f3	-0.09532156
53	0xbe20bb38	-0.15696418
54	0xbc3a01a0	-0.0113529265
55	0xbb4c11d0	-0.0031138547
56	0xbe42d08b	-0.19024865
57	0x3ddcb30a	0.107763365
58	0x3c8cb6dc	0.017177038
59	0xbd9605ba	-0.07325311
60	0x3e07941f	0.13240097
61	0xbe4b7b29	-0.198712
62	0xbd3cb921	-0.04607499
63	0xbe1ea662	-0.15493158
64	0x3ce75e66	0.028243255
65	0x3e820213	0.25392208
66	0x3e122fe4	0.14276081
67	0xbe36b6c3	-0.17843156
68	0xbd9873e9	-0.07443983
69	0x3e7d795c	0.24753326
70	0xbdb62e1e	-0.08895515
71	0xbe054018	-0.13012731
72	0x3dc1a806	0.09455876
73	0xbd236e13	-0.039899897
74	0xbc6cc7c7	-0.0144519275
75	0x3debb721	0.115095384
76	0x3da115df	0.078655
77	0x3bc32546	0.005955371
78	0x3eab71ca	0.33485252
79	0x3e70c967	0.23514329
80	0x3bde2c45	0.0067801797
81	0xbe534615	-0.20632203
82	0xbdaeaa40	-0.08528566
83	0x3e384374	0.17994481
84	0xbe659de5	-0.22423513
85	0xbe32c6d3	-0.17458658
86	0xbce45eaf	-0.02787718
87	0xbe980fcc	-0.29699552
88	0xbe4993f2	-0.19685343
89	0xbe1d44e6	-0.15358314
90	0xbe824937	-0.25446483
91	0xbe51d3a4	-0.2049089
92	0x3d9ef1ad	0.0776094
93	0xbdf09ee5	-0.11749057
94	0xbdf85c5c	-0.12126991
95	0x3e6122cc	0.2198593
96	0xbe769ebd	-0.24083991
97	0xbd11f72c	-0.035636112
98	0x3d96605c	0.07342598
99	0xbc9476e4	-0.018123098
100	0xbe5cd550	-0.21565747
101	0x3e2a9b61	0.16660835
102	0xbe5d9893	-0.21640234
103	0xbe38c8fc	-0.1804542
104	0xbcef830e	-0.029237296
105	0x3cad1b89	0.021131294
106	0x3d114698	0.035467714
107	0x3da9dc46	0.08293967
108	0x3e5db6b6	0.2165173
109	0xbcb1c77e	-0.02170157
110	0xbd834a58	-0.06410664
111	0x3e500cf4	0.20317441
112	0xbd621497	-0.055195417
113	0xbd80ec3d	-0.06295059
114	0x3cc55f13	0.024093186
115	0x3bd08d4e	0.006364501
116	0x3d84856a	0.06470759
117	0x3d1a2731	0.037635032
118	0x3d012555	0.031529743
119	0x3db9c30b	0.090704046
120	0x3d0f081c	0.034919843
121	0x3d3be4d3	0.04587252
122	0xbd5e4543	-0.054265272
123	0x3e82733b	0.2547854
124	0x3cb77a27	0.022397114
125	0x3e326838	0.17422569
126	0x3d032a2a	0.032022633
127	0x3cc65687	0.024211181
128	0x3e774c72	0.24150255
129	0x38ae59bf	8.313683e-05
130	0x3d9ca85d	0.076493
131	0x3db8ba7a	0.090199426
132	0xbe3d6273	-0.18494587
133	0xbc2da289	-0.010597833
134	0xbc9d20f1	-0.019180747
135	0x3e114a83	0.1418858
136	0xbe20cfad	-0.15704222
137	0xbdb45bf6	-0.08806603
138	0x3d631516	0.05544003
139	0xbbf7d1cb	-0.007562851
140	0x3cd5fb8c	0.026120923
141	0xbc716f51	-0.014736013
142	0xbd8a1002	-0.067413345
143	0x3df362d9	0.11884088
144	0x3e8679bf	0.2626476
145	0x3e387abb	0.18015568
146	0x3da5d750	0.08097708
147	0x3d1fd5c4	0.039022222
148	0xbd839f4f	-0.0642687
149	0xbe44af45	-0.19207485
150	0xbe05753a	-0.13033
151	0xbc876ea0	-0.016532242
152	0xbe0429f9	-0.12906636
153	0xbce6aa2f	-0.028157322
154	0xbe450778	-0.1924113
155	0xbd5614db	-0.052265983
156	0x3d9a4eb0	0.0753454
157	0xbdc2a02b	-0.09503206
158	0x3d2850cf	0.04109269
159	0x3e3f1d6e	0.1866357
160	0x3dbf55c8	0.09342533
161	0x3df722b5	0.12067167
162	0xbd07396d	-0.03301375
163	0x3d50bd8b	0.050962012
164	0xbd8c7b56	-0.06859462
165	0x3b3a876d	0.0028462068
166	0x3dc466db	0.095899306
167	0x3dfdb85d	0.1238868
168	0x3d320544	0.043462053
169	0xbdc9f3ca	-0.09860952
170	0xbc6416d6	-0.01392146
171	0x3b92a32b	0.0044750175
172	0x3e8ae5c1	0.27128413
173	0xbd117019	-0.035507295
174	0xbd456acc	-0.048197553
175	0x3e1f72a9	0.15571083
176	0x3d0ce26d	0.034395624
177	0xbde18e0a	-0.1101342
178	0xbb4609ff	-0.003021836
179	0x3dc547e3	0.09632852
180	0xbe875022	-0.26428324
181	0xbeafd5dd	-0.34342852
182	0xbe9721bc	-0.29517925
183	0xbeadcb57	-0.33944198
184	0xbee9fac3	-0.45699129
185	0xbecb6af5	-0.3973004
186	0xbee74d16	-0.45176
187	0xbec9952c	-0.39371622
188	0xbef32114	-0.47486174
189	0xbdff464a	-0.124645784
190	0xbd0622ab	-0.032747906
191	0xbd8003d1	-0.06250728
192	0xbe5bc67e	-0.21462438
193	0xbdcbf3e5	-0.099586286
194	0xbe5aaa13	-0.2135394
195	0xbd16673d	-0.03671955
196	0xbe32e534	-0.17470247
197	0xbd6ff07a	-0.058578946
198	0x3ea7518d	0.32679406
199	0x3d95dea5	0.07317857
200	0xbeb24d1c	-0.34824455
201	0x3dad94e9	0.08475668
202	0xbe4a0e31	-0.19731976
203	0xbd8a22b8	-0.06744903
204	0xbd913f54	-0.07092157
205	0xbe04a218	-0.12952459
206	0x3e087dca	0.13329235
207	0xbea1c449	-0.31595066
208	0xbeeac32f	-0.45852038
209	0xbe9fa8f4	-0.31183589
210	0xbeba27be	-0.36358446
211	0xbf201e5b	-0.6254632
212	0xbec516fa	-0.38494092
213	0xbf05e4e8	-0.5230241
214	0xbeda2107	-0.42603323
215	0xbec2db57	-0.38057968
216	0xbd450071	-0.048096124
217	0x3dab332b	0.08359369
218	0xbe207ac2	-0.15671828
219	0x3d4154ea	0.04720012
220	0xbdb01014	-0.08596817
221	0xbe56d6c4	-0.20980364
222	0xbe9f49db	-0.31111035
223	0xbeb316c8	-0.34978318
224	0xbe286740	-0.16445637
225	0xbd0d2a30	-0.03446406
226	0x3dc3a59f	0.09553074
227	0x3eae2e13	0.34019527
228	0x3e2b3508	0.16719449
229	0xbd413428	-0.04716888
230	0x3e80e21b	0.25172505
231	0x3e1512f9	0.14558019
232	0xbd9cc266	-0.07654266
233	0x3def19ad	0.11674819
234	0xbab736c8	-0.0013978118
235	0xbda52ce6	-0.08065204
236	0xbd2a4199	-0.041566465
237	0xbdd3f2b7	-0.103490286
238	0xbe32f2fb	-0.17475502
239	0xbe538e8a	-0.20659843
240	0xbdb9bf5c	-0.09069702
241	0xbc0d7bce	-0.008635474
242	0xbe7f321c	-0.24921459
243	0x3ecb89a5	0.39753452
244	0xbd93666c	-0.0719727
245	0xbde021d7	-0.109439544
246	0x3d90bda7	0.07067423
247	0xbda5a666	-0.080883786
248	0x3e04a923	0.12955146
249	0xbdd921d8	-0.10602158
250	0x3db687a7	0.089125924
251	0x3e04027f	0.12891577
252	0x3e354a3a	0.17704096
253	0x3dd5fc43	0.10448506
254	0xbd77f431	-0.060535613
255	0x3d998db0	0.07497728

conv4.bias f4 [32]
0	0x3a00c332	0.0004911899
1	0xb9c77b82	-0.00038048258
2	0x39089161	0.00013024129
3	0xb8cfda21	-9.911159e-05
4	0x38b307dc	8.536849e-05
5	0xba23bef0	-0.00062464084
6	0x3998cf01	0.0002914593
7	0xba1372a8	-0.000562469
8	0xb968115d	-0.00022131712
9	0x386ec517	5.6927176e-05
10	0x3a17581e	0.00057733234
11	0x396caf17	0.0002257194
12	0xb9617a6f	-0.00021503282
13	0xb90e5022	-0.00013572027
14	0xb8fe822d	-0.00012135911
15	0x3a060a5a	0.0005113237
16	0xb7d94493	-2.5900348e-05
17	0x392c9ae4	0.000164609
18	0x39fe51b9	0.00048507543
19	0x39b11d23	0.0003378178
20	0x38521318	5.0085684e-05
21	0x3a20a1cf	0.0006127627
22	0x3a19a98b	0.00058617507
23	0x3a3732cf	0.0006988467
24	0xb9c4f7f9	-0.00037568787
25	0xb9fd10da	-0.00048268476
26	0xb9b8fab2	-0.00035281997
27	0x36452a15	2.9379783e-06
28	0xb91f6f9a	-0.00015204996
29	0xb5e15300	-1.6787963e-06
30	0x39ea14d5	0.0004464748
31	0x3a3bc50d	0.0007162847

bn4.weight f4 [32]
0	0x3f6c743d	0.92364866
1	0x3f57bab2	0.8426925
2	0x3f90fe4d	1.1327606
3	0x3f74a2d6	0.9556097
4	0x3f25617d	0.6460188
5	0x3f84b903	1.0368961
6	0x3f5e4f44	0.868397
7	0x3f820db1	1.0160428
8	0x3f665127	0.8996758
9	0x3f43596d	0.7630833
10	0x3f434e03	0.7629091
11	0x3f477702	0.77915967
12	0x3f761b8d	0.9613579
13	0x3f82f136	1.0229862
14	0x3f1f19ef	0.62148947
15	0x3f64777e	0.8924483
16	0x3f6c16ea	0.92222464
17	0x3f4e1277	0.80496925
18	0x3f5aaf9f	0.85424227
19	0x3f839986	1.0281227
20	0x3fa54628	1.2912035
21	0x3f93bc5d	1.1541859
22	0x3fca50e0	1.5805931
23	0x3f3bd2da	0.7336861
24	0x3f7134c7	0.94221157
25	0x3f646dfe	0.89230335
26	0x3f5c8713	0.86143607
27	0x3f84d9e3	1.0378994
28	0x3f8134c1	1.0094224
29	0x3f83763c	1.0270457
30	0x3f862ccb	1.048242
31	0x3f5814b8	0.84406614

bn4.bias f4 [32]
0	0xbdb2a776	-0.08723347
1	0xbe46e277	-0.19422327
2	0xbf1b22fe	-0.6060027
3	0xbe9df27b	-0.3084906
4	0x3e5246db	0.20534842
5	0xbe18df40	-0.14928913
6	0xbddc3446	-0.10752158
7	0x3da43db8	0.080195844
8	0x3deb17a9	0.11479122
9	0xbd688de7	-0.056775954
10	0xbcc10ba5	-0.023565123
11	0x3af648af	0.0018789972
12	0xbf08a858	-0.5338187
13	0xbcee94c4	-0.029123671
14	0x3f24b3c7	0.6433682
15	0xbc3bda30	-0.011465594
16	0xbe1a14fb	-0.15047066
17	0x3d8cca88	0.06874567
18	0x3d82e267	0.06390839
19	0xbea72e66	-0.32652587
20	0xbeff3859	-0.49847677
21	0xbf866470	-1.0499401
22	0xbf98ae2d	-1.1928154
23	0x3e9103a3	0.28323087
24	0xbe9ccc96	-0.30624837
25	0xbe8f439c	-0.2798127
26	0x3e4c10b8	0.19928253
27	0xbda680e4	-0.08130053
28	0xbf11419c	-0.56740737
29	0xbef164e3	-0.47147283
30	0xbee58916	-0.4483115
31	0xbe13789c	-0.14401478

bn4.running_mean f4 [32]
0	0xc038a1ab	-2.8848674
1	0xbf5ed1b6	-0.87038743
2	0x3db65fec	0.089050144
3	0xbfa4b6fa	-1.286834
4	0x3e5d48d4	0.21609813
5	0xbfb95d71	-1.4481641
6	0xbffebc38	-1.990119
7	0x3facdd39	1.3505012
8	0xc0253033	-2.5810668
9	0xbfd62f6e	-1.6733224
10	0xbf8979af	-1.074026
11	0xbfa01ca5	-1.2508742
12	0x3ebc6aaf	0.36800143
13	0x3f1999a2	0.6000005
14	0x3ff6e832	1.928961
15	0xbdacdc9c	-0.084405154
16	0x3ed7f210	0.42176867
17	0x3fb99598	1.4498777
18	0x3e264c26	0.16239986
19	0xc0125676	-2.2865272
20	0xbd9f7063	-0.07785108
21	0xbfc20938	-1.5159063
22	0xbfb06b18	-1.3782682
23	0xbff16092	-1.8857596
24	0xbf29195e	-0.6605433
25	0xbf90b8e0	-1.1306419
26	0x3db8cc77	0.090233736
27	0xbfbcdfbb	-1.4755777
28	0xbf831daf	-1.0243434
29	0xbf5233a2	-0.82110035
30	0xbf8c97dc	-1.0983844
31	0xbe39e6a9	-0.18154396

bn4.running_var f4 [32]
0	0x4078d885	3.8882153
1	0x40047ca2	2.070107
2	0x404b3723	3.1752403
3	0x40432722	3.0492635
4	0x402e393f	2.722244
5	0x40819d22	4.0504313
6	0x404fdb21	3.2477496
7	0x4090a065	4.5195794
8	0x40513a4b	3.269183
9	0x402eb7e4	2.7299738
10	0x4025af66	2.5888305
11	0x40207335	2.5070317
12	0x40004d4f	2.0047185
13	0x407a9422	3.9152913
14	0x4086f97b	4.217954
15	0x4034b2cf	2.8234136
16	0x4069c521	3.6526568
17	0x4041a434	3.0256472
18	0x40501690	3.251377
19	0x40341c59	2.8142302
20	0x40823c58	4.069866
21	0x3fed8718	1.8556852
22	0x408d25fd	4.4108872
23	0x404e8eaa	3.2274575
24	0x404b7c72	3.1794705
25	0x40362c34	2.846448
26	0x40983af2	4.7571955
27	0x4098112e	4.752097
28	0x4001913c	2.0244894
29	0x401b200f	2.4238317
30	0x4064cb8a	3.574923
31	0x40112f11	2.2684977

conv5.weight f4 [32, 32, 3, 3]
0	0x3e7479d9	0.23874606
1	0x3e86b07b	0.2630652
2	0x3e901bc4	0.28146183
3	0xbe004694	-0.12526923
4	0x3e2001d2	0.15625694
5	0x3e3b905d	0.18316789
6	0xbced252f	-0.028948395
7	0xbdaa1e77	-0.08306592
8	0x3c2f1b82	0.010687711
9	0x3a987fa0	0.0011634715
10	0xbe862e66	-0.26207274
11	0xbeb3e08e	-0.3513226
12	0xbeadfe22	-0.3398295
13	0xbd86fcd4	-0.06591192
14	0x3e282889	0.16421713
15	0xbcb52276	-0.022111159
16	0x3df99bff	0.12187957
17	0x3e78ca7d	0.24295993
18	0xbd85df40	-0.06536722
19	0x3e0ff8f4	0.14059812
20	0x3dc28927	0.09498816
21	0xbe0d8c6e	-0.13823101
22	0x3d9838c0	0.07432699
23	0x3b90de70	0.004421048
24	0x3bc03217	0.005865346
25	0x3dbe9704	0.09306148
26	0x3dd052de	0.10172056
27	0xbc6fb07c	-0.0146294795
28	0xbec3ae8b	-0.38219103
29	0xbd7c166c	-0.06154482
30	0xbcf86844	-0.030323155
31	0xbe668c12	-0.2251437
32	0x3c365a13	0.011129874
33	0x3b5a8de6	0.0033348738
34	0x3d978ca9	0.07399876
35	0x3e83da0e	0.257523
36	0xbe2d5bd8	-0.16929567
37	0xbe88e5ed	-0.2673792
38	0x3badc30d	0.005302793
39	0x3db522e3	0.08844545
40	0xbe202813	-0.15640287
41	0xbe8d0f1a	-0.27550584
42	0xbd36cc65	-0.04462852
43	0xbd393e2a	-0.0452253
44	0xbe3b0cb0	-0.18266559
45	0xbe902a2c	-0.28157175
46	0x3e4945ec	0.1965558
47	0x3eff40de	0.49854177
48	0xbe20971e	-0.15682647
49	0xbceabbb9	-0.028653966
50	0xbd6d80e5	-0.05798425
51	0x3a48730d	0.00076465384
52	0xbe8200ad	-0.2539114
53	0x3d0df550	0.034657776
54	0xbe32cb21	-0.174603
55	0x3cae7db9	0.021300184
56	0x3ea6df99	0.32592466
57	0xbe20fcd6	-0.1572145
58	0xbce88c71	-0.02838728
59	0x3d39e950	0.04538852
60	0xbde5ca81	-0.11220265
61	0xbce7e91e	-0.028309401
62	0x3d6e5efe	0.05819606
63	0xbeafec7a	-0.34360105
64	0xbeb9f657	-0.36320755
65	0xbeb9ef82	-0.36315542
66	0xbe69baf6	-0.22825226
67	0xbe46b5e9	-0.1940533
68	0xbe25828a	-0.16163078
69	0xbe06a7cb	-0.13149945
70	0x3d533993	0.05156858
71	0xbdbd4ad9	-0.09242792
72	0x3d1ab47a	0.037769772
73	0xbd699e97	-0.05703601
74	0x3d925d39	0.07146687
75	0x3dab5e1a	0.08367558
76	0xbcb976c6	-0.022639643
77	0x3d1ed021	0.038772706
78	0xbb865813	-0.0040998547
79	0x3d0b92d6	0.03407558
80	0x3d27055a	0.040776588
81	0xbe939296	-0.28822774
82	0xbe6f64d9	-0.23378314
83	0xbea96111	-0.33081868
84	0xbdaac522	-0.08338381
85	0x3e1112d3	0.14167337
86	0xbd6ef35f	-0.058337566
87	0xbd3077d7	-0.04308304
88	0x3ea3066d	0.3184084
89	0x3e40d1e6	0.1883007
90	0x3e71e9e0	0.23624372
91	0x3f092d3d	0.53584653
92	0x3e9d49fa	0.30720502
93	0xbdf67fca	-0.120360926
94	0xbe1f8782	-0.15579036
95	0xbe48b917	-0.19601856
96	0x3e2346e8	0.15945017
97	0xbc68b090	-0.014202252
98	0x3e184163	0.14868693
99	0xbe45a3c5	-0.19300754
100	0xbdffde9d	-0.12493632
101	0x3ec50ca0	0.38486195
102	0xbe643134	-0.22284395
103	0xbc914082	-0.017730955
104	0xb9d3a310	-0.00040366547
105	0xbec37731	-0.38176873
106	0xbd8fe700	-0.07026482
107	0xbdc0891f	-0.09401154
108	0xbe135f35	-0.14391787
109	0xbeef47ea	-0.46734554
110	0xbf09e6cc	-0.53867793
111	0xbca76a94	-0.020436563
112	0xbec7be8b	-0.3901256
113	0xbe2f9f83	-0.17150693
114	0xbcf35ba7	-0.02970679
115	0xbd48014d	-0.048829366
116	0xbd7e11e7	-0.06202879
117	0xbe5c0826	-0.21487483
118	0xbe1ed250	-0.15509915
119	0x3cc09f67	0.023513509
120	0x3d9b1f5c	0.07574341
121	0x3e55f850	0.20895505
122	0x3d024575	0.03180452
123	0x3cf33eac	0.02969297
124	0x3dd4c6f9	0.103895135
125	0xbdd04a43	-0.10170414
126	0xbf01acc3	-0.5065424
127	0xbee52cc2	-0.4476071
128	0xbef59b0f	-0.47969863
129	0x3d8c33aa	0.06845792
130	0x3e0950dd	0.13409753
131	0x3d15869e	0.036505334
132	0x3b854903	0.0040675416
133	0x3e8c623b	0.27418694
134	0x3eaf5ae1	0.34249023
135	0xbebac127	-0.3647549
136	0xbda8bdb1	-0.08239306
137	0x3ddeb90f	0.10875141
138	0xbe2acfd3	-0.16680841
139	0xbdaf3625	-0.08555249
140	0x3d16e02b	0.036834877
141	0x3c65d583	0.014027956
142	0x3e0770d5	0.13226636
143	0x3e98ec32	0.29867703
144	0xbe1d395e	-0.15353915
145	0x3e78b443	0.24287514
146	0x3de9bd08	0.11413008
147	0x3d01568c	0.03157668
148	0x3daababc	0.08336398
149	0xbe6a1842	-0.22860816
150	0x3cf35e1e	0.029707965
151	0x3e418aad	0.18900557
152	0xbb70dd9f	-0.003675319
153	0xbeaf19e7	-0.3419945
154	0xbd5f33ad	-0.05449264
155	0x3d47a140	0.048737764
156	0xbd5293ca	-0.051410474
157	0x3ce9fb37	0.028562171
158	0x3c7f1ae5	0.015570377
159	0xbd297797	-0.041373815
160	0xbc1d831f	-0.009613781
161	0x3e1b7612	0.15181759
162	0x3d460d69	0.048352633
163	0x3d8c3e7b	0.06847855
164	0xbcf652e2	-0.030068818
165	0xbe4830a2	-0.19549802
166	0xbe03753e	-0.12837693
167	0xbe1e94e6	-0.15486488
168	0x3dc1115c	0.09427139
169	0xbd76219f	-0.060090657
170	0x3d5285a1	0.05139697
171	0xbe5a32d4	-0.21308452
172	0xbe1879a7	-0.14890157
173	0x3c2768e1	0.010217876
174	0xbc967a7a	-0.018368948
175	0x3ce7ff19	0.028319882
176	0x3dcb3bee	0.0992354
177	0xbd60f87c	-0.054924473
178	0x3c9df612	0.019282375
179	0x3d93cab3	0.07216396
180	0x3df061d0	0.11737406
181	0xbc996cbe	-0.01872861
182	0xbc75a027	-0.014991797
183	0x3de35d71	0.11101807
184	0xbdf0a43e	-0.11750077
185	0xbd6d7444	-0.057972208
186	0x3d02afa3	0.03190578
187	0xbe243d98	-0.16039121
188	0xbe763c2a	-0.24046388
189	0x3e9ca4b8	0.3059442
190	0x3edb58dd	0.42841235
191	0x3f25b6d5	0.64732105
192	0x3e4a22c3	0.19739823
193	0x3e50f59f	0.20406197
194	0x3e9f2f01	0.3109055
195	0x3e54c0a3	0.2077661
196	0x3e94cf66	0.29064482
197	0x3e821c7a	0.2541235
198	0xbdfdd4e1	-0.12394119
199	0x3e19a7e8	0.15005457
200	0xbe041721	-0.12899448
201	0xbe2840d4	-0.1643098
202	0xbe0882a2	-0.13331082
203	0xbde75dae	-0.11297165
204	0xbd506469	-0.05087701
205	0x3d315974	0.0432982
206	0xbcd6bdda	-0.026213575
207	0xbe9df9bf	-0.30854604
208	0xbe485762	-0.19564584
209	0x3d8f49a8	0.06996471
210	0xbddbd956	-0.10734813
211	0xbcb6df77	-0.022323353
212	0x3d9f1ca1	0.077691324
213	0xbd5aea9c	-0.053446397
214	0xbbcf1bdd	-0.0063204602
215	0x3d992474	0.07477656
216	0x3d9c3237	0.07626765
217	0xbe5f8872	-0.21829394
218	0xbed7b1a1	-0.42127708
219	0x3e5f7659	0.2182249
220	0xbd5da7af	-0.054114994
221	0xbe59b44f	-0.21260189
222	0xbc35afeb	-0.011089305
223	0xbdbac77c	-0.0912008
224	0x3cf8aeec	0.030356847
225	0xbcd37438	-0.025812253
226	0x3da90e34	0.08254662
227	0x3dc100ea	0.094240025
228	0xbbbae9c6	-0.0057041375
229	0x3d3042d2	0.043032475
230	0x3e16aba7	0.14713918
231	0x3dedb3ed	0.11606584
232	0x3e3226ac	0.17397565
233	0x3e3ce116	0.18445238
234	0x3de46a29	0.11153061
235	0xbcc8cca4	-0.024511643
236	0xbe660481	-0.22462656
237	0x3e65fb4b	0.22459142
238	0x3e0955a3	0.13411574
239	0x3d9a80d8	0.07544106
240	0x3d032286	0.032015346
241	0xbd4f9d82	-0.05068732
242	0xbd94ebb9	-0.07271523
243	0x3df21b18	0.11821574
244	0xbdb192f9	-0.08670611
245	0xbe8ef804	-0.27923596
246	0x3ba27c86	0.004958692
247	0xbe2d0b23	-0.1689878
248	0xbd970881	-0.07374669
249	0xbdaf5c58	-0.08562535
250	0xbd8a77a6	-0.067611024
251	0xbcf375d4	-0.02971927
252	0x3e720702	0.23635486
253	0x3e721c64	0.23643643
254	0x3ed8c46f	0.42337367
255	0x3ca74d48	0.020422593

conv5.bias f4 [32]
0	0xb84af5e8	-4.838957e-05
1	0xba11a65c	-0.00055561005
2	0x38ad1076	8.252349e-05
3	0xba1ebb3a	-0.00060551206
4	0xba14199e	-0.0005649569
5	0x39f92b10	0.00047525065
6	0x3a1c9c23	0.0005974194
7	0x36f0ae05	7.172816e-06
8	0x39b3a973	0.0003426779
9	0x3a19f27a	0.00058726186
10	0xb7ea086c	-2.7898895e-05
11	0xb983a862	-0.00025111722
12	0x3584e62c	9.901755e-07
13	0x39ba9e4c	0.00035594625
14	0xb9cf7415	-0.00039568605
15	0x396fb054	0.00022858504
16	0x3a2a567e	0.00064978737
17	0x39d02b8d	0.000397053
18	0x3a0c031b	0.0005341039
19	0x3a17b91a	0.0005787775
20	0xb85b2602	-5.2249066e-05
21	0x38e05862	0.00010697615
22	0xba0a0416	-0.0005264891
23	0xba239144	-0.0006239603
24	0xba002d12	-0.00048895285
25	0xb9c44dec	-0.0003744209
26	0x38c281a7	9.2747905e-05
27	0x3a22cd2b	0.0006210382
28	0x37cef928	2.4673136e-05
29	0xb9fd64fe	-0.00048331165
30	0xb905ad54	-0.00012748438
31	0xb94d64e2	-0.00019587905

bn5.weight f4 [32]
0	0x3f8cc982	1.0998995
1	0x3f587223	0.8454916
2	0x3f702567	0.9380707
3	0x3f39e166	0.72609556
4	0x3f5c34da	0.86018145
5	0x3f4aabcb	0.79168385
6	0x3f32eca8	0.6989236
7	0x3f71aaec	0.9440143
8	0x3f577206	0.8415836
9	0x3f2b1829	0.6683374
10	0x3f5496b6	0.83042467
11	0x3f498316	0.78715646
12	0x3f53c2ca	0.827191
13	0x3f4d53d2	0.80206025
14	0x3f51149f	0.8167209
15	0x3f6f0921	0.93373305
16	0x3f4917c6	0.785519
17	0x3f2da21e	0.67825496
18	0x3f4cc6a4	0.799906
19	0x3f1f628c	0.62259746
20	0x3f838d59	1.0277511
21	0x3f5869b0	0.84536266
22	0x3f709efc	0.9399259
23	0x3f473bfb	0.778259
24	0x3f381ce8	0.7191911
25	0x3f878cfe	1.0589902
26	0x3f948287	1.1602334
27	0x3f59b50a	0.8504187
28	0x3f3278b2	0.69715416
29	0x3f53318d	0.82497483
30	0x3f765cbb	0.96235245
31	0x3f5bc548	0.858479

bn5.bias f4 [32]
0	0xbf144ca4	-0.57929444
1	0x3ea87236	0.32899636
2	0xbe635b77	-0.2220286
3	0x3e70e4e8	0.23524821
4	0x3e9ecea1	0.3101702
5	0x3e2999f3	0.16562633
6	0x3f04bf48	0.5185437
7	0x3ed43bf3	0.41451988
8	0x3ed50998	0.41608882
9	0x3f1422b3	0.57865447
10	0x3d9f888d	0.07789717
11	0x3e8b9110	0.2725911
12	0x3d8d1e61	0.0689056
13	0x3de0c3ae	0.10974823
14	0x3e51c7c6	0.20486364
15	0xbdf0ef35	-0.11764375
16	0x3ec28819	0.3799446
17	0x3ef4e4ac	0.47830713
18	0xbcb61d9d	-0.022230918
19	0x3f366693	0.71250266
20	0xbf03ae35	-0.51437694
21	0x3d9d6078	0.076844156
22	0x3dbccebe	0.092191204
23	0x3ecb83c6	0.39748973
24	0x3eef4cb2	0.467382
25	0xbecd4748	-0.40093446
26	0xbeb36614	-0.35038817
27	0xbc037202	-0.008022787
28	0x3eede6ac	0.4646505
29	0x3de0866c	0.10963139
30	0xbda5da2d	-0.08098254
31	0x3c84287a	0.016132582

bn5.running_mean f4 [32]
0	0xbfd87871	-1.6911756
1	0xc02405fc	-2.5628653
2	0x3dd88fb2	0.10574283
3	0xbf603dad	-0.8759411
4	0xbfc59892	-1.5437186
5	0xbe729b02	-0.23691943
6	0x40467afe	3.1012568
7	0x3f135cb4	0.5756333
8	0xbfbcf769	-1.4763004
9	0xc00798eb	-2.1187084
10	0x3e9dec3e	0.308443
11	0xc0273721	-2.6127398
12	0xbe14fe77	-0.14550196
13	0x3f61efbb	0.88256425
14	0xbf43a4eb	-0.7642352
15	0xbf526815	-0.82190067
16	0xbf08abb5	-0.53387004
17	0xc048f9e6	-3.1402526
18	0x3e8072d0	0.25087595
19	0xbf61b848	-0.88171816
20	0x3de14d1d	0.11001036
21	0xbfbbf02c	-1.468267
22	0xc080ed5c	-4.0289745
23	0xbfba5fd8	-1.4560499
24	0x4087df0f	4.245979
25	0x3bcaa25b	0.006183905
26	0xbf1da707	-0.6158299
27	0xbf86fcd1	-1.0545903
28	0x403308d2	2.7974133
29	0xbf8b5541	-1.0885392
30	0x3e89f439	0.2694414
31	0x3f03ee65	0.51535636

bn5.running_var f4 [32]
0	0x4031df5a	2.7792573
1	0x40844d64	4.134447
2	0x403bb24d	2.9327576
3	0x40442f31	3.0653803
4	0x40a06da2	5.013383
5	0x40555918	3.3335629
6	0x40580930	3.3755608
7	0x405ffd4e	3.4998355
8	0x406d248a	3.7053552
9	0x4085cb8b	4.1810966
10	0x4049628a	3.1466393
11	0x404d6c1d	3.2097237
12	0x402baa3a	2.6822648
13	0x401cd829	2.4506934
14	0x405f97d5	3.493642
15	0x4045bdcb	3.089709
16	0x4066d13d	3.606521
17	0x40847166	4.1388426
18	0x4033d8af	2.8101003
19	0x40516122	3.2715535
20	0x40236b28	2.5534153
21	0x403160df	2.7715375
22	0x40468f30	3.1024895
23	0x406509f3	3.5787323
24	0x40593d9d	3.3943856
25	0x3ff6ced3	1.9281868
26	0x40528f07	3.2899797
27	0x404e1969	3.220301
28	0x404e0405	3.2189953
29	0x402b78f5	2.6792576
30	0x40524999	3.285742
31	0x402e2204	2.7208261
