model_weights/Tiny10/CIFAR10/in1-gn1/110000.pt (torch_old, 358762 bytes, 50 tensors)

conv1.weight f4 [16, 3, 3, 3]
000000 8d fc 9f be bc e0 da be 8e e1 7e be 22 ef 72 3e
       -0.31247368 -0.42749584 -0.2489073 0.23724034
000010 d2 40 89 3d bb c9 65 be e9 d9 d1 3e 12 7d d0 3e
       0.067018166 -0.22440235 0.40986565 0.4072042
000020 c3 28 06 bd b7 00 aa be 67 69 a9 be 9a b9 b9 be
       -0.032753717 -0.3320367 -0.33088228 -0.36274415
000030 00 85 3c 3d 3b 88 7f 3c ea 08 a4 be 22 5b e1 3c
       0.046025276 0.015596445 -0.3203805 0.027509276
000040 d3 0c 13 3e f0 6b 33 be 23 8d 57 be 76 66 20 be
       0.14360361 -0.17521644 -0.21049933 -0.15664086
000050 6f b9 0c be 1a 7e bd 3c 7b 9d d1 3d d7 e3 3a be
       -0.13742612 0.023131419 0.10235115 -0.18250977
000060 f2 25 9f bb 4d ea 45 3e 71 2f 5f bd 1c f9 7f be
       -0.0048568184 0.1932766 -0.054488603 -0.24997371
000070 b8 73 00 bd 35 1c 78 be 2a 48 b1 bd bd c1 a6 bb
       -0.031360358 -0.2422951 -0.08656342 -0.0050890134
000080 84 5e e7 bd 0e 2a 0f 3e f5 37 5b be f0 ca e2 be
       -0.11297324 0.13980886 -0.21408065 -0.44295454
000090 d1 c5 47 be e8 90 a3 3d 60 7e 06 be 74 10 d2 bd
       -0.19509055 0.07986623 -0.13134146 -0.102570444
0000a0 ff 9e 30 3c 1b c3 b3 bd 70 1e 40 3d af b5 aa be
       0.010780095 -0.08777448 0.046904027 -0.3334174
0000b0 f9 69 eb be ab d1 34 3e ca 81 05 3f 87 5a 67 3e
       -0.45979288 0.17658107 0.5215117 0.22593127
0000c0 34 af 21 3e 56 bb 7c 3e eb f7 2f 3e bf c0 da 3d
       0.15789491 0.24680838 0.17184417 0.10681295
0000d0 09 34 93 be cc 64 8b be 28 fc 98 3d 21 a3 77 3c
       -0.28750637 -0.2722534 0.0746997 0.015114577
0000e0 6c 23 4a be 95 9d 16 bf 0e 23 b6 bd 2e d3 15 3f
       -0.19740075 -0.588342 -0.08893405 0.5852536
0000f0 3b 68 ef be 81 07 8c bd fe d3 21 3f d2 7c 54 3d
       -0.4675921 -0.06837369 0.632141 0.05187685
000100 07 bb c4 3d f6 08 40 3e 9c 24 41 bf 96 9f ee bd
       0.09605985 0.18753418 -0.75446486 -0.11651532
000110 1c 52 5f 3f 56 4f 44 bf aa b1 6f be 00 48 38 3f
       0.87234664 -0.7668356 -0.23407617 0.71984863
000120 82 bc 14 bd 49 60 f6 bd e7 7e 27 be 5d b8 3b bf
       -0.036312588 -0.12030084 -0.16357003 -0.7332819
000130 55 65 07 be 09 72 33 3f 19 12 0f bf 02 13 95 3d
       -0.13222249 0.7009588 -0.5588699 0.07279016
000140 d7 61 5e 3f 9b 5c 00 bf 3e 1e 37 3f a3 0a cf 3e
       0.8686804 -0.50141305 0.7153052 0.40437803
000150 91 e3 b7 3c ba b7 03 c0 1a 5f a7 3f 09 2e 60 bf
       0.02244738 -2.0580888 1.3075898 -0.87570244
000160 2b 19 0c 3f 68 e8 fb 3e 63 f8 6b 3e b4 6e ca 3d
       0.54725903 0.4920075 0.23043971 0.09884396
000170 b2 d5 cf be a0 01 a3 3f fb 81 02 c0 22 47 e1 3d
       -0.40592724 1.2734871 -2.0391834 0.10999896
000180 fc 51 73 3e 32 40 9c 3e 8c 11 2a 3c d0 9f 0c bf
       0.23761743 0.30517727 0.01038016 -0.54931355
000190 6b d0 21 3f 9b 35 14 bd a7 49 82 3f b6 29 e8 be
       0.63208646 -0.036183935 1.0178727 -0.45344323
0001a0 58 9e 5f be ab 7d 13 bd 31 9e cd 3e de 8e 1f bf
       -0.21837747 -0.03600852 0.40159753 -0.62327373
0001b0 aa 3e 2a bf 45 f7 b9 bf 1c d4 75 bf 19 e1 f9 bd
       -0.6650187 -1.4528586 -0.9602678 -0.12201137
0001c0 cf 20 39 3f 11 58 a4 be db 24 35 3e 8a 8f 06 40
       0.72315687 -0.3209844 0.1768984 2.102511
0001d0 4c 13 84 3f 58 9e 21 3f 32 6a 02 3f 9b ec 1d 3f
       1.0318389 0.6313224 0.5094329 0.61689156
0001e0 6c 66 1c be f5 6b 46 3e ed cb 12 bf f2 e6 87 bf
       -0.15273446 0.1937712 -0.57342416 -1.0617354
0001f0 79 51 ed be 02 32 12 bf e3 ad ca 3d 71 bb 3a 3f
       -0.4635122 -0.57107556 0.098964475 0.7294226
000200 d2 51 11 3f d8 59 5c 3d 49 fc fc 3e ef 2f 17 bf
       0.5676547 0.05379662 0.49411228 -0.59057516
000210 7e e1 cd bd d0 de ff bd 75 b3 55 bf cd 6a 00 3f
       -0.10052775 -0.1249367 -0.83476955 0.50162965
000220 1a 54 a4 bd 3f cd 98 be b2 7f 65 3f 74 ec 90 3c
       -0.080238536 -0.2984409 0.8964797 0.017690875
000230 0d 18 5f bf b6 db 3b be e3 af 59 be 10 e1 60 3e
       -0.87146074 -0.18345532 -0.21258502 0.21960855
000240 6e 14 21 3f f3 78 21 be 08 0c eb be 30 a6 95 3f
       0.629218 -0.15768795 -0.45907617 1.1691341
000250 2b ab ab bc d8 9f 8b bf 06 63 1b 3e 02 ed 9e bd
       -0.020955643 -1.0908155 0.15174493 -0.077600494
000260 ca 09 5d 3d 9e eb df 3e 1a 23 70 bc 6f 41 0d bf
       0.053964414 0.4373445 -0.014656806 -0.5517797
000270 ce a6 69 3f 0c 93 ce 3d 1a 4f 95 bf 76 5b 02 3d
       0.9127015 0.10086641 -1.1664765 0.031825505
000280 ce d3 d9 3d 3e 5f 74 ba 77 72 d5 be ad 1f ec be
       0.10636102 -0.00093220535 -0.41688892 -0.46117917
000290 40 4f 5e bd 48 37 c3 be df f0 b8 be 6e df bd be
       -0.054274797 -0.38128114 -0.3612127 -0.37084526
0002a0 b4 a6 c4 be 29 3f af be c3 e6 4d be b6 31 96 3e
       -0.38408434 -0.34227875 -0.2010756 0.293348
0002b0 8e a6 f8 3e 4c 7d ad 3d 20 2b 63 3f 45 72 a7 3f
       0.4856457 0.08471164 0.8873768 1.3081747
0002c0 69 37 b7 3e b4 40 3f 3f 47 a1 8b 3f c9 9c b7 3e
       0.35784462 0.74708104 1.0908593 0.35861805
0002d0 7e 80 5c 3e 51 53 63 be 19 90 78 3e 13 08 36 bf
       0.21533391 -0.22199751 0.24273719 -0.7110607
0002e0 05 20 67 bf a2 ea ca be 42 57 e4 be 10 27 1f bf
       -0.9028323 -0.39632136 -0.44597822 -0.6216898
0002f0 81 78 c4 bd 2f 9b b0 bd e4 25 33 bf 2a a2 01 3f
       -0.09593297 -0.08623349 -0.6997969 0.5063807
000300 91 23 02 bf 23 a9 ae 3f f9 af 2b 3f 9a 4e 52 bf
       -0.5083552 1.3645366 0.6706539 -0.82151186
000310 84 a4 a4 bd 96 6c 1c 3e 5d 94 ca 3e 74 32 65 bf
       -0.08039191 0.15275797 0.39566317 -0.8953011
000320 8c a6 61 bf d6 a6 3e 3f a2 2e 8c 3f 27 3a 34 bf
       -0.88144755 0.7447332 1.0951731 -0.70401233
000330 72 a0 91 3d 84 6f 44 be 52 4b 85 be 1a c2 a6 be
       0.07110681 -0.19183165 -0.26034027 -0.32569963
000340 a0 d7 24 bf 86 78 f3 3e 73 13 5b 3e 6f 02 41 3f
       -0.6439152 0.4755289 0.21394138 0.7539434
000350 8e 8b cf bc 07 16 6c 3b 0a 46 8e be 9d 42 bf bd
       -0.0253351 0.0036023872 -0.2778781 -0.09338877
000360 f1 54 75 3d 33 3f b4 3e a8 8e 8a 3e ce b1 5a 3e
       0.05989546 0.35204467 0.27061963 0.2135689
000370 5b 1b 0d 3f c6 8f b8 3e 53 68 28 3d 1d 29 fa 3d
       0.55119866 0.3604719 0.041115116 0.12214873
000380 98 71 23 bd aa 78 07 bf 35 64 7b be f8 ef 72 be
       -0.039903253 -0.52918494 -0.24549945 -0.23724353
000390 76 76 05 be 8a c7 30 3e a7 62 a1 3d 3a 46 d3 bd
       -0.1303347 0.17263618 0.078801446 -0.10316129
0003a0 ee 08 53 bd 13 0f 05 be 99 94 24 3e 51 74 ad 3e
       -0.051522188 -0.12994032 0.1607231 0.33877805
0003b0 22 a6 07 3c 1d 65 3f 3e 4e 6c a9 3e 33 d8 92 bc
       0.008279355 0.18690915 0.33090442 -0.017925357
0003c0 72 a7 8e bd 15 7c 37 be 89 34 b2 be 84 17 18 be
       -0.069655314 -0.17918427 -0.34805706 -0.1485272
0003d0 1b 8d 50 bd 9d 74 b1 3d 92 22 81 bc 8a 4b 2b 3d
       -0.05091582 0.0866482 -0.015763555 0.041820087
0003e0 db f5 0c bd d6 d9 4f 3e 3e f2 7a 3e 9d 30 1e 3b
       -0.034414154 0.20297942 0.2450647 0.0024137862
0003f0 06 7c c5 be db f4 b9 be 48 9f e0 bd 17 aa dc be
       -0.38571185 -0.36319622 -0.109678805 -0.43098518

conv1.bias f4 [16]
000000 7a 3c 5d 38 0a b4 3f 3a e0 f6 70 3a 75 8f 06 bb
       5.274683e-05 0.00073128997 0.00091920607 -0.0020532284
000010 51 43 a1 3a ad 3a 89 39 10 66 e6 3a bd 0a ec 3a
       0.0012303387 0.00026174393 0.0017578024 0.0018008571
000020 d2 61 03 bb 84 37 20 3b 8e 2f 24 bb b7 e3 bf 3a
       -0.002004732 0.0024447152 -0.002505276 0.0014640008
000030 0d 21 3c 39 50 15 9e 3a 10 99 b4 ba 90 dd c8 3a
       0.0001794139 0.0012060795 -0.0013778526 0.001532482

bn1.weight f4 [16]
000000 27 0c ae 3f 17 f8 83 3f 6c 58 47 3f ae 3e 7a 3f
       1.3597459 1.0310086 0.77869296 0.9775189
000010 2d d5 41 3f 37 10 59 3f 9f 02 04 3f aa d8 7c 3f
       0.75715905 0.84790367 0.515665 0.98768103
000020 d6 f9 d8 3e bd e7 26 3f 46 67 33 3f 27 34 69 3f
       0.4237811 0.65197355 0.7007946 0.91095203
000030 3d c7 73 3f 8c 1b 6b 3f eb be f8 3e 16 fb 59 3f
       0.9522589 0.9183891 0.4858316 0.8514875

bn1.bias f4 [16]
000000 cd 6d 97 bf 10 e6 3d bf ba f3 a0 3e 28 25 a9 3f
       -1.1830384 -0.7417917 0.3143595 1.3214464
000010 de 9d 59 3f d0 36 c5 3e 8c 1c 37 3e de d8 4a 3f
       0.8500651 0.3851838 0.17881984 0.79237163
000020 cd 2c 94 3d 3e 0b 64 be 07 90 0f 3f 72 bc dc be
       0.072351076 -0.22269914 0.56079143 -0.43112522
000030 9e b8 9a be 8b 53 7d 3f 92 d7 93 3e ea b6 46 bf
       -0.30218977 0.989556 0.28875405 -0.77622855

bn1.running_mean f4 [16]
000000 07 35 b6 3e 6c 6c 90 3e ea 5d ea 3c 1e 12 bd bc
       0.35587332 0.2820772 0.028609235 -0.023079928
000010 e7 14 91 3d 8f 10 d5 bc f9 7c 9a bc 10 2f 36 3d
       0.07084065 -0.026008872 -0.01885842 0.044478476
000020 fd 68 32 be 09 49 30 bc 4c 31 4a 3c b8 a5 1b bd
       -0.17422862 -0.0107596 0.012340855 -0.03799984
000030 98 17 44 3e 3c b3 39 39 80 3a 1b bc 22 3c 31 be
       0.19149625 0.00017709745 -0.009474397 -0.17308095

bn1.running_var f4 [16]
000000 75 50 ef 40 54 82 87 40 ed 0b 3e 41 0b 70 c3 3f
       7.4785714 4.234659 11.877912 1.5268568
000010 11 85 0d 40 41 a5 62 41 4f d0 41 40 5c b9 22 40
       2.2112467 14.165345 3.0283391 2.5425634
000020 76 8c 4a 40 d4 34 17 40 48 0b ad 41 02 5a 43 40
       3.164823 2.3625994 21.630508 3.0523686
000030 11 68 5b 40 fe 49 f9 3f ff ab ea 40 63 c5 13 40
       3.4282267 1.9475706 7.3334956 2.3089225

conv2.weight f4 [16, 16, 3, 3]
000000 3d 70 df bb ca 5f f5 3c 3d a1 01 be b4 97 eb bd
       -0.0068188 0.029952902 -0.12659164 -0.115035444
000010 04 e8 9d 3d 0e 1f 5f 3d 25 b7 27 be 29 d8 8e 3d
       0.07710269 0.054472975 -0.16378458 0.06974823
000020 f3 ba 2b 3e e0 83 4e be 3c 9a 5c bc bb c0 29 3e
       0.16770534 -0.20167494 -0.013464507 0.16577427
000030 b2 fd da bd 65 72 60 3d 95 35 67 3e a3 bc 28 bd
       -0.1069292 0.054796595 0.22579034 -0.041195523
000040 0e ac d2 3b 00 b1 45 bd 36 1a 02 bf 86 ca 14 bf
       0.006429202 -0.048264503 -0.50821245 -0.58121526
000050 ea 84 1a bf 34 09 12 bf 7a 94 b3 be da 87 02 bf
       -0.6035906 -0.5704529 -0.35074216 -0.50988543
000060 7f 85 11 bd 54 32 3a 3e a0 42 3d bd 9b e0 f6 bc
       -0.035527702 0.18183261 -0.046206117 -0.030136397
000070 5f ec cb bd 49 92 20 3e 55 89 b4 3e 58 bf 83 3e
       -0.099571936 0.15680803 0.35261026 0.2573192
000080 b3 cd c7 3d 4a e4 20 be 5b e9 79 be 39 1b 1f be
       0.09756031 -0.15712085 -0.24405424 -0.15537728
000090 8a ac fa bd 33 3a 3f 3d 29 f6 87 3e ed ab 55 3e
       -0.122399405 0.046686362 0.26554993 0.20866366
0000a0 35 4c 2d 3d 02 03 05 3e fe dc 9f 3d 61 d7 cc bd
       0.042309005 0.12989429 0.07805823 -0.10002018
0000b0 47 d8 a7 bd 5a 55 b0 3d 0a 84 0f 3e 62 5d 29 be
       -0.081955485 0.086100295 0.14015213 -0.16539529
0000c0 b0 a1 34 3f 74 47 16 3f fc ef e5 3e bf 29 fa 3e
       0.70559216 0.5870278 0.44909656 0.48859975
0000d0 31 39 a7 3e e8 a5 12 3e 1a 04 91 3c ed ad 41 be
       0.3266082 0.143211 0.017702151 -0.18914004
0000e0 e1 c0 1c 3c 0f de a9 3d 70 32 4f be f4 ac 46 bd
       0.00956747 0.082943074 -0.20234084 -0.048504785
0000f0 48 a8 8c 3e b0 8b 9d bd c0 37 15 bd 28 e6 db bc
       0.27472138 -0.07692659 -0.03643012 -0.026843145
000100 74 e1 46 3d 31 6b 61 3d b1 e6 34 3e 44 ea 86 bc
       0.048554853 0.055033866 0.17666127 -0.016469128
000110 78 56 8e 3d 4d e1 56 bd 06 fa 84 bd 46 dc dd bb
       0.06950086 -0.052460957 -0.06493001 -0.0067706434
000120 6b 17 c2 3d 7f 56 97 3c 36 c2 7a bd b4 2d 7f 3d
       0.09477123 0.018473862 -0.06122037 0.062299445
000130 4d 0b c9 bd 28 a1 83 be 4f 18 9d bd c3 07 fe bd
       -0.098166086 -0.2570889 -0.07670652 -0.12403824
000140 7d 81 1f be f4 f6 6b 3d 71 0f 25 be 03 da 32 be
       -0.1557674 0.05760856 -0.16119172 -0.17465977
000150 25 d8 45 bd f7 64 02 be b7 07 c4 bc 09 cd 10 bd
       -0.048301835 -0.12733828 -0.02392946 -0.035351787
000160 0f 7b 25 3d c3 32 5e 3e 4e df c5 be 10 8f 46 bc
       0.04040056 0.21699052 -0.3864693 -0.01211907
000170 2b f5 a5 3e 20 57 c3 bb 8e 55 8c bd 15 a6 18 be
       0.3241361 -0.005961314 -0.06852256 -0.14907105
000180 6d d8 9f 3e 6f da 7d bc 21 e4 c7 be 4a d3 1d 3d
       0.31219807 -0.015493973 -0.39041236 0.03853158
000190 02 19 d7 3c a1 09 72 bd da 7b e1 3d b8 91 ee 3b
       0.026257042 -0.059091214 0.11009951 0.0072805546
0001a0 51 0a 17 bd 41 f3 fb bd 1f 74 7b bd 6b ff 76 3d
       -0.036875073 -0.123022564 -0.06139004 0.06030218
0001b0 68 08 0a 3e 28 67 8f 3c 14 2f 4f 3e c0 21 02 be
       0.13479769 0.017505243 0.20232803 -0.12708187
0001c0 c9 00 54 be 9a 0e 09 3c e7 a0 ad bd f0 20 fd bd
       -0.20703425 0.008365298 -0.08477955 -0.12359798
0001d0 73 7c 0a 3e cb 02 9c 3d 7a 7b 4b bc ed 03 72 be
       0.13524036 0.0761772 -0.012419576 -0.2363431
0001e0 37 36 92 ba 15 6f a0 bd 56 a5 05 bf 44 38 a7 3e
       -0.0011155073 -0.07833687 -0.5220541 0.32660115
0001f0 e0 48 02 3e 2e 7e e6 3b 44 ef ea bd 72 51 0c be
       0.12723112 0.0070340848 -0.114714175 -0.13702944
000200 3c 33 d7 bd fc ca 9f 3c 14 02 42 bd 28 ec 94 bd
       -0.10507819 0.01950597 -0.047365263 -0.07271606
000210 4b 78 87 3e 82 b7 1f 3e d7 19 86 3d e2 2a 4f bd
       0.26458964 0.15597346 0.06547897 -0.050578006
000220 aa 03 30 3d 44 10 7e 3d bb 27 9a 3d 19 3f e2 3d
       0.042972244 0.06202723 0.07527109 0.11047191
000230 f1 9b b1 bd d2 65 80 3d 92 f2 b1 3d a9 cc 1d bd
       -0.086723216 0.06269421 0.08688845 -0.038525257
000240 2a bd 2e bc f8 2f 8e 3d 81 13 26 bd 25 c5 7a bd
       -0.010665217 0.06942743 -0.040545944 -0.061223168
000250 8c 01 83 3e da 47 0f 3e 90 13 72 be 2b 14 ff ba
       0.25587118 0.13992253 -0.23640275 -0.0019460967
000260 70 a9 e8 3d cc d6 e7 be 7a 83 55 be 75 e8 1c be
       0.11360443 -0.45281065 -0.20850936 -0.1532305
000270 fd 4c a2 be ee e2 58 be 56 90 2e 3d 46 d6 d5 3d
       -0.31699362 -0.21180317 0.04261812 0.1044126
000280 f0 fc a0 3d 13 dd 1c 3e 5b 8e 07 3e 94 ed ee 3c
       0.07860744 0.15318708 0.13237898 0.02916602
000290 b2 5c 77 3e ec 9f 14 be eb e5 85 3d 12 16 eb 3d
       0.24156454 -0.1451413 0.06537994 0.11478819
0002a0 12 be 1a be 20 1c 12 be fe 91 35 bd 85 a0 c5 3d
       -0.15111569 -0.14268541 -0.044328682 0.09649757
0002b0 b6 3f 15 bc 37 e9 e6 bd 44 73 0c 3e 2a ba 19 bd
       -0.009109428 -0.11274951 0.13715845 -0.037531056
0002c0 29 73 e7 be fc bd 0e 3e 43 be 51 3e 7d 6f 05 3e
       -0.45205048 0.13939661 0.20482735 0.1303081
0002d0 4a b5 23 3e b4 24 09 3f 1f 6f fe 3e e8 3a 91 3e
       0.15987125 0.5357163 0.49694154 0.28365254
0002e0 3c c2 98 3e b6 14 1e 3e 32 e9 08 bf 49 3b 49 bf
       0.2983569 0.15437588 -0.5348083 -0.78606087
0002f0 a3 6c 29 bf 68 b8 dc 3d 08 68 1d bb de 35 37 be
       -0.6618139 0.1077736 -0.0024018306 -0.17891642
000300 b3 67 95 3d 69 a7 97 3d 24 6a 89 3d 82 df 5a bd
       0.0729517 0.07404978 0.06709698 -0.05343581
000310 ff 23 38 3d 2b 29 96 3d 03 2d 22 bc af c3 ae be
       0.044956204 0.07332071 -0.009898427 -0.3413367
000320 de 76 ba be 74 99 d6 bd 4a e2 ee be 26 72 ca be
       -0.36418813 -0.104784876 -0.4665702 -0.39540213
000330 38 8e 65 3e c5 0a b6 bd 84 9f ce 3d d4 41 8c bd
       0.22417533 -0.08888773 0.10089019 -0.06848493
000340 ed 65 21 3e f5 da 4c bd f4 b6 b1 3e 0d 78 09 3d
       0.15761538 -0.0500135 0.34709895 0.033561755
000350 37 01 24 bf 4a 4e e1 3e 5e f2 28 3e 9a d1 84 be
       -0.64064354 0.44005042 0.16498706 -0.25941163
000360 c4 29 9a be 44 5f 22 be 32 cb d5 bd 20 0f 5b be
       -0.3010999 -0.15856653 -0.10439147 -0.21392488
000370 ce 98 68 bd ac 63 24 bd 4d 39 2f be 99 e2 4f bd
       -0.05678635 -0.040134117 -0.17111702 -0.05075321
000380 4d 26 a4 3c 75 a1 9a bb 9b d8 64 3d 07 a6 71 be
       0.020037794 -0.004718954 0.055870634 -0.2359849
000390 57 33 04 3e 5f 23 99 3e fd 96 c7 3d 73 a6 6c bd
       0.1291021 0.29909799 0.097455956 -0.057775926
0003a0 01 fc 6a 3d 9d 20 2f bc 6b a2 68 3e 43 7b 10 3d
       0.057369236 -0.010688928 0.22718208 0.0352738
0003b0 c3 4d a8 3d 13 78 d5 3d 71 b3 cd 3d 4a d9 49 3d
       0.08217957 0.10423293 0.10043991 0.04927949
0003c0 9e ff fc 3c 6b 53 40 be cb 78 91 be a1 9e 92 3a
       0.030883607 -0.18781821 -0.2841247 0.0011186191
0003d0 cf 88 2a bd ad b1 1d 3e dd d1 ae bd cf c2 06 be
       -0.041634377 0.15399809 -0.08536122 -0.13160251
0003e0 14 ee 1c bd 97 eb 4f be 43 55 58 be 1e 6f 9a bd
       -0.038312986 -0.20304714 -0.21126275 -0.07540725
0003f0 08 84 02 be b6 39 ac bd 8a a3 6b be e2 9e 60 be
       -0.12745678 -0.08409445 -0.23011604 -0.21935609

conv2.bias f4 [16]
000000 06 b2 0a ba 2f 82 4a b9 b0 81 0e b8 cf 9d c9 b8
       -0.000529081 -0.00019312718 -3.397622e-05 -9.613821e-05
000010 a1 47 5d b9 00 28 1b 39 7b 13 36 3a df eb 46 ba
       -0.00021102886 0.00014796853 0.0006945652 -0.0007588248
000020 7e de 12 3a f4 f8 8e ba 5b 11 9c 38 40 a5 83 ba
       0.0005602612 -0.0010907934 7.4418924e-05 -0.0010043755
000030 9d b4 8b 3a e9 f5 75 ba 15 94 21 ba 6f 05 3f 3a
       0.0010658685 -0.0009382652 -0.00061637285 0.00072868814

bn2.weight f4 [16]
000000 a2 4b 86 3f b6 78 78 3f 85 cf 94 3f 5b 62 7e 3f
       1.0491831 0.9705919 1.162583 0.9936883
000010 56 e1 a7 3f 24 a9 8f 3f a1 3b 7f 3f fb 29 75 3f
       1.3115642 1.1223493 0.9970036 0.9576718
000020 10 46 56 3f 28 57 6b 3f e8 72 8b 3f 0b 7f b9 3f
       0.83700657 0.91929865 1.0894442 1.4491895
000030 a0 9d 9c 3f ae 40 b8 3f ff f0 aa 3f e5 59 70 3f
       1.2235603 1.4394739 1.3354796 0.9388717

bn2.bias f4 [16]
000000 25 62 1a bc da 6d 64 be 4a be c8 bd 44 1b 01 be
       -0.009422814 -0.2230753 -0.0980192 -0.12608057
000010 d0 c9 18 be 77 65 0f 3d ef ee b8 3f 5c 9e 40 3e
       -0.14920735 0.035008874 1.4447917 0.1881041
000020 f1 2e 8e 3e b0 df 3f 3f 76 11 96 bd cd 8c 1c 3d
       0.27770188 0.74950695 -0.07327549 0.038220216
000030 85 e1 a3 bc e9 d0 1c be 3f af 3e 3b 89 47 26 3e
       -0.020004997 -0.15314068 0.0029096154 0.16238226

bn2.running_mean f4 [16]
000000 c2 7a 18 3e 0e c9 22 bf f0 ce 4a bf 08 87 f1 be
       0.14890578 -0.63588035 -0.7922201 -0.47173333
000010 14 7e 8c bf ab 24 be 3e 05 06 b3 bf de 89 90 3f
       -1.0975976 0.3713735 -1.3986212 1.1292074
000020 2a e9 88 c0 f3 05 dc 3e 68 fc d7 be 9a c5 d1 3e
       -4.2784624 0.4297329 -0.42184758 0.4097107
000030 d6 25 01 c0 68 b3 b8 bf e3 72 84 be d4 e3 e3 bf
       -2.0179343 -1.442975 -0.25868902 -1.7803903

bn2.running_var f4 [16]
000000 a0 38 a3 40 59 74 08 40 0d aa bb 40 f1 8f 31 40
       5.100662 2.1321013 5.864508 2.7744105
000010 a3 8d 2b 41 2c f6 fd 40 0a df 92 40 35 22 12 40
       10.722079 7.9363003 4.5897264 2.2833378
000020 dc b8 3e 40 2c cf 97 40 e8 d4 c2 40 f9 70 c1 41
       2.980033 4.7440395 6.0884895 24.180162
000030 1e 65 9a 40 be de 62 41 5c 40 1f 41 e2 74 e6 3f
       4.8248434 14.17938 9.953213 1.800442

conv3.weight f4 [32, 16, 3, 3]
000000 27 ac 98 bd dd 09 14 3d 2e 74 5d 3d 0a 61 23 3d
       -0.074547105 0.03614222 0.054065876 0.039887466
000010 89 49 1e 3e 2f 42 2f 3e 5d 02 86 3e ff 2f c7 3d
       0.15457739 0.17115091 0.26173678 0.097259514
000020 e9 bb d3 bd a4 64 78 be 2a bd 51 be 74 9d ca 3d
       -0.103385754 -0.24257141 -0.20482317 0.09893313
000030 b9 50 d8 bd 3d 92 64 3d 74 07 d6 3d 7a 95 88 bc
       -0.105622716 0.055803526 0.1045064 -0.016672838
000040 c3 1a a6 3d 28 b4 2c bd ee a0 74 be fd ed 6a be
       0.08110573 -0.042163998 -0.23889515 -0.22942348
000050 a2 27 21 be 4c 9b 1c be fc 76 6c be 80 f1 aa bd
       -0.15737775 -0.15293616 -0.23092264 -0.08346844
000060 c3 c5 bd bd 1d a9 92 bd ed fe 23 3e ee 4b 54 bd
       -0.09266236 -0.07161162 0.16015215 -0.051830225
000070 c7 d0 ee bd ac 84 ca bd 09 a0 9a 3c 98 45 12 3d
       -0.11660915 -0.098885864 0.018875139 0.0357109
000080 60 a8 6f 3d aa 6f 43 3e 6e 46 63 3e f3 e9 1d 3e
       0.058510184 0.19085565 0.22194836 0.15421276
000090 de 90 fd bd 80 3e 43 be 7d ed 4c 3d 29 f4 02 3e
       -0.12381147 -0.1906681 0.050031174 0.12788452
0000a0 98 53 5b 3e 0b 00 a6 3e 96 66 b9 3d 9c 28 9b 3e
       0.21418607 0.32421908 0.0905277 0.3030442
0000b0 51 ce 9f 3e 96 df a8 39 6a eb 0f 3e 5b 4b 91 3d
       0.31212094 0.00032210042 0.14054647 0.07094451
0000c0 01 2e 5e 3e de b4 d3 3e 19 8a 70 3e 27 09 93 3e
       0.21697237 0.41348928 0.2349018 0.2871792
0000d0 d1 72 a6 3e 8c 1c 70 3c ad 0e 6c be ec ac 6e be
       0.32509473 0.014655244 -0.23052473 -0.23308152
0000e0 fd 14 20 3d db c2 86 bd 96 24 aa 3b 19 97 f6 3d
       0.039082516 -0.065801345 0.0051923497 0.12040538
0000f0 92 59 f9 3d b9 c0 92 3e df a7 b3 3d 74 7e 9f bc
       0.12175287 0.2866266 0.08772253 -0.019469477
000100 b8 8e c3 3d c1 36 00 bc cb fa 59 3d 81 a4 b8 3d
       0.09548706 -0.007825554 0.05321769 0.09015752
000110 75 b3 75 3d db d6 e9 3d 2f 3a 22 3e 98 12 8c 3e
       0.059985597 0.114179336 0.15842508 0.27357936
000120 70 b8 3d be 91 f4 1d be ef 7a 8a be a5 62 e2 bd
       -0.18527389 -0.15425326 -0.27046916 -0.11053971
000130 38 7b d8 bc 83 d2 ba bc ba fc 6f be 71 93 2b be
       -0.026425943 -0.022805458 -0.23436251 -0.16755463
000140 6c 35 90 3c 52 a9 79 3e d3 67 96 3d 5d c6 f8 bd
       0.017603599 0.24380997 0.07344022 -0.1214721
000150 86 c0 6d bd d3 88 84 be 8d 46 97 be b1 d8 00 bf
       -0.058044933 -0.2588564 -0.29546013 -0.50330645
000160 4e 73 0a bf a3 a4 89 be 2d 97 92 bd fc fc 9e bd
       -0.5408219 -0.2688342 -0.07157741 -0.07763097
000170 88 9f 64 3d a1 8b ca bd 62 a8 f8 bd cf 4d 69 bd
       0.055816203 -0.09889913 -0.121414915 -0.05695897
000180 e6 21 64 bd 78 69 96 bd 4e 90 28 3d ad 48 dc bd
       -0.05569639 -0.07344335 0.041153245 -0.10756049
000190 ca fe 25 3d 8f 06 88 3d 05 cf b7 bc b4 9c 09 be
       0.04052619 0.06641876 -0.022437582 -0.13438684
0001a0 81 90 94 3d 4d 1d 9e 3d 8e 9d b9 3c 59 28 48 3d
       0.072541244 0.077204324 0.022658136 0.048866604
0001b0 ac 4b 88 bd db fb e5 bd ab 9a 99 bd 2a f4 15 bd
       -0.06655058 -0.11229678 -0.07500204 -0.036609806
0001c0 fe 56 d1 39 92 2a f4 bc 03 52 33 bd af 42 9c 3c
       0.000399284 -0.029805455 -0.043779384 0.019074766
0001d0 f3 59 83 bd d8 18 81 bd 78 50 b9 bd 31 f3 b2 bd
       -0.06413641 -0.06303567 -0.09048551 -0.08737791
0001e0 6d 03 84 bd e1 98 23 3d b5 38 69 3d 30 74 fb 3d
       -0.06445966 0.03994072 0.056938846 0.122780204
0001f0 fe d7 63 3e 17 a3 16 3e bb 01 0b 3e b9 9b 75 3e
       0.22250363 0.14710651 0.13574879 0.23985185
000200 be 99 c5 3d 60 ca 70 3e 2f 29 85 3e 1d d3 44 3d
       0.096484646 0.235147 0.26007983 0.048052896
000210 b3 88 52 bd 64 d9 50 bd d3 e8 37 be 3d 07 f0 bd
       -0.051399898 -0.05098857 -0.17959909 -0.117201306
000220 f8 cf da 3c c6 00 9d bd 7a 83 73 be 02 15 90 bd
       0.026710495 -0.07666163 -0.23780623 -0.07035257
000230 29 3e ae bd 1d 57 a1 bd 18 11 00 bd 90 98 23 bd
       -0.0850795 -0.07877944 -0.031266302 -0.039940417
000240 86 fd 95 bd 0d fc 10 be 8c e1 80 bb bf 7c f3 bd
       -0.073237464 -0.1415865 -0.0039331373 -0.11889028
000250 68 86 94 bd 7b a6 dc bd 43 d1 c5 bd 01 18 d1 bd
       -0.072521985 -0.10773941 -0.09659054 -0.102096565
000260 62 f0 56 be 29 f1 9f 3d 39 08 80 3d 11 fe 32 bd
       -0.20990136 0.078096695 0.06251568 -0.043699328
000270 ff a9 20 3e 5d fd fa 3c 5d e3 86 bd f6 21 36 3e
       0.15689848 0.030638391 -0.06586335 0.17786393
000280 43 af e8 3d 74 49 71 bc fb 65 87 3c 89 21 e1 3d
       0.113615535 -0.014726985 0.01652812 0.109927244
000290 16 ab 27 3e ce 56 f2 bc 1a ed 08 bb 40 99 4b bd
       0.16373858 -0.029582407 -0.0020893277 -0.049706697
0002a0 8c 6e 72 3c 94 37 1c bc 3c e0 38 bc a2 52 cd 3d
       0.014796864 -0.009534735 -0.01128393 0.100255266
0002b0 b1 f9 f3 3d 87 a3 1b bd fa b1 25 bc 83 d8 3a bd
       0.11912859 -0.03799775 -0.010113234 -0.045616638
0002c0 db 8a ba bd 06 89 ca 3d 39 a3 7f 3b 8a f7 90 bd
       -0.09108516 0.098894164 0.00390072 -0.07078464
0002d0 74 62 37 be d0 00 4b be be ca 9a bd c5 7d a5 bd
       -0.1790865 -0.19824529 -0.07558201 -0.08080629
0002e0 3d 4f 5d bc 01 ee ef bd 03 a9 0b 3d 48 91 88 3d
       -0.013507661 -0.117153175 0.03409673 0.06668335
0002f0 04 e8 5c 3d fd c3 22 be 31 6c b6 be 15 c2 43 be
       0.053932205 -0.15895076 -0.35629418 -0.19117005
000300 22 ae 34 be 67 94 ab be fc 85 87 be cb 0c 36 be
       -0.17644551 -0.3351166 -0.2646941 -0.17778318
000310 f1 22 31 be 95 63 72 be 02 eb 00 be 5a af 25 bd
       -0.17298485 -0.236708 -0.12589648 -0.04045043
000320 ca 19 f8 bd 0c 06 8b bd c6 01 8d bd 29 25 54 bd
       -0.12114294 -0.06788263 -0.06885104 -0.05179325
000330 6d c8 05 bc f9 93 b4 bd 64 f9 56 bd 54 30 70 be
       -0.008165461 -0.08817286 -0.05248393 -0.23455936
000340 5e 7c 15 be 78 6d 8d bc fa 07 1a be d7 0a 61 3b
       -0.14598224 -0.017264113 -0.15042105 0.0034338736
000350 41 92 6e 3c 4d c5 41 be 80 84 13 be a0 a8 4d be
       0.014561237 -0.1892292 -0.14406013 -0.20083857
000360 89 15 a8 bd 9f 5c d6 bc ea 6c aa bd 8c 29 2f bc
       -0.082072325 -0.026167212 -0.08321555 -0.010691058
000370 38 24 8e 3d a4 7f 8b 3d fa 09 87 3e 49 5d bc 3e
       0.06940502 0.06811455 0.263748 0.3678992
000380 05 bf cf 3e 07 8e 88 3e 11 a2 a3 3e f2 d3 4a 3e
       0.40575424 0.26670858 0.31959584 0.19807413
000390 66 81 21 3e 61 c8 5d 3e 0e 0e 1b 3e c7 d8 3b 3e
       0.15772018 0.2165847 0.1514208 0.18344413
0003a0 3c 0b 5f 3e 46 b2 a9 3d 7a 30 9f bd 9c fc 13 be
       0.2178163 0.08285956 -0.07772918 -0.14451832
0003b0 a7 67 13 be bf 93 5a be 63 d9 83 be 74 05 41 be
       -0.14395009 -0.21345423 -0.2575179 -0.18849736
0003c0 c5 3b 62 be 29 16 48 be 71 04 45 be c2 5f 8f bd
       -0.22093113 -0.19539703 -0.19239976 -0.07000686
0003d0 49 36 1b be 9f ca 60 ba 2d 4f cb bd 57 3d f4 bd
       -0.15157427 -0.0008575115 -0.09927211 -0.11925762
0003e0 89 21 e3 3b 45 7b ad 3d 64 2e e0 3d ed 87 a6 3c
       0.006931488 0.084707774 0.10946348 0.020328486
0003f0 6a e0 55 3e fa 2b 72 3e 86 3f 26 3e 97 9c 91 3e
       0.20886388 0.23649588 0.1623517 0.2843978

conv3.bias f4 [32]
000000 55 75 cb 37 9d 1f 33 ba 9a 6e 39 3a 6c a9 07 ba
       2.4254123e-05 -0.0006833019 0.0007073671 -0.0005175087
000010 82 84 6f ba e7 56 0c 3a 98 10 2e 3a 13 6e 0b 3a
       -0.00091368717 0.00053535256 0.0006640046 0.00053188315
000020 b4 b2 ed 38 59 0b 12 ba 31 bd 34 3a 89 3b 85 3a
       0.00011334327 -0.0005571149 0.0006894647 0.0010164838
000030 09 0d 04 3a 16 60 23 3a 97 80 03 ba bb 2f e7 39
       0.0005037343 0.00062322745 -0.0005016415 0.00044095315
000040 d2 53 fa b9 bb 84 99 b9 13 a8 e2 39 47 f0 cb 39
       -0.00047746167 -0.00029281326 0.00043231304 0.00038898198
000050 86 25 27 3a 95 2f f4 b8 91 99 91 b9 45 c8 84 39
       0.0006376136 -0.000116436895 -0.0002777097 0.00025326214
000060 dd 02 14 3a 5a 5b 55 39 e9 3e 54 ba be 67 83 3a
       0.00056461786 0.00020347294 -0.00080965325 0.0010025424
000070 75 42 01 3a 3b 77 c9 39 2e 0a 6f b9 02 0c 84 3a
       0.00049308623 0.0003842654 -0.00022796608 0.0010074379

bn3.weight f4 [32]
000000 b2 fb 41 3f 38 5e 65 3f 55 de 3c 3f f8 2a 86 3f
       0.7577468 0.8959689 0.7377675 1.0481863
000010 f3 88 52 3f 3f ea 54 3f 55 ac 4e 3f be 87 88 3f
       0.8224022 0.8316993 0.8073171 1.0666425
000020 d8 fa 52 3f 2b 5c 80 3f 67 df 96 3f 79 98 50 3f
       0.8241401 1.0028127 1.1786927 0.81482655
000030 2a 3e 96 3f dd 74 81 3f cc d7 47 3f 3f f5 88 3f
       1.1737721 1.0113789 0.78063655 1.0699843
000040 b9 ec 67 3f 71 67 55 3f 21 41 2f 3f 15 d9 4b 3f
       0.90595585 0.83360964 0.68458754 0.79628116
000050 f1 0d 41 3f f5 be 5b 3f 9d 81 66 3f f4 4b 50 3f
       0.754119 0.8583825 0.90041524 0.81365895
000060 82 6b 5b 3f 3c da 60 3f 5b 04 d9 3f ba f7 7f 3f
       0.8571092 0.87833 1.6954454 0.99987376
000070 d5 f7 47 3f ac bf 4d 3f a9 32 47 3f 26 bc 55 3f
       0.78112537 0.80370593 0.77811676 0.83490217

bn3.bias f4 [32]
000000 6f ba 6c 3d 84 bf d6 bd d7 03 54 3e f9 5f d7 3d
       0.057794984 -0.104857475 0.2070459 0.10516352
000010 cd fd 29 3e 27 0b 39 3b 15 ca 74 bd 1d f9 74 3e
       0.16600724 0.0028235407 -0.059763033 0.23923154
000020 52 54 ba bd 68 f7 1d be 3d 7b 39 bd a0 75 b2 3e
       -0.09098114 -0.15426409 -0.045283545 0.34855366
000030 ac f7 11 be 7a b0 d6 bd 24 3d 08 bd 64 10 76 3e
       -0.14254636 -0.10482879 -0.033261433 0.2402969
000040 6c a6 b7 3e 1e be 60 3e 68 61 18 bc 2e e3 34 3b
       0.35869157 0.21947524 -0.009300567 0.002760123
000050 8d b3 ed 3d eb 06 8b 3e dc 13 a6 3d 79 6b bd be
       0.11606512 0.27153715 0.081092566 -0.36996058
000060 61 cb 98 bd e8 72 7a be 3b c0 0c bf b3 f8 19 be
       -0.074606664 -0.24457896 -0.5498082 -0.15036277
000070 ef c0 88 3d 79 22 4e be 42 af b9 bd 8b dd 3b bd
       0.06677424 -0.20130338 -0.09066631 -0.045865577

bn3.running_mean f4 [32]
000000 f9 1b 31 bf e6 c6 87 3e 21 f1 59 bf ea 74 8d c0
       -0.6918331 0.26518935 -0.8513356 -4.4205217
000010 b8 fe 2a 3f 30 2f 22 3e 15 1c 64 3f 02 07 62 c0
       0.6679492 0.15838313 0.8910535 -3.5316777
000020 9b 09 54 c0 69 54 33 bf 03 c7 68 c0 63 2e 8a be
       -3.3130863 -0.70050675 -3.6371467 -0.26988515
000030 0a f0 ec bf 24 e6 ed be 4a 0c 34 c0 29 d7 cd be
       -1.8510754 -0.46464646 -2.81325 -0.40203217
000040 c4 62 9b c0 55 da 2a 3e 53 84 fc 3f bb 43 9c be
       -4.8558064 0.1668485 1.9727882 -0.30520424
000050 c8 8a 05 c0 63 20 47 c0 b1 a0 2d bf 4a ab 69 40
       -2.0865955 -3.1113517 -0.6782332 3.6510797
000060 2d 88 77 40 fe eb bf be 06 2b 0e c0 f7 cd f9 bf
       3.8676865 -0.37484735 -2.221376 -1.951598
000070 c5 b6 87 bf 94 e9 ff bd 66 9a a4 bf 71 ca 18 c0
       -1.0602652 -0.12495723 -1.2859619 -2.387356

bn3.running_var f4 [32]
000000 99 3c 99 40 e7 63 99 40 de bf 69 40 63 da cd 40
       4.788647 4.793445 3.6523356 6.4329085
000010 5f d1 93 40 5f 7d a6 40 f4 68 7a 40 63 1e 1b 41
       4.619308 5.202804 3.9126558 9.694919
000020 52 f2 96 40 ab be dc 40 86 58 bc 40 ee 65 a8 40
       4.71708 6.898275 5.885806 5.2624426
000030 3c 90 c5 40 eb e7 fb 40 1f 52 57 40 a9 b4 d0 40
       6.1738567 7.8720603 3.3643873 6.5220532
000040 80 c8 d2 40 6d 22 46 40 13 d1 27 40 4c 42 9b 40
       6.586975 3.0958512 2.6221359 4.851843
000050 7c 0c 88 40 44 16 7e 40 77 c0 65 40 2d c6 1f 40
       4.251524 3.970109 3.5898721 2.4964707
000060 08 2b 69 40 ae 63 a2 40 97 13 3d 41 84 33 01 41
       3.6432514 5.074668 11.817283 8.075077
000070 86 e8 6e 40 d2 c4 64 40 89 d0 2f 40 df 97 54 40
       3.732942 3.574513 2.747103 3.3217695

conv4.weight f4 [32, 32, 3, 3]
000000 b1 88 a9 be 8e f7 bd bd 19 74 98 3d 14 0f 35 be
       -0.331121 -0.09275733 0.07444019 -0.17681533
000010 4e ad 07 3d 68 fc 9d bd 11 16 85 bd 11 6c 96 3d
       0.03312426 -0.07714158 -0.064983495 0.07344831
000020 7a 30 c4 bb 62 a2 34 3d 4a 9d f9 3d e4 bc a3 3d
       -0.005987224 0.044100173 0.12188204 0.079950124
000030 6a 4c ad 3d 49 ec 96 3d c0 13 5e be a9 a6 8c 3d
       0.084618405 0.073692866 -0.21687222 0.068677254
000040 d7 00 ce 3d 7f 80 62 be 95 6d 6e 3e 7e 5a 0f 3f
       0.10058754 -0.2211933 0.2328399 0.55997455
000050 c6 96 b2 3e 90 40 14 be 38 fe 8e 3e ed 3e c7 3e
       0.34880656 -0.14477754 0.2792833 0.38915196
000060 b5 81 ae bd 85 2e e3 bd 9d f1 8a 3e e3 ab bc bc
       -0.085208334 -0.11092857 0.2713746 -0.02303118
000070 d9 18 8f be 86 0f 0c 3e a5 62 47 3e 9d 38 5a be
       -0.27948645 0.13677797 0.19471224 -0.21310659
000080 ed 0c 9e 3d f8 d2 3e 3e ea d1 f5 3d 13 7c f8 bd
       0.07717309 0.18635166 0.120029286 -0.1213304
000090 48 73 dd be 95 35 e5 bd be c4 2d 3e 08 dd 52 be
       -0.43252015 -0.111918606 0.16969582 -0.20592129
0000a0 b2 c6 81 be 76 dd ff bd 81 37 42 be 47 b3 45 bc
       -0.25346905 -0.12493412 -0.18966486 -0.012066669
0000b0 72 be e2 bb 47 74 4e be 00 09 46 be 9e c3 52 be
       -0.0069196755 -0.20161544 -0.1933937 -0.20582435
0000c0 9b c4 d9 bd de 7c 33 be 95 ad e0 bd 35 f5 92 bd
       -0.10633203 -0.17528102 -0.10970608 -0.07175676
0000d0 47 b7 ae 3d 7a b2 5e bd 69 55 68 be 7d b8 0a 3e
       0.08531051 -0.054369427 -0.22688831 0.13546939
0000e0 21 c6 f0 3e cb 23 5e 3d ec f7 96 be 30 34 1f be
       0.4702616 0.054233354 -0.29486024 -0.15547252
0000f0 88 4a 84 3e 45 61 79 bd 84 fa c7 be dc a1 47 3e
       0.25838113 -0.06088378 -0.39058316 0.19495338
000100 57 db 86 bd cd 0e e1 bd d6 8d 54 3e 40 8a f0 3d
       -0.065848045 -0.10989151 0.20757231 0.11745119
000110 62 04 6a 3d 94 91 4d 3e 6f 11 3b 3d 54 70 b1 3d
       0.057133086 0.20075065 0.045670923 0.08664003
000120 19 5d 0b bf 82 2d c5 be 6a bd fa bd 89 d4 e6 bd
       -0.5443893 -0.38511282 -0.12243159 -0.112710066
000130 6f fd 75 be fb 15 8a bd 7d e0 c6 bd 76 44 b9 bc
       -0.24022458 -0.06742474 -0.097107865 -0.022615653
000140 19 4a 31 bd bd fa 02 be e9 62 b7 3d 1c b5 9a bd
       -0.043283556 -0.12790962 0.089544125 -0.07554075
000150 95 2b 0e be e8 49 be bd 7b 1e 72 bd 48 2b 06 be
       -0.13883813 -0.0929144 -0.0591111 -0.13102448
000160 6d 24 7d 3b 8b 03 14 3d 9b a3 db bb 8c 5a 74 be
       0.0038626448 0.03613619 -0.006702853 -0.23862666
000170 fc c8 26 be e1 81 59 3e a0 01 11 be 3f 04 d2 be
       -0.16287607 0.21240951 -0.14160776 -0.41018865
000180 81 c9 9c 3a 8c b7 f5 3d d4 7b cd 3c 8c d1 b4 3d
       0.0011961908 0.119978994 0.02508346 0.088290304
000190 3e 52 02 bd 18 43 41 3e 26 b3 aa 3d d7 36 fa bd
       -0.031816714 0.1887325 0.08334951 -0.12217491
0001a0 5c 8e d9 bd 03 d1 d5 3d a5 23 2b be f6 a5 bf 3c
       -0.10622856 0.104402564 -0.16712816 0.023394566
0001b0 86 92 d5 3d 86 a8 f1 bd 2f 52 3b be 0f 07 9a bd
       0.10428338 -0.117997214 -0.1829307 -0.075208776
0001c0 c9 79 14 bb 6f 26 fc 39 b8 37 eb bd 0a 7a 0c bc
       -0.0022655597 0.0004809382 -0.11485237 -0.008574018
0001d0 7a 10 08 3e fb 24 17 be 9f 13 1e bd 31 12 6d be
       0.13287535 -0.147602 -0.03859293 -0.2315147
0001e0 12 b9 d8 bd 50 c7 aa 3d 64 06 2a bc c5 e2 9d bd
       -0.10582174 0.08338797 -0.0103775 -0.077092685
0001f0 84 26 c3 3d cd 9a ef 3d 6a e1 89 bc 16 6a 04 be
       0.09528831 0.11699448 -0.016831119 -0.12931094
000200 5e df cb bd 33 9d 1f 3d 4f fc 97 3d 32 e1 f8 bd
       -0.09954713 0.038968276 0.07421171 -0.121523276
000210 56 85 25 bd 1b 27 62 3e 70 57 7b bd 09 93 42 3e
       -0.040410362 0.2208523 -0.061362684 0.19001402
000220 9e eb 01 3e fa a1 0d 3c 75 bb f0 3d f5 97 56 3d
       0.12687537 0.008644575 0.117545046 0.05239101
000230 f8 46 6c 3c 1c 89 b7 3d 70 85 40 bd 75 5c 95 bc
       0.014421217 0.089616984 -0.047002256 -0.018232564
000240 e5 af e6 bd 0c 69 9e bd 68 44 58 3c c8 e6 59 3c
       -0.11264018 -0.0773488 0.013199903 0.013299651
000250 68 cd 0c 3d 8f 81 95 3e 4d 3d c7 bd 13 1d 46 3b
       0.03437558 0.29200408 -0.09728489 0.0030229732
000260 61 b6 0e 3e 91 b6 a2 bd 29 af 05 be 77 cf d8 bd
       0.1393676 -0.07944978 -0.130551 -0.10586446
000270 b5 94 16 bd 4f 8c 3d be 1e 48 93 be cf ec 14 bd
       -0.03676291 -0.18510555 -0.2876596 -0.03635865
000280 68 f8 22 bd 55 05 74 be bc 87 c2 3d 47 0a a4 bc
       -0.03978768 -0.23830159 0.094985455 -0.020024432
000290 a7 76 49 be ad dd 3e bd b6 50 c6 bc 95 b7 0a 3c
       -0.19674169 -0.046598125 -0.024208408 0.008466621
0002a0 52 57 6c bd 9e fc 00 bd c9 09 60 3d 90 7d 80 bd
       -0.057700463 -0.031490915 0.05469683 -0.06273949
0002b0 36 34 52 bd f6 38 6d be ba 28 5b bc bf 58 e9 3d
       -0.051319323 -0.2316626 -0.013376409 0.1139388
0002c0 25 9b a8 3c 5b fb c7 bd df d4 24 3e 6d e0 77 3e
       0.020581791 -0.09764739 0.16096829 0.24206705
0002d0 e9 be ab bd 45 77 6a 3e 92 25 d0 3e 54 35 4e be
       -0.083860226 0.2289706 0.40653664 -0.2013753
0002e0 f8 02 e5 3d c4 fa 56 3e 67 7b 5b be 36 16 61 be
       0.11182207 0.20994097 -0.21433793 -0.21981129
0002f0 79 85 3c 3e e2 80 b2 be 27 fe 85 be 27 27 c9 bd
       0.18410291 -0.34863955 -0.26170465 -0.09821921
000300 cd 8f ad 3d 91 8e 84 be a7 88 8e be 9d be b0 3d
       0.084746934 -0.2589002 -0.27838632 0.086301066
000310 c9 65 87 bc b0 e2 72 be 0f b5 93 be e1 ab f5 be
       -0.016528027 -0.23719287 -0.28849074 -0.47982696
000320 12 9e 85 bd 9a a3 99 bd d2 f0 20 be b4 1d f9 bd
       -0.0652429 -0.07501908 -0.15716866 -0.121638685
000330 75 32 66 be 8f 60 85 3d f5 d4 8d bd c8 2b fa bd
       -0.22480185 0.06512558 -0.06925384 -0.12215382
000340 a7 40 10 3c 08 d3 34 3d 76 cc 6e bc 4c 7a 0e bd
       0.008804477 0.044146568 -0.0145751145 -0.0347846
000350 90 de c2 bd 41 d8 37 3c a2 95 92 3c 7b b6 e8 3c
       -0.09515107 0.011220993 0.017893616 0.028407326
000360 e3 ca 7e be 5d 59 21 be 08 10 b4 bd 36 25 14 be
       -0.24882083 -0.15756746 -0.0879212 -0.1446732
000370 bc 60 f6 bd 4d 31 39 be 48 64 ca 3c 81 87 a0 3d
       -0.12030169 -0.18085213 0.024706021 0.07838345
000380 84 62 c8 bd 95 7c 11 be f9 2d 72 3e 3d 36 de 3d
       -0.09784415 -0.1420768 0.2365035 0.10850189
000390 3e a4 0b be 9a 7f 15 ba d5 94 63 3e 71 33 b2 bd
       -0.13636872 -0.0005702913 0.22224744 -0.08701218
0003a0 de 20 83 bd 9a c1 90 3e 38 41 8f 3e 91 ae 39 be
       -0.06402753 0.28272706 0.27979445 -0.18132998
0003b0 46 25 79 be 6f 3e 8f 3e b2 88 d5 3d 6c 1f a6 be
       -0.24330625 0.2797732 0.10426463 -0.32445848
0003c0 a5 0b 52 bc b7 72 86 bd 7e 48 da bd 55 93 5f be
       -0.012820159 -0.06564849 -0.10658358 -0.21833546
0003d0 9d 53 96 bc 0b 00 06 3d d1 d9 10 bd cd 67 0f be
       -0.018350417 0.032714885 -0.035363976 -0.1400444
0003e0 5d 10 91 bd 5b 5b bf bd 42 cf b8 bd 04 26 01 3d
       -0.07083199 -0.093435965 -0.09023906 0.031530395
0003f0 43 c0 18 be c7 58 8e be 86 b4 4c be 52 ef 0c be
       -0.14917092 -0.27802107 -0.19990739 -0.13763168

conv4.bias f4 [32]
000000 01 6f 1e ba 8d f6 81 b9 e1 df bf b9 62 c8 15 3a
       -0.00060437626 -0.00024788492 -0.00036597162 0.00057137583
000010 3e f9 0d 3a 3d 1d 60 b9 a1 00 57 39 ed ba 0e 39
       0.0005415863 -0.00021373197 0.00020504232 0.0001361181
000020 4a d7 f4 39 92 b1 17 b6 ad 86 68 39 e2 47 93 b9
       0.0004669971 -2.2604113e-06 0.00022175415 -0.00028091582
000030 b8 45 d6 b9 8e a8 ce b9 ad cd 20 3a 68 fb ce b9
       -0.00040869205 -0.00039416965 0.00061341637 -0.00039478694
000040 26 2d 0d 3a 36 81 20 ba 63 15 ed b8 11 38 3c 3a
       0.0005385451 -0.00061227696 -0.00011305024 0.00071799854
000050 f5 02 ff b9 1c 79 c1 b9 26 9f 05 ba a6 4d c8 39
       -0.00048639593 -0.00036902062 -0.00050972623 0.00038204825
000060 e3 0f 25 ba 92 6c e7 b9 b9 43 dc 39 41 56 3f 3a
       -0.0006296618 -0.00044140645 0.00042012127 0.00072989246
000070 87 70 36 ba 6d 83 94 39 fb 71 9f 37 84 da 77 b9
       -0.0006959517 0.0002832668 1.9007353e-05 -0.00023637159

bn4.weight f4 [32]
000000 42 a2 81 3f e3 35 9f 3f 78 a7 52 3f 94 ab 78 3f
       1.0127642 1.243832 0.8228679 0.9713681
000010 50 a7 84 3f cf e0 88 3f 9e d5 2c 3f 5a 97 3b 3f
       1.036356 1.0693606 0.67513454 0.7327782
000020 d3 9d 75 3f 71 9f 6e 3f 98 ca 70 3f d9 c6 8b 3f
       0.95943946 0.9321204 0.94059134 1.0920058
000030 7f f3 21 3f c6 74 84 3f 8f 0f 58 3f 17 6a 85 3f
       0.6326217 1.0348136 0.8439874 1.0423001
000040 89 91 64 3f fd 38 73 3f 62 0d 67 3f 8e ab 81 3f
       0.8928457 0.9500883 0.90254796 1.0130479
000050 06 bc 4f 3f 39 0b 87 3f 65 2c 51 3f 93 66 8c 3f
       0.81146276 1.05503 0.81708366 1.0968803
000060 09 4f 62 3f 04 5f 6f 3f 11 1f 93 3f 36 f1 77 3f
       0.8840185 0.9350436 1.1493856 0.96852434
000070 b0 52 68 3f 89 db 67 3f 13 34 a4 3f 94 54 4a 3f
       0.9075117 0.9056936 1.2828392 0.79035306

bn4.bias f4 [32]
000000 b7 47 81 be 9a 10 36 bf 79 34 52 3e 4c b3 66 bd
       -0.25250027 -0.7111908 0.20527829 -0.056323335
000010 c3 6f a7 be 2c 46 9b 3c 5b 47 e6 3c d4 e7 63 3e
       -0.32702455 0.018954359 0.028110197 0.22256404
000020 6d ab b0 3d 9c b8 b2 bd 75 24 90 bc 7f 59 02 bf
       0.08626447 -0.08726618 -0.017595509 -0.5091781
000030 2d d4 91 3e 3b 43 d3 bd 85 8c 22 bd 5d 5a c2 be
       0.2848219 -0.103155576 -0.03968479 -0.37959567
000040 f2 04 93 bd 53 40 26 3e aa 32 d9 3d 51 06 50 be
       -0.071786776 0.16235475 0.106053665 -0.2031491
000050 f6 37 38 bd b9 ad 10 be a7 01 46 3e ee 9f cb bd
       -0.044975244 -0.1412877 0.19336568 -0.099426135
000060 62 4e 2e bd 80 c7 96 be 11 7b ca be 90 be 56 3d
       -0.04255522 -0.2944908 -0.39547017 0.05242783
000070 7d 9f 02 ba 82 4c a2 bd 94 fa e3 be 07 da 38 bc
       -0.0004982872 -0.07924749 -0.44527113 -0.0112824505

bn4.running_mean f4 [32]
000000 1f 8c 39 c0 c5 1d 46 bc fb 79 c2 bf 10 bb 3d bf
       -2.8991773 -0.012092059 -1.5193475 -0.7411356
000010 40 86 68 bf da b7 f9 bf df 91 ab 3e 5c 31 df bf
       -0.9082985 -1.9509232 0.33509728 -1.7436938
000020 af c3 e6 3f 9c c9 b1 bd ac f4 65 bf 88 f2 24 bf
       1.8028468 -0.08681032 -0.89826465 -0.64432573
000030 dc c4 ac bf ed 4b 7c bf be cf 46 bf 07 50 83 bf
       -1.3497577 -0.98553354 -0.7766074 -1.0258797
000040 fc 30 40 be 88 17 b1 3e 1c 70 a2 3f a9 cf 5f be
       -0.18768686 0.34588265 1.2690463 -0.2185656
000050 fe bf 7d 3e 10 93 2a c0 73 28 88 bf 96 df 22 3f
       0.2478027 -2.665226 -1.0637344 0.63622415
000060 30 7c 04 3f 7b f9 1b c0 d4 dd c5 3e 0c 8e 15 c0
       0.51751995 -2.437102 0.38645804 -2.3367949
000070 6d 8e ab bb 70 28 0b c0 ef eb cb 3f 06 50 0e c0
       -0.0052354843 -2.174343 1.5931376 -2.2236342

bn4.running_var f4 [32]
000000 07 43 86 40 7b d1 45 40 17 1c 53 40 aa e3 5d 40
       4.195682 3.0909107 3.2985895 3.4670205
000010 bd ef 51 40 11 9b b7 40 be 76 0b 40 5c c6 69 40
       3.2802575 5.737679 2.1791224 3.652732
000020 cf 78 69 40 e8 14 4c 40 71 0d 7c 40 94 24 32 40
       3.6479986 3.188776 3.9383204 2.7834826
000030 96 e6 26 40 a3 4c 90 40 3b 71 34 40 2e 90 23 40
       2.6078238 4.509355 2.819411 2.555675
000040 02 e3 74 40 7f f6 53 40 46 d9 a0 40 80 6f 58 40
       3.8263555 3.31192 5.0265226 3.3818054
000050 0f 64 2e 40 95 79 7b 40 40 b2 69 40 cc 5f 9b 40
       2.724857 3.9292958 3.6515045 4.855444
000060 b2 26 2f 40 80 7c 50 40 76 25 76 40 66 f3 5e 40
       2.7367368 3.2575989 3.8460364 3.4836059
000070 3b 3b 72 40 5f 42 86 40 e3 a3 81 40 5c 16 23 40
       3.7848651 4.195602 4.0512557 2.5482397

conv5.weight f4 [32, 32, 3, 3]
000000 00 a8 70 3d f1 1b 67 bd f5 1f 1e be a4 8d 03 3d
       0.058753967 -0.05642313 -0.15441878 0.0321175
000010 66 05 98 3d 1b 99 d8 3d 6b 24 e6 bd 70 1e 36 3e
       0.07422905 0.105760776 -0.11237415 0.17785048
000020 fe cb a0 3e be 0c f9 bd 2c fe d3 bd 81 67 46 be
       0.31405634 -0.121606335 -0.10351214 -0.19375421
000030 45 2c 19 be be 2b 98 be 7c f8 cc be 42 35 ce bd
       -0.14958294 -0.29720873 -0.4003333 -0.10068752
000040 04 6e 8b be 03 81 ca be e5 d1 6b bd 4e 30 be 3d
       -0.27232373 -0.39551553 -0.057573218 0.09286557
000050 fa b3 67 bd 6e 7e 0c be 66 3a 77 bd 8a 7a b4 bd
       -0.056568123 -0.13720104 -0.060358427 -0.08812435
000060 ea bf 21 be 4e 05 0a be 0a ab 8d 3b 79 9b 03 be
       -0.15795866 -0.13478586 0.004323368 -0.12852277
000070 71 25 1b 3c 5f 40 ca bd 89 4e da 3c ec 1d 2a 3c
       0.009469376 -0.09875559 0.026648777 0.0103831105
000080 4b a7 c1 bc 69 44 02 3e 91 26 29 3e 16 c6 43 3e
       -0.023639342 0.12721409 0.16518618 0.19118533
000090 d1 d9 05 3e f9 ed 58 3c 7f ca 0a bd 68 bb 88 bd
       0.13071372 0.013240331 -0.03388452 -0.0667637
0000a0 8f d2 f8 bc 0d dc 91 bd 67 ec 02 be 00 3b 9e 3c
       -0.03037384 -0.071220495 -0.12785493 0.019315243
0000b0 ff f3 b8 bd 4c 1f 70 be f9 ad 83 be a6 46 35 be
       -0.090309136 -0.23449439 -0.25718668 -0.17702731
0000c0 8a b8 1d be 6a 91 92 be 81 7a 84 be 8a cf 49 3e
       -0.15402427 -0.28626567 -0.25874713 0.19708076
0000d0 d3 af 08 3e 8f c0 07 3e 30 33 86 bd ba c6 89 3d
       0.13348322 0.13257049 -0.06552732 0.06727357
0000e0 38 b6 5e bd 59 25 99 bc be e1 9a bc fd ca 73 bc
       -0.054372996 -0.018694567 -0.01890647 -0.014879939
0000f0 53 47 1d bd 80 41 cc 3c 6e e3 84 3c 10 43 5c be
       -0.0383981 0.024933577 0.016221728 -0.21509957
000100 56 cd b4 bc 8e 88 9f bd 51 0d 28 3e 83 c4 65 3d
       -0.022070568 -0.077897176 0.1641133 0.05609561
000110 a7 aa fa 3b 40 13 1e 3e e7 cb 10 3d 50 04 0d 3e
       0.007649738 0.15437031 0.035350706 0.13771176
000120 a1 25 55 3e 6b 03 26 bc 3d 47 1b be 4f bc 77 3c
       0.20815136 -0.010132651 -0.15163894 0.01512058
000130 b5 a4 a3 bd 1a 2d 30 be 8d db 9c 3d fe 91 40 3e
       -0.079904 -0.17204705 0.076590635 0.18805692
000140 86 c0 9d 3d fa cf fc 3e 71 47 0e 3f f0 d1 15 3e
       0.077027366 0.49377424 0.5557776 0.14630866
000150 12 b1 c3 3e 8d 7b a8 3e bc 35 35 3e 4b b5 bf bd
       0.3822103 0.32906762 0.1769628 -0.09360751
000160 9c 1d a0 bd c1 4f b5 3d c4 94 c6 3d 49 15 45 3e
       -0.078181475 0.088531025 0.096963435 0.19246401
000170 65 a7 93 3e 05 6f 64 bd 45 13 64 bd d8 a7 29 3c
       0.2883865 -0.05576994 -0.05568244 0.0103549585
000180 4b a3 98 bd 81 d3 ca bd 96 b6 00 be de 4f 0e 3c
       -0.07453021 -0.099036224 -0.12569651 0.008686034
000190 f7 ea 54 be 34 a5 88 bc 0a a3 9e 3c e5 76 4f 3d
       -0.20792757 -0.016680337 0.019364852 0.050650496
0001a0 58 a6 c7 3c 51 80 1a bd 6b a7 06 3e 13 98 03 3e
       0.024371311 -0.03772003 0.13149802 0.1285098
0001b0 7c 8b 3e be 38 b5 58 bd 08 05 10 3e c1 9b c3 bd
       -0.18607897 -0.0529072 0.1406442 -0.09551192
0001c0 c1 03 72 bd 4b 0b e8 3c a3 7e 24 bb 65 86 a9 bd
       -0.05908561 0.028325697 -0.0025099895 -0.08277587
0001d0 36 80 38 be c0 d9 b6 3d 78 d2 cb bd aa eb 24 be
       -0.18017659 0.08928251 -0.09952253 -0.16105524
0001e0 fe 8e 3d 3d 39 7b fe bd 2b 53 1c be ef b6 05 3d
       0.046278946 -0.124258466 -0.15266101 0.032645162
0001f0 86 b8 4f 3d ac ad 2a 3d 9a 46 ef bd 59 d6 4d bc
       0.050713085 0.041669533 -0.11683388 -0.0125633115
000200 97 9b 68 bc 7b 22 11 be 6d 7b 10 3e 24 b8 0b 3d
       -0.014197252 -0.1417331 0.14109583 0.034111157
000210 19 0e ba bd f5 c2 33 bc 60 04 14 bd c5 b2 65 be
       -0.0908472 -0.010971774 -0.036136985 -0.22431476
000220 84 98 f6 bd e0 7e 76 3e 92 35 0c 3d fd 59 0a 3d
       -0.12040809 0.24071836 0.034230776 0.033777226
000230 62 ec 07 3d ef 37 a6 bb 60 f3 66 bb 14 4c de bc
       0.033184417 -0.005072586 -0.0035240278 -0.027135886
000240 8f 71 8b bd e6 05 ea bc 70 fb 32 bd 44 ae 1a be
       -0.06808769 -0.028567266 -0.04369682 -0.1510554
000250 4e e8 56 be 3f 39 23 be 2a dd 08 be 54 00 15 be
       -0.20987055 -0.15939806 -0.13365617 -0.14550906
000260 55 7f 9c bd be 02 17 3d d6 e8 a4 bd a6 10 68 bd
       -0.07641474 0.03686785 -0.080522224 -0.056656502
000270 86 43 19 3e 2d 96 77 bd 3d a6 ea bd 72 1d 3d 3e
       0.14967164 -0.060445953 -0.11457489 0.18468264
000280 68 cd 0b be 01 5e 67 be 4a 3a 70 bd fd d5 cb bc
       -0.13652575 -0.22594453 -0.05864934 -0.024882311
000290 53 07 89 3d 6f f9 81 bd ec e8 24 bd 83 e6 a3 bd
       0.0669085 -0.06346404 -0.040261194 -0.08002951
0002a0 a0 df 02 bd 3f ad f2 bd 5c 6f 03 bf 5d 32 63 3e
       -0.031951547 -0.1184945 -0.51341796 0.22187181
0002b0 f7 75 88 3e 5c 54 78 3e 17 a5 af 3d 26 f5 47 3e
       0.266525 0.2425093 0.0857641 0.1952711
0002c0 b1 98 13 bb 52 d3 12 bd 0c aa 80 bd b6 d7 c1 bd
       -0.002252143 -0.035846062 -0.06282434 -0.09464972
0002d0 4c f0 04 3d c8 8a 08 be 78 08 c9 3d 83 b6 3c be
       0.032455727 -0.13334191 0.098160684 -0.18428998
0002e0 6b d9 c9 bd 3f 6c 2b 3e 17 0b 95 bd 84 86 c7 3b
       -0.09855922 0.16740511 -0.07277506 0.0060890336
0002f0 47 7a 03 3d 19 64 a4 bd 68 9b 79 be 13 cd 55 be
       0.032099035 -0.080269046 -0.24375689 -0.20879011
000300 2a 23 b3 bd 66 48 89 be b8 24 08 be 4d e9 89 bb
       -0.087469414 -0.26813048 -0.13295257 -0.00420872
000310 82 cb e4 3c ac c7 a4 3d 9f 93 b2 3d 69 35 47 bd
       0.027929071 0.08045897 0.08719563 -0.04863492
000320 fa f1 4c bc 73 08 65 3e c2 b3 5a 3d a2 6e 29 3e
       -0.012508864 0.22366504 0.053394087 0.1654611
000330 24 b2 53 3d 8e 60 f4 bc 0f dc a2 3d f6 38 75 bd
       0.05168356 -0.029831197 0.07952129 -0.059868775
000340 da c3 43 bc 84 a7 01 3e d3 de 06 3e f9 9c a8 3d
       -0.01194855 0.12661558 0.13170938 0.08233065
000350 30 05 7e 3e 07 79 1d 3e 92 d6 26 be 68 4d 84 3b
       0.24806666 0.153782 -0.1629279 0.004037548
000360 b5 55 c4 3d b6 df 3c 3e cc f4 3f 3e 02 a8 65 3e
       0.0958666 0.18444714 0.18745726 0.22427371
000370 81 2c 58 3e 3d 0b 0b 3e 51 ac c0 bb f2 dd 12 3c
       0.21110727 0.13578506 -0.0058799167 0.008964049
000380 04 ae 34 3d e6 5c 09 be 49 a1 99 3d 0e 03 a6 3d
       0.044111267 -0.13414344 0.07501466 0.081060514
000390 ec 3f 24 bd 42 7c 8c 3d 61 9d 49 bd d9 b9 a9 be
       -0.040100023 0.06859638 -0.049222354 -0.33149603
0003a0 7d 21 28 be 9f 30 7e be 29 71 e4 3d ac 42 6a 3d
       -0.16419025 -0.24823235 0.11154396 0.05719249
0003b0 7d 29 b0 bd 2f ee f9 3d ac 39 8d 3d 41 26 42 be
       -0.08601663 0.12203633 0.06895766 -0.18959905
0003c0 93 9d 3c 3e 89 0f 36 3c be 7d 4c be 28 2f 97 3e
       0.18419485 0.011112102 -0.19969842 0.29528165
0003d0 8d b1 cd 3d 9d 85 6b be 9c 3e 1f 3d 35 13 2e 3e
       0.10043631 -0.23000188 0.03887807 0.16999514
0003e0 14 19 b6 3d cb 7f b5 bd 26 4d 2d 3c 0f e5 51 3e
       0.08891502 -0.08862265 0.010577476 0.20497535
0003f0 19 7e 16 be 4a 29 7b bc 83 9f 9e bd a0 57 3c bd
       -0.1469654 -0.015329668 -0.07745268 -0.045982003

conv5.bias f4 [32]
000000 e1 2f 40 3a 48 c1 f7 39 9d 42 71 b9 cc 27 d6 b8
       0.0007331353 0.00047255517 -0.00023008366 -0.00010211728
000010 f4 05 38 ba e2 52 09 3a 10 17 2b 3a b5 1f 0b 3a
       -0.000701993 0.0005238486 0.0006526569 0.0005307154
000020 a7 6e 1a ba 41 90 48 3a 06 2e 23 b9 02 90 91 39
       -0.0005891122 0.000765089 -0.00015562036 0.0002776385
000030 8a 32 2b 3a ec e0 45 3a fc fc 80 b9 5f b7 4b b8
       0.0006530663 0.00075484696 -0.0002460255 -4.856975e-05
000040 dc ef 01 ba 1c 7a 03 39 31 a2 3c b8 4a 20 9f b9
       -0.00049567013 0.00012538623 -4.4973745e-05 -0.000303509
000050 20 e1 38 3a ee ed 3f 3a fb 0c d3 39 d8 9b be b9
       0.0007052589 0.0007321526 0.00040254727 -0.00036355737
000060 9a 19 2e ba 87 f5 2b b9 0b 35 2c b8 49 1d 0a 3a
       -0.0006641388 -0.00016399297 -4.1057396e-05 0.0005268646
000070 64 43 49 b9 00 4b c5 b9 c5 e0 9d 39 90 b7 58 39
       -0.00019193959 -0.00037630647 0.0003011284 0.00020667748

bn5.weight f4 [32]
000000 c1 11 49 3f f5 b5 8d 3f 37 f2 40 3f 5a ec 4f 3f
       0.78542715 1.1071154 0.7536959 0.8122002
000010 c4 c1 40 3f 29 90 5a 3f 7c 65 38 3f c5 ce 50 3f
       0.7529566 0.8537622 0.7202985 0.81565505
000020 57 a2 46 3f ac 6b 29 3f 8e f6 3b 3f d6 22 4d 3f
       0.7759146 0.6617992 0.7342309 0.8013128
000030 77 6b 80 3f 42 95 3b 3f f0 d9 57 3f 96 35 33 3f
       1.0032796 0.73274624 0.8431692 0.7000364
000040 61 4d 83 3f 28 65 76 3f 92 14 44 3f 90 60 83 3f
       1.0257989 0.962481 0.7659389 1.0263844
000050 55 07 69 3f af 17 50 3f e1 06 24 3f 8e 3c 33 3f
       0.9102681 0.8128614 0.64072996 0.70014274
000060 de 49 76 3f 77 11 40 3f 8c 4e 8d 3f 26 8d 9a 3f
       0.9620646 0.7502665 1.1039596 1.2074325
000070 31 cc 7e 3f 3a 04 45 3f 98 cd 62 3f f5 40 9b 3f
       0.9953032 0.76959574 0.8859496 1.2129198
