model_weights/Tiny10/CIFAR10/in16-gn16/110000.pt (torch_old, 358762 bytes, 50 tensors)

conv1.weight f4 [16, 3, 3, 3]
00000000: 7979 b4be 9e40 033f ba8f bc3e da40 e6be
00000010: 6b4c 583f 685e 1f3f 93e9 d4be b514 863e
00000020: a29b ed3d 1eec f8be 7216 0bbf a0b8 fabe
00000030: 5cde 33bf 90b8 2cbf a2c0 04bf f112 b63d
00000040: fc2f 473d 1458 a43e 803f 393f 789a c03e
00000050: c5d0 37be b538 123f df1d 533e b691 e7be
00000060: c2f6 883e aa2d 54bd 9ac5 d9be a01c bebe
00000070: 1cb7 2bbe e2d5 453e fe3e f33c 70ca 9f3d
00000080: 228a 1fbe e56e 44be 1c04 41bd 030e efbe
00000090: 617b 21bf f905 e6be ad91 e1be d4f5 613e
000000a0: 45ff eb3e 8005 2cbe 3650 4c3e 6d40 193f
000000b0: ed25 0dbe 46b8 a2be c42c e7bd 1daa 74bd
000000c0: 92c8 613e a49f d23e d5cf a0bd 3057 e1bd
000000d0: b366 803e 3bff 3bbe 387a fbbd 0760 19bf
000000e0: 7889 f5be d14c d5be 5de6 5bbf 6b5e e0bd
000000f0: 2aef 593f 1915 9e3f 43c2 103f 455b 883d
00000100: fd96 afbe 2f0f 60be 1ffa 68be 184c 2abf
00000110: f35a 4c3d 3bac 1f3f 95eb 763f 42c4 cb3e
00000120: 1187 ff3d d350 ffbd 8c9e 983e 9753 01bf
00000130: f2ae 45bf 06aa 9d3d c2ef e2bd f182 af3e
00000140: 844b 35bc f1c2 92bd 4f54 82be bb8b ad3e
00000150: 6f7e 08bf 0adf 62bf 4fe8 52be 7978 07bf
00000160: d871 1abf bba4 0fbd 88e0 7a3e 21b8 0d3e
00000170: 1710 733e 7bca 493d 3241 86bd a1c9 8f3c
00000180: ea8b 96bc d4c0 e7bd 0252 3dbe e3ed acbe
00000190: 9b83 05be 81d3 94be 6caf c23e 8ee4 443f
000001a0: 17ba cc3e db9e 113f 3bb4 4f3f 7f63 9a3e
000001b0: 9402 923e 3101 e03d 61d2 213e 8cea 3abf
000001c0: c4b0 e8be 3709 eb3e 9c1e c3be 99ee a93d
000001d0: 59ec f73e 8cac 243c f647 88bd 5f60 e6bd
000001e0: 4321 2cbf f7ec f4be 6f18 0f3d fdb5 a2be
000001f0: 3298 953d faeb f93d 4292 863e 2c98 f43d
00000200: 622f 4dbc 3555 b7be c072 58be f29a 563e
00000210: 7140 b4be ad72 003e e0e1 2a3e cf86 cdbd
00000220: 7d3a 97bf 9f0e 74bf 5b5f 853f 5819 1fbe
00000230: 5fd3 65bf b934 a33f 4b2e 893f ba6e ccbd
00000240: d7e4 093e 0857 e23e 82ef 5d3f b930 12bf
00000250: 5d93 90be e005 c13e 48c3 1ebf bcb5 fbbe
00000260: 2000 25bd 55ae 263d 42c1 0f3f eb17 103e
00000270: 8390 bdbe 9156 563e bbeb 173f abb5 2ebf
00000280: 3ce5 04bf 98c1 013e 9b8c ce3e cb91 223e
00000290: d955 fcbd 78f2 8a3f 85e5 b9be 1678 d4be
000002a0: 7b19 14be 9612 1fbf 0346 373e c772 f13e
000002b0: b964 e4bd 4e86 18bf 9fb5 9b3f 8ec6 d7be
000002c0: fd8f 46bf a714 3b3e b50e b0be 7b5d 463e
000002d0: c263 273f 2afc 83be b16b 82bf 6cb1 db3f
000002e0: a4c5 9ebe 9dde 8cbf 4cf6 353f 2ad5 87be
000002f0: fb75 8cbb 0609 2fbe 515a 08be 6795 1b3d
00000300: b1b7 c3be 0d2d f5be e06c 00bf e12e eebe
00000310: b7ed 32bf 1394 cabe c76e da3e 9ba2 c93e
00000320: 645f 823e 6a70 4a3f aa8b 4d3f d3ab b83e
00000330: 8d81 1d3f c27a e13e 170f bd3e 5ed7 3dbe
00000340: af3c b8be 5d3d 25be d056 97be 5ad4 90be
00000350: 5e1e c4bd 601a c5bd caeb 02be 3d79 ac3e
00000360: 9daf 3ebe d805 9abc 4de2 27be 7915 4a3d
00000370: 0844 983e f095 b03d a502 99bd de22 1b3e
00000380: 8b97 0b3d 7968 2ebe b07d 2f3e 66f5 ad3d
00000390: 6415 b63d f331 f83e a98a a63e 948b 15bd
000003a0: a8eb 683e 27d4 033e 7a2f 513d 60c4 6a3e
000003b0: 23f7 363e 598f bdbd 1d6e 27bc 5a77 c7bd
000003c0: f3f4 20be 794a 60be c914 72be e878 433e
000003d0: 0db7 913e 77c3 d03e e928 063f 45d0 7d3f
000003e0: 951c 043f 067a b7be 8606 7abe de11 4ebe
000003f0: 251e 02bf 9e7d 5abf a0dd b5be 8986 c7bd
-0.35248926 0.51270473 0.36828405 -0.44971353 0.84491605 0.6225343 -0.41584453 0.26187673
0.1160195 -0.48617643 -0.54331124 -0.48968983 -0.7026117 -0.6746912 -0.51856434 0.088903315
0.048629746 0.32098448 0.7236252 0.3761785 -0.17950733 0.5711778 0.20616864 -0.45228356
0.2675076 -0.05180136 -0.4253357 -0.37131214 -0.1676907 0.19319871 0.029693123 0.07802284
-0.15580037 -0.19182928 -0.04712306 -0.46690378 -0.63078886 -0.44926432 -0.44056454 0.22066432
0.46093193 -0.16798973 0.19952473 0.5986393 -0.13783999 -0.31781214 -0.11287835 -0.059732545
0.22049168 0.4113742 -0.07852141 -0.11002958 0.25078353 -0.18359081 -0.12279171 -0.5991215
-0.47956443 -0.4166017 -0.8589838 -0.10955509 0.8513056 1.2350188 0.5654642 0.06658033
-0.34294882 -0.21880792 -0.22751664 -0.6652236 0.049891423 0.6237218 0.9645322 0.3979817
0.12476934 -0.12466588 0.29808462 -0.5051817 -0.7722007 0.07698445 -0.110808864 0.34279588
-0.011065368 -0.07166088 -0.25454947 0.33895668 -0.5331792 -0.8862158 -0.20596431 -0.529182
-0.6032996 -0.03506921 0.24499714 0.13839771 0.23736607 0.049265366 -0.06555404 0.017552199
-0.018377263 -0.11316076 -0.18488315 -0.33775243 -0.13038485 -0.29067615 0.3802446 0.76911247
0.39985725 0.5688302 0.81134385 0.30154034 0.28517592 0.10937727 0.1580291 -0.7301414
-0.4544736 0.45905468 -0.3810929 0.08297462 0.48422506 0.010050904 -0.066543505 -0.1124885
-0.67238253 -0.4783704 0.03493541 -0.3177947 0.073044196 0.12203212 0.2628346 0.11943087
-0.012523504 -0.35807195 -0.21137524 0.20957544 -0.35205415 0.12543745 0.16687727 -0.10035478
-1.1814724 -0.9533481 1.0419725 -0.15537012 -0.8977565 1.2750465 1.0717252 -0.09982057
0.13466202 0.44207025 0.86693585 -0.57105595 -0.2823743 0.37699795 -0.62016726 -0.4916209
-0.040283322 0.0406936 0.56154263 0.14071624 -0.37024316 0.2093146 0.5934407 -0.68245953
-0.51912284 0.12671506 0.40341648 0.15875928 -0.12321062 1.0855246 -0.36307922 -0.41497868
-0.14462845 -0.62137735 0.17897801 0.4715788 -0.11152024 -0.5957993 1.2164801 -0.42143673
-0.7756346 0.18269597 -0.3438622 0.19371597 0.65386593 -0.25778323 -1.0189115 1.716352
-0.31010163 -1.1005436 0.71078944 -0.2652982 -0.0042865253 -0.17093286 -0.13315703 0.037984278
-0.38226083 -0.47885934 -0.5016613 -0.4652014 -0.69893974 -0.39566097 0.4266264 0.3938187
0.25463402 0.7907778 0.80291235 0.3606859 0.61525804 0.4403897 0.36925575 -0.18539187
-0.35983798 -0.1613669 -0.2955842 -0.2828701 -0.095761046 -0.09624171 -0.12785259 0.33686247
-0.18621679 -0.018801615 -0.1639492 0.049336884 0.29739404 0.08622348 -0.074712075 0.1515002
0.03408007 -0.1703204 0.1713779 0.08494072 0.08890799 0.48475608 0.32527664 -0.036510065
0.22746146 0.12873898 0.051070668 0.22926474 0.17867713 -0.09255857 -0.010219124 -0.097395614
-0.1571844 -0.21903409 -0.23640741 0.19089091 0.2845997 0.40774128 0.52406174 0.9914592
0.5160611 -0.35835284 -0.24416551 -0.20124003 -0.50827247 -0.85347927 -0.3552065 -0.097424574

conv1.bias f4 [16]
00000000: 1cd8 79b9 b400 bbba 5e69 ecb9 bb79 cbb9
00000010: a122 3eba b7e7 133b 5148 23ba cb63 d4ba
00000020: b2f3 31b9 dfa9 c6ba 796f 453a 8758 9439
00000030: 2584 b63a 37ad 16bb 4d3f 22bb 9d09 25bb
-0.00023826997 -0.0014267177 -0.00045091932 -0.00038809874 -0.0007253085 0.0022568533 -0.00062287325 -0.0016204057
-0.00016970819 -0.0015156827 0.00075315643 0.00028294718 0.001392488 -0.0022991428 -0.0024756968 -0.0025182732

bn1.weight f4 [16]
00000000: 6fa0 073f 5b44 913f 97d8 5d3f 16e4 093f
00000010: 2523 b63f 2341 343f 00d4 823f 69f2 203f
00000020: 86a7 283f 37f2 143f 6606 103f 4d31 913f
00000030: 6d3b 673f 2a7e a13f 960f 373f 213b 683f
0.5297918 1.1348985 0.86658615 0.53863657 1.4229475 0.7041189 1.0220947 0.6286989
0.6588062 0.5818209 0.56259763 1.134317 0.9032505 1.2616627 0.7150816 0.90715224

bn1.bias f4 [16]
00000000: 0d47 3c3e cfde 08bf 9247 0d3e c8ee fd3e
00000010: 4472 3abf 3acb 00be 1929 403f 0050 843d
00000020: ec9a aabe 2037 f83e ff33 06bd 3b79 b03f
00000030: c855 993d b261 de3f d3e7 79bd 4d38 d2be
0.18386479 -0.5346498 0.13796833 0.49596238 -0.72830606 -0.12577525 0.7506271 0.06460571
-0.3332132 0.48479557 -0.03276443 1.3786997 0.074870646 1.7373564 -0.0610121 -0.4105858

bn1.running_mean f4 [16]
00000000: 150d f43d 6257 993e 560d 93bd b9c2 13bd
00000010: 8ddc 993e 9299 f93c ed5f 15bd 8416 6abd
00000020: 6286 66be 75f7 e0bd cb12 9fbd 9d6f 3dbc
00000030: 44e9 ac3d bc8a 05bd 573a 25bc 2311 9d3e
0.11916558 0.2994948 -0.07180278 -0.036074374 0.3005108 0.030468736 -0.036468435 -0.05715038
-0.225122 -0.10984699 -0.07767256 -0.011562255 0.084429294 -0.03260301 -0.01008471 0.30677137

bn1.running_var f4 [16]
00000000: b3aa b73f ab16 8a40 49f8 2341 92ca 8b40
00000010: e816 d140 5622 563f 043c 9241 9b70 0c40
00000020: b31e 2040 8821 7d40 c5d3 8640 a17c 0a40
00000030: cd41 9441 e7bd 0240 b063 9f3f e595 b940
1.4348968 4.315267 10.2481165 4.368478 6.534046 0.8364614 18.279305 2.194373
2.5018737 3.9551716 4.213351 2.1638567 18.53213 2.0428407 1.2452297 5.7995477

conv2.weight f4 [16, 16, 3, 3]
00000000: 5a34 5abc 43a4 893e 3516 b5bd 1d04 473c
00000010: d164 f93d 89df 8a3d b37b 973c 29ff a1bd
00000020: 8376 e5bc 7a67 83be c8ed 303e 22e2 a3bd
00000030: 6321 fc3c ba97 8f3d 1fd1 f63d 808d 3fbe
00000040: c39f 84bd 5885 d2bd 3d11 a73e fbfc 03be
00000050: 5401 98be 43b7 ba3c f5b6 833c e2ca 35be
00000060: 93dc 273e 4747 633d 320d 93be 9956 86bd
00000070: 1ce1 943d 8c6b 1e3e 901a 1ebd d3dc ce3d
00000080: 99b4 ea3d 9fad a8bd 95c5 073d 5d9a 8bbd
00000090: 668d 953e 504e 163d 68e4 9bbe 6303 71be
000000a0: 8f9a bbbd 5bf2 5a3e dc10 9abe 6f31 083e
000000b0: 7b1d 8e3d c160 103d 7297 17be 25ae 07be
000000c0: 4226 42be 19e6 97be 6d60 3ebe 0094 6bbe
000000d0: a70a 90bd e970 15be 8a64 8fbe 975a 1fbf
000000e0: ee31 e63e 2e9e 27bc cf68 893e c582 81be
000000f0: 4952 593c e030 b73e ec54 28be 1684 9d3e
00000100: f94a 8d3e 9099 b83d 9fa6 da3d 019f 2abe
00000110: 3521 51be c776 72be a9ac bbbe 2eb9 16be
00000120: 9497 af3c b01e 063e 5681 113d 5511 fd3d
00000130: 0e05 f33d 46cc 013e a0bf 16bd 2222 11be
00000140: 63ff 36bd ec2f 8c3c cf1a 913e 6610 abbb
00000150: b46c 7a3e 8b94 f9bd 0382 dcbe 03b7 b43b
00000160: 84c1 72be b0fd 36bd bae8 5abd c0d8 33be
00000170: b01a 4bbe 55f4 1b3e 4630 41bd f413 55bd
00000180: df1a 763e 2bfa b73d 25fc 87bd 5a18 fd3d
00000190: 8905 183f 87a3 66bf 0d89 fb3d d35a 8bbf
000001a0: 0e74 503f 3e01 90be adf7 183f 5301 b83d
000001b0: 547e 11be 190e 063e e856 84be 1dc7 663e
000001c0: e2f3 8a3e cf16 a0be ac66 93bd ef65 f63d
000001d0: 73f1 edbd d665 a13d d7d5 84bf 7a69 3e3f
000001e0: 1303 25bf d4d6 b53f 89b8 77be d431 b63d
000001f0: ffb9 37bc 07ee eebe 2441 ebbc 5623 dc3d
00000200: 90a4 a23e 69fc 9b3e 7d9c ab3e 5221 cd3d
00000210: 9511 0abe 11f9 2abe 0186 36be cd1b 0b3e
00000220: 02f4 04be 2985 f0bd 72d3 093d 55b7 3dbe
00000230: 9c2e d4bd 9f42 e33d a89c 17bd 635e 133e
00000240: 5045 76bd c5f6 b6bd bbbc 17bd 6fda 88be
00000250: 7ba7 e9bd 1a15 133e b04f 5fbe 9284 983c
00000260: b6f2 603e 9ed4 9f3e b233 793e ac6a c83e
00000270: a83f cd3d a5df 973d 5a96 743e cf94 203d
00000280: fd7b d5bd 952b c1bd 6eca 03be b40c 4ebe
00000290: 44e5 c9bd 11e5 bbbd 9cb1 93be a51b 4bbe
000002a0: 0d04 d63e 3e60 4b3e 47b1 3b39 e2c8 b6bd
000002b0: 4ab9 5c3e 0aec 01be 0886 393c 69e1 dd3e
000002c0: 1cfb 183e e300 b3bd 3140 a63e 0cd8 873e
000002d0: c5c9 1e3e 1dbe bebd e35a a9be 14fc 433e
000002e0: ac65 52bd 6b67 04be fbe6 c83e a84f 783d
000002f0: 2630 4c3e 77a1 17be adea 7cbe 58ad c8be
00000300: 8f8f 063e 9c4e 09be 492e aabe 0dd1 8c3e
00000310: adc6 9b3e 45b0 09bb 1cea 973e 07b5 1d3e
00000320: f0ea 0a3e 7d77 173e a6f8 dabd 2d40 a83d
00000330: 935f 633e c210 0bbe 1c78 92be d37f c93e
00000340: bf61 c33e f9a9 693e a65e e5bc 26ab 6bbd
00000350: 6991 ffbd d25b 8fbe 4e70 aabe 6d25 b6be
00000360: b987 52be 94f1 4abe fa5f ffbb 79ff 92be
00000370: 6002 afbe 758e 55be af17 48be f621 8fbe
00000380: 6819 18be 4568 fe3d 55a2 8d3e 4c07 273e
00000390: 73bf 47be 4e5c c3bd b9d6 e43c f4ba 1ebe
000003a0: c475 39be 4e52 0c3b 19a9 143d 357c 453d
000003b0: b778 a4be 1cbf f43d 6e16 173e 8bcc 9abe
000003c0: fe50 963d 92f3 f23d 6ceb 6ebe 4a42 153d
000003d0: f953 613e db2d 913e 35ae 97bd 47b7 51be
000003e0: 7ec8 4e3e 9f42 0abe d158 9abe 49aa 953c
000003f0: 6d5d c63d c272 b23d 08e3 7f3d 7a3c bc3d
-0.013318146 0.26883134 -0.08842126 0.012146977 0.12177432 0.06780917 0.018491602 -0.07909996
-0.028010612 -0.25664884 0.17278206 -0.08002116 0.030777639 0.070113614 0.120516054 -0.18706322
-0.06475785 -0.102793396 0.3263034 -0.12889473 -0.29688513 0.022792464 0.016078452 -0.17753175
0.16392736 0.055487897 -0.28721005 -0.06559486 0.07269499 0.15470713 -0.03859955 0.101007126
0.114602275 -0.082362406 0.033147413 -0.06816552 0.2920944 0.03669578 -0.30447698 -0.23536448
-0.09160339 0.21381514 -0.30090988 0.13300107 0.06939217 0.03524852 -0.14803866 -0.13250025
-0.18959907 -0.29667738 -0.18591471 -0.23005676 -0.07033282 -0.14593853 -0.28006393 -0.62247604
0.44959968 -0.010230584 0.26837775 -0.25295082 0.013264247 0.35779476 -0.16438645 0.30764836
0.27596262 0.09013665 0.10676312 -0.16662218 -0.20422824 -0.23678122 -0.36655167 -0.14719078
0.021434583 0.13097644 0.035523735 0.123568214 0.118661985 0.1267558 -0.03680384 -0.14173177
-0.04467715 0.017112695 0.28340766 -0.0052204607 0.2445553 -0.121865354 -0.4306794 0.0055149808
-0.23706633 -0.04467553 -0.0534446 -0.17563152 -0.19834399 0.15229924 -0.047165178 -0.052020982
0.24033688 0.08983263 -0.0663989 0.1235816 0.59383446 -0.9009327 0.12282 -1.0887092
0.81427085 -0.28125948 0.59752923 0.089846276 -0.14208347 0.13091315 -0.25847554 0.22536893
0.27139193 -0.31267402 -0.071973175 0.12031161 -0.116183184 0.07880752 -1.0377759 0.74379694
-0.64457816 1.4206185 -0.24191488 0.08896223 -0.0112137785 -0.46665975 -0.028717585 0.10748927
0.31766176 0.3046601 0.3351783 0.10016121 -0.1348327 -0.16696574 -0.17824556 0.13584824
-0.12983707 -0.11744148 0.033648916 -0.18526967 -0.103604525 0.11096691 -0.037014633 0.14391474
-0.060124695 -0.08933786 -0.03704522 -0.26729152 -0.114088975 0.14363518 -0.21807742 0.018617902
0.21967587 0.31216902 0.24336126 0.39143884 0.10021907 0.07415704 0.2388548 0.039204415
-0.104240395 -0.09432141 -0.1287019 -0.20122033 -0.09858182 -0.0917455 -0.28846443 -0.19834764
0.41799966 0.19860932 0.0001789975 -0.08925034 0.21555057 -0.12687698 0.011323459 0.43336037
0.1493954 -0.087404035 0.3247085 0.26532018 0.15506656 -0.09313605 -0.33077154 0.19139129
-0.051366493 -0.12930076 0.39238724 0.06062284 0.19940242 -0.14807688 -0.24698897 -0.3919475
0.13140701 -0.13408893 -0.33238438 0.27503243 0.30425015 -0.0021009606 0.296708 0.15401088
0.13566184 0.14791675 -0.10691957 0.082153656 0.22204427 -0.13580611 -0.2860726 0.39355335
0.38160512 0.22818746 -0.027999233 -0.057536267 -0.12478907 -0.2799974 -0.33288807 -0.3557543
-0.20559587 -0.19818717 -0.0077934237 -0.28710535 -0.341815 -0.20855124 -0.19540285 -0.27955598
-0.14853442 0.124222316 0.27662912 0.16311377 -0.19506626 -0.0953909 0.027934419 -0.15501004
-0.1811133 0.0021411362 0.036294077 0.048214156 -0.32123348 0.11950514 0.1475465 -0.3023418
0.07339667 0.118628636 -0.23331994 0.03644017 0.2200469 0.28355297 -0.07406274 -0.20480071
0.20193669 -0.13501976 -0.30145887 0.018269675 0.09685788 0.087132946 0.062472373 0.091912225

conv2.bias f4 [16]
00000000: 8ffa 39ba 9ac1 c1b7 6e7c 563a 1fde 19ba
00000010: 419a 76b9 9da3 afb9 18b6 0739 0c38 e0b9
00000020: a133 8cb9 4042 b9b8 1d68 db38 4ebc 8bba
00000030: e903 f4b9 04d0 353a 0dd9 5f3a 4ace 6938
-0.0007094526 -2.3097546e-05 0.00081819936 -0.00058695854 -0.00023517852 -0.00033500502 0.00012942438 -0.00042766368
-0.00026741347 -8.8338275e-05 0.000104621264 -0.0010660978 -0.0004654222 0.0006935599 0.0008539118 5.574365e-05

bn2.weight f4 [16]
00000000: 8698 933f 89fc 593f 9d2c a83f b6bb 7d3f
00000010: 1405 d73f 9b28 863f a935 643f cddc 8e3f
00000020: 68d7 a83f b087 863f c144 913f ef2c 813f
00000030: 1629 d13f 2549 453f 04de 8b3f 4cca 693f
1.1530921 0.85150963 1.3138615 0.9911455 1.6798425 1.0481142 0.8914438 1.1161133
1.3190737 1.0510159 1.1349107 1.0091838 1.6340663 0.77064735 1.0927129 0.91324306

bn2.bias f4 [16]
00000000: c7e8 27be fbc7 a03e a950 d6bd 773a 27bd
00000010: 791a aebd 8465 0b3e 437e 5e3f 67cb 1e3f
00000020: a4fa 5dbe e0da 0dbd 3f14 d23e 1930 0abe
00000030: 6534 8dbd c9c9 e13e 1823 c33e 9514 96bd
-0.16397391 0.31402573 -0.104646035 -0.04082724 -0.08501143 0.13612944 0.8691141 0.6202912
-0.21677643 -0.034632564 0.41031072 -0.1349491 -0.06894759 0.44099262 0.38112712 -0.073281445

bn2.running_mean f4 [16]
00000000: dd9c 1abf 10b6 4f3f 5541 ffbe 5a96 23c0
00000010: 1fd6 88bf 982b ed3f b814 8dbf 0813 44c0
00000020: 4035 7fc0 9c18 30bd afe7 5bbe 2fdd e0bf
00000030: 492b 2bbf 9dc2 903e b2ab acbf 73bc 98bf
-0.60395604 0.8113718 -0.49854532 -2.5560517 -1.0690345 1.8528929 -1.1021948 -3.0636616
-3.9876251 -0.04299222 -0.21475099 -1.75675 -0.6686292 0.28273478 -1.3489897 -1.193251

bn2.running_var f4 [16]
00000000: 6e67 e940 5523 5a40 6980 4941 bdef 4040
00000010: be12 0442 8557 0a41 3a63 9240 105a a940
00000020: 2d70 0841 d56d 8240 a0c0 dd40 0e25 0740
00000030: 4317 be41 d562 9140 d8e8 c340 d2ef e83f
7.2938757 3.4084065 12.59385 3.0146325 33.018303 8.646367 4.5746126 5.292244
8.527387 4.075907 6.929764 2.1116366 23.761358 4.5433145 6.1221733 1.8198187

conv3.weight f4 [32, 16, 3, 3]
00000000: a8e2 94bd e2fd 08be 3ad9 7cbd 58ab 3abe
00000010: 4654 8dbe aa8f 16be c57b 11be 6c0c 1cbe
00000020: a8de d5bd 515f a5be 4bae 15be 8c7b d63c
00000030: 2714 683c de87 68be c878 6abe e66e b73e
00000040: 210b cf3d 65ba 54be c9e1 c93e c322 193f
00000050: 58eb 5b3e 62a7 163f 1f86 3f3f 5605 633e
00000060: 0aef 543e 5922 963e bc33 df3d 9059 313e
00000070: ed2c 503e 594a 803e 571d fabd ca67 bcbd
00000080: f16b 25ba 3b46 c1bd ce0a 21be 98b3 cebd
00000090: e272 93be 0deb 8bbe d20f 0f3d b0da aabe
000000a0: 2ad6 babe 9737 53be 49e9 26bd dc2e 8abe
000000b0: 5745 4bbe aea7 3a3e 168d 4c3e 6e9d 773e
000000c0: 1c87 743d a5fe 8cbc 4696 863d 5755 c83d
000000d0: 2eed 32be a85f b8be dd44 893e 1ad2 66bc
000000e0: 3777 93be d8ed 5a3e 7f8a 973e c8b3 98bd
000000f0: 9292 1bbe 892a 333e 57a0 bdbc 17bf 16be
00000100: 2590 01be a5a9 49bd 3fb2 ef3b a4dd 30be
00000110: c0f3 3bbe a584 1b3d ada4 afbc 93f5 c3bd
00000120: 3855 5c3e 98a6 823c 68c5 52be 5422 6c3d
00000130: a95e 283e 9cb2 783d 0d88 033c aa3e 583e
00000140: de8c 613e 74df 573c 8c9f 5039 ee2a 663b
00000150: 6690 2a3d 68b3 2ebe 0289 8fbd 63d9 153e
00000160: fa39 d9bc 853c 39be ac4c 42bd b62f 793e
00000170: 085d fc3d becc a3be 7c80 253d 5b68 933e
00000180: 959c 57be a820 a7be b2ac 7a3b 29ba dcbc
00000190: 3b53 ff3d 88f8 543e f298 4fbe 9d3d 3fbe
000001a0: dd9f ec3d e615 2abe eefd 06be 3a9a f3bc
000001b0: 7be1 15be 8207 9d3d f808 9ebc 7a5b 80be
000001c0: 6d81 78be f92f 9abc 1db8 41bd e436 02be
000001d0: e33f fabd 343f 84bd 7212 043e c126 5c3e
000001e0: a444 0dbe b143 95bd a7e2 b63d e1dd 52bd
000001f0: a099 9dbd 330a edbd 4156 483c a8af b1be
00000200: 93f2 d5be 8837 9e3e 1da0 243e 74f1 92bd
00000210: 60c9 193e 17b8 893d 9345 603e 95e4 d43a
00000220: aabd 3b3e ffd5 003d 2717 70be b624 6e3d
00000230: f398 143e 184b 0bbe 4322 1abe e911 223e
00000240: 31be ddbd fb42 a5bd 2343 7abd 586e b0bd
00000250: 79b2 09bd 8dca 86bd 636a 48bd 47f6 c63d
00000260: 82af 89bb c5ec 7b3d 1c60 05bc 7514 5abd
00000270: d735 133e 185f 6ebd 8735 88bd a222 043e
00000280: c370 d6bd 2bb4 e0bc 4b24 db3a b275 c9bd
00000290: 3616 adbd 1a81 853c 6854 b8bd 8dd6 18bc
000002a0: d925 33bd 3f19 38bd ac7d 5c3d 5216 aebd
000002b0: 6d26 79bd dcaf cf3c 3f1a d9bd ee8d 3c3d
000002c0: d22c 053e 432b a4bd 72b4 bfbd 16a7 433d
000002d0: f525 b4bd eec4 1fbe 9b91 38bd 913c 0d3e
000002e0: 1168 cdbd 4035 2abd 27d8 8e3e aeb4 893c
000002f0: 479b 743d fee7 a3bd 1713 c23b 8f90 9e3d
00000300: 48d8 65be aad3 14bd c263 c9bd 502f e8bd
00000310: 1367 173d 0ef4 1dbe a4e0 07bd bdff 18be
00000320: 6565 6abb b660 fe3d f45d 01be 7e65 27bd
00000330: 4b04 293e 7e5b 30be 14d6 b7bc 6144 8d3e
00000340: c117 2bbf beb9 5a3e a934 273f 8aca 72bf
00000350: be8d f93e 0dd8 433f 177f 4dbf 8d4f 9b3e
00000360: 1750 183d 3f5e 9bbd e2a3 dfbc ba6d a53d
00000370: 62a9 7abe d5ee 4abc 8cb6 243c 218d b3be
00000380: 4655 533d 850e 31bc 0671 d63d cc92 ecba
00000390: a20f 053e 5f38 2e3e 3ea7 403d 3f1a c73d
000003a0: 7a54 e03c 525a e0bd bdba abbd 62fd ae3e
000003b0: 811e 02be 607d adbe a376 9f3e 1c1d c7bc
000003c0: 2fc8 bebe 4c9a 6f3e 4efa 6fbc 0a21 e9bc
000003d0: b0b4 bd3c a4c8 dc3d f7a2 11bd ddb6 bc3b
000003e0: bbf9 2f3e 4859 1abe a3dc 8a3c 12c2 f03c
000003f0: 4f42 cd3c a95c 2a3c 30f7 4a3d bf0c 113d
-0.07269794 -0.13378099 -0.0617306 -0.18229425 -0.27603358 -0.14703241 -0.1420737 -0.15239114
-0.10442859 -0.32299283 -0.14617269 0.026181959 0.014164961 -0.22708079 -0.22897637 0.35826796
0.101095445 -0.20774229 0.39430073 0.5981867 0.21476495 0.58849156 0.7481403 0.22170004
0.20794311 0.2932308 0.108985394 0.17319322 0.20329638 0.25056723 -0.122126274 -0.09199484
-0.0006310335 -0.094372235 -0.15726778 -0.100928485 -0.28798586 -0.27327767 0.034927197 -0.3336997
-0.3649152 -0.20626675 -0.04074982 -0.26988876 -0.1985067 0.18228027 0.19975695 0.24181148
0.059699163 -0.017211268 0.06571631 0.09781902 -0.1747329 -0.3601048 0.2681035 -0.014088178
-0.2880189 0.21379793 0.29597852 -0.074561656 -0.15192631 0.17496695 -0.023147745 -0.14721332
-0.12652643 -0.04923405 0.0073149498 -0.17272049 -0.18354702 0.037968297 -0.021440828 -0.09568324
0.21516883 0.015948579 -0.20583117 0.057649925 0.1644236 0.06071721 0.0080280425 0.21117654
0.22026393 0.013175834 0.00019895862 0.0035120803 0.041641615 -0.17060626 -0.07008554 0.14633708
-0.026516903 -0.18089493 -0.0474364 0.24334607 0.12322432 -0.31992143 0.040405735 0.28790554
-0.21055825 -0.32642102 0.0038249907 -0.026944237 0.12467047 0.20797932 -0.20273188 -0.18675847
0.11553929 -0.16609916 -0.13182804 -0.029736627 -0.14636795 0.076674476 -0.019291386 -0.2506979
-0.24268122 -0.018821703 -0.047294725 -0.12716252 -0.12219217 -0.064573675 0.12897661 0.21499158
-0.13795716 -0.07288302 0.08929949 -0.05148113 -0.07695317 -0.11574211 0.012227596 -0.34704328
-0.41786632 0.30901742 0.16076703 -0.0717496 0.15018225 0.067245655 0.2190154 0.0016242439
0.1833407 0.031454083 -0.23446332 0.05814048 0.1451147 -0.13602865 -0.15052132 0.15827145
-0.10827292 -0.08069416 -0.061099183 -0.086147964 -0.03361747 -0.06581602 -0.048929583 0.097149424
-0.0042018304 0.061505098 -0.00814059 -0.053242166 0.14376007 -0.058196157 -0.066508345 0.12903836
-0.10470726 -0.02742966 0.001671919 -0.09836902 -0.08451502 0.016296912 -0.09000474 -0.009328497
-0.043737266 -0.04494595 0.053830788 -0.08500351 -0.06082766 0.025352411 -0.10600709 0.046033792
0.13005379 -0.08016064 -0.09360589 0.047766767 -0.08796302 -0.15602466 -0.045060735 0.13792636
-0.10029615 -0.04155469 0.27899286 0.016809788 0.059718397 -0.080032334 0.005922686 0.07742416
-0.22445786 -0.03633467 -0.098334804 -0.11337149 0.036963534 -0.1542513 -0.03317322 -0.14941306
-0.0035766002 0.1242079 -0.12633497 -0.040868275 0.16505544 -0.17222401 -0.022440948 0.2759123
-0.6683312 0.21359918 0.6531473 -0.948403 0.48740953 0.7650154 -0.8027205 0.3033413
0.037185755 -0.075863354 -0.027299825 0.08077569 -0.24478677 -0.012386044 0.010053288 -0.3506861
0.051594995 -0.010806684 0.10470776 -0.001804912 0.12994245 0.17013691 0.047034495 0.09721803
0.027384032 -0.10954727 -0.08385227 0.3417769 -0.12706949 -0.33884716 0.311452 -0.024305873
-0.37262103 0.23398703 -0.01464708 -0.028458137 0.023157448 0.10780457 -0.035555806 0.0057591037
0.17185108 -0.1507312 0.01695091 0.029389415 0.025056032 0.010398068 0.049552143 0.035412546

conv3.bias f4 [32]
00000000: beb8 603a 09af 2e3a 6807 9db9 279c 5839
00000010: 94d4 c839 1bb6 243a 52b9 86ba 1204 39ba
00000020: 1d45 ceb9 1251 69ba b029 2d3a 6b0c 2dba
00000030: f484 7eb9 3b31 0a3a 47e2 293a e6ad 873a
00000040: df97 2bb9 0207 7eba b55c a1b8 bfa1 233a
00000050: 8d20 59ba ef56 8139 90b5 d039 e329 38b9
00000060: 39f4 5b3a 12fb bf39 e96e 873a 14c1 39ba
00000070: 9133 723a 6cad c3b9 8873 53ba 37bb 8db9
0.00085724506 0.00066636555 -0.00029950892 0.00020657537 0.00038305356 0.00062832393 -0.0010278618 -0.00070577965
-0.00039342875 -0.0008900325 0.0006605638 -0.00066012767 -0.00024272857 0.0005271618 0.00064805563 0.0010351508
-0.00016364407 -0.00096903753 -7.694346e-05 0.00062420586 -0.00082827435 0.00024669568 0.00039808126 -0.00017563211
0.0008390579 0.0003661742 0.0010332736 -0.0007085961 0.00092392514 -0.00037322508 -0.0008066227 -0.00027033102

bn3.weight f4 [32]
00000000: c869 4f3f 55b9 703f 8b73 483f 07c7 5c3f
00000010: 05f3 603f 6048 593f bca9 853f 5491 d83f
00000020: ce25 3d3f 3890 4c3f 3a21 373f ab33 bc3f
00000030: d384 4a3f 7322 8f3f 90fd 453f 9898 3d3f
00000040: 34a2 263f e170 483f 6b0d a93f 5096 623f
00000050: 4286 613f d423 373f c08d 823f 600c 183f
00000060: 6dbb 803f 2802 a63f 73b2 863f 1ee4 563f
00000070: 007e 323f 166c 533f fa97 5c3f 1c16 393f
0.81020784 0.94032794 0.78301305 0.8624119 0.8787082 0.8487606 1.0442424 1.6919351
0.7388581 0.7990756 0.71535075 1.4703268 0.79108924 1.1182388 0.7734003 0.74060965
0.6509125 0.7829724 1.320722 0.8851061 0.88095486 0.71539044 1.0199509 0.5939388
1.0057198 1.2969408 1.0523208 0.8394183 0.6972351 0.825868 0.861694 0.7229936

bn3.bias f4 [32]
00000000: d1be 8e3a b674 5abd 67bb 12bd a2c9 0fbe
00000010: a3de 5cbe d97b 133f 612d 883d c8fa dabe
00000020: 6144 25be db70 5fbe 49bc b6bc 1b10 02bf
00000030: 2556 95bd 8381 d43d 7189 363e c84b c8bd
00000040: 0c5a a23e 7543 3d3d d207 26bd fe82 27be
00000050: 93c1 5f3d 604b 593d 1dc8 ccbe 437e 143e
00000060: a398 c1bd 630f cfbe bb1f 913e 1b72 07bd
00000070: cb46 053e 9783 3bbc d174 f2bd e0eb 403e
0.0010890608 -0.05333396 -0.035823252 -0.1404176 -0.21569304 0.5761085 0.0664928 -0.42769456
-0.16139366 -0.21820395 -0.022306578 -0.50805825 -0.072918214 0.10376265 0.17825867 -0.09780079
0.31709325 0.04620691 -0.0405348 -0.16358563 0.054627966 0.0530504 -0.39996424 0.1450129
-0.09452941 -0.40441427 0.2834452 -0.033067804 0.13015287 -0.011444948 -0.11838687 0.18839979

bn3.running_mean f4 [32]
00000000: 7ca5 35bf 1f04 fcbe 1554 233f 935b 3ac0
00000010: 4387 b4bf 1b22 18c0 36a2 88bf 2eab e7bf
00000020: 121a 9fbf 2e3a 2a40 f8dd 0a3f b1f3 31c0
00000030: 972c 58bf b226 9ac0 8f37 dd3f 35d9 64c0
00000040: f3c3 0040 ca13 873e 5d42 70c0 739c e7bf
00000050: ffd6 2cbf 8608 23c0 347f c1be dd08 68bd
00000060: ece9 b4bf 6436 8bc0 3460 a8bf 286b 813f
00000070: 43ae 4fc0 e192 4e3e 1dc3 d8bf e406 46bf
-0.70955634 -0.49221894 0.63800174 -2.9118392 -1.4103779 -2.3770816 -1.0674503 -1.8099115
-1.2429831 2.659801 0.5424495 -2.7804987 -0.8444304 -4.8172235 1.728258 -3.5757573
2.0119598 0.26382285 -3.7540505 -1.809462 -0.6751556 -2.5473952 -0.3779236 -0.056649078
-1.4133887 -4.3503895 -1.3154359 1.0110826 -3.245011 0.20173217 -1.6934544 -0.77354264

bn3.running_var f4 [32]
00000000: 15b0 2b40 0ab2 0541 1cda 8540 876a c240
00000010: 4c27 7540 da91 0d41 41a6 f040 c591 4041
00000020: 9e28 3140 a026 5740 ee32 1940 50aa ca40
00000030: 3216 ae40 0908 0c41 9445 8340 82df 9b40
00000040: f391 7540 4af0 1f40 efbf 3741 f861 7140
00000050: fc76 6f40 af18 5e40 0b00 8e40 3749 6140
00000060: b949 1741 ddc4 b640 448c eb40 ae09 5f40
00000070: 8d5c 9340 c2af 9940 b8b2 9e40 a4d7 4540
2.6826222 8.355967 4.1828747 6.075504 3.8305235 8.848108 7.5202947 12.035588
2.768104 3.3617325 2.3937335 6.33329 5.4402094 8.751962 4.1022434 4.8710337
3.837033 2.499041 11.484359 3.7716045 3.7416372 3.4702566 4.4375052 3.5200937
9.455499 5.711531 7.3608723 3.4849658 4.6050477 4.802705 4.9593163 3.0912867

conv4.weight f4 [32, 32, 3, 3]
00000000: 0115 203e 4458 58be 3405 b33c 2acc 8d3d
00000010: fe61 45be 8e39 95be 1968 023f 6cfe 8c3d
00000020: eb9d a0be 3b2e 083d 3617 00bc ec1c 2439
00000030: ecfc 08bd 2d9b bc3c 0126 52bd af5d c93d
00000040: a90c 8ebd 18b5 5abd 9e52 863b c29f 7b3d
00000050: 43e1 863e 241e 69bc b6f3 893d e49c 073e
00000060: 1f85 57bd e92d ef3d 077b 853e 262b 9fbd
00000070: 19d3 98be 7f53 60be 3d33 563e 6f9b b2bb
00000080: de6a 20be fa5b b13e f922 823e c35f 2f3e
00000090: ecb5 56be a8ae 86be 6985 06be 161d 143e
000000a0: 43b7 1bbc b556 a5bc 5d64 423e 6fc6 f63d
000000b0: a927 f03d c5fb 273e c5b2 883d 73a9 6a3c
000000c0: 0215 19be 1075 8fbe 27f2 b9be c6bb 273e
000000d0: 4e7e 1cbd fceb 9ebd 91bd 7d3c fcb0 a03d
000000e0: 2dfe c33d e175 4bbe 3cfd a23c 6cf3 443d
000000f0: c599 1bba 92c1 22bd f9b9 453e 45fc 8f3d
00000100: cf60 c03c 4447 673d 97cc 0a3d 092f 24be
00000110: d34e 8c3d 3d61 833e 1315 9bbc 76c8 7a3d
00000120: 0051 0fbc aa4b 91bd a9a4 1cbc 14d0 ecbd
00000130: ca06 29be 938f b3bd 9440 d1bd dc05 adbd
00000140: 9bbc 97bd 50d5 a8bd aa3f a33d 1795 7dbd
00000150: f6a9 7cbe dc9c a0be 32a3 c0be 3b2f 9bbc
00000160: 74b5 39be 1615 aabe ee27 673e c0cd 663e
00000170: 6fc4 a23e de54 003e 35f2 78bd 9a1f ad3c
00000180: b275 1c3e 4933 c7bd b50c b6be 3df4 073e
00000190: 96d4 eb3c 36f9 dabd e24d 9e3d 37db d3ba
000001a0: e86c edbd 2674 4f3e 413c 433e c5b5 a8bd
000001b0: f47e 99be 794f babd 8ef8 803d d46e d93d
000001c0: 885a bc3d 0d78 8b3e f093 39bd 9d58 463e
000001d0: 94b2 9e3e 6008 63be 97a4 e3be 080f febc
000001e0: feb9 dd3d ccf5 48be 6b71 c03d 0d15 973e
000001f0: 8e10 c83e e949 ed3e eff9 123e 6422 3c3e
00000200: d0ba 2bbd bce6 ae3d 9a7e cf3d e898 0b3d
00000210: 9338 1b3e cf60 e33d 4d10 4f3e 4841 66bd
00000220: 7ead 1c3d 107c 0a3e e667 e538 e5d1 0e3d
00000230: fed6 513d 13bc 9dbd 78fc 08bd 4182 f73d
00000240: 8d96 0dbe f0dd dc3d 6538 d13a de01 7ebd
00000250: 9ed3 c4bd b905 99bb 05dc 69be 8397 0abe
00000260: 5a0f 70be a110 f63d 2bbd 3b3e 30c5 f83e
00000270: bba5 003d 4fee af3c 14de 57bd c79a 88bd
00000280: 7234 94bc 5705 abbe fa6e 0a3b a220 543d
00000290: 92a4 253e 87b7 7abd d2d1 25bc a4fe 2a3e
000002a0: 37ac 3b3d 7ed4 82bd 8355 633c b5f3 ce3d
000002b0: 73b7 413d a05c b53d 5f0d 89bd 70bf b43d
000002c0: 6901 9a3d 98ef 9fbe 6027 b1bd 9116 54be
000002d0: 194f c7bc 912c d7bc 2c5a 883d 4d4b 20be
000002e0: 8a41 e3bd 74d2 07be f3c9 223c 37b6 9fbe
000002f0: 134f f7bd 212a ddbd aef6 e2bd 6e20 ee3b
00000300: b7da 833c fd77 ecbd 29ab 7cbe bed5 f63d
00000310: d782 82be ce8b e6be 725f e2bd 452a a93d
00000320: 0a2f 0d3e cd35 353d cfb6 3a3d a4c6 11bc
00000330: 7719 cc3d ed87 843d 3231 1dbe d5c1 dc3d
00000340: 6e64 3d3e caf3 833e 4cb5 e5bd 5d37 e33d
00000350: fa29 ef3d b30e b63c ca87 aa3d 7be7 c83c
00000360: b467 db3c c84b a43c 76e4 1e3d 9ba8 abbd
00000370: 4d44 2dbc baf9 51bd 9632 e03d f6b7 8fbd
00000380: b731 15bd 6750 3abe 22b6 76bd bde1 92be
00000390: 7776 2bbd 7dfa 8d3d 489f 153d 1cff 263e
000003a0: a0b4 e23d 3c97 0f3e acbe c5be 4115 433d
000003b0: 35f3 bc3e 9640 79be 21b2 063e 5129 05bd
000003c0: f8ca bebe 3ab6 683d 8460 7f3e 7125 863d
000003d0: 188a fbba a539 203e 9dd0 afbc 2754 8dbd
000003e0: cad8 d4be 7d10 c03d 4820 d83d 0b1f 93be
000003f0: 2297 e7bd b49d 5d3e 07a7 883d bb2f a33d
0.15633012 -0.2112742 0.021853067 0.06923707 -0.19275662 -0.29145473 0.5094009 0.068844646
-0.31370482 0.033247214 -0.007818034 0.00015651033 -0.03344433 0.023023212 -0.051305775 0.09832322
-0.069360085 -0.05339536 0.004099204 0.061431654 0.26343736 -0.0142283775 0.06735937 0.13243443
-0.05261719 0.116786785 0.26070425 -0.07771902 -0.29848555 -0.21906851 0.20917983 -0.005450658
-0.15665767 0.34640485 0.25417307 0.17126374 -0.20967835 -0.26305127 -0.1313683 0.1446422
-0.009504142 -0.020182947 0.18983598 0.12049567 0.117263146 0.16404636 0.066747226 0.014322626
-0.1494942 -0.28019 -0.3631756 0.16380224 -0.03820639 -0.07759854 0.015487091 0.07846257
0.095699646 -0.19869186 0.019896142 0.048083708 -0.0005935694 -0.039735384 0.19309224 0.070305385
0.023483662 0.05646445 0.03388652 -0.16033567 0.06850972 0.25660124 -0.018930947 0.06122633
-0.008747339 -0.0709451 -0.009560742 -0.11563125 -0.16506496 -0.08767619 -0.102173954 -0.08448383
-0.074090205 -0.08243811 0.07971127 -0.06190976 -0.2467421 -0.31369674 -0.37624508 -0.01894342
-0.18135625 -0.33219212 0.22573826 0.22539425 0.31790492 0.12532374 -0.06077786 0.021133233
0.15279272 -0.09726579 -0.3555657 0.13276763 0.028787892 -0.106920645 0.07729699 -0.0016163354
-0.11593038 0.20259151 0.19065954 -0.08237795 -0.2997967 -0.090971895 0.06297408 0.10616842
0.09196955 0.2724003 -0.0453071 0.19369741 0.3099562 -0.22171164 -0.4446151 -0.031013027
0.10826491 -0.19625014 0.09396633 0.29508248 0.3907513 0.4634545 0.14353155 0.18372494
-0.041926205 0.08540103 0.10131569 0.03408137 0.151583 0.11102449 0.20221062 -0.0562146
0.038251393 0.13523889 0.000109389235 0.03486814 0.051230423 -0.07701888 -0.033443898 0.12085391
-0.13826962 0.10784519 0.0015962241 -0.0620135 -0.09610675 -0.0046698716 -0.22837837 -0.1353436
-0.23443356 0.120148905 0.1833388 0.48587942 0.031408053 0.02147594 -0.052702025 -0.066701464
-0.018091414 -0.3340251 0.0021123276 0.051788934 0.1617606 -0.06121018 -0.010120826 0.166987
0.045818534 -0.06388186 0.013875368 0.10105077 0.04729409 0.088555574 -0.066920035 0.08825576
0.075198 -0.31237483 -0.08650088 -0.20711733 -0.024329709 -0.026266368 0.06657824 -0.15653725
-0.11096485 -0.13263875 0.009935844 -0.31193706 -0.12075629 -0.10799051 -0.11082207 0.0072670495
0.016095502 -0.115463234 -0.24674667 0.12052487 -0.25490448 -0.45028538 -0.11053361 0.082600154
0.13787475 0.04424076 0.045584496 -0.008897457 0.099657945 0.06471238 -0.15350798 0.10779158
0.18495342 0.25771934 -0.1121622 0.11094544 0.11677928 0.022223806 0.08326681 0.024524441
0.026782848 0.020055667 0.038792096 -0.08381768 -0.010575366 -0.05126355 0.109471485 -0.0701751
-0.036424365 -0.18194734 -0.06023229 -0.2868785 -0.041861024 0.069325425 0.036528856 0.16308254
0.11069608 0.14022535 -0.38622034 0.04762769 0.36904302 -0.24341044 0.13153888 -0.032510106
-0.37264228 0.05681441 0.24939162 0.0655011 -0.0019190935 0.1564699 -0.02146178 -0.069008164
-0.41571647 0.09378145 0.10553032 -0.2873462 -0.11308123 0.2164219 0.06672483 0.07968088

conv4.bias f4 [32]
00000000: 0fa0 233a 1051 183a 0f52 fe37 ae79 0cba
00000010: cc2c 113a 6653 edb9 cbe1 5c38 5527 273a
00000020: 93d8 82b9 f0a2 89b9 c2e8 13ba cab5 bb39
00000030: a106 043a 466f 11ba 98bb d0b9 42f7 29ba
00000040: aed8 21ba 7a9a f639 a0ea b0b9 4a82 7cb9
00000050: b00e 65b8 a9d7 0f3a a6dc 8939 4694 8f39
00000060: 3bf9 7339 3b3f fbb8 8250 97b9 f0f7 86b9
00000070: d19b f038 c47d 463a f87d 1eba 32fe 163a
0.0006241807 0.0005810419 3.0317371e-05 -0.0005358708 0.0005537986 -0.000452663 5.2662373e-05 0.00063764054
-0.00024956893 -0.00026252074 -0.00056422886 0.00035802863 0.0005036388 -0.0005547892 -0.0003981262 -0.00064836827
-0.00061739504 0.0004703587 -0.00033744145 -0.00024081129 -5.4611533e-05 0.0005487153 0.00026295072 0.00027385558
0.00023267131 -0.0001198039 -0.00028860947 -0.000257432 0.00011473115 0.0007571841 -0.00060459925 0.0005759924

bn4.weight f4 [32]
00000000: 1b38 3b3f 4056 863f 624b 833f 548d 4c3f
00000010: 8662 9c3f 32b0 823f ca01 643f caea 8e3f
00000020: 0cd7 503f e00b 7a3f ea46 9a3f 37de 653f
00000030: f282 643f 7143 553f abd4 8a3f 80eb 6d3f
00000040: 574e 683f 9180 933f 4a2a 6e3f 9b59 613f
00000050: 6cd5 663f 8315 5e3f c04d 6e3f 6615 3c3f
00000060: 7c0b 353f 6722 803f 83aa 643f 4d9a 833f
00000070: 8ca3 7c3f a339 7e3f 4c34 653f 3986 723f
0.73132485 1.0495071 1.025738 0.7990315 1.2217567 1.021002 0.8906523 1.1165402
0.81578135 0.9767437 1.2052891 0.897922 0.89262307 0.8330603 1.0846151 0.9293747
0.9074454 1.152361 0.9303328 0.8802735 0.90169406 0.86751574 0.9308739 0.7347015
0.7072065 1.0010499 0.8932268 1.0281464 0.9868705 0.99306697 0.89532924 0.9473606

bn4.bias f4 [32]
00000000: 6794 213e 8a0a 92bd 72f2 0dbe 92e6 01be
00000010: b333 fbbe 11ed e0bc 51c0 c83c ecbe e9bd
00000020: 2fec e03e 9508 90be 2051 1fbe 3d87 7c3b
00000030: 77ca 4bbe b375 643e 848d a2be ba28 ccbe
00000040: 4cf4 4a3d f17f 12bf 0ede 7dbd f6f3 4ebc
00000050: b8d0 96be 88ea ccbb 284e 08be 3cf3 bc3e
00000060: 495d af3e d6c0 0ebe 7d8b 1bbe 18ea 28be
00000070: c9e7 7dbe 5040 83be d969 f23d 1305 aebc
0.15779267 -0.071309164 -0.13862017 -0.12685612 -0.4906288 -0.027456792 0.024505766 -0.114133686
0.43930194 -0.28131548 -0.1555829 0.0038532757 -0.19901453 0.22310524 -0.31748593 -0.39874822
0.049549386 -0.57226473 -0.061979346 -0.012631407 -0.29456115 -0.0062535442 -0.13311064 0.36904323
0.34250858 -0.13940749 -0.1518993 -0.1649555 -0.2479545 -0.25635004 0.11836595 -0.021242654

bn4.running_mean f4 [32]
00000000: 9c5b 613f 5032 60bf 7cdf 41be 5d35 debf
00000010: 0326 dabf 79c7 a1bf be2b df3e 7c09 c33e
00000020: 6786 62bf f946 bdbf 878a 0f3e d744 75bf
00000030: d2d5 4ebf bb7b 7dbf 528a 67bd e71f 45bf
00000040: 5468 21bf 8713 cebd 1e56 36bf bfbd e2be
00000050: 9eae debe 80bd 18c0 99c9 babf 0195 26bf
00000060: 5347 b43e bc4e 183e fb9e 33bf db4d 9dbf
00000070: 0760 bbbf 2351 1cc0 e843 393f 0829 fcbf
0.8803041 -0.8757677 -0.18932909 -1.7360035 -1.704285 -1.2638999 0.4358806 0.38093174
-0.8848633 -1.4787284 0.14017688 -0.95808166 -0.80795014 -0.9901692 -0.056528397 -0.77001804
-0.6304982 -0.10062318 -0.71225154 -0.4428539 -0.43492597 -2.3865662 -1.4592773 -0.6507111
0.35210666 0.14873785 -0.7016446 -1.2289385 -1.463868 -2.4424522 0.7236924 -1.9700022

bn4.running_var f4 [32]
00000000: b440 2b40 9310 9940 4498 3d40 5a59 0a40
00000010: bf34 4740 787f 7440 0a86 3f40 a28a 8740
00000020: 2c74 5140 9538 3240 15d1 2d40 d8b1 5d40
00000030: 3d54 3f40 036e 4c40 86bc 3240 1ad5 1440
00000040: baac 7440 41a5 2f40 cb2c 2d40 70df 4340
00000050: 4652 0440 5304 5240 47d4 4940 d97f 2640
00000060: d51a 4440 d6de 5640 4dc2 3e40 bf12 5a40
00000070: 1d54 1940 e869 4640 1a6f 4c40 1220 5040
2.6758242 4.783273 2.9624186 2.1617036 3.1125944 3.82028 2.992556 4.235673
3.2727156 2.7847035 2.7158864 3.4639797 2.9895165 3.1942146 2.7927566 2.3255067
3.8230424 2.7444613 2.705859 3.0605125 2.0675216 3.281514 3.1535814 2.6015532
3.0641377 3.3573508 2.9806092 3.4073942 2.3957589 3.100214 3.194281 3.2519574

conv5.weight f4 [32, 32, 3, 3]
00000000: ba17 3b3d c3fe 2a3e 5828 6e3e 4f4e 723d
00000010: b123 363d ef0a 0e3e e018 653e f8e3 773d
00000020: 0b41 353d 980a 0fbf 19c4 51be 7d37 f13d
00000030: a31a c1bd f4ef 89bc 52f8 f83c c249 8c3d
00000040: 1936 623e d914 0ebd 24ae dbbe 1486 97be
00000050: 9bec 2dbe f84a 0fbe 3baa 91bd aaf3 dabd
00000060: 9773 a73d 2c6e 063e 9017 c8ba e12b c7bd
00000070: 8f33 f1bd f88c 23be 6532 f6bd 1804 fbbb
00000080: 4bcd 6dbc fed3 42be bf6d 6fbd c0e7 02be
00000090: cfa8 0ebe 78ed ec3d 992c 353e 9c3b 9abd
000000a0: 4779 36bd 7b46 ec3d ee02 a63c 5751 3dba
000000b0: 1be5 3c3e 9a6a febd 78ff 77be 5741 1bbe
000000c0: 2c05 a83c 1613 5f3d b195 273e d5c8 203e
000000d0: 1c01 433e f277 453e a366 a9be 41c5 02be
000000e0: 6973 20bd 31de 15be 8253 42bc 7139 0cbc
000000f0: e4f2 393d b552 553e 91c6 8a3e d077 73bd
00000100: 6dcb 55be 5e80 dabd 6bce e3bd cb11 65be
00000110: 4f09 41be 3e88 cbbd f7c4 f5bd 8419 63bd
00000120: 3f23 bdbd 069f bc3c 176e 92bd ddf0 9a3c
00000130: af5e 8b3d adb3 0b3d 5cd0 8dbe 04c2 dabd
00000140: 97c1 0f3c aeed 9cbe 1528 a5be c880 85bd
00000150: e75c 78be dbdb 09be 4c50 76bd a912 93bd
00000160: 77e0 69bd 357d 233e 09da 4abe 553b 12bd
00000170: 5648 d53d 5cc0 b4bd 5907 63bd 36e3 483d
00000180: 07e6 6c3d 2708 563d 64b5 d13d 4fdc d0ba
00000190: d4d3 bfbd c1ed 92be 80c7 5ebd 8d88 06be
000001a0: 301d 7ebe 9238 873d bc02 d6bc 8eca 43be
000001b0: 72d7 72bc dc08 51be 2e8c 32be d89f 82bd
000001c0: 0d1a 0dbc b467 353e 03c2 653e 2043 653e
000001d0: 33f5 9a3e 6d98 c3be b3fe dcbd 4c3b 9e3c
000001e0: f237 7dbe ce03 b23c c21d b73d 00a8 4ebd
000001f0: 300f 1f3e 9ec8 b03e 927a bfbe 12f1 1cbe
00000200: 6656 60be 9396 8cbe 43f8 a0bd a665 f4bd
00000210: 2ffa fbbd 0b10 323c 4b7d e9bc b1ac ea3d
00000220: 5d0b 183e 1351 df3d 200b 433d d74a 8a3d
00000230: 2080 4c3e 9e34 44bd 6864 b53c 5381 d63d
00000240: a295 e1bd 4896 26bb 999a a1bc 057b b5bc
00000250: 8489 a83d b9be a8bd 1b26 6ebb 8fcb 1abb
00000260: 3458 0fbe 4679 c0bd d523 8fbe 7529 adbe
00000270: 8d48 4ebe bdd3 a2be b2e6 c4be 13a6 99bd
00000280: e818 06be 6041 73be b01b 2a3e aa64 b83c
00000290: 460a 24bd ff6b 413e c0dc df3d 631d 253e
000002a0: ff25 2d3e a68e 0d3e 18a9 c43e ba8a 773e
000002b0: bdbb 4e3d d3ef 2dbe 7aed ad3d 0255 45bd
000002c0: 2255 2cbe 086f 323e bb80 b6bc c583 4ebe
000002d0: b9ba 10be ab52 0fbe daf2 61be 06aa 33bd
000002e0: 41c0 6cbe 70fc 6abe f5de dabd 019a 5abe
000002f0: b2ce 5ebe 804c 283e 7e01 713d cf30 a2bd
00000300: 814b 82bd 6c19 25bd 5795 783d 872c c1bd
00000310: dfc9 05be 4eb6 12be 6fb5 213e f86a e33d
00000320: 1c41 b8bc ddc7 62bd 8009 98bd 542e bbbd
00000330: 891d 863d 9a8e 013e bde5 e43d a601 5dbe
00000340: 0a07 d7bd e427 1bbe 9f0f 88be 6437 b4bd
00000350: 0a11 57be 3961 c7be af47 62bd a056 3abe
00000360: 07b0 7bbe b918 c6bc f69e 833e e936 11be
00000370: 4036 47bc 892a 2a3e 9eab e8bb 46be 113e
00000380: 1ad1 903e e40b 03bd 785f 083c d2dc 9fbe
00000390: c216 183d d9ea fb3d e1c3 e7bd 7e76 af3d
000003a0: 33c1 e33d eaa1 45bc edb5 823d a98b c53c
000003b0: a6ec 9ebd bb98 6f3b 4899 7c3d e94b 9fbd
000003c0: ac38 f1bc 61e5 333e 5b35 b3bc ee85 4e3d
000003d0: 95d5 3fbe a093 1bbe 2acf f8bc 2455 d1bc
000003e0: 24b3 533c d672 9fbd 86bd 053e 6cee 5f3e
000003f0: c71d 3fbc 8571 b6bc 8cc7 00be c94c 003d
0.045676924 0.16698746 0.23257577 0.059156712 0.04446763 0.13871358 0.2237277 0.060520142
0.044251483 -0.5587554 -0.20484962 0.11778162 -0.09428909 -0.016838051 0.030391846 0.06850006
0.22090949 -0.03468785 -0.42906296 -0.2959448 -0.16984789 -0.13993442 -0.07112547 -0.106910065
0.08176344 0.13127965 -0.0015265811 -0.09725166 -0.11777412 -0.15971744 -0.12021331 -0.0076604
-0.014514278 -0.19026181 -0.05845427 -0.12783718 -0.13931583 0.11568731 0.17692794 -0.07530901
-0.044549253 0.115368806 0.020265069 -0.00072218984 0.18446772 -0.124226764 -0.24218547 -0.15161644
0.020510279 0.05446156 0.16365696 0.15701611 0.19043392 0.19284037 -0.33086118 -0.12770559
-0.039172564 -0.1463554 -0.01186073 -0.008558617 0.045397654 0.20832331 0.2710462 -0.059440434
-0.20878382 -0.10669015 -0.111233555 -0.22370069 -0.18851207 -0.099380955 -0.12000459 -0.055444255
-0.09235238 0.023025047 -0.07149904 0.01891368 0.06805169 0.0341069 -0.27698028 -0.10681537
0.008774183 -0.30650085 -0.32257143 -0.06518704 -0.2425419 -0.13462774 -0.06013517 -0.071812935
-0.057098832 0.15965731 -0.19809736 -0.035701115 0.104141876 -0.08825752 -0.05542693 0.04904481
0.05783656 0.05225387 0.10239676 -0.0015934798 -0.09366575 -0.28697017 -0.054389477 -0.13138027
-0.24815822 0.06602587 -0.02612435 -0.19120237 -0.014821874 -0.20413536 -0.17436287 -0.06378144
-0.008612168 0.17715341 0.22437291 0.22388887 0.30265197 -0.3820223 -0.107907675 0.019315384
-0.24728373 0.02173033 0.08941223 -0.050453186 0.15533137 0.3452806 -0.373982 -0.15326336
-0.21907958 -0.2745863 -0.07859852 -0.119334504 -0.12303578 0.010868083 -0.028502127 0.114587195
0.14848085 0.109041356 0.04761803 0.06752556 0.19970751 -0.047901742 0.022142604 0.104738854
-0.11014868 -0.0025419164 -0.019727038 -0.022153387 0.08229354 -0.082395025 -0.003633863 -0.0023619866
-0.1399849 -0.09398131 -0.27957025 -0.33820692 -0.20144863 -0.31802168 -0.38457257 -0.07502379
-0.13095438 -0.23755407 0.16612124 0.022508938 -0.04004886 0.18888853 0.109307766 0.16124491
0.16909026 0.13823947 0.38410258 0.24174014 0.05047201 -0.16986017 0.08492561 -0.048176773
-0.1682935 0.17425168 -0.02227818 -0.20167454 -0.14133729 -0.13996379 -0.22065297 -0.04386332
-0.23120214 -0.2294786 -0.10687057 -0.2134781 -0.21758536 0.16435432 0.058839314 -0.07919466
-0.063620575 -0.040307447 0.060689297 -0.09432321 -0.13065289 -0.14327356 0.15791868 0.11104387
-0.022491984 -0.055366386 -0.07423687 -0.09139696 0.06548602 0.12652054 0.111766316 -0.2158266
-0.104993895 -0.15151936 -0.26574418 -0.087996274 -0.21002594 -0.38941363 -0.055244144 -0.18197107
-0.24578868 -0.02418171 0.25707215 -0.14181103 -0.01215893 0.16617788 -0.0071005365 0.1423274
0.28284532 -0.03199376 0.008323543 -0.3122316 0.03713108 0.12300653 -0.11316658 0.085675225
0.11120834 -0.012062529 0.06382356 0.024114447 -0.07759981 0.003655954 0.061669618 -0.077781506
-0.029445969 0.1756797 -0.021876028 0.050420694 -0.18733819 -0.15193033 -0.030372221 -0.025553294
0.012921128 -0.07785575 0.13060579 0.21868294 -0.011664814 -0.022270927 -0.12576121 0.031323228

conv5.bias f4 [32]
00000000: 7510 aeb9 f424 98b9 4437 0a3a 9734 2f3a
00000010: cc5c b8b9 3f71 3c3a ea12 343a b311 3d38
00000020: b07a 463a a13b b3b8 13e6 43ba c6d6 c738
00000030: dee9 2aba 46ba 98b9 dec8 98b8 abbf fdb9
00000040: 61de 82b9 b89c 2cba 2874 493a 39ba b0b9
00000050: 6776 9039 6e87 42ba 4697 0e3a b98b f5b9
00000060: 3b1e af37 5de6 3cba 3b94 e338 0b0a 2a39
00000070: 585c 3aba 855d 21ba b18e 0f3a fee0 043a
-0.00033200128 -0.0002901923 0.00052725174 0.0006683557 -0.00035164354 0.0007188506 0.00068692735 4.5077595e-05
0.00075713824 -8.546492e-05 -0.00074729434 9.529064e-05 -0.0006519834 -0.00029130484 -7.285339e-05 -0.00048398724
-0.00024961217 -0.0006584632 0.000768485 -0.00033708083 0.00027554037 -0.00074206933 0.00054394116 -0.00046834143
2.0875703e-05 -0.00072059577 0.000108518136 0.00016216205 -0.0007109097 -0.0006155598 0.000547628 0.0005068927

bn5.weight f4 [32]
00000000: 324d 173f 877c 603f 82ef 683f 1b67 563f
00000010: b15a 5b3f 7498 7e3f a6ff 3b3f c94b 693f
00000020: 1f61 1f3f 3c25 883f 5c1b 583f 091d 2b3f
00000030: a518 463f 1880 2f3f d0d6 5b3f 9d16 7a3f
00000040: 2dfe 703f 9bea 6a3f 386d 4d3f 5fbe 7f3f
00000050: 6816 5c3f f426 633f 4ef8 773f 6a7c 3c3f
00000060: dcdb 2c3f b317 313f db50 513f 3cda 5c3f
00000070: 6326 553f 82e6 463f 8294 4a3f 3e28 9e3f
0.59102166 0.87690014 0.9099046 0.83751076 0.8568526 0.99451375 0.73436964 0.91131264
0.6225757 1.0636363 0.8441675 0.6684118 0.77381355 0.6855483 0.8587465 0.97690755
0.9413784 0.9176423 0.8024478 0.9989986 0.8597169 0.8873131 0.9686326 0.7362734
0.6752298 0.6917679 0.81764 0.862705 0.832617 0.77695477 0.79132855 1.2356031

bn5.bias f4 [32]
00000000: 7e41 513f 67e7 853e 7027 82be 53c3 5e3e
00000010: 69a5 363e 235e 99bd 7b43 833e a7ac 003f
00000020: 39cf 143f 181e c4be 5f9b 28bc 83b1 f53e
00000030: 5251 943e d766 c83e f135 9a3d 2b6f d5be
00000040: d404 863e 5a0c 993e d8cf 8b3e 260f d93d
00000050: 035b 0f3e a7b7 d83b c32e 7bbe 2d69 9d3e
00000060: 447c 263e b49e fc3e efe8 2c3e 4d31 663e
00000070: e610 173d f5ec 1d3e 2edb 4f3e c229 67bf
0.8174056 0.26153108 -0.25420713 0.21754198 0.17836536 -0.07488658 0.2563742 0.50263447
0.58128697 -0.3830421 -0.01029095 0.47986993 0.28968292 0.3914096 0.0752982 -0.41686377
0.2617556 0.29892236 0.2730701 0.105985925 0.13999562 0.00661369 -0.24529557 0.30744305
0.16258341 0.4933983 0.16885732 0.22479744 0.03688135 0.15422423 0.20298454 -0.9029809

bn5.running_mean f4 [32]
00000000: ba4d 44c0 5c48 e33d c3de 4fbf 1533 c1bf
00000010: ad4d 57c0 3ea7 8abf 9ea1 8bbf b6e5 3fc0
00000020: 7ada 583f 7fb4 91bf 6d11 42c0 96d4 21be
00000030: a9a5 22c0 86cd 243f d32f 173f 7b5f c5be
00000040: 5e0c 113f eb7e 893f aea4 7e40 01d4 5e3f
00000050: f0fd b3bf 4e4b 36bf 5608 dbbe 54ad 4cbf
00000060: e4a6 1040 475b 64bf f5a4 d5bf a3e1 8fbf
00000070: aa2e e33f 1ce9 ce3e 2cfe f8bf f766 34bf
-3.067244 0.11097786 -0.8119928 -1.5093714 -3.364116 -1.0832288 -1.0908697 -2.9983954
0.8470837 -1.1383208 -3.0323136 -0.15803751 -2.541361 0.64376104 0.5905735 -0.38549408
0.56659496 1.0741857 3.9788013 0.8704224 -1.406187 -0.71208656 -0.42779797 -0.7995198
2.2601862 -0.8920178 -1.6690966 -1.1240734 1.7748616 0.40412223 -1.9452567 -0.7046961

bn5.running_var f4 [32]
00000000: 1472 4840 14d6 c140 d636 1d40 9c15 7f40
00000010: 2c92 9540 51f6 9940 8f49 2f40 f21d ac40
00000020: b096 6540 4bc1 2d40 a297 5c40 43f4 4940
00000030: 3c84 9d40 ef33 6940 3144 6640 b418 4340
00000040: c358 6240 5a47 9f40 3cef 7a40 29f6 7c40
00000050: bb56 5d40 1dcd 7540 9994 4840 2b73 8340
00000060: 69ce 1d40 f4b0 7140 d5b0 7340 84f7 6f40
00000070: c24b 5140 64e2 4640 cc57 6e40 b205 1f40
3.1319628 6.0573826 2.456472 3.985694 4.6740932 4.811318 2.7388647 5.3786554
3.5873222 2.7149227 3.446755 3.1555336 4.922392 3.6437948 3.597912 3.0483828
3.5366676 4.97746 3.9208517 3.9525244 3.4584186 3.8406441 3.1340697 4.1078086
2.4657233 3.7764254 3.807668 3.7494822 3.270249 3.1075678 3.7241087 2.4847226
