model_weights/Tiny10/CIFAR10/in11-gn11/110000.pt (torch_old, 358762 bytes, 50 tensors)

conv1.weight f4 [16, 3, 3, 3]
00000000: 14b8 553e 1da6 79be 9458 66be eb2b 6cbe
00000010: dcd0 35bf 75c0 06bf d11b c8be fd05 48bf
00000020: 81fa 09bf a502 c1bd 4560 43be dec9 36be
00000030: 00fd 803e 027c 353e 6947 8e3d 6d64 083e
00000040: 552f 2d3d 2008 473d 1f0e c2be 831e 0a3e
00000050: 481a 663e 438d 713e 4962 423f a5e6 1d3f
00000060: bb9a 8d3e 3906 133f e87e fd3e 6c7e 8cbe
00000070: e969 f43e 6829 c2be b1e8 013f 7618 e8bf
00000080: e5f2 543f 0ebb ac3e 0bc5 003f 1201 493e
00000090: 33ac 743e 47ad 153f ee57 0d3f 0c55 1d3f
000000a0: 2b28 ebbf 5bec 8b3f 6179 1dbf 2b76 31bf
000000b0: f12c ffbe 2bf2 28bf 6f4a 45bd 654d 4fbf
000000c0: cc27 603f 8ccf 16bf dd78 0d3f d12a 253f
000000d0: 4f56 833e 0317 1abc ccf3 8e3e 3b1b 623e
000000e0: 4f6b 92bd 396d fe3d 6625 193e 915d 883e
000000f0: 0114 353d ad7c 21be 43ca 303e 195d d3be
00000100: 82ad 0cbf e864 56be ea73 89be f547 efbe
00000110: f6a7 633e 5333 fc3e b57d 73bc d8a9 c43e
00000120: f22b 273e b3e9 353e dccd 983e 90ab c7be
00000130: 56c8 debe a3e9 023e 9363 38be d2c5 23bf
00000140: 9ec5 62be c296 543f ec88 9cbe 4077 5dbf
00000150: d087 853f 3aaf 7f3f 15fb 42bf 5f2f 1c3f
00000160: 6088 38bf 4b2b f5be d5db 92bf c539 f9be
00000170: 7ba5 4b3f 3945 91bf c87f 6f3f f187 b13f
00000180: 2528 2fbf 1d6f 41bf ee76 183f 4308 9d3e
00000190: 47cb b5be 4263 1dbf 1515 a43e 606c 4c3f
000001a0: 0965 e1bc 5b26 ac3d 448b 0cbe 0833 80be
000001b0: 8810 243f 830f cbbf 47da ffbe 1bbf 31be
000001c0: 9021 353f d52f 97be 9c56 533f 6e5c 233f
000001d0: 5468 e0be 9b72 793f f8b6 58be 2e6c 443e
000001e0: 2b77 80bf be4d 6a3f 1faa 913e 7f08 3d3e
000001f0: 7e4b 20be 2266 4fbf c80a 873e 21eb 03bf
00000200: b969 f93e edce 9fbf b646 953d 8e92 613f
00000210: d116 a0be 0368 1bbe b2a8 d23e 91ea 9dbe
00000220: 13b7 1dbf 4096 ecbe 5b0a 8fbe 520b a4be
00000230: 6e15 203c bec5 6a3e 97d5 b63e 305f 1d3f
00000240: 3012 8bbe 2b1b ddbe 29fc 2dbe 0aef 76bd
00000250: dd49 79bd c080 8e3e 1b36 633e 3ae8 993e
00000260: 549e 103f 3fb2 db3d df22 adbc d3c2 0a3e
00000270: e2f7 263e 9a7a 8d3d 9925 4e3e 1f28 adbd
00000280: f50b 46be 0cae 87bd 57d8 af3f 1e6c 763f
00000290: 0c4c eb3e 29a3 813e 0b03 fbbd 2aab bdbd
000002a0: 6026 bfbf e207 a5bf bc6b 44be 0a1d ae3e
000002b0: 6416 4cbf 810b b1be 8fce fa3e 4b85 66be
000002c0: d99c 473d 848f 0e3d a0cc 913e 3477 383f
000002d0: 00e5 9cbe b1db 68bf 68db abbe 3160 be3e
000002e0: 4bdb 2cbe f1cb ebbe c522 113f fc06 463f
000002f0: 5c6f ab3e 8836 2abf 79cd 52bf 49a8 a8be
00000300: dac3 ac3c 1bdd 1c3e 32f4 4a3e b240 6d3e
00000310: 6fa5 053f 3b2b 6d3e 2592 24bf 2053 54bf
00000320: 74c1 cbbe 91b7 943e f194 9e3e 9cc2 8c3e
00000330: 0224 133f dbc2 2e3f 237a c53e 47de d1be
00000340: faa5 5bbf 03dc 3fbf e498 c23e 08f4 f93d
00000350: 29aa 003c 55d7 1c3f b2ef 0d3f 3b66 c23e
00000360: f242 be3e 1567 513e 440d e83d eb9d 063f
00000370: 7fea 3bbf 60b7 2cbf 5891 d13e 91d8 33be
00000380: 1e85 2fbe 35b8 063d b306 c4be 3bbb 94be
00000390: 58d4 e83d b675 60bf 60e7 d9be 26b3 713e
000003a0: 8598 da3b 95c8 203e 0ef9 7abe 02f7 1e3e
000003b0: 9289 b93e 046e bbbd dd94 63be 90d0 9f3e
000003c0: 1fb3 85be 88f6 e0bd e3e4 133e 5261 67be
000003d0: 1594 b1be 2502 21be a014 4fbe c1e7 a63d
000003e0: 5527 a53e 2c4b f03d 00a0 c03e 193d f83e
000003f0: 27a9 17be 0409 9dbe 3299 80be c42d dfbe
0.20871001 -0.24379773 -0.22494727 -0.23063628 -0.7102182 -0.52637416 -0.39083722 -0.7813414
-0.53897864 -0.094243325 -0.19079693 -0.17850444 0.25193024 0.17723086 0.06947214 0.1331956
0.042281467 0.048591733 -0.379014 0.13488202 0.22470963 0.23589043 0.7593122 0.6168006
0.27657112 0.5743137 0.49510884 -0.27440202 0.47737053 -0.37922215 0.50745684 -1.8132465
0.8318313 0.3373646 0.50300664 0.19629315 0.23893814 0.58467525 0.55212295 0.61457896
-1.8371633 1.0931505 -0.61513335 -0.69320935 -0.49838975 -0.6599452 -0.04816669 -0.8097747
0.87560725 -0.5891044 0.5526255 0.6451846 0.25651786 -0.0094049005 0.27920377 0.220807
-0.07149374 0.12423176 0.14955673 0.26633886 0.04420853 -0.15770216 0.17264657 -0.41281965
-0.5495225 -0.2093693 -0.26846248 -0.46734586 0.22232041 0.49257907 -0.014861514 0.3841083
0.16325358 0.1776493 0.29844558 -0.3899808 -0.4351222 0.12784438 -0.18006735 -0.63973725
-0.22145697 0.8304254 -0.30573213 -0.86510086 1.0432072 0.9987675 -0.7616437 0.6100978
-0.7208309 -0.47884592 -1.1473337 -0.48676887 0.7954938 -1.134925 0.93554354 1.3869611
-0.6842063 -0.7556017 0.5955647 0.30670366 -0.3550665 -0.6147958 0.32047334 0.7985287
-0.027513998 0.08405753 -0.13725 -0.25038934 0.64087725 -1.5864109 -0.4997122 -0.17358057
0.7075434 -0.2952868 0.8255403 0.6381291 -0.43829596 0.974405 -0.21163547 0.19181892
-1.0036367 0.91524875 0.28450105 0.18460272 -0.15653798 -0.8101522 0.26375413 -0.51530653
0.48713472 -1.2485024 0.07288878 0.8811425 -0.31267408 -0.15176396 0.4114433 -0.30843022
-0.61607474 -0.46208382 -0.27937588 -0.32039887 0.009770734 0.22926995 0.3570983 0.6147337
-0.27162313 -0.4318479 -0.16990723 -0.06028656 -0.060861457 0.27832603 0.22188608 0.30059987
0.5649159 0.10727357 -0.021134792 0.13550882 0.16305497 0.0690815 0.2013153 -0.08454918
-0.19340499 -0.06624994 1.3737897 0.96258724 0.45956457 0.25319794 -0.1225644 -0.092611626
-1.4933586 -1.2893031 -0.19181722 0.3400653 -0.79721665 -0.3457909 0.48985717 -0.22511785
0.048733566 0.034804836 0.2847643 0.7205689 -0.30643463 -0.9096022 -0.3356583 0.37182763
-0.16880529 -0.46054032 0.5669368 0.7735441 0.33483398 -0.6648946 -0.82344776 -0.3294089
0.021089483 0.1531872 0.19819716 0.2316921 0.52205557 0.23161022 -0.642855 -0.8293934
-0.3979603 0.290463 0.30973008 0.27492225 0.5747682 0.68266076 0.38569745 -0.40989897
-0.85800135 -0.74945086 0.3800727 0.122047484 0.007853069 0.6126607 0.5544387 0.3796862
0.3716045 0.20449479 0.11330655 0.52584714 -0.7340469 -0.6746731 0.409312 -0.17563082
-0.17140624 0.032890517 -0.3828636 -0.29049096 0.11368626 -0.8767961 -0.42559338 0.23603496
0.006671014 0.15701516 -0.2450907 0.15523914 0.3623777 -0.09151843 -0.22224756 0.31213808
-0.2611322 -0.10984522 0.14442782 -0.22595719 -0.3468329 -0.15723474 -0.20222712 0.08149672
0.3225657 0.11733088 0.3762207 0.48484114 -0.1481062 -0.3067094 -0.2511688 -0.43589604

conv1.bias f4 [16]
00000000: 27e6 36ba 2a25 baba 215d 5c3a b738 0bbb
00000010: 0bb5 193a 93d0 f7ba 59e2 e8ba e26e 44ba
00000020: 2187 a739 899e 353a a40b a6ba 8ae2 54ba
00000030: 2f7b 1f3b 3079 d23a 3457 a6b8 bd6c 01bb
-0.00069770444 -0.001420175 0.0008406211 -0.0021243521 0.00058634643 -0.0018906764 -0.0017767652 -0.00074933295
0.000319534 0.00069282256 -0.0012668264 -0.0008120915 0.0024334898 0.0016057845 -7.93174e-05 -0.001974865

bn1.weight f4 [16]
00000000: dd3b f03e 88be 9b3f 30d9 713f 61cb 803f
00000010: 6f64 2a3f 811d 6c3f dd90 193f 0b47 393f
00000020: d8bf b83f 250e c83e e4f8 ab3e 098d 8d3f
00000030: 0b6e e03e 6afe 493f 975a 713f 24d3 403f
0.46920672 1.216752 0.94472027 1.0062066 0.665595 0.9223252 0.5998667 0.7237403
1.4433546 0.3907329 0.33588326 1.1058666 0.43833956 0.7890383 0.94278854 0.75322175

bn1.bias f4 [16]
00000000: 19e7 9e3e 2b2c ca3f 1b51 05bf 3322 793f
00000010: feb4 a03f d262 93be 030c 5f3f 9214 323f
00000020: 7bd7 4cbf e528 6f3e 6203 dc3d f1c1 0abf
00000030: 1a1b 893e 55cc ef3e a58d 273f f56b d7be
0.3103569 1.5794729 -0.5207688 0.9731781 1.2555234 -0.2878633 0.87127703 0.6956264
-0.800163 0.23355444 0.10742833 -0.5420218 0.2677849 0.4683558 0.6545051 -0.42074552

bn1.running_mean f4 [16]
00000000: 4609 963d 1c6f ffbc 23ef 2b3e 0c13 cb3c
00000010: b9c5 87bc b0bc e5ba 541a b8bd defe c0bd
00000020: 8278 9b3e d017 1bbd 4008 b1bd b008 9b3e
00000030: 008d 043e 220b ee3c 7c00 b23b cf67 59be
0.073259875 -0.03118091 0.16790442 0.024789356 -0.016573774 -0.0017527547 -0.08989397 -0.09423612
0.30365378 -0.037864506 -0.08644152 0.30280066 0.12944412 0.029058043 0.0054321866 -0.21231006

bn1.running_var f4 [16]
00000000: 641b bf40 6a81 0440 9089 2a40 dbcd 1740
00000010: e17b 833f f874 8140 e630 0f40 59fc a141
00000020: 9c83 aa40 8d05 0140 3978 d03f d97f f040
00000030: 804a 2e40 07aa 8641 d195 cc40 730c 3340
5.9720936 2.0703988 2.6646461 2.3719394 1.027218 4.0455284 2.2373595 20.248217
5.3285656 2.0159638 1.6286689 7.5156064 2.723297 16.833021 6.393288 2.7976348

conv2.weight f4 [16, 16, 3, 3]
00000000: 99f7 253c 7121 90bc cd4c 7fbe d802 5b3e
00000010: e084 2a3e 97f9 adbc 31c2 db3e ce37 ae3e
00000020: 90d9 2e3e 17d8 c9bd 94b3 a93e 808e d83e
00000030: dfd6 6dbe 1b86 0a3d 9f04 fc3d 5a23 57be
00000040: 5f12 42be 93ec 64be 03e7 30be 3585 ffbc
00000050: a811 ecbd c460 23bd fdf6 193e a1d7 e7bb
00000060: b3d6 4b3d 7a4f 4f3e c7d1 073e eae8 92be
00000070: b1f3 9bbe 3301 bd3e 6ded 79be ffad 22be
00000080: 22ed 1f3f 12ab 89be 518a 00be a390 8b3e
00000090: acd9 123d 2a26 babd 0870 aabd 2fae 0f3e
000000a0: 77c1 823d 15d1 d43d bec0 84bc 6377 fcbb
000000b0: b782 0fbe 3227 04bc 0d71 183e 0f0c 80bd
000000c0: 4189 02be eeb6 493e a6fc 133e 81b0 39be
000000d0: 316f bfbd c039 75be b5b6 5bbe 5563 86bd
000000e0: 0646 9cbd 9cb1 8d3d edf6 f2bc c771 20bd
000000f0: a472 113e 658e 9f3e 397f f43e 49d8 f73d
00000100: 9a1c 053d cf3d acbd a80e e53d 5611 893e
00000110: 3076 0f3e cbe4 053e 632a 663e 8de3 043e
00000120: a371 77bd 3226 183d 6d51 97bd dcc5 143e
00000130: 1986 4d3d 941a 943d daed 283e dd05 04be
00000140: fa3c f3bc fc8e a8bd 0942 193e 9cd7 b73d
00000150: 9de7 0a3e 515f 883e 9038 4d3e 2ee9 293e
00000160: fbef 783e d848 363e 4914 413c dd19 c53d
00000170: 1e77 ce3d 22ea 363e 2f51 7d3e 4bdc 763e
00000180: b65c e83d 6e8f 413e a53f 143e 228d 00be
00000190: d24b e8bd 7f46 32be db0f 0abc 4227 313c
000001a0: 19c6 24be dd3c afbd 1523 f53c 7cc4 4bbe
000001b0: 6fe3 3fbe eff4 c83d 144d 093e 84b0 aabc
000001c0: dc96 a23e 15cf 903e cc62 ecbc 7640 833e
000001d0: 404a 6a3e 3b75 573e 5ceb 973e ad5d 103d
000001e0: ab67 7c3d cfd5 4a3e 623a 97bd 704e 71be
000001f0: 9e3c 48bd 5d8e d9bd f1f4 4ebd f8e7 243d
00000200: 237a ec3e e845 e73c 7cba 803c 9b57 0a3e
00000210: b715 563c 47fb 723d 49af 493d 63b4 81be
00000220: 28a9 41be 03b0 56be 9925 063e b5f7 0f3e
00000230: aa0f 6b3e 1d02 b13e 3b7a 993e c1e9 883e
00000240: a218 0cbe 6021 87bd 1b4f 8abe be66 813e
00000250: e638 663e fdc9 e6bd 2261 133f 31bb e73e
00000260: f837 933d 844f 00be da95 75be 313e 1a3d
00000270: 79b8 5b3b 6d28 31be 0d35 b53e 6b31 93bd
00000280: 2aa8 a93e 76d1 71bd ccba eabc 0ea5 43bd
00000290: ed8b 93bd d795 44bd 285f 28be fee0 42be
000002a0: e10a 1abe 1546 90be 8ec7 b1be 902d c43e
000002b0: fade aa3e e6c6 7fbe 968d 4a3e c072 dcbd
000002c0: 9cd9 f1be 1053 e93e b49a 1bbc ab70 edbe
000002d0: 96f8 98bb 557a da3d 4660 07be 4c09 943e
000002e0: e79d 8cbd 1569 2ebe 1785 e83e fdaf 06be
000002f0: bce0 04bf dfa1 63be 56ee 3ebe e9f8 fdbd
00000300: 74be 4bbd 2ea5 bebc 8c5a 19be 2819 e1bd
00000310: 7207 723d 6b94 7abe cf83 70bc 1575 ad3e
00000320: 9ddb dc3d c627 cb3b 64eb 02bc e661 2cbe
00000330: e5af a33e 91f6 dfbd 5c70 43bc 1632 efbd
00000340: 89e9 f7bd ed55 4f3d d220 c13d d6c1 013d
00000350: 928d ccbd b10e b93d 1c53 913d 4d06 53be
00000360: 837f 3f3e 8bff 09be f641 ac3d b01a 7cbd
00000370: fea8 eabd 2e0a debc 70b6 10be 3918 be3c
00000380: 3a1e b83d 423f 1fbe 2884 0fbe 5cf2 9ebd
00000390: a270 d0bd b1fa 793d 2765 4c3e bb1b 8d3b
000003a0: 267a 313e 9fc2 993e c672 983d c93b a4bd
000003b0: b3d1 1ebe 6030 5bbd 6bb4 21be 0299 c7bd
000003c0: b2ff 66bd a4e6 34be 9ed3 2fbd 6f71 b23d
000003d0: f01a b73d dc0c 963d fd5f e53d 100c 983d
000003e0: 188f 2c3c e750 643e f582 ef3d 3c20 313d
000003f0: 28e8 00be 4e15 a6be d617 c1be 672d 74be
0.010129833 -0.017594071 -0.24931641 0.21387804 0.1665225 -0.021237178 0.42921594 0.3402695
0.17075181 -0.09855669 0.3314482 0.4229622 -0.23226498 0.0338193 0.12305569 -0.2100958
-0.1895232 -0.22355871 -0.17275624 -0.031191448 -0.11526805 -0.039887205 0.15035625 -0.0070752655
0.0497653 0.20245162 0.13263617 -0.28693324 -0.3045936 0.36914977 -0.24406977 -0.15886687
0.6247121 -0.2688833 -0.12552764 0.27258787 0.03585212 -0.090893105 -0.083221495 0.1403129
0.06384557 0.10391442 -0.016205188 -0.0077046617 -0.14014708 -0.0080659855 0.14886875 -0.062523
-0.1274767 0.19698688 0.14451846 -0.18133737 -0.0934738 -0.23947811 -0.21456416 -0.06561915
-0.076305434 0.06918642 -0.029658759 -0.039171007 0.14203888 0.31163326 0.47753313 0.121018
0.03249798 -0.084102266 0.11184436 0.2677104 0.14009929 0.13075559 0.22477107 0.12977429
-0.060411107 0.0371458 -0.073885776 0.14528602 0.050176714 0.07231632 0.16496983 -0.12892862
-0.029692162 -0.08230397 0.14966597 0.08976671 0.13564916 0.2663522 0.20041108 0.16592857
0.24310295 0.17801225 0.0117846215 0.09624074 0.100813136 0.17862752 0.24738 0.24107473
0.11345808 0.1890237 0.14477403 -0.12553838 -0.113425866 -0.17409705 -0.008426632 0.010812582
-0.16091193 -0.085565306 0.029923955 -0.19899172 -0.18739103 0.098123424 0.13408309 -0.020836122
0.31755722 0.2828299 -0.028855704 0.25635117 0.22879887 0.21040814 0.29671752 0.035245586
0.061622303 0.19808124 -0.073841825 -0.23565078 -0.048885934 -0.10622857 -0.050526563 0.040260285
0.46186933 0.028231576 0.015713923 0.13509981 0.013066701 0.059321668 0.04923943 -0.25332937
-0.18912184 -0.2096558 0.1310028 0.14059336 0.22955194 0.34571925 0.29976067 0.2674084
-0.13681272 -0.06598163 -0.27013478 0.252737 0.22482643 -0.11268995 0.5757009 0.45260003
0.071884096 -0.12530333 -0.23982945 0.037656967 0.0033526702 -0.17300577 0.35392037 -0.0718716
0.33136111 -0.05903765 -0.028653525 -0.04776483 -0.07204423 -0.04799446 -0.16442549 -0.1903114
-0.15043212 -0.28178468 -0.3472256 0.3831601 0.33373243 -0.24978217 0.19780573 -0.10764074
-0.47236335 0.45571184 -0.009497333 -0.4637502 -0.0046683056 0.10667864 -0.13220319 0.28913343
-0.06866055 -0.17032273 0.4541404 -0.13153072 -0.5190542 -0.22229718 -0.18645605 -0.124009915
-0.049742177 -0.023272123 -0.14975947 -0.10991126 0.05908913 -0.2447068 -0.014679863 0.3387839
0.107840754 0.0061998097 -0.007990692 -0.1683422 0.31970134 -0.10935701 -0.011928644 -0.11679475
-0.1210509 0.050619055 0.09430088 0.031678997 -0.0998794 0.09036005 0.0709593 -0.20607872
0.18700986 -0.13476388 0.084110186 -0.06154889 -0.11458014 -0.027104463 -0.14132094 0.02320491
0.0899014 -0.15551475 -0.14015257 -0.0776107 -0.10177733 0.061030094 0.19960462 0.0043062842
0.17331752 0.30031297 0.07443766 -0.080192156 -0.15509681 -0.05351293 -0.1579148 -0.09745981
-0.056396194 -0.17666107 -0.042926423 0.08713042 0.08940685 0.073266715 0.11199949 0.07424176
0.010532163 0.22296487 0.116949 0.04324363 -0.1258856 -0.3243813 -0.37713498 -0.23845445

conv2.bias f4 [16]
00000000: 7d65 5e3a bc38 253a 113f 7c39 a987 77b9
00000010: 3524 5d3a 1d9a 773a d614 493a f698 39ba
00000020: e1fb 8e39 040a 2a3a e9db b8b9 ff0c d239
00000030: 4d30 203a e590 8fba 8aa1 3cba 01d9 04ba
0.0008483751 0.00063027046 0.00024056087 -0.00023606293 0.0008435876 0.0009445267 0.00076706463 -0.0007079983
0.00027272015 0.0006486478 -0.0003525906 0.00040064004 0.0006110713 -0.0010953216 -0.0007195702 -0.00050677365

bn2.weight f4 [16]
00000000: 9d6f 683f e0c3 663f 1166 813f 3671 813f
00000010: 4006 a93f 56d7 b83f d327 de3f 4f34 6f3f
00000020: 52c2 913f 1b00 8b3f 7c7b 563f 4d2d 983f
00000030: 5f63 b13f ff6f 923f e974 ac3f fe68 bc3f
0.9079531 0.9014263 1.0109273 1.0112674 1.3205032 1.4440715 1.7355903 0.9343919
1.1387427 1.0859407 0.8378217 1.1888825 1.3858451 1.1440428 1.3473178 1.4719541

bn2.bias f4 [16]
00000000: adcb c7bd dc1b 913c 796c bc3e 1bf9 ae3c
00000010: 180b 0ebe 5eb6 8e3d c381 d2bb d0d1 82bd
00000020: 92c9 803f 43cf 75be c86a db3e a2f4 a7be
00000030: 99f5 29be dd38 1dbe 4201 5e3c 09da 16be
-0.09755645 0.01771348 0.36801508 0.021359017 -0.1387142 0.069683775 -0.00642416 -0.06387675
1.0061514 -0.24004845 0.42854905 -0.32803828 -0.16597594 -0.15353723 0.013550105 -0.14731611

bn2.running_mean f4 [16]
00000000: 659c 5240 4342 a9be fc14 4dbf 37b5 49bd
00000010: 2439 01bf 3a99 5e3f 77f9 2abd 00f7 273f
00000020: 679b 70bd c236 cdbf 5ee2 4bbf 39ee dabf
00000030: 30c4 5fbf d275 9bbe 8220 05c0 8628 b5be
3.2907956 -0.33058366 -0.80110145 -0.049245086 -0.50477815 0.86952555 -0.041741814 0.6561127
-0.058741953 -1.6032336 -0.79642284 -1.710395 -0.87408733 -0.30363327 -2.0801091 -0.3538248

bn2.running_var f4 [16]
00000000: addd 2540 1d4f 3040 323d 9740 3039 c640
00000010: f3f0 2d41 e45a 6241 da48 0a42 00d8 d23f
00000020: b806 b740 98ea 0640 8ede 4f40 593e 1a40
00000030: 5540 2d41 c547 9040 632a 4941 3c4a 7341
2.591655 2.7548287 4.72622 6.194481 10.8713255 14.14719 34.571144 1.6472168
5.71957 2.1080685 3.2479587 2.4100554 10.828206 4.508761 12.572848 15.205624

conv3.weight f4 [32, 16, 3, 3]
00000000: 85cc 963c a82f a03d f677 d33c 5f37 11bc
00000010: 0643 35bd 0b1a 8abd 4f96 efbd 028e 59be
00000020: 6cac ed3b 59a0 68be 50d3 913d 786e 973e
00000030: 4d6a e5bc b07d 3d3e caf3 843e 1b0c e63d
00000040: e8a7 db3c 828b c2bc ce7a a9bc a19c 193d
00000050: 7ac6 603e ce57 74be 5f28 203e 05ab a53e
00000060: 263c b6be 9011 953d 99e6 3f3d 7012 b8bd
00000070: 0812 c4bd cdb6 98bc cba7 943e 7942 933e
00000080: ccaa 96bd 677a 073f 0ddb 0c3f c71b e9bb
00000090: d870 843d abac 133e eaec b93d ba3d c43d
000000a0: 45c5 b13e f34f ab3e 6657 493d 5114 863e
000000b0: ef47 d13e 4465 103d c199 a03c 0582 08bd
000000c0: e6c3 823e cb1b 183e 72a9 82bd 56b5 313e
000000d0: 92aa e13d 9c00 b4bd a747 a6be 659b 00bf
000000e0: d55f 65be 4252 a9be 081a c6be 061b e8bd
000000f0: 1a9f a3bd 053d 33be f442 c5bd e632 70be
00000100: a011 39bd bf40 363d 2f87 1ebe 14b9 2f3d
00000110: 59e1 a93d c697 0d3d 2862 a3bc 5c4d 483c
00000120: e3dc 61bd f44a 693d 524a 043e cff2 b33d
00000130: c9f0 543e 459b c0bd e1d2 653e f838 1f3e
00000140: d33e 6cbe 76b3 42bd 3595 a93d dca1 853e
00000150: f9ef 52bd d834 453e 8c49 8f3e 5c60 89bd
00000160: 9ce6 2f3e fad6 863e aec3 05bc 3d89 b53c
00000170: fc5e cebc 16d7 d0bc dcb4 0ebd 1890 2dbd
00000180: 8981 29bd 1a08 573d fc6d f63c b862 71bd
00000190: e90d 38bc c6c4 5c3e 89e0 8e3d aca3 223d
000001a0: aed5 063e 15df 263d 271a a33b 5fba a13d
000001b0: 44a4 15bd b89b 72bc 54f2 0a3e d7b2 1f3d
000001c0: fa4d 0e3e bee8 1f3e 99ad 5d3e b2aa 5a3e
000001d0: b59c 553e 7fb4 61be 5e1d bfbe 6cfb 82be
000001e0: bcb7 fbbe 03f7 13bf a4ea bcbe 3651 c9be
000001f0: 1e4f bdbe 3450 2fbe f1f0 2bbe 215d 04be
00000200: 5edd 7a3c 8205 8fbe 1540 1dbe 634a 7fbd
00000210: c68d 9bbe fec8 26be 70ca c53b 1e0a b1be
00000220: 3b56 27bf 59d3 bfbe 291a 1cbf ed4c 31bf
00000230: 2f0f edbe 52f9 e2be f63e d0be 933b 5dbe
00000240: 2d03 84bc bfc3 ce3d e4a4 de3d d2f1 6ebe
00000250: 84dc 0fbd 517d a33d cabb 2bbe 2ddd 30be
00000260: 7b96 063d 2bbb c9bd 6769 7dbd 4d90 f8bd
00000270: a0fb b6bd 2589 59be 3d39 ebbd 9233 5a3c
00000280: ae38 eabd 0e1e d3bc 4f10 34bd 0073 69bd
00000290: 1b7e 4abe c715 b7bb bc21 97bd 25eb 86bd
000002a0: a3fa 873d 3ef5 b63d 8c0a fe3d 8800 08be
000002b0: 4128 c8bd 726b 68be 3d93 f6bd 8b7c dbbd
000002c0: 1eda 1fbe 5cc2 abbd 8501 e73d 1e44 1b3e
000002d0: 6154 b1bd f3b1 33be 2b12 a6bd b2ca ac3d
000002e0: f393 d8bd 4fd3 03be 4930 4e3e acdd 853e
000002f0: d84c 373e 641b 2a3e 2daf a63e 3ec0 533e
00000300: 0940 c43e 4fbd 043f ab42 9e3e dffc cd3e
00000310: e501 f93e c01c 653e 623a ccbe 6d78 04bf
00000320: c03f 5fbe 2448 19be f727 abbe c4c1 7cbe
00000330: 253c 373e a98b 343e 49c4 f13d 5685 3bbd
00000340: 4120 2e3e 6374 7b3e 6e7f f9bd 1600 063e
00000350: 9a91 e63d 703d 50be 5598 6bbd 04fb 79bb
00000360: c3af bebd 75ad 6c3d 522f 963d c122 15be
00000370: 0965 5fbe 688d edbd b81a db3c 0457 d1bd
00000380: 0fdf d2bd 2c69 bf3d 1447 5c3e 1502 753e
00000390: 6ee2 873d 5ea0 a03e 0e48 a73e c28b 92bd
000003a0: a481 793d 519c 413d a6fb 4fbc ddc9 d73c
000003b0: 9ec9 a83d a9a8 d0bd e720 adbd 671e 87bd
000003c0: 8faa 2ebd 61a5 e5bd 56d8 3dbd 3d38 5bbe
000003d0: 196a 18be 6ef9 50be 8246 80be cb7d 42be
000003e0: 4fbd 22be 4fcc 66bd 348a 963d d12d 4d3e
000003f0: 6192 65be f29b 01be f1ca 90be 9cf4 e8bd
0.01840807 0.0782159 0.025814038 -0.008863299 -0.04425337 -0.067432486 -0.11698591 -0.21245578
0.0072532203 -0.22717418 0.07120383 0.29576468 -0.02800479 0.18504977 0.25967246 0.11232778
0.026813462 -0.023748163 -0.02068844 0.03750289 0.21950713 -0.2386162 0.156404 0.3235704
-0.35592765 0.072787404 0.046850774 -0.08987892 -0.09573752 -0.018641854 0.29034266 0.28761652
-0.07356796 0.52921146 0.55021745 -0.007113907 0.06466836 0.14421336 0.09078391 0.09582086
0.34720817 0.33459434 0.049155615 0.26187375 0.40875193 0.035252824 0.019604566 -0.03332712
0.25540084 0.14854352 -0.063799754 0.1735433 0.11018862 -0.08789179 -0.3247654 -0.50237113
-0.22399838 -0.3307057 -0.38691735 -0.11333279 -0.079893306 -0.17503746 -0.09631911 -0.23456916
-0.045182824 0.04449534 -0.15481256 0.042901114 0.08294935 0.03456857 -0.019944265 0.012225475
-0.055142295 0.056956246 0.12918976 0.087865464 0.20794977 -0.09404615 0.22443725 0.15549076
-0.2307084 -0.04753443 0.08280412 0.2610005 -0.051498387 0.1925844 0.279858 -0.06707832
0.17177814 0.2633589 -0.008164329 0.022160167 -0.025191776 -0.025493186 -0.03484045 -0.042373747
-0.0413833 0.05249796 0.030081742 -0.058932036 -0.011233785 0.21559438 0.069764204 0.03970687
0.1316745 0.04074009 0.004977483 0.078968756 -0.03653361 -0.014807634 0.13569003 0.038988914
0.13896933 0.15616128 0.21648254 0.21354178 0.2086056 -0.2204151 -0.37327093 -0.25582445
-0.49163616 -0.57798785 -0.36897767 -0.39319772 -0.36974424 -0.17120439 -0.1679113 -0.12926151
0.015311567 -0.2793389 -0.15356477 -0.0623268 -0.30381602 -0.1628761 0.0060360953 -0.3457803
-0.6536595 -0.37465933 -0.6097742 -0.69258004 -0.46300647 -0.4433084 -0.40673035 -0.21604757
-0.016114796 0.10095929 0.10871294 -0.23334435 -0.03512241 0.079828866 -0.16770855 -0.17271872
0.032858353 -0.098501526 -0.061868098 -0.12136898 -0.089347124 -0.21243723 -0.11485527 0.013317959
-0.11436592 -0.025771167 -0.043960866 -0.05699444 -0.19774668 -0.005587313 -0.07379481 -0.06587819
0.06639602 0.08933495 0.124043554 -0.13281453 -0.09773303 -0.22697237 -0.12039802 -0.10717114
-0.15610549 -0.083866805 0.11279587 0.15162703 -0.08658672 -0.17548351 -0.08108934 0.084370986
-0.10575094 -0.12873577 0.20135607 0.26145685 0.17900407 0.16612011 0.32555524 0.20678803
0.38330105 0.5185136 0.3091024 0.40231988 0.48634258 0.22374249 -0.39888293 -0.51746255
-0.21801662 -0.14968926 -0.33428928 -0.2468329 0.17894037 0.17631401 0.118050165 -0.045781456
0.17004491 0.24556117 -0.121825084 0.1308597 0.1125824 -0.20335937 -0.057518322 -0.0038144002
-0.09310868 0.05778261 0.073332444 -0.14564039 -0.21815886 -0.11599237 0.026746139 -0.10221675
-0.10296451 0.09346232 0.21511489 0.23926575 0.06634985 0.3137235 0.3267216 -0.07155563
0.06091465 0.047268216 -0.012694275 0.026341373 0.082415804 -0.10188419 -0.08453541 -0.06597596
-0.042643126 -0.11213184 -0.046348892 -0.21408172 -0.14884223 -0.2040765 -0.25053793 -0.18993299
-0.15892528 -0.056347188 0.07350579 0.20037009 -0.2241912 -0.12657145 -0.28279832 -0.113747805

conv3.bias f4 [32]
00000000: f065 7439 91dd 9039 cc9c 3c39 f30c 81b9
00000010: 67ee 423a e5b4 773a fa88 74ba 3e6b 863a
00000020: 7382 613a 24df 0c3a 6da3 ac37 1dca e2b9
00000030: 7345 c739 2fe8 213a 5361 b2b9 8927 47b9
00000040: 60ac 6dba 7cb4 99b9 5563 de39 6c37 e239
00000050: 1cab 783a ae1e 3dba 82b5 9039 dc2c 7d3a
00000060: 5571 47ba 8e36 1b3a c501 5d3a 5f95 c9b9
00000070: 319d 843a 72ac 77ba ab2d 403a 909c 78ba
0.00023307628 0.000276309 0.00017987489 -0.00024614445 0.00074360374 0.00094492576 -0.00093282724 0.0010255349
0.00086025073 0.0005373827 2.0580099e-05 -0.00043256665 0.00038007981 0.00061762606 -0.00034023318 -0.00018992847
-0.00090665184 -0.00029316905 0.00042417148 0.00043147372 0.00094859465 -0.00072143495 0.00027601054 0.00096578686
-0.00076081353 0.000592091 0.00084307446 -0.00038448998 0.0010117647 -0.00094479986 0.0007331024 -0.0009483779

bn3.weight f4 [32]
00000000: 27a6 9c3f 5193 3b3f 37c2 a93f d9e4 563f
00000010: 3044 4c3f 632a 2a3f d9bc 983f 4d34 8a3f
00000020: d1ec 623f e9a9 893f a2ef 513f fe46 3f3f
00000030: 4cf1 813f d1a5 4b3f ff26 353f 2890 263f
00000040: 54e4 5b3f 50d3 163f 11e6 5b3f 7b12 453f
00000050: 345f 623f 81a5 613f 75d6 373f 92fb 803f
00000060: 6de6 4f3f 6c9a 2a3f 08fe 4e3f 1986 a53f
00000070: 57e6 953f 6520 413f 7c3e 4b3f cbfd c73f
1.2238206 0.7327166 1.3262395 0.83942944 0.79791546 0.66470927 1.1932632 1.0797211
0.88642603 1.0754977 0.82006276 0.747177 1.0151763 0.7954989 0.7076263 0.65063715
0.85895276 0.5891619 0.8589793 0.76981324 0.8842652 0.88143164 0.7181161 1.0076773
0.81210977 0.6664188 0.8085637 1.2931548 1.1710919 0.75440055 0.7939222 1.5624326

bn3.bias f4 [32]
00000000: b19c 06be a2bb f53e 5fa2 a1be 2eb7 5fbe
00000010: eff8 f1bc f0a7 183e 7ae8 d63c 2929 03be
00000020: 54d2 ebbd a20c 4e3c 1a59 343e e82f 403d
00000030: c25b a8be 4383 4b3d 038a c53c d43e 983e
00000040: 8d63 863d 3948 f53d a35e 9abe cf94 cbbd
00000050: 346c 8e3a 152c 0dbe 8ab5 23bd 5f22 9abe
00000060: 264d b13e 0249 2d3e ed70 6bbe 7a05 0d3d
00000070: c655 60be 7ce6 8bbd dd48 803a 5ce2 0bbf
-0.1314571 0.47994715 -0.31569192 -0.21847221 -0.029537646 0.14907813 0.0262339 -0.1280867
-0.11514726 0.012576254 0.17612115 0.046920687 -0.32882506 0.049685728 0.02411366 0.29735434
0.065619566 0.11976666 -0.30150327 -0.09940492 0.0010865987 -0.13786347 -0.03996805 -0.30104348
0.34629172 0.16922382 -0.22992297 0.03442905 -0.2190772 -0.06831071 0.000978734 -0.5464227

bn3.running_mean f4 [32]
00000000: 98ac babf e064 8bbf 9ea8 05c0 8e69 e4bf
00000010: 80c2 5a3f 3aea 20bf 8dd6 34c0 5f14 89bf
00000020: 0e49 a5be 97af 17c0 e2dd e6bf a901 41bf
00000030: 2ffb cdbf d08c a1bf 35a7 6040 774b 603f
00000040: f353 d3bd 387a 3740 7e94 ddbe b28e 02bf
00000050: 24eb e6bf 2338 11c0 746b 863f cdd9 56bf
00000060: 84fe 68c0 462d f2bf 0043 2e3e b9f6 47c0
00000070: eb81 65bf 96c2 ac3f 0db8 fabe 2e89 09c0
-1.4583921 -1.089016 -2.0884166 -1.7844713 0.85453033 -0.628574 -2.8255951 -1.0709342
-0.322823 -2.3700922 -1.8036463 -0.7539316 -1.609228 -1.2621098 3.5102055 0.8761515
-0.103187464 2.8668346 -0.43277353 -0.50998986 -1.8040509 -2.2690513 1.0501542 -0.8392609
-3.6405344 -1.8920066 0.17017746 -3.1244338 -0.89651364 1.3496883 -0.48968545 -2.1489978

bn3.running_var f4 [32]
00000000: b95f d240 453d 9e40 92e8 1541 c750 8b40
00000010: 85c0 7e40 ad5a 6440 f37a fd40 3125 3841
00000020: 6bbf 8a40 4f19 b540 c03b a140 d6fe 7f40
00000030: 3572 8440 bd82 4c40 f0aa b240 8aaa be40
00000040: 1e6f 8b40 af02 1f40 44c7 3040 f19d 9340
00000050: e355 b740 8832 9240 32e4 6440 5e29 7340
00000060: 18e8 c340 baec 6540 7321 8840 8f51 4541
00000070: 7934 4441 b29b 5140 bd4e 7040 8c45 f340
6.574185 4.944979 9.36928 4.3536105 3.9805005 3.5680344 7.9212584 11.50908
4.3358665 5.6593394 5.0385437 3.999929 4.1389413 3.1954796 5.5833664 5.9583178
4.357314 2.4845388 2.7621622 4.61303 5.729234 4.5686684 3.576428 3.7993999
6.1220818 3.5925736 4.254083 12.332412 12.262811 3.275128 3.7548058 7.6022396

conv4.weight f4 [32, 32, 3, 3]
00000000: 9538 5e3c 3758 03be b7ba 18bd bcb7 1c3e
00000010: 3dac 4dbd 2c2a c5bd 5ebc 143f cfbf 3f3d
00000020: f96b 69be 7274 613e 6c5c 3e3e 5e68 393e
00000030: ff80 8cbc ea4f c83c bc08 8bbe 4c53 01be
00000040: ec8a 43be 3871 c8bc 2a69 423e e25e ab3d
00000050: 11d5 cf3c 565c b93d 3060 d0bc 951f 51bd
00000060: 2e8d a53e c320 333e 9ee4 4f3e a056 8cbd
00000070: e6e8 33bd a824 5d3d ab4b f33c a86c e43d
00000080: 5306 ed3d 7145 e63d baed 103e bca9 82bc
00000090: ac75 7bbe 385b a4bd 0074 4dbd 630d f0bd
000000a0: 4824 b93d ad18 d83d e6c8 07bd f8c5 14bd
000000b0: 59f3 37be adc3 dd3c 7bc3 883e d5e7 313e
000000c0: 26dd 423d 678c 8a3d 9bff 023d 4708 53be
000000d0: c61e b1be fceb 5abe 8f5a 08be e031 2bbe
000000e0: 9842 8cbd 83bf 5a3e 1c4f 903d 93d9 863d
000000f0: 0635 853e 6924 173e f661 353e a1bd 953e
00000100: 5077 913e 402b c23d 98fd e23c 491c 163e
00000110: ab48 6a3d cb60 12be 46d4 1dbe dc11 aebd
00000120: 66a0 073e f728 4bbd 9021 50be 339b 133e
00000130: 9bc9 813d c614 9b3c f5b0 d33d 8c63 9e3e
00000140: 997c 113f df5a 1fbd 8f32 29be 8a6f bbbd
00000150: 9733 bc3d 9d03 d9bd 0998 46bc e6dd 823e
00000160: f723 893e 0db0 ed3e 2957 41be fe8d 32be
00000170: cb79 893d 16e9 af3c 9c9d 513d 2c03 033e
00000180: e5cf 8dbe 0f13 99be e94b cbbe 8379 1abe
00000190: 2d8d 113d f979 233e 447e d03d b929 fd3d
000001a0: 910d db3d 8821 ba3d f455 1abd 28d8 29be
000001b0: 4f15 10be 87f8 c0ba c2c7 483e 13c9 efbd
000001c0: c149 babd 932f 563e 3959 803e 0e78 8b3e
000001d0: ac9a 403e 021f 1fbc 31af 8e3c eae2 903d
000001e0: 4002 9fbd c6c7 623d 8b71 fc3c a657 5ebe
000001f0: 0fe8 83be c1f4 69be 4d29 50be 6019 843d
00000200: 6666 dd3d 1dc6 03be 8ff7 d9bd f5b2 823d
00000210: 066d 41be 9586 a8be e96b 94be ff0a 88be
00000220: d912 d4be d16c dabe e920 173e 1add f8bb
00000230: 1853 82be 7cfe c23e cace d03e d14c 0e3e
00000240: b4ad 2f3c eca5 4b3d c545 863d de3a 30bd
00000250: fff3 e6bd 8f94 46be 7ef3 f4bc 7f02 3abe
00000260: dc35 8bbe e8b2 59bd ece3 453e 823b c33d
00000270: 8c65 81be d6fe a7bb 1c84 2f3e 73fd 93bd
00000280: 1f4c ae3d 8281 9c3e de83 6bbd c186 0c3e
00000290: 7e73 743e 34f2 60bd 512b 1fbd 9b10 953d
000002a0: d868 26be 88ea 34be 335d 8fbc 01f9 0f3d
000002b0: c28f e3bd ee58 fcbc c661 85bc a66a 8b3c
000002c0: 254e f73c 3717 cfbd e135 863b 0687 503c
000002d0: f4d8 37be 6a03 34be ab5f 82be e9ed 093e
000002e0: 4b96 4ebe c98b 20be 85b0 1b3c a6f0 1bbe
000002f0: 880e 25be b311 043e 9fae ad3e 6b15 393e
00000300: 3d56 cabd 9ee6 a03b b6b9 063e a50c 113e
00000310: 2bb9 02bc cb26 a53e 974e 333e 8234 783b
00000320: 045c ff3d d645 afbd f4dd bc3d 937f 85bc
00000330: 6945 a3be 5bf7 303c 0cf9 1d3d 3f6a 823c
00000340: 71ce febd f466 b7bd ace4 a8bb 4585 b7bd
00000350: 158b 473d 155a 50be 6976 2dbe c513 83bd
00000360: 45b4 2e3e 45bf de3d 1831 efbd 99e8 9e3d
00000370: 0895 7bbd d347 58be 760e 923d 2b4f 8bbd
00000380: 7fd9 e7bd 1cb6 5d3e 91f8 403c 9d90 5f3c
00000390: 26b6 183e ef2e fe3d 134c 103e 85a8 043e
000003a0: 0212 c33e 5bd1 1f3e 07c2 eebc e125 deb9
000003b0: 71d0 e2bc fef5 79bd c33c 6b3c c3d2 12bd
000003c0: f36a d4bd 0c58 0a3c 592b f03e 5e78 7dbd
000003d0: 3b4f 54be 50b1 fbbb 2fd6 e13d 0696 77be
000003e0: 13fc 813d 31a4 8b3d d346 aebd b107 65be
000003f0: 444e 6c3e 478c 263e 838d d13d a0e2 003e
0.013563295 -0.1282662 -0.03728744 0.15304464 -0.050213087 -0.09627184 0.58099926 0.046813782
-0.22795095 0.22017077 0.18589944 0.18106219 -0.017151354 0.024452168 -0.271551 -0.12629431
-0.19095963 -0.02446805 0.1898543 0.08367707 0.025370153 0.09050815 -0.02543649 -0.05105551
0.32334274 0.17492966 0.20302054 -0.0685246 -0.04392328 0.053990036 0.029699167 0.11153537
0.11573472 0.11243714 0.14153185 -0.015950076 -0.24556607 -0.08025211 -0.050159454 -0.11721303
0.09040123 0.105515815 -0.033150576 -0.03632161 -0.17963924 0.027070845 0.2671164 0.17373593
0.047574185 0.06765061 0.031982046 -0.20608626 -0.3459379 -0.21379083 -0.13315795 -0.16718245
-0.06848639 0.21362118 0.07046339 0.06584468 0.26017016 0.14759983 0.1771315 0.29246238
0.2841134 0.094809055 0.027708814 0.14659227 0.057198208 -0.14294736 -0.15413007 -0.084995
0.13244781 -0.049599614 -0.20325303 0.14414673 0.06337281 0.018930804 0.10336486 0.30935323
0.56830746 -0.03890502 -0.16523193 -0.09152134 0.091895275 -0.10596392 -0.012121209 0.2555992
0.26785251 0.4642338 -0.18880905 -0.17436978 0.06712683 0.021473449 0.0511757 0.12794179
-0.27697673 -0.29897353 -0.39706352 -0.15085416 0.035535026 0.15964498 0.10180333 0.123614736
0.10695947 0.09088427 -0.037679628 -0.16586363 -0.14070629 -0.0014722504 0.19607452 -0.11708274
-0.09096099 0.20916586 0.2506807 0.27240032 0.18809003 -0.009711983 0.017417522 0.070745304
-0.07764101 0.0553663 0.03081586 -0.21713123 -0.25762984 -0.22847272 -0.20328255 0.064501524
0.108105466 -0.12868543 -0.10642921 0.063817896 -0.18889245 -0.32915178 -0.2898858 -0.2657089
-0.4142063 -0.42661145 0.14758648 -0.0075947167 -0.2545402 0.3808478 0.40782768 0.1389649
0.010722566 0.049718782 0.06556276 -0.04302489 -0.11277007 -0.19392608 -0.029901262 -0.18165015
-0.2718953 -0.053149134 0.19325227 0.095328346 -0.25272787 -0.0051268144 0.1714024 -0.07226076
0.08510613 0.30567557 -0.057498805 0.1372328 0.23872182 -0.054918483 -0.03885967 0.07278558
-0.16250932 -0.17667592 -0.017500496 0.035149578 -0.11111404 -0.030804124 -0.016281974 0.017018627
0.03018863 -0.1011185 0.0040957783 0.012727505 -0.17953855 -0.17579427 -0.25463614 0.13469662
-0.2017452 -0.15678324 0.009502535 -0.15228519 -0.16118824 0.12897377 0.33922288 0.18074577
-0.0987973 0.004910304 0.1315678 0.1416498 -0.007978718 0.3225616 0.17510448 0.0037873094
0.124687225 -0.08558242 0.09222022 -0.016296184 -0.31888893 0.010801162 0.038567588 0.015919803
-0.12441719 -0.089551836 -0.005154213 -0.08960966 0.048716623 -0.20346864 -0.16939701 -0.06400255
0.17060955 0.108763255 -0.11679286 0.07759208 -0.061421424 -0.21121149 0.071316645 -0.068022095
-0.11320781 0.216515 0.011778013 0.013645318 0.14913234 0.124112956 0.1409152 0.1295491
0.38099676 0.15607207 -0.029145254 -0.00042371362 -0.027687283 -0.061025612 0.014357748 -0.03584553
-0.103719614 0.008443844 0.46908072 -0.06188237 -0.20733349 -0.0076810494 0.110271804 -0.24178323
0.063469075 0.068184264 -0.085096024 -0.22366215 0.23076731 0.16264449 0.10232069 0.1258645

conv4.bias f4 [32]
00000000: 9ee2 a339 7c6a 7ab9 81c3 1b3a 8e8a e6b9
00000010: 11c8 093a 886c 35ba ec46 0eba e4ff 9d39
00000020: 1225 06ba 7d2a 423a 047c 3b3a 8f2a 28ba
00000030: 2c22 093a f79d 79b8 6c6e ca39 7b37 eab9
00000040: 0d11 23b9 3d6b 10b9 3893 a7b9 a997 48ba
00000050: 3dde 7cb9 a67e 89b9 c8c0 9ab9 09cd 9937
00000060: fc05 fdb9 d286 c3b9 efdb b0b8 4c95 22ba
00000070: 9676 96b9 0dd5 37ba e721 e2b9 455f 33ba
0.00031258626 -0.00023881526 0.0005941913 -0.0004397225 0.00052559475 -0.00069207745 -0.00054274383 0.00030136027
-0.0005117218 0.0007406844 0.00071519637 -0.0006415033 0.0005231227 -5.9513342e-05 0.00038610713 -0.00044673294
-0.00015551243 -0.0001377286 -0.0003196241 -0.00076519937 -0.00024115383 -0.00026225037 -0.00029516802 1.8334498e-05
-0.0004826038 -0.00037293747 -8.4333e-05 -0.00062020565 -0.00028698583 -0.0007012643 -0.00043131338 -0.00068425044

bn4.weight f4 [32]
00000000: b59f 4c3f 755f 7e3f bbc3 6d3f 0324 803f
00000010: b723 6a3f 328f 7b3f 510d 833f a232 843f
00000020: cb86 3f3f 186a 733f 8f96 713f fd33 8d3f
00000030: f392 713f 6eeb 483f 4bb8 b83f b4ac 503f
00000040: 9cee 653f fc95 773f 96df 7f3f a94c 5f3f
00000050: 7701 703f 714a 423f 9c61 4c3f 0755 523f
00000060: f46e 773f 7dec 903f 9661 143f 8445 6e3f
00000070: 566a 6f3f b544 3d3f 84b3 853f 3de7 863f
0.79931194 0.99364406 0.92876786 1.001099 0.91460747 0.98265374 1.0238439 1.0327952
0.7481505 0.9508376 0.9437036 1.103149 0.9436485 0.7848424 1.4431242 0.81513524
0.89817214 0.96713233 0.9995054 0.8722635 0.93752235 0.7589484 0.7983644 0.8216099
0.96653676 1.132217 0.57961404 0.9307482 0.9352163 0.73932964 1.0445409 1.0539318

bn4.bias f4 [32]
00000000: b516 173e fa08 8dbe 9b1e 8bbe 817e 81be
00000010: 2b7e 56be 8175 27be 4e2a f1be 1345 b8bd
00000020: 34f5 803e aa46 243e 83ec 8dbe 9525 00bf
00000030: 9e7d 20be 593d ef3d a750 83bf 987d ea3c
00000040: da9a 933c 3833 64be fd95 40be b751 3d3e
00000050: d411 d13b 5ab0 9b3e 449c 333e fe9c 153f
00000060: 46aa eebd 1f4e f9be 6331 a43e 0ba7 90bd
00000070: efe4 00bf f316 a73d 7e0d 91be 79eb ebbe
0.14754756 -0.2754591 -0.27171788 -0.25291827 -0.20946567 -0.16353418 -0.47102588 -0.0899755
0.25187075 0.16042581 -0.27719507 -0.50057346 -0.15672919 0.11681623 -1.0258988 0.02862434
0.018018175 -0.22285163 -0.18807216 0.18488203 0.006380299 0.30407983 0.1754008 0.58442676
-0.11653571 -0.48692414 0.3206893 -0.07063111 -0.50349325 0.08158674 -0.28330606 -0.4607809

bn4.running_mean f4 [32]
00000000: 7c78 263f fafd 94bf 9c45 c3be 1743 9d3e
00000010: 284b 5abf bb0e 0f3c ab36 a6be 3e93 92bf
00000020: ffb0 0dc0 6599 8a3e 82c9 f13e 03a3 15bf
00000030: 34d8 04c0 aabf 2cbf 204d babf fa02 5bbf
00000040: 5279 1abf c988 26bf b16f 9cbf e40a d1bc
00000050: 7efe 84bd 8a4b 53c0 53f4 3c3e 2a38 b53f
00000060: 118b fdbe e76d 3ac0 09a8 ee3e bbb4 c7bf
00000070: 80e8 0dc0 71b8 04bf 60af 053c 7ba4 e1bf
0.65027595 -1.1640007 -0.38139045 0.30715248 -0.8527093 0.008731539 -0.32463583 -1.1451185
-2.213928 0.27070156 0.4722405 -0.5845186 -2.075696 -0.67479956 -1.4554787 -0.85551417
-0.6034137 -0.6505247 -1.2221586 -0.025517888 -0.06493853 -3.3014855 0.18452577 1.4157765
-0.49520162 -2.912958 0.46612576 -1.560203 -2.2173157 -0.51843935 0.008159488 -1.762832

bn4.running_var f4 [32]
00000000: bfd3 6440 e942 5c40 d60d 1d40 a428 4240
00000010: 1c84 ff3f e8f2 5b40 eeea 1240 4a3f 5a40
00000020: 01f1 2e40 bb19 5140 c3a9 1c40 ce0e 2f40
00000030: 91d3 5840 8dfb 2440 e0af 6a40 281c 4340
00000040: 679c 5340 b229 3b40 2a0f 6040 6c95 8c40
00000050: 3995 7740 dfa7 6640 9523 3340 2946 7440
00000060: 5644 5d40 ee14 5140 0da9 3b40 3240 4940
00000070: 95e8 0e40 f1fd 3940 cbcb 7e40 7158 4040
3.575424 3.4415839 2.4539695 3.0337305 1.9962192 3.4367008 2.295589 3.4101129
2.7334597 3.2671955 2.4478614 2.7352786 3.387913 2.5778534 3.6669846 3.0485935
3.306421 2.9244199 3.5009255 4.39324 3.8684828 3.603996 2.7990468 3.8167822
3.457296 3.2669024 2.932193 3.1445432 2.2329457 2.9061244 3.9811885 3.005398

conv5.weight f4 [32, 32, 3, 3]
00000000: 6b99 963e 1ca3 3bbb 0fa9 e8bd 243c 123e
00000010: 93ff f9bc fae5 2abd 9d12 54be 8837 d6bd
00000020: 3722 c63d e141 e1be 1aec 8fbe 4869 b3be
00000030: 1e24 38be 066b 60be 239c aabd 770a 483c
00000040: b94e c6bd 0b1c 763e 19b6 58bd 7d79 01be
00000050: b115 023e 0afb ed3d 77c3 ca3c 892e 013d
00000060: 23aa 15be 4301 373e 21ca 5d3e ffb6 bf3d
00000070: 3c2d c33d b234 07bc 5254 9cbc 6f66 87bd
00000080: 6c5d 48be 25a2 cabb ed5d e4bc b11c bebd
00000090: 9c72 2d3e ac04 c83d affc 21be af71 59bd
000000a0: 02b5 22bd 7cf0 a1bd be0e 2fbe 05c7 46be
000000b0: fa72 3fbe 25ef a9be afa9 2ebd 1604 74bd
000000c0: 364a 3e3d e766 283c 70b6 64bc 5741 983e
000000d0: c48d 8f3d c31e a93e 579f 94be 6b76 24be
000000e0: adcb 443d 24d1 a0bd 879e b3bd f048 4e3e
000000f0: 18a9 8c3e 6879 6a3e 5612 f33e 78f7 63bd
00000100: 3737 62bd aaeb fd3d d4d5 a3bc 366f 6cbe
00000110: 6915 3c3d ecc6 ae3e f7b6 89bc ab18 49bd
00000120: 596f a03c 75cb b8bc 86e1 6dbd 3838 dcbd
00000130: dfe3 8fbd bd19 89be 60ae 13be 6957 4cbd
00000140: 6453 2ebe cdc2 f63b 3d69 bcbc 7cdb 8fbd
00000150: c206 f23d f118 703d 7db2 b93d 22ec 1b3c
00000160: 2352 823c 5a61 043e fe9a f8bd 2838 ecbd
00000170: 1b6f a23d 9d1e 5d3d b94b 0bbe 02a2 edbd
00000180: 1c8e 143e fa04 e7bd 3dde 89be f403 103e
00000190: e78e 663c ba5e 173d d266 b8bd 85ae ebbd
000001a0: ee20 b13b 71c9 73bd 5896 cebd 5ae4 41be
000001b0: f561 0ebe 842c 89be 16f6 fcbd 5080 8a3e
000001c0: 3cd9 84bd 332e 01be 7738 0b3f e57f 353e
000001d0: b4e3 1e3c a37a 003d a8a5 cb3c 001c 24bd
000001e0: c8a2 7ebc fc8f 123e 3354 6e3d 7354 443d
000001f0: 71ba 013d 11f5 f1bd a6ec a73d 981d 45be
00000200: 0016 edbd 74c6 183d edc1 c5bd a4c8 e83c
00000210: d894 003d c3b0 b73c 1606 fd3c 6e5a 75be
00000220: a7ba eebd 1ef6 293d 2e8a a1ba 8223 5e3e
00000230: f72a 253e 96ff 193e 9cc1 8e3e 2406 803e
00000240: 6c18 2f3c fab9 123e ea1a 323e cb98 b0bd
00000250: 2be5 2f3c e9c5 ce3d 9163 d9bd 286b 05be
00000260: 5da0 8e3b deba ad3b 34de 25bd d313 eebd
00000270: a7ba 11be 5d26 893d d768 d13b 0cbb 4fbc
00000280: 161f f8bb 0c77 06be 2ee5 053e 4e4a 513e
00000290: 8485 193f 083b 07be d0b3 043e 4032 033f
000002a0: 0f81 ccbc 58f0 1a3e a35b c73e b11b 183e
000002b0: be2b 1d3c 8729 f9bd 1d8d eebc 7334 0bbe
000002c0: bdd0 863d 0047 3ebd bfdb fdbd cef9 1e3e
000002d0: bdd4 6dbe 91b4 b9bd 4fb0 8cbe aeca 05be
000002e0: ab67 d5bd 5f25 68be 07f3 95be c4e3 e9bc
000002f0: 2b4f 763d 7135 a13d 7a66 0c3d 5e8a 8abd
00000300: e83c 763e e768 0c3e 2d67 ae3c bbd8 bd3d
00000310: 9eef 6a3e 26f3 1a3e de82 72bd e1b5 40be
00000320: 99d6 55be a972 863d 3f7a b8bd eb1a 93bd
00000330: a2a2 6a3e 9ad9 823d a289 b3bd 1c4f 30be
00000340: 4cdc 903d e98e 15bd 553e 15be 3bba 543d
00000350: 7526 59bd a3bb 7dbe 89d9 9fbd 3584 51be
00000360: 667e 9b3e 7aa2 933e 6b1f 023e a8a6 7d3e
00000370: 3332 5c3c 61f2 5bbe 5ce1 8c3e b97f bbbd
00000380: 428e e2bd 57e3 f23d 28f8 61bd c275 83be
00000390: 043b 9d3d ca16 643d 783d 9abd e7b2 0b3e
000003a0: 07e3 003d 2408 ffbd b690 91be 1d89 96be
000003b0: 1b4c 77be b1dc 1dbe 1cbd 1cbe a656 56bd
000003c0: 177d da3d bde0 2c3e 276d 893e 184f 9bbd
000003d0: df06 34bd d62e 2fbe d9d8 34be 419d 28bd
000003e0: 38d3 6f3b 379b 35bd 6f6e 8e3c 5d04 bf3d
000003f0: 86de 2b3d 9bf2 363c 3958 9cbd a7aa a83d
0.29413924 -0.0028631156 -0.1136037 0.14280754 -0.030517375 -0.04172323 -0.20710225 -0.104598105
0.09674495 -0.43995574 -0.2810982 -0.3504126 -0.17982528 -0.21915826 -0.08330562 0.012209526
-0.09682984 0.24034135 -0.052908037 -0.12644 0.12703587 0.116201475 0.024751408 0.03153852
-0.14615683 0.17871575 0.21659137 0.093610756 0.09530112 -0.00825231 -0.019083176 -0.066113345
-0.19566888 -0.00618388 -0.027876819 -0.09282816 0.16938251 0.09766516 -0.15819047 -0.053086933
-0.039723404 -0.07907197 -0.17095467 -0.19411857 -0.18696204 -0.33190265 -0.04264229 -0.05957421
0.04645749 0.01027844 -0.013959512 0.2973735 0.070094615 0.33031282 -0.29027817 -0.16060798
0.048045803 -0.078523904 -0.08770471 0.20145011 0.27472758 0.22897875 0.47474927 -0.055655926
-0.05522844 0.12398465 -0.019999422 -0.23089299 0.045918856 0.3413614 -0.016810877 -0.04909579
0.019584345 -0.022557953 -0.058076404 -0.107529104 -0.07025885 -0.2677745 -0.14421988 -0.04988805
-0.17023998 0.0075305463 -0.0229994 -0.07024285 0.11817695 0.058617536 0.09067247 0.009516748
0.015908306 0.12927762 -0.121389374 -0.115341485 0.07931348 0.053984273 -0.13603105 -0.11603166
0.14507335 -0.11280246 -0.26927367 0.14064008 0.0140721565 0.036955573 -0.090039864 -0.11507896
0.005405537 -0.05951828 -0.100872695 -0.18934765 -0.13904555 -0.26791775 -0.12351625 0.2705102
-0.06486747 -0.1261528 0.54383034 0.17724569 0.009697843 0.031366955 0.024859264 -0.040065765
-0.01554174 0.14312738 0.058185767 0.0479321 0.031671945 -0.11814321 0.08199434 -0.1924957
-0.11576462 0.037298635 -0.09656129 0.028415985 0.03139195 0.022423154 0.030886691 -0.23960277
-0.11656695 0.04149448 -0.0012324506 0.21693233 0.16129671 0.15038905 0.27882087 0.25004685
0.010686975 0.14328757 0.1739308 -0.08622893 0.01073579 0.10096342 -0.10614694 -0.13029158
0.004352613 0.0053018173 -0.040495113 -0.11624875 -0.14231358 0.0669677 0.0063906717 -0.012678873
-0.007572065 -0.1313135 0.13075706 0.20438501 0.59969354 -0.13206112 0.12959218 0.5124855
-0.024963884 0.15130746 0.389371 0.14854313 0.0095929485 -0.12166124 -0.029120022 -0.13594227
0.065827824 -0.04645443 -0.12395429 0.1552498 -0.23225684 -0.090676434 -0.27478263 -0.13065597
-0.10420164 -0.22670506 -0.29286978 -0.02855099 0.060134094 0.07871521 0.034277417 -0.06764673
0.24046671 0.13711892 0.021289432 0.09269854 0.22942969 0.15131816 -0.059206836 -0.18819381
-0.20882644 0.065648384 -0.090076916 -0.071828686 0.22913602 0.063891605 -0.08766486 -0.17217678
0.07073268 -0.036513243 -0.14574559 0.051935416 -0.05301519 -0.24778609 -0.078051634 -0.20460589
0.30369872 0.28834897 0.12707298 0.24770606 0.013439703 -0.21479179 0.27515686 -0.091552205
-0.1106229 0.11859768 -0.0551683 -0.2567578 0.07677272 0.055685796 -0.075312555 0.13642465
0.03146651 -0.124527246 -0.28430718 -0.29401484 -0.24150126 -0.15416218 -0.15306515 -0.05232873
0.1066839 0.16882606 0.2684109 -0.07583445 -0.043951865 -0.1710771 -0.17660846 -0.041165594
0.0036594402 -0.044337478 0.017386643 0.09327004 0.04196026 0.01116624 -0.07634015 0.08235674

conv5.bias f4 [32]
00000000: bcbd af39 cf52 8cb9 90e9 1c3a e52e 3f3a
00000010: cd84 a6b9 6ea4 bab9 7f94 61b9 f1d1 6939
00000020: 5897 203a e9b4 5db9 a070 e2b9 7f3e 43b8
00000030: 0753 feb9 052d dcb9 83b7 9539 169f 29ba
00000040: 0694 1a3a d402 213a 7935 c539 6e3c bdb9
00000050: 8a9d 1aba fb97 af39 8cfa a039 7352 38b9
00000060: 08ab 143a 92ba 43ba e257 82b9 47db d938
00000070: b310 263a 3efc 9b39 e005 233a 212a 06ba
0.00033519964 -0.00026764578 0.0005985731 0.00072930596 -0.00031760932 -0.00035599194 -0.00021512991 0.00022298821
0.00061260676 -0.00021143597 -0.0004318999 -4.6549827e-05 -0.00048508515 -0.00041995212 0.00028556222 -0.0006470544
0.0005896691 0.0006142084 0.00037614608 -0.00036093913 -0.0005898109 0.00033491835 0.0003070425 -0.00017578322
0.00056712376 -0.0007466461 -0.0002486101 0.0001038821 0.0006334886 0.0002975184 0.0006218832 -0.0005117972

bn5.weight f4 [32]
00000000: c9b6 353f a2f5 503f 0a58 6f3f 7e45 883f
00000010: a70e 733f f608 563f 10e3 653f a8a8 433f
00000020: 8faf 4f3f f786 563f 78f1 803f f6d3 5f3f
00000030: 9d61 733f 13b9 983f 6045 603f a9a0 253f
00000040: 49e1 503f 73d8 5c3f 7499 593f 9167 6e3f
00000050: efef 933f 9079 7e3f f653 463f 4d8a 413f
00000060: 7e84 1b3f 57a8 4c3f d05f 6f3f 1614 863f
00000070: 83a0 863f 57c0 443f 14d7 4c3f 95d8 373f
0.70982033 0.81624806 0.9349371 1.0646207 0.9494423 0.83607423 0.89799595 0.76429224
0.81127256 0.8379969 1.007369 0.874328 0.9507082 1.193148 0.8760586 0.6469827
0.8159376 0.86267775 0.84999776 0.9312678 1.1557597 0.9940424 0.77471864 0.75601655
0.6074904 0.79944366 0.93505573 1.047488 1.0517734 0.7685599 0.80015683 0.7181485

bn5.bias f4 [32]
00000000: 8e4e 8f3e a76a e23d 7c8f e3bc c326 9dbe
00000010: 4ae0 c9bd b2e4 1a3e 6728 6c3d 381b 883e
00000020: 455d 4a3d b126 1e3e 4cbc 253e 0606 a23d
00000030: bbad a63d d656 0abf 2054 153e c455 093f
00000040: d0b2 fd3e 3108 213e 5b6d 773d 9a8f 9ebd
00000050: 965d 10bf 0fd7 5c3e a13d 903e 34d2 683e
00000060: 595a 153f 85c9 d13e ae3c a03d 9bed 9e3d
00000070: 3629 4fbe afed 3f3d 6803 793e 5308 eb3e
0.2798962 0.110554986 -0.02777838 -0.30693635 -0.09857233 0.15126303 0.05765572 0.26583266
0.049405355 0.15444447 0.16185111 0.07911305 0.08138605 -0.5403875 0.14582872 0.5364649
0.49550486 0.15725781 0.060407024 -0.077422336 -0.563928 0.21566413 0.2817202 0.22736436
0.58340985 0.4097406 0.07824074 0.077601634 -0.20230564 0.046857532 0.24317706 0.45904788

bn5.running_mean f4 [32]
00000000: ddb2 0abf 4704 8d3f 7eb1 b6bf 4030 02c0
00000010: b599 69bf b185 b6bf 5fa5 ba3d 73d4 c03f
00000020: 7f3d 39c0 e016 813d 0b55 0c40 1ee0 6640
00000030: bdfc f5bf 946e fcbf 387e a93f 13d8 d83d
00000040: a8f9 01bf a7cf ffbe 1a9c 7c3f 4192 88be
00000050: 495f d6bf 11ed f4bf 7cca dc3f 5b1a 90bf
00000060: 6f1e e63f 87c4 53bf cc7e 9bc0 340c a5bf
00000070: 76e5 7bbf 6e26 3b3f 18e3 b2bf 5db8 cebe
-0.54179174 1.101693 -1.4272916 -2.034195 -0.91250163 -1.4259549 0.09113573 1.5064834
-2.8943784 0.06303191 2.1926906 3.607429 -1.9217755 -1.9721246 1.3241644 0.10588088
-0.5077157 -0.49963114 0.9867569 -0.26674083 -1.6747829 -1.9134847 1.7249293 -1.1258043
1.7978038 -0.8272175 -4.859228 -1.2894349 -0.98397005 0.73105514 -1.3975554 -0.40375033

bn5.running_var f4 [32]
00000000: 5ef2 1640 cd41 4740 015d 6b40 dca7 7640
00000010: 1404 6040 7da0 8040 d928 8840 51f4 6440
00000020: 57b3 f73f 8995 6040 f0a7 5140 f43c 3e40
00000030: 0a87 5940 982b 5340 f401 4240 8dba 1140
00000040: 58c9 9e40 7c61 8b40 c521 3540 ebf8 3140
00000050: 4f58 4b40 12a0 7740 bf52 3b40 20a1 5240
00000060: af7d 2c40 87de 5940 bc0c 7e40 a1ef 6840
00000070: e1e4 8740 6f49 4c40 2375 4a40 4e41 8140
2.358543 3.1133912 3.6775515 3.8539953 3.500249 4.019591 4.2549863 3.577412
1.9351605 3.509127 3.275875 2.9724703 3.3988671 3.2995358 3.0313692 2.2770112
4.962078 4.35565 2.8301861 2.7808177 3.177265 3.869145 2.9269254 3.2910843
2.695171 3.404207 3.9695272 3.6396258 4.2466893 3.191982 3.1633995 4.039222
