model_weights/Tiny10/CIFAR10/in8-gn8/110000.pt (torch_old, 358762 bytes, 50 tensors)

conv1.weight f4 [16, 3, 3, 3]
0.12903528 1.3272765 0.11873358 -0.6443044 -1.219485 1.3809468 -0.9856498 -0.70064753
0.46936736 -0.19549426 -0.03942661 -0.66483545 0.61467177 -1.2571311 0.2826949 1.0995961
0.28158468 0.015418163 -0.3180477 0.22093351 -0.18542038 0.3358995 -0.44064942 0.023593988
0.41306674 0.38944116 -0.48078045 -0.14748566 -0.048554398 -0.17256437 -0.10413492 -0.01943431
-0.026888227 -0.05810056 -0.013858952 0.017404627 0.022234453 0.081200674 -0.1714446 0.058032606
0.11430256 -0.0035062637 0.07897464 0.07499369 0.025756987 0.37655425 0.4418023 0.21956554
0.21702127 0.21890135 0.097245805 0.03355948 -0.069587335 -0.14511372 0.14097577 -0.49709854
0.33939013 0.09756704 -0.50694144 0.1275783 0.21424389 0.06344788 0.22085394 -0.16904935
-0.7002842 -0.13056572 0.09901671 -0.34981802 0.03644864 0.23821612 0.2568123 0.27616692
-0.12334512 -0.22589445 -0.10809933 -0.09571414 -0.14120673 -0.12243572 -0.2704932 0.023626564
-0.14517917 -0.41274 -0.59136814 0.049466114 0.10243946 0.10555757 0.28448617 0.059195608
0.08146308 0.010547415 -0.44062847 -0.92178 -0.41000637 0.32579982 0.15847139 0.13884869
0.61642295 0.5965685 0.31052092 -0.57888013 -0.9759166 -0.40782288 0.050831426 0.17003278
0.30132723 0.3209846 0.64048576 0.5289362 -0.28086624 -0.30390227 -0.19827229 -0.06354695
-0.183583 0.09482756 -0.23832047 -0.40758756 -0.15855944 0.108816616 0.05331346 -0.008966272
0.22240824 0.0005905245 0.22205526 -0.011286404 -0.36692432 -0.12036952 0.33268452 0.09967767
0.012870682 0.32917786 -0.08213604 0.19269224 0.01670565 -0.570927 -0.25478435 -0.02742789
0.45603067 -0.2765961 1.4712625 -1.4909925 0.09329082 -0.14210385 0.23830369 -0.1907765
-0.6051448 -0.42313212 0.38521236 0.58485657 -1.9045917 1.0752615 -0.34126544 0.36868498
0.4388385 0.12485821 0.52927274 -0.078549676 0.7613192 -1.0727243 0.33804992 0.11238974
-0.17813852 -0.18976021 -1.3711157 -1.3169041 -0.4570279 -0.36434942 0.37412706 0.6770802
0.41846168 1.6639925 1.1778843 0.4541492 0.11218602 0.0018663433 0.37512684 -0.26074544
-0.45175213 0.011244387 -0.32556045 -0.43842548 0.46297303 0.78490055 0.76187986 0.30452785
-0.25934196 -0.100063965 -0.31904575 -1.0576209 -0.5711179 0.16997612 0.28472266 0.055896856
0.15452129 0.2093077 0.1291487 0.2179763 0.07532368 -0.008377789 -0.16555929 -0.36541852
-0.22520265 -0.4179209 -0.86342555 -0.49458915 0.04163673 -0.5463742 -0.2615489 0.24740864
0.32226115 0.17612697 0.14473158 -0.009513597 0.050087817 0.20177968 -0.19496171 -0.16950847
0.3065806 0.29117814 0.17552854 0.27520669 0.14671084 0.13387668 -0.45746964 -0.5837447
-0.14156869 0.4059307 0.52135515 0.43736586 0.23454691 0.13535963 0.08138949 -0.6150863
-0.8729072 -0.45676005 -0.0074857147 0.2714917 0.36241183 0.25487956 0.18200445 0.15907027
-0.18272974 -0.53014123 -0.28463334 0.06968384 0.40773535 0.3281338 0.16812693 0.8556189
1.0091792 -0.050725028 0.55095583 0.5368383 -0.26275694 -0.40921155 -0.33812627 -0.61676633
00000000: d321 043e 32e4 a93f 972a f33d 22f1 24bf
00000010: 1618 9cbf ddc2 b03f 8c53 7cbf a35d 33bf
00000020: eb50 f03e a62f 48be cc7d 21bd a832 2abf
00000030: 215b 1d3f ace9 a0bf 63bd 903e 91bf 8c3f
00000040: de2b 903e 769c 7c3c 26d7 a2be 653c 623e
00000050: d7de 3dbe 05fb ab3e cd9c e1be 2e48 c13c
00000060: 7c7d d33e d564 c73e db28 f6be 7b06 17be
00000070: fae0 46bd b7b4 30be b044 d5bd b434 9fbc
00000080: b344 dcbc dafa 6dbd a810 63bc 2694 8e3c
00000090: 0725 b63c 8a4c a63d 2c8f 2fbe 99b3 6d3d
000000a0: 7617 ea3d 58c9 65bb 75bd a13d 4b96 993d
000000b0: 5100 d33c b8cb c03e e933 e23e cad5 603e
000000c0: d33a 5e3e ad27 603e cf28 c73d aa75 093d
000000d0: ce83 8ebd b198 14be f45b 103e b383 febe
000000e0: 8bc4 ad3e 3ad1 c73d eac6 01bf e3a3 023e
000000f0: c062 5b3e f6f0 813d 8927 623e 461b 2dbe
00000100: d345 33bf 05b3 05be 46c9 ca3d 591b b3be
00000110: 2b4b 153d edee 733e e77c 833e c065 8d3e
00000120: 5e9c fcbd e050 67be 2e63 ddbd c605 c4bd
00000130: 7f98 10be 94bf fabd 167e 8abe 7f8c c13c
00000140: d9a9 14be a852 d3be e763 17bf fb9c 4a3d
00000150: c8cb d13d 912e d83d 2ca8 913e 1877 723d
00000160: 1ed6 a63d 11cf 2c3c 0e9a e1be c6f9 6bbf
00000170: 5bec d1be 3ccf a63e 5346 223e 5a2e 0e3e
00000180: e5cd 1d3f b7b8 183f 99fc 9e3e 7d31 14bf
00000190: acd5 79bf 29ce d0be 9d34 503d 131d 2e3e
000001a0: 9047 9a3e 1858 a43e e0f6 233f 5d68 073f
000001b0: b3cd 8fbe 1499 9bbe e407 4bbe e724 82bd
000001c0: 2ffd 3bbe f434 c23d 480a 74be 51af d0be
000001d0: 685d 22be 3fdb de3d 375f 5a3d 45e7 12bc
000001e0: fcbe 633e 6ecd 1a3a 7462 633e 9cea 38bc
000001f0: 81dd bbbe 4b84 f6bd a055 aa3e ce23 cc3d
00000200: 8edf 523c 008a a83e f136 a8bd 1d51 453e
00000210: 4ada 883c 4628 12bf 1873 82be 74b0 e0bc
00000220: da7c e93e 019e 8dbe 5452 bc3f d8d8 bebf
00000230: 420f bf3d ac83 11be e205 743e ea5a 43be
00000240: c5ea 1abf c6a4 d8be 8e3a c53e 29b9 153f
00000250: a9c9 f3bf 2ba2 893f 58ba aebe 47c4 bc3e
00000260: 71af e03e a9b5 ff3d 6b7e 073f a7de a0bd
00000270: d1e5 423f 084f 89bf e114 ad3e 982c e63d
00000280: f269 36be 8050 42be b880 afbf 5090 a8bf
00000290: 90ff e9be 028c babe 958d bf3e 2155 2d3f
000002a0: 9c40 d63e b5fd d43f eac4 963f 3e86 e83e
000002b0: c9c1 e53d 17a0 f43a a010 c03e 6d80 85be
000002c0: 0e4c e7be 613a 383c dcaf a6be 4e79 e0be
000002d0: cd0a ed3e 3eef 483f 8f0a 433f 13eb 9b3e
000002e0: 78c8 84be 56ee ccbd f759 a3be 1f60 87bf
000002f0: c834 12bf 380e 2e3e 2bc7 913e 1af4 643d
00000300: d43a 1e3e c254 563e 8f3f 043e 2e35 5f3e
00000310: 4d43 9a3d fe42 09bc 6088 29be 2318 bbbe
00000320: 869b 66be baf9 d5be 7509 5dbf ca3a fdbe
00000330: 478b 2a3d 2edf 0bbf bde9 85be b158 7d3e
00000340: 6aff a43e a15a 343e 8434 143e ebde 1bbc
00000350: e228 4d3d 559f 4e3e 0ba4 47be a193 2dbe
00000360: 22f8 9c3e 4d15 953e c1bd 333e e4e7 8c3e
00000370: 5e3b 163e f816 093e 7639 eabe 4b70 15bf
00000380: 62f7 10be 26d6 cf3e 8877 053f 6bee df3e
00000390: 112d 703e b79b 0a3e 88af a63d 4c76 1dbf
000003a0: d976 5fbf 74dc e9be ba4a f5bb f600 8b3e
000003b0: 0b8e b93e 937f 823e 605f 3a3e 51e3 223e
000003c0: 811d 3bbe 56b7 07bf 76bb 91be 67b6 8e3d
000003d0: b0c2 d03e 2701 a83e 7729 2c3e d709 5b3f
000003e0: c92c 813f 0cc5 4fbd 710b 0d3f 3c6e 093f
000003f0: 1488 86be 2d84 d1be e31e adbe 66e4 1dbf

conv1.bias f4 [16]
-0.00076896785 0.0021083888 0.0024931233 -0.0023358013 -0.00039569827 0.002263861 0.0002991389 -0.0015028438
-0.0013615312 -0.0013698586 -0.001625401 -0.00026508752 0.0004864118 0.0021642516 0.0015033283 -0.0017037836
00000000: 8f94 49ba e52c 0a3b ab63 233b 3e14 19bb
00000010: b975 cfb9 495d 143b bed5 9c39 12fb c4ba
00000020: 6875 b2ba d48c b3ba 680b d5ba 72fb 8ab9
00000030: 1605 ff39 1ed6 0d3b 540b c53a 7e51 dfba

bn1.weight f4 [16]
0.7728652 0.5602567 1.3144972 0.6657935 1.2711247 1.2748879 0.52554953 0.48145223
0.5879316 0.40141937 0.4896893 0.4062063 0.75242376 0.811215 1.1750469 0.5632079
00000000: 7eda 453f fc6c 0f3f 7241 a83f 7171 2a3f
00000010: 37b4 a23f 872f a33f 6a8a 063f e880 f63e
00000020: af82 163f d786 cd3e 8eb8 fa3e 46fa cf3e
00000030: d89e 403f c9ab 4f3f f067 963f 652e 103f

bn1.bias f4 [16]
1.2792183 -0.2193268 -1.1436999 0.589755 -0.8998156 1.3931948 1.0217624 0.057790525
0.35243776 0.27011156 0.07103521 0.39181668 0.38085115 0.5052361 1.3417679 0.12963106
00000000: 6dbd a33f 3497 60be c264 92bf 2ffa 163f
00000010: 515a 66bf 3554 b23f 1cc9 823f c2b5 6c3d
00000020: b972 b43e 104c 8a3e e87a 913d 329c c83e
00000030: ecfe c23e 2757 013f 0dbf ab3f 01be 043e

bn1.running_mean f4 [16]
-0.022445256 -0.22118868 0.2873698 -0.06585408 0.31888244 -0.02732493 -0.021982715 0.29988036
-0.01664336 0.010562501 -0.029633602 -0.10376719 0.01605996 -0.014049747 0.019726511 -0.007940749
00000000: 1ddf b7bc 497f 62be 2222 933e 81de 86bd
00000010: 8f44 a33e 88d8 dfbc 1815 b4bc eb89 993e
00000020: a857 88bc 570e 2d3c 2bc2 f2bc e483 d4bd
00000030: 2d90 833c e930 66bc 7e99 a13c ea19 02bc

bn1.running_var f4 [16]
1.2148763 2.5389502 5.1652617 12.933711 4.7293587 2.283644 1.8246434 3.9743896
9.998198 3.3998482 1.4526674 4.0889616 11.694585 11.522221 2.41599 7.1409073
00000000: 1181 9b3f 297e 2240 d349 a540 7bf0 4e41
00000010: e856 9740 3927 1240 ea8d e93f 665c 7e40
00000020: 9ef8 1f41 1d97 5940 01f1 b93f c6d8 8240
00000030: 051d 3b41 045b 3841 959f 1a40 5082 e440

conv2.weight f4 [16, 16, 3, 3]
0.21803868 -0.28957677 -0.37269002 0.0015924014 0.036416866 0.06287655 0.060703944 0.027848363
0.1398766 -0.29756323 -0.27462277 -0.32615355 -0.20941591 -0.12523128 -0.1270421 -0.12278054
-0.059830166 -0.15814008 0.10623303 0.0691689 0.10915601 -0.07177597 -0.18967709 -0.05046049
0.30599722 0.30302238 0.37619418 -0.0099983085 -0.17564225 -0.18444242 0.17003278 0.097445615
-0.06727272 -0.12775819 -0.0017965545 0.07940352 -0.39276135 -0.15627033 0.1368941 -0.15188798
0.17451966 0.21821027 -0.179456 0.16266726 0.3121309 -0.12886032 -0.19013435 0.040630035
-0.29576233 0.26372156 0.16680577 0.08730192 0.32771057 0.0075383754 0.5360313 0.02012952
-0.48142543 0.15933006 -0.49056894 -0.510802 -0.12990949 -0.2701957 0.1507367 0.26329586
0.2557516 0.18348491 0.3464457 0.32421884 0.095860004 0.09826019 0.02740915 -0.07799389
-0.10108366 0.052337363 -0.10139803 -0.016312731 0.07330979 0.16816282 -0.1936708 -0.21539883
-0.20865439 0.1975182 0.19993156 -0.060195275 -0.027344465 -0.07508611 -0.23645876 -0.24467891
-0.2920102 -0.33811137 0.06791341 -0.100912385 -0.11535776 -0.22617392 -0.42109 -0.2702413
-0.19357894 -0.28208497 -0.052294306 -0.1954299 0.035493776 0.06777768 -0.21800569 0.0315899
0.0975508 -0.24979511 -0.030897086 0.03667068 -0.004189081 0.23476014 -0.14460458 -0.021149086
0.2279923 -0.034931723 0.0049808393 0.19298518 -0.08175142 -0.056862716 -0.05985401 0.028179111
0.09937215 -0.10624496 0.024291832 0.1705195 -0.22434129 -0.13561408 -0.11721695 -0.046855085
-0.115413286 -0.14560813 0.028312584 0.28076184 -0.263643 -0.0126211485 0.39833182 -0.093205296
-0.013713114 -0.025774391 0.054390334 0.05315784 0.0901485 0.010026416 -0.038808048 0.16414614
0.0773799 0.058296286 -0.15284665 -0.29269114 0.55866724 -0.17440358 0.123445906 0.33088645
-0.55759126 0.08208994 0.07184953 -0.036673546 -0.0033927814 0.03258923 -0.009235038 -0.019069148
0.022501586 0.009851902 0.08307038 0.10101693 0.005978889 0.12621924 -0.009386152 -0.07747919
-0.056223653 0.14099249 -0.061675753 0.0021867272 0.07473097 0.19146688 -0.07178328 -0.048084423
0.07652465 -0.09095215 -0.032216597 0.17048542 0.1033424 0.119926356 -0.15834591 0.09916472
0.26709282 -0.19934857 -0.015164871 0.05233544 -0.33058357 0.017997917 -0.12868692 0.1915857
-0.96304286 0.89964205 -0.18888213 -0.48588532 1.3219048 -0.8002441 -0.08982018 0.054394625
-0.09318335 0.02175809 0.08231148 -0.10616765 -0.09370702 -0.019145465 -0.059910472 -0.028514491
0.00079732813 -0.044421017 -0.006234406 0.081801176 -0.05890547 0.019254958 -0.0043859 -0.047507312
0.14390503 -0.0036051727 -0.15758109 0.13048418 0.06811731 -0.0067735077 0.15385704 0.14517306
-0.08534043 -0.049569014 -0.008036005 0.10922215 -0.12267449 -0.017846424 0.12555948 -0.20413785
-0.06375688 0.0026369109 0.040189117 -0.16194665 -0.10407727 -0.03075603 -0.23044471 -0.100580245
0.005331061 -0.014307461 0.18180092 0.17878723 0.031366594 0.014794488 0.012621581 -0.1066078
-0.09092559 -0.117182836 -0.16555153 -0.13302569 -0.3299111 -0.35319808 0.2625661 -0.4004279
00000000: 8845 5f3e 6843 94be 3ad1 bebe 20b8 d03a
00000010: da29 153d 6cc5 803d b3a4 783d 4022 e43c
00000020: d03b 0f3e 355a 98be 5b9b 8cbe 99fd a6be
00000030: 2071 56be a13c 00be 5317 02be 5d74 fbbd
00000040: 7a10 75bd 79ef 21be b490 d93d 6da8 8d3d
00000050: 308d df3d 48ff 92bd b63a 42be a9af 4ebd
00000060: abab 9c3e c025 9b3e 869c c03e f2cf 23bc
00000070: 90db 33be 79de 3cbe 131d 2e3e 9191 c73d
00000080: 48c6 89bd 0bd3 02be 5e7a ebba 509e a23d
00000090: 0418 c9be 5405 20be f82d 0c3e 8688 1bbe
000000a0: 48b5 323e 8372 5f3e 50c3 37be 3f92 263e
000000b0: 9fcf 9f3e f6f3 03be 94b2 42be ae6b 263d
000000c0: 296e 97be 8306 873e 22cf 2a3e 59cb b23d
000000d0: aec9 a73e 7a04 f73b 5939 093f aae6 a43c
000000e0: 657d f6be 6b27 233e da2b fbbe ebc3 02bf
000000f0: fe06 05be 1757 8abe b95a 1a3e b7ce 863e
00000100: e0f1 823e 78e3 3b3e 5561 b13e 0300 a63e
00000110: 4052 c43d a33c c93d 2789 e03c 43bb 9fbd
00000120: f304 cfbd b45f 563d c5a9 cfbd 47a2 85bc
00000130: 7123 963d e032 2c3e a351 46be 8391 5cbe
00000140: 7fa9 55be 3642 4a3e dcba 4c3e 528f 76bd
00000150: 8001 e0bc bfc6 99bd 3f22 72be 1c8d 7abe
00000160: 5c82 95be ef1c adbe 3016 8b3d 27ab cebd
00000170: b040 ecbd 239a 67be 1c99 d7be 115d 8abe
00000180: 8f39 46be 716d 90be 8e32 56bd c71e 48be
00000190: ec61 113d 06cf 8a3d e23c 5fbe 6964 013d
000001a0: b7c8 c73d 4aca 7fbe e31b fdbc ff33 163d
000001b0: 8f44 89bb f664 703e 3913 14be d940 adbc
000001c0: d076 693e 9114 0fbd 4f36 a33b e89d 453e
000001d0: 4a6d a7bd e1e8 68bd 7a29 75bd e1d7 e63c
000001e0: a083 cb3d f596 d9bd aaff c63c aa9c 2e3e
000001f0: b9b9 65be 6bde 0abe 710f f0bd 1eeb 3fbd
00000200: cd5d ecbd 4c1a 15be cbef e73c 04c0 8f3e
00000210: 37fc 86be efc8 4ebc 26f2 cb3e 6be2 bebd
00000220: f8ac 60bc d124 d3bc 66c8 5e3d 09bc 593d
00000230: c79f b83d d645 243c 30f5 1ebd ed15 283e
00000240: 5a79 9e3d 16c8 6e3d d583 1cbe 9ddb 95be
00000250: d104 0f3f da96 32be 35d1 fc3d f369 a93e
00000260: 4dbe 0ebf c51e a83d d925 933d 0037 16bd
00000270: 6d59 5ebb 497c 053d 8f4e 17bc e736 9cbc
00000280: 3f55 b83c df69 213c ce20 aa3d f7e1 ce3d
00000290: 8eea c33b 9e3f 013e 60c8 19bc 69ad 9ebd
000002a0: c64a 66bd 5660 103e b79f 7cbd 324f 0f3b
000002b0: 8d0c 993d e50f 443e 1d03 93bd 2cf4 44bd
000002c0: f5b8 9c3d 1f45 babd 8df5 03bd bb93 2e3e
000002d0: 2ea5 d33d f39b f53d 6e25 22be df16 cb3d
000002e0: 64c0 883e 0822 4cbe 1476 78bc b05d 563d
000002f0: 4042 a9be 5e70 933c 81c6 03be 0b2f 443e
00000300: fa89 76bf f14e 663f 516a 41be f6c5 f8be
00000310: 2d34 a93f ccdc 4cbf a4f3 b7bd e6cc 5e3d
00000320: ead6 bebd 063e b23c ec92 a83d 6d6e d9bd
00000330: 77e9 bfbd f3d6 9cbc af64 75bd 3997 e9bc
00000340: c903 513a d0f2 35bd fd49 ccbb 6087 a73d
00000350: dd46 71bd 93bc 9d3c 99b7 8fbb 0797 42bd
00000360: d75b 133e c344 6cbb f05c 21be a59d 053e
00000370: 1781 8b3d 4df4 ddbb b38c 1d3e 3fa8 143e
00000380: f7c6 aebd e108 4bbd 73a9 03bc ddaf df3d
00000390: c33c fbbd aa32 92bc aa92 003e 8309 51be
000003a0: f892 82bd 06d0 2c3b 589d 243d 58d5 25be
000003b0: 7726 d5bd 12f4 fbbc b3f9 6bbe 04fd cdbd
000003c0: 2eb0 ae3b d769 6abc 052a 3a3e 0014 373e
000003d0: 427a 003d 9564 723c bfca 4e3c 3155 dabd
000003e0: 3237 babd 8efd efbd 5786 29be e337 08be
000003f0: 1cea a8be 61d6 b4be 106f 863e e304 cdbe

conv2.bias f4 [16]
-0.0008545971 0.0008152749 0.00055433117 0.00042279958 -3.9460447e-05 -0.000185113 0.0003942176 -0.00034074052
-0.00044431796 -0.0010310436 -0.00033879752 -8.9814326e-05 0.00029727552 7.9004654e-05 -0.00043688645 -0.0009925952
00000000: 0a07 60ba 2cb8 553a 8950 113a 33ab dd39
00000010: 5582 25b8 e41a 42b9 feae ce39 6ba5 b2b9
00000020: 59f3 e8b9 1524 87ba a2a0 b1b9 b35a bcb8
00000030: a5db 9b39 4daf a538 e80d e5b9 f819 82ba

bn2.weight f4 [16]
1.012691 1.4871563 1.1942283 0.9015115 0.8982702 1.016822 1.3693702 1.0652632
0.92033565 1.1033704 1.136743 1.7453631 1.3029094 0.800082 0.86925423 0.8798112
00000000: dc9f 813f 235b be3f 79dc 983f 75c9 663f
00000010: 09f5 653f 3927 823f 8647 af3f 8b5a 883f
00000020: 1e9b 6b3f 3e3b 8d3f cb80 913f 0f68 df3f
00000030: bcc5 a63f 2dd2 4c3f 7287 5e3f 4f3b 613f

bn2.bias f4 [16]
-0.14270394 -0.1178187 -0.07221355 -0.050706707 0.110113345 0.7859073 0.015165246 0.019003682
0.1245209 -0.11854639 0.7340643 -0.09552815 -0.28219962 0.6499488 -0.021699145 0.29642183
00000000: fb20 12be ee4a f1bd b3e4 93bd d6b1 4fbd
00000010: 1b83 e13d 3931 493f a777 783c 9cad 9b3c
00000020: d004 ff3d 73c8 f2bd a3eb 3b3f 43a4 c3bd
00000030: 787c 90be 0b63 263f 68c2 b1bc 9ac4 973e

bn2.running_mean f4 [16]
-1.6897118 -1.0208392 -1.3944342 -0.2137401 -2.0414762 -0.2767174 -0.53946453 -0.8934758
-2.27478 0.49962258 -3.1652508 -0.98459786 -2.2118824 0.20850639 0.35006037 1.9653536
00000000: 7a48 d8bf dcaa 82bf d27c b2bf afde 5abe
00000010: 8ca7 02c0 e7ad 8dbe 591a 0abf d4ba 64bf
00000020: ff95 11c0 88ce ff3e 7893 4ac0 9b0e 7cbf
00000030: 7b8f 0dc0 b382 553e 1d3b b33e b590 fb3f

bn2.running_var f4 [16]
2.6100142 19.578375 8.683515 3.282686 3.7477968 7.123803 19.345478 6.2617216
2.8449633 4.5523295 8.325846 26.953691 7.594188 3.786479 2.2146783 3.1370382
00000000: 790a 2740 83a0 9c41 adef 0a41 8717 5240
00000010: e7db 6f40 32f6 e340 8ac3 9a41 0660 c840
00000020: e113 3640 afac 9140 aa36 0541 29a1 d741
00000030: 9703 f340 ac55 7240 4abd 0d40 3cc5 4840

conv3.weight f4 [32, 16, 3, 3]
0.03990566 -0.012659609 0.006708963 0.072669975 0.015435933 0.013945671 -0.016823089 -0.064026214
-0.03356817 -0.39807543 -0.7712522 -0.44851685 -0.57953227 -0.63238126 -0.23175974 -0.3003912
-0.24590202 0.11747733 -0.16352145 -0.28928885 -0.1705821 -0.15104909 -0.18546847 -0.029925454
-0.021164102 0.17092787 0.16674565 0.075531416 0.020615947 0.09803968 -0.0009540975 -0.0048554204
0.052689243 -0.09552082 0.022728702 0.043803725 0.12264315 0.18472447 0.03546855 0.0821212
0.0849583 -0.017538922 -0.08329895 -0.0045221173 -0.06940819 -0.07745852 -0.27427807 0.06389756
-0.07465552 -0.082039714 0.29877624 0.06336115 0.19609386 0.27369967 -0.38903308 -0.61631036
-0.47559816 -0.59276706 -0.90269756 -0.5720532 -0.5620542 -0.55047256 -0.1636966 -0.06776735
0.0040862067 0.014015608 0.061456665 -0.031051865 -0.13122629 0.16623874 -0.006227834 -0.07308992
0.090170965 0.07812776 0.31301957 -0.12616196 -0.048816383 0.07747389 -0.20270158 -0.15847681
-0.13438216 -0.004634522 0.0905631 0.050806925 0.023353275 0.073925346 -0.011161913 0.10164704
0.11606548 0.06495553 0.23408139 -0.036107834 -0.19982798 0.13481721 0.081991404 0.1217773
0.23950158 0.20075743 0.062384047 -0.045441214 0.12768677 0.12101825 -0.063732356 0.10492504
-0.004337991 -0.123658136 -0.06236052 -0.11761579 0.15467796 0.12034328 0.045989577 0.40259957
0.27330956 0.40156758 0.3483168 0.423296 0.546373 0.20987125 0.12030901 -0.04727342
0.03636253 -0.071351536 -0.1302429 -0.22355296 -0.23122674 -0.04055472 -0.12584896 -0.3250215
-0.17611994 -0.2850687 -0.33863324 -0.06673091 -0.32236844 -0.22225092 -0.013127182 0.030834392
0.12017367 0.021143915 -0.06458813 0.018453332 0.08243853 -0.12183674 -0.03087851 0.109039575
-0.025202354 0.06355369 0.008279419 -0.13080454 0.10002998 -0.040870186 -0.121862784 -0.012849938
-0.12021198 -0.18221638 -0.43664148 -0.31488127 -0.17262982 -0.31940982 -0.25675339 0.04188088
-0.04978284 -0.046198554 -0.043774508 -0.07122726 -0.080947064 0.040991504 0.030391049 -0.011760701
0.12602781 0.1131468 0.1047545 0.045398727 -0.041659508 0.062399033 0.031302612 0.060117647
0.1750939 0.073178455 0.093122825 0.20074888 0.06949497 0.10356151 -0.13640091 0.25813475
0.21038142 0.016544612 0.32968822 0.2890295 0.23052804 -0.14238305 0.09362271 0.21741223
-0.11734496 0.11802657 0.20591639 0.044743963 0.07714734 0.09324581 -0.07072938 -0.15333466
-0.10583029 0.047137775 -0.17009051 -0.22120292 -0.013532272 0.035931997 0.024960453 -0.106302544
-0.04260303 -0.0277728 -0.119288 -0.050238933 0.062318712 -0.11364834 -0.08316361 -0.04581127
-0.034206744 0.11557727 0.27612364 -0.08321305 0.09574551 0.26940426 -0.101420164 0.0568994
0.18966806 0.032137062 0.122072466 0.09914552 0.1960963 0.23762223 0.19610913 0.20341267
0.29988605 0.16573866 -0.2828587 -0.3725522 -0.24198222 -0.22187567 -0.4080742 -0.27038074
-0.19666286 -0.3092708 -0.29404962 -0.052266885 -0.11228526 -0.11290124 -0.1063079 -0.14401089
-0.33932516 -0.04545803 -0.07071963 -0.073976494 -0.10748718 -0.13817067 -0.20389247 -0.16620731
00000000: 1e74 233d 406a 4fbc dcd6 db3b ffd3 943d
00000010: ffe6 7c3c 627c 643c 93d0 89bc 2d20 83bd
00000020: c77e 09bd 8bd0 cbbe c970 45bf 00a4 e5be
00000030: 3a5c 14bf bde3 21bf 6d52 6dbe e0cc 99be
00000040: bdcd 7bbe f497 f03d 2b72 27be ab1d 94be
00000050: 13ad 2ebe 9dac 1abe 72eb 3dbe 3a26 f5bc
00000060: 5760 adbc b707 2f3e 5fbf 2a3e 37b0 9a3d
00000070: c6e2 a83c 07c9 c83d 661c 7aba 381a 9fbb
00000080: add0 573d 6ba0 c3bd 8b31 ba3c 896b 333d
00000090: 552c fb3d 6928 3d3e 7847 113d 292f a83d
000000a0: 9efe ad3d c9ad 8fbc a498 aabd 452e 94bb
000000b0: e225 8ebd 93a2 9ebd 2d6e 8cbe b9dc 823d
000000c0: fee4 98bd 7004 a8bd 33f9 983e 7ec3 813d
000000d0: d4cc 483e 5d22 8c3e 582f c7be 84c6 1dbf
000000e0: 9a81 f3be 95bf 17bf 3017 67bf 1472 12bf
000000f0: c9e2 0fbf c5eb 0cbf 15a0 27be 9cc9 8abd
00000100: 96e5 853b b8a1 653c fcb9 7b3d 7b60 febc
00000110: 2f60 06be 7d3a 2a3e dc12 ccbb 2bb0 95bd
00000120: 8eab b83d 7201 a03d 1a44 a03e 9a30 01be
00000130: b0f3 47bd a1aa 9e3d 0191 4fbe bf47 22be
00000140: 7a9b 09be 30dd 97bb 2679 b93d ec1a 503d
00000150: 5e4f bf3c 2c66 973d 75e0 36bc 532c d03d
00000160: bdb3 ed3d 6807 853d 08b3 6f3e cfe5 13bd
00000170: b59f 4cbe 860d 0a3e 1ceb a73d 6166 f93d
00000180: e73f 753e 5b93 4d3e 6a86 7f3d 9120 3abd
00000190: 52c0 023e 6bd8 f73d 1c86 82bd f0e2 d63d
000001a0: b525 8ebb 7a40 fdbd bf6d 7fbd 8ce0 f0bd
000001b0: e663 1e3e 8a76 f63d 915f 3c3d 8821 ce3e
000001c0: 3bef 8b3e 449a cd3e 9456 b23e 41ba d83e
000001d0: 1adf 0b3f 7de8 563e 9264 f63d c6a1 41bd
000001e0: e0f0 143d c120 92bd 655e 05be 11eb 64be
000001f0: b4c6 6cbe b51c 26bd 8dde 00be 3869 a6be
00000200: c958 34be 86f4 91be 5661 adbe 37aa 88bd
00000210: 7a0d a5be bf95 63be 6413 57bc 6898 fc3c
00000220: 9d1d f63d 0136 ad3c c846 84bd 712b 973c
00000230: 88d5 a83d 8a85 f9bd eef4 fcbc 2450 df3d
00000240: 2b75 cebc 7028 823d 66a6 073c a0f1 05be
00000250: 85dc cc3d 7f67 27bd 3293 f9bd 8c88 52bc
00000260: b331 f6bd ee96 3abe 798f dfbe 1e38 a1be
00000270: dfc5 30be af89 a3be 2e75 83be 498b 2b3d
00000280: 17e9 4bbd b23a 3dbd e64c 33bd 99df 91bd
00000290: 93c7 a5bd b5e6 273d a6f6 f83c f5af 40bc
000002a0: 6f0d 013e 82b9 e73d 8789 d63d 04f4 393d
000002b0: 29a3 2abd 2196 7f3d 2b37 003d ec3d 763d
000002c0: d14b 333e 96de 953d 2eb7 be3d 1d91 4d3e
000002d0: 6153 8e3d 0f18 d43d aeac 0bbe 3d2a 843e
000002e0: 3a6e 573e 9188 873c e5cc a83e adfb 933e
000002f0: 8b0f 6c3e ddcc 11be 43bd bf3d 50a1 5e3e
00000300: 8e52 f0bd eab7 f13d bfdb 523e 7245 373d
00000310: 6dff 9d3d a9f7 be3d 91da 90bd c303 1dbe
00000320: 8dbd d8bd 8a13 413d 352c 2ebe 0583 62be
00000330: 76b6 5dbc 6e2d 133d dd79 cc3c 26b5 d9bd
00000340: 8480 2ebd c883 e3bc 444d f4bd 57c7 4dbd
00000350: e841 7f3d 76c0 e8bd af51 aabd 99a4 3bbd
00000360: 5f1c 0cbd c7b3 ec3d 1460 8d3e 9b6b aabd
00000370: 3916 c43d 5bef 893e 60b5 cfbd 580f 693d
00000380: 5838 423e 27a2 033d 2101 fa3d ce0c cb3d
00000390: 78cd 483e 3e53 733e d5d0 483e 694b 503e
000003a0: aa8a 993e 65b7 293e dbd2 90be 29bf bebe
000003b0: 30ca 77be 6033 63be 1aef d0be 586f 8abe
000003c0: fd61 49be be58 9ebe ac8d 96be cd15 56bd
000003d0: d0f5 e5bd c438 e7bd f5b7 d9bd 9777 13be
000003e0: 07bc adbe 3332 3abd 74d5 90bd fd80 97bd
000003f0: 3d22 dcbd 9d7c 0dbe 30c9 50be 4032 2abe

conv3.bias f4 [32]
0.0002033959 0.00042711533 0.0004065193 0.00047438662 0.0010794759 0.0010541851 -0.00090176903 0.00039255468
5.954199e-06 -0.0009902532 0.0010811839 5.0595678e-05 0.00058042805 0.00060776656 -0.00014941518 0.00052545196
-0.00071373436 0.0010990406 0.0005733094 -0.00081733195 -0.001013481 -0.00078620954 -0.0004631059 -0.00070707506
0.00080778997 0.00064454076 -0.0006190569 8.372369e-06 0.0006090838 4.0915755e-05 1.6569003e-05 0.00092326093
00000000: ac46 5539 73ee df39 1922 d539 18b7 f839
00000010: 337d 8d3a 952c 8a3a b264 6cba cccf cd39
00000020: 2eca c736 62cb 81ba 83b6 8d3a b236 5438
00000030: de27 183a 8652 1f3a 55ac 1cb9 7cbe 093a
00000040: e719 3bba af0d 903a 244a 163a 3842 56ba
00000050: c8d6 84ba a119 4eba 06cd f2b9 015b 39ba
00000060: dec1 533a 66f6 283a 3548 22ba 0d77 0c37
00000070: ecaa 1f3a f59c 2b38 aafd 8a37 fe06 723a

bn3.weight f4 [32]
1.2986319 0.6237073 0.79923457 0.73307085 0.9116279 0.7755333 0.7750482 1.4024717
1.2426332 0.9512111 0.99784076 0.8857912 0.8461402 0.7233799 0.6984683 0.93058157
0.85820127 0.9370184 1.1991905 1.8044081 0.84259397 0.7492371 0.9933696 0.634625
1.113919 0.7963761 1.1416963 0.9658818 0.91742164 0.8345968 0.7569031 0.7356616
00000000: 9239 a63f 48ab 1f3f a39a 4c3f 88aa 3b3f
00000010: 7260 693f 5a89 463f 8f69 463f 3184 b33f
00000020: 9b0e 9f3f 9282 733f 7e72 7f3f 36c3 623f
00000030: a59c 583f 6d2f 393f d2ce 323f 983a 6e3f
00000040: 14b3 5b3f 70e0 6f3f 137f 993f d8f6 e63f
00000050: 3db4 573f 01ce 3f3f 784d 7e3f c976 223f
00000060: e694 8e3f 4edf 4b3f 1b23 923f 0844 773f
00000070: 25dc 6a3f 23a8 553f 67c4 413f 5254 3c3f

bn3.bias f4 [32]
-0.10806707 0.430866 -0.11604671 0.08273972 -0.2481703 -0.039482433 0.02613554 -0.19780616
-0.4993095 0.0043036467 -0.49445698 0.21726924 -0.026855327 0.0904509 0.052143067 -0.3224097
0.27344573 -0.15283088 -0.19090046 -0.49827495 -0.16534682 0.06811347 -0.31847605 0.07023606
-0.40345696 -0.08637661 0.23005508 -0.07173939 -0.05370435 0.017558929 0.53351676 0.10743705
00000000: 4552 ddbd 789a dc3e e6a9 edbd 7173 a93d
00000010: 5b20 7ebe 55b8 21bd 331a d63c b38d 4abe
00000020: 7fa5 ffbe 9b05 8d3b 7729 fdbe d47b 5e3e
00000030: b4ff dbbc 523e b93d f893 553d e212 a5be
00000040: 1401 8c3e b37f 1cbe 697b 43be e51d ffbe
00000050: ad50 29be 137f 8b3d 4b0f a3be ecd7 8f3d
00000060: e991 cebe 38e6 b0bd 8f93 6b3e 1aec 92bd
00000070: 18f9 5bbd bed7 8f3c 8e94 083f f507 dc3d

bn3.running_mean f4 [32]
-2.1471703 -2.2785265 -0.29787937 -2.1386878 -0.44598758 1.7985038 3.4562125 -2.3315203
-2.7640758 -0.23930393 -1.4856442 -2.9268074 0.061892714 0.039714165 0.37792307 -0.5764082
-3.7057595 -0.23007235 -2.9781682 -4.0720215 -1.6012076 3.32631 -1.7576611 1.2850435
-6.988785 1.654856 -0.85195225 -1.4063383 -0.79416984 0.39790538 1.9538885 0.7799535
00000000: 3d6b 09c0 61d3 11c0 a583 98be 43e0 08c0
00000010: 7c58 e4be 5f35 e63f 9632 5d40 a137 15c0
00000020: 9ee6 30c0 170c 75be 9729 bebf d050 3bc0
00000030: 3783 7d3d 52ab 223d 227f c13e 7d8f 13bf
00000040: 2a2b 6dc0 1698 6bbe 4f9a 3ec0 004e 82c0
00000050: 5ff4 ccbf 43e2 5440 0afb e0bf 4e7c a43f
00000060: 20a4 dfc0 52d2 d33f 8b19 5abf e502 b4bf
00000070: b74e 4bbf 41ba cb3e 0519 fa3f 08ab 473f

bn3.running_var f4 [32]
8.362559 4.587682 3.9308178 5.5264864 3.7309885 3.9472544 3.9840376 9.544643
4.361604 4.338774 4.330754 5.517023 4.144506 3.3415208 4.848527 3.3659687
5.5095906 3.1543791 4.7095613 10.609433 3.9274192 3.7845254 3.6096084 3.7732146
8.086828 2.8651545 10.522886 8.147752 7.6414366 6.739991 6.6017227 2.1988454
00000000: 0bcd 0541 4ace 9240 8592 7b40 fad8 b040
00000010: 84c8 6e40 d19f 7c40 79fa 7e40 dcb6 1841
00000020: 4392 8b40 3dd7 8a40 8995 8a40 748b b040
00000030: cb9f 8440 7adb 5540 2227 9b40 086c 5740
00000040: 914e b040 59e1 4940 bab4 9640 3dc0 2941
00000050: d65a 7b40 aa35 7240 d303 6740 597c 7140
00000060: a663 0141 b15e 3740 be5d 2841 315d 0241
00000070: a686 f440 02ae d740 5041 d340 e2b9 0c40

conv4.weight f4 [32, 32, 3, 3]
0.04117584 -0.03918929 -0.20530733 -0.0016912473 -0.010951352 -0.06251106 0.016337289 -0.03392612
-0.035277955 -0.14704667 -0.031540502 -0.0714897 0.07467995 0.103234015 -0.00801016 -0.1262226
-0.09719017 -0.18996155 -0.14439876 -0.027345803 -0.16057771 -0.08784394 -0.14320926 -0.16184297
-0.28633425 -0.12443483 -0.18013114 0.14511581 0.2867253 0.050106898 0.014009073 0.040447276
-0.111163095 -0.21947382 -0.15381552 -0.27500257 -0.09636945 -0.115037076 -0.06129388 -0.0009033058
-0.107993156 -0.056832485 -0.10278677 -0.06927959 0.14503792 -0.036048297 -0.08245353 0.0393419
0.02148691 -0.104191765 0.020194927 0.08809617 -0.07364424 0.050065115 -0.21480855 -0.0041005122
0.16006537 -0.23036021 -0.13355559 0.010798181 -0.1156903 -0.12896627 -0.01887514 -0.011441642
0.0007617849 -0.034277573 -0.23947868 -0.030592661 -0.04762598 -0.42634204 -0.180232 -0.32122695
0.25588742 0.08342886 0.13829675 0.2489939 0.23103335 0.12619472 0.20531422 -0.02368441
0.00015749977 -0.2284145 -0.023144266 -0.21408117 -0.07665576 -0.1286449 -0.27802724 -0.16758803
-0.083192386 -0.31564698 -0.019909143 -0.08484958 -0.04277693 0.088117644 0.06696916 0.08381442
0.022710232 0.02810797 0.22911398 -0.22580189 -0.09115043 -0.1274778 -0.03447717 -0.092440166
0.10315753 -0.0026319155 -0.06243069 -0.04927895 0.034735773 0.044506997 0.12398192 -0.058274437
0.02895883 0.027716426 0.0024660106 -0.028351478 0.14965896 0.10062698 0.10871317 0.13815145
0.11425995 0.010571045 0.06010242 0.07515931 -0.1738718 -0.08939897 -0.32048535 -0.095205575
-0.045212172 -0.07085952 -0.08108933 -0.11171993 -0.10280172 -0.10335543 -0.04939902 -0.10661647
-0.17548181 -0.08604891 -0.11172417 -0.23595792 -0.11844892 -0.42879382 -0.39349052 -0.20639902
0.009114927 -0.17248768 -0.2563301 0.14958687 0.20198065 -0.08852006 -0.064689 -0.048643023
-0.3348906 -0.15324593 -0.06594342 -0.20920394 -0.053414818 -0.08686321 -0.023084529 -0.09235414
-0.06619784 -0.119012035 0.05279479 0.09435748 0.15563613 0.111561395 0.3185571 0.19077727
-0.016365822 0.029991534 0.09690423 0.14848208 -0.018999241 0.12816988 0.21005091 0.094144784
0.095143445 0.39712566 0.08813998 0.14618643 0.121353015 0.009281437 0.23147593 0.053023223
-0.15010554 0.086813875 -0.13584974 -0.1964073 0.115230925 0.040499207 -0.031825013 0.12960099
0.041495234 -0.13549854 -0.035569977 0.044765025 -0.06956783 0.08544831 -0.14885922 -0.04141438
-0.054949958 -0.08174655 0.00024041957 -0.13965712 -0.43058285 -0.24908994 -0.42493314 -0.31432563
-0.074147284 -0.045551587 -0.064888805 -0.078700475 -0.047158834 -0.00443827 -0.12612216 0.049752247
0.05014906 0.061590094 0.053728435 -0.086685 -0.018245617 -0.07782355 -0.2665441 -0.10126778
0.018418908 0.069025226 0.058952708 -0.029391525 -0.0067100613 0.03348155 0.030245075 0.08791711
0.08616739 0.012998224 0.069781 0.011724839 0.06608859 0.08109871 0.19224589 0.23878157
-0.44583088 -0.3846632 -0.3357597 0.22034825 0.18560581 0.33369797 0.16440308 0.13460046
0.092039116 0.16386366 0.12913732 0.18431191 0.31222034 0.23529804 0.25105345 0.1508182
00000000: ffa7 283d f384 20bd 163c 52be d8ac ddba
00000010: 4d6d 33bc cc05 80bd c7d5 853c 1df6 0abd
00000020: 9e7f 10bd 6793 16be 9d30 01bd 3169 92bd
00000030: cdf1 983d 5b6c d33d 0c3d 03bc 7f40 01be
00000040: a40b c7bd 4885 42be 45dd 13be 4e04 e0bc
00000050: 7c6e 24be 86e7 b3bd 73a5 12be 2aba 25be
00000060: 679a 92be b0d7 febd 4c74 38be 3d99 143e
00000070: a9cd 923e e43c 4d3d 5086 653c 0bac 253d
00000080: 7aa9 e3bd bfbd 60be d181 1dbe 23cd 8cbe
00000090: 595d c5bd 8f98 ebbd 4b0f 7bbd d3cb 6cba
000000a0: 842b ddbd 2ec9 68bd df81 d2bd 75e2 8dbd
000000b0: d284 143e 61a7 13bd 65dd a8bd f924 213d
000000c0: 5105 b03c 7e62 d5bd d56f a53c c46b b43d
000000d0: cbd2 96bd 1411 4d3d c6f6 5bbe 975d 86bb
000000e0: 2de8 233e 8ce3 6bbe ccc2 08be dbea 303c
000000f0: 09ef ecbd bc0f 04be 0aa0 9abc ba75 3bbc
00000100: 85b2 473a a466 0cbd e639 75be 769d fabc
00000110: 7613 43bd 8149 dabe bd8e 38be dc77 a4be
00000120: ad03 833e c0dc aa3d aa9d 0d3e 42f8 7e3e
00000130: 0294 6c3e 3039 013e e43d 523e cf05 c2bc
00000140: 8626 2539 7ee5 69be 0b99 bdbc 1838 5bbe
00000150: b2fd 9cbd 7dbb 03be 9659 8ebe 329c 2bbe
00000160: c560 aabd 7b9c a1be 8018 a3bc 9ec5 adbd
00000170: dd36 2fbd 0677 b43d 2127 893d e5a6 ab3d
00000180: cf0a ba3c af42 e63c db9c 6a3e 9c38 67be
00000190: 14ad babd 8a89 02be ef37 0dbd 4551 bdbd
000001a0: 4144 d33d 377c 2cbb 53b7 7fbd b9d8 49bd
000001b0: 1947 0e3d f84c 363d 3cea fd3d 2db1 6ebd
000001c0: 113b ed3c 8f0d e33c cb9c 213b 5c41 e8bc
000001d0: 3340 193e 8515 ce3d 03a5 de3d 9377 0d3e
000001e0: 1f01 ea3d 2d32 2d3c f52d 763d 20ed 993d
000001f0: 730b 32be cf16 b7bd a816 a4be 24fb c2bd
00000200: 6630 39bd cc1e 91bd 2a12 a6bd 6bcd e4bd
00000210: b589 d2bd 03ac d3bd a056 4abd bc59 dabd
00000220: 81b1 33be 693a b0bd a4cf e4bd f49e 71be
00000230: 5995 f2bd dd8a dbbe 9777 c9be 445a 53be
00000240: c656 153c 9ca0 30be b33d 83be 4d2d 193e
00000250: 04d4 4e3e 014a b5bd ab7b 84bd e83d 47bd
00000260: c876 abbe 80ec 1cbe 580d 87bd 8f39 56be
00000270: 7fc9 5abd 57e5 b1bd c41b bdbc 2b24 bdbd
00000280: bc92 87bd 95bc f3bd 5a3f 583d 7f3e c13d
00000290: 145f 1f3e 4d7a e43d eb19 a33e 1e5b 433e
000002a0: 9e11 86bc ceb0 f53c ba75 c63d b00b 183e
000002b0: 4ca4 9bbc f73e 033e 9617 573e fbce c03d
000002c0: 91da c23d 0e54 cb3e bc82 b43d e5b1 153e
000002d0: ee87 f83d 2b11 183c 0708 6d3e e12e 593d
000002e0: 44b5 19be 79cb b13d 321c 0bbe ff1e 49be
000002f0: 31fe eb3d 7fe2 253d f25a 02bd 1fb6 043e
00000300: e8f6 293d 21c0 0abe d3b1 11bd 885b 373d
00000310: 9479 8ebd 86ff ae3d 8d6e 18be 20a2 29bd
00000320: 3513 61bd bc6a a7bd 2319 7c39 4702 0fbe
00000330: 5b75 dcbe 6f11 7fbe d690 d9be 4aef a0be
00000340: 88da 97bd 4d94 3abd 6ce4 84bd b72d a1bd
00000350: 9f29 41bd e86e 91bb 2b26 01be 03c9 4b3d
00000360: 1a69 4d3d e545 7c3d 5912 5c3d e887 b1bd
00000370: d577 95bc f461 9fbd 7878 88be 7b65 cfbd
00000380: 40e3 963c 195d 8d3d 6578 713d 7fc6 f0bc
00000390: 13e0 dbbb f323 093d 85c4 f73c e30d b43d
000003a0: 8778 b03d 81f6 543c 57e9 8e3d 8a19 403c
000003b0: 7459 873d 1517 a63d 1bdc 443e 2883 743e
000003c0: f243 e4be 93f2 c4be b2e8 abbe f9a2 613e
000003d0: 730f 3e3e 76da aa3e 4859 283e b4d4 093e
000003e0: 017f bc3d e0cb 273e 933c 043e 43bc 3c3e
000003f0: 58db 9f3e f8f1 703e 148a 803e 1670 1a3e

conv4.bias f4 [32]
0.00072048674 -0.00066902436 0.00021101307 0.00013503188 0.00016141955 0.0005779606 -0.000568864 -0.0006417901
0.00021475309 -2.8619928e-05 -0.00047622912 0.00038198507 -0.00040808122 0.0004074202 0.00061172 0.00048812036
0.0006869256 0.0005903479 -0.00055405544 -0.0007109358 -0.0007145975 0.00040936063 -0.00042427762 -0.000684539
-0.0003102287 4.0950683e-05 -0.00060399866 0.00020913941 0.00017029663 -0.0005488695 0.0003070192 -0.00021709896
00000000: 0cdf 3c3a 7761 2fba 6443 5d39 5897 0d39
00000010: bb42 2939 4882 173a d11f 15ba ce3d 28ba
00000020: 582f 6139 d414 f0b7 64ae f9b9 2b45 c839
00000030: bcf3 d5b9 039b d539 d65b 203a 68ea ff39
00000040: cc12 343a 94c1 1a3a 083e 11ba 185e 3aba
00000050: d453 3bba 749f d639 9471 deb9 a272 33ba
00000060: 31a6 a2b9 76c2 2b38 aa55 1eba 6f4c 5b39
00000070: a791 3239 02e2 0fba 6bf7 a039 0fa5 63b9

bn4.weight f4 [32]
0.97464854 0.83237875 0.7498942 0.8777211 0.95751643 0.86642796 0.9108535 0.59609467
0.8183656 1.2087703 1.0083108 1.0713964 0.8557517 0.98105633 0.8435542 1.074029
1.0168256 0.99999523 1.2186341 1.0622679 1.0165553 0.8273554 0.88490534 0.64980656
0.9038018 1.0590101 0.9890243 0.9739022 1.0565399 1.1172131 1.1655993 0.99897957
00000000: 9182 793f c616 553f 11f9 3f3f 54b2 603f
00000010: cc1f 753f 39ce 5d3f b22d 693f a999 183f
00000020: 6880 513f fcb8 9a3f 5410 813f 8423 893f
00000030: 8b12 5b3f 8226 7b3f 2bf3 573f c879 893f
00000040: 5727 823f b0ff 7f3f 34fc 9b3f 65f8 873f
00000050: 7c1e 823f 90cd 533f 2889 623f b959 263f
00000060: 8e5f 673f a58d 873f b230 7d3f a851 793f
00000070: b33c 873f d700 8f3f 5c32 953f 20bd 7f3f

bn4.bias f4 [32]
0.3484088 0.09796147 0.08037622 -0.16084422 -0.21450444 0.18926796 0.02567342 0.3291931
-0.086390555 -0.7747832 -0.16288078 -0.19989341 -0.07273346 -0.19968185 -0.043034535 -0.4084991
-0.25761276 -0.33725587 -0.54524547 -0.34444994 -0.30519393 -0.35129285 -0.16197182 0.5757343
-0.21093158 -0.18800718 -0.28572592 -0.07833186 0.22441724 -0.06605451 -0.36551702 -0.22665478
00000000: a362 b23e 06a0 c83d 4a9c a43d 59b4 24be
00000010: 0da7 5bbe 76cf 413e 1051 d23c ff8b a83e
00000020: 88ed b0bd 3158 46bf 38ca 26be dcb0 4cbe
00000030: 48f5 94bd 6679 4cbe fb44 30bd cb26 d1be
00000040: d2e5 83be cdac acbe 3595 0bbf be5b b0be
00000050: 6142 9cbe a8dc b3be f1db 25be 5363 133f
00000060: 73fe 57be f484 40be ab4a 92be 746c a0bd
00000070: a2cd 653e 9647 87bd 0c25 bbbe 3118 68be

bn4.running_mean f4 [32]
-1.5839802 -0.23924722 1.6602786 -2.5394785 -0.92919594 -2.593167 0.80650157 0.005405752
-1.4652841 -1.3622488 0.066232406 -0.8763343 -0.7928724 -1.2009634 -0.4597402 -0.3471147
-1.5112914 -0.06907224 -0.6677507 0.29931834 -1.0287348 -1.7302886 0.34356767 1.4767833
-2.2615077 0.16557385 0.46013626 -0.15498175 -0.8478597 -0.3462772 -0.022064993 -1.2428246
00000000: ddbf cabf 39fd 74be 0284 d43f d186 22c0
00000010: c9df 6dbf 73f6 25c0 e376 4e3f bc22 b13b
00000020: 6e8e bbbf 2b5e aebf dba4 873d 7257 60bf
00000030: b0f9 4abf 2bb9 99bf 1163 ebbe 05b9 b1be
00000040: ff71 c1bf bf75 8dbd b6f1 2abf 4140 993e
00000050: 95ad 83bf 197a ddbf 1ae8 af3e 3c07 bd3f
00000060: 8bbc 10c0 318c 293e fb96 eb3e 89b3 1ebe
00000070: 550d 59bf 3f4b b1be a5c1 b4bc e014 9fbf

bn4.running_var f4 [32]
4.486027 3.507849 2.4818654 2.9626262 2.5068004 3.2894528 3.4806168 3.573149
3.7413297 3.3150282 3.830535 4.1032043 2.6268022 2.8956351 3.2465003 3.331233
4.387966 3.091315 3.6264293 3.7258978 2.721732 2.2428355 2.8257413 4.3647
3.4498832 3.4636467 2.471536 3.9369452 3.8737571 5.143034 3.7619522 3.1404915
00000000: 888d 8f40 9980 6040 e2d6 1e40 ab9b 3d40
00000010: 6b6f 2040 6586 5240 6dc2 5e40 79ae 6440
00000020: f271 6f40 6c29 5440 7c27 7540 734d 8340
00000030: 871d 2840 1652 3940 a9c6 4f40 ec32 5540
00000040: 386a 8c40 1bd8 4540 6b17 6840 1c75 6e40
00000050: db30 2e40 9e8a 0f40 f2d8 3440 9fab 8b40
00000060: e3ca 5c40 63ac 5d40 a52d 1e40 e9f6 7b40
00000070: a3eb 7740 bc93 a440 d3c3 7040 d0fd 4840

conv5.weight f4 [32, 32, 3, 3]
-0.1023293 -0.15815508 -0.18426627 0.039643984 -0.01171668 -0.10463085 0.119992435 0.05689449
-0.1960912 -0.26880595 -0.18741347 -0.054105643 -0.090740375 -0.1548117 -0.04634629 -0.21294646
-0.29301092 -0.117484614 -0.04300741 -0.10820588 -0.04721239 -0.005180123 0.0029679884 0.10842262
0.17297931 0.035809018 -0.03223787 -0.2020778 -0.11765649 -0.061601844 -0.16199274 -0.023405444
0.038487755 -0.1921641 0.022738589 0.11156358 -0.20751962 -0.15468296 -0.17325394 -0.0645737
0.017739443 -0.009561661 -0.17925332 -0.07083728 0.01234465 0.023410317 -0.024327908 0.09256409
-0.019620901 -0.16734827 -0.07943272 0.27332643 0.08575489 0.012855711 0.08605542 0.043065783
0.057487972 0.06358578 0.05238919 0.17422742 -0.2910826 0.039408624 0.37416354 -0.069111645
0.019615851 0.22547385 0.07333632 0.0074231247 0.10430504 0.33181027 0.13804641 0.13940276
-0.34962782 -0.057160717 0.11982062 -0.1952817 -0.020517487 0.075998776 -0.13637565 -0.014664876
0.22296493 -0.06699868 -0.0972826 0.08310668 -0.009401575 -0.060979646 -0.07910403 -0.021016043
-0.071043395 -0.13128275 -0.023804868 0.0844822 0.2176902 -0.18083355 -0.028024698 0.0689688
-0.033085518 -0.019383842 -0.08764849 0.21504878 -0.005705893 0.055671517 0.007540423 -0.046355072
0.056770395 -0.027561346 -0.06921664 0.06303109 0.1182586 0.038985882 0.10888806 0.042354595
0.07439064 0.2106219 0.07277278 0.095393606 0.18268496 0.09900663 0.017372984 -0.10692531
0.10393754 0.03421387 -0.00686511 0.2736186 0.18357316 0.15773508 0.0016692632 0.0488468
-0.06664528 -0.07076642 0.061128452 -0.07335005 -0.24125543 0.08877151 0.209668 0.1691268
0.05506489 -0.050829977 0.12471492 0.15792125 0.0266584 0.013456158 0.13966298 0.13074459
0.30609986 0.3638703 0.4255308 0.11633963 0.16523232 0.2499849 0.32962996 0.13620178
0.1754373 -0.19299959 -0.12786536 -0.017109878 -0.108596995 -0.13001178 -0.033985067 -0.001067063
-0.22070132 -0.2582788 -0.5128427 -0.30771878 -0.39187953 -0.3286118 -0.3180587 -0.33796003
-0.0926166 -0.07744381 -0.2678637 -0.040372785 -0.13120607 -0.30805254 0.031675465 0.006429764
-0.20774241 -0.008696983 0.06917717 0.0057123303 -0.19959791 -0.274639 -0.13637894 -0.000166432
-0.18199666 -0.020211298 0.11271595 -0.12955426 0.10501473 0.21538736 0.12786897 0.107810274
0.0097474 0.043971736 0.14807975 -0.09164089 -0.03265227 0.12249996 0.13136818 0.13274936
0.14338222 0.003491729 -0.045496885 0.036482092 0.011190564 0.0058228797 -0.11218784 -0.18564612
-0.23457006 -0.3731446 -0.17260689 -0.09728413 -0.18946084 -0.10235752 0.007201622 0.08662839
-0.069070615 0.10401314 0.34587142 -0.22528997 -0.07806099 0.10408703 0.047824003 0.09760167
0.16352113 -0.14527453 -0.13468872 -0.086256534 -0.07518449 -0.053106874 0.033997178 0.11899639
-0.056962706 -0.007217077 0.049277056 0.06133209 0.024360185 -0.072716355 -0.029161107 -0.12632708
-0.087518364 -0.146202 -0.1932761 0.17938618 0.041699372 -0.16891025 -0.012041241 0.0012866192
-0.04069928 -0.022982752 -0.06239272 -0.019736243 -0.22681624 -0.33175644 -0.3423768 0.1185471
00000000: 0692 d1bd 68f3 21be 4cb0 3cbe bb61 223d
00000010: 51f7 3fbc b348 d6bd 98be f53d 320a 693d
00000020: 22cc 48be efa0 89be 51e9 3fbe e19d 5dbd
00000030: 17d6 b9bd f586 1ebe 9bd5 3dbd a30e 5abe
00000040: 8705 96be c69b f0bd 8a28 30bd 0b9b ddbd
00000050: c761 41bd 05be a9bb 9582 423b ae0c de3d
00000060: 7d21 313e 7aac 123d db0b 04bd 7ced 4ebe
00000070: e3f5 f0bd 3752 7cbd 6de1 25be c6bc bfbc
00000080: 56a5 1d3d aac6 44be 4746 ba3c 727b e43d
00000090: 0680 54be 3665 1ebe 7b69 31be 373f 84bd
000000a0: 4f52 913c 83a8 1cbc 2f8e 37be 2313 91bd
000000b0: 3741 4a3c fec6 bf3c 524b c7bc 3e92 bd3d
000000c0: 03bc a0bc 585d 2bbe 9fad a2bd 71f1 8b3e
000000d0: 43a0 af3d c3a0 523c d33d b03d bf65 303d
000000e0: 8278 6b3d 4339 823d 0c96 563d ac68 323e
000000f0: c708 95be f06a 213d 5d92 bf3e 688a 8dbd
00000100: 6cb1 a03c 9ee2 663e 5a31 963d af3d f33b
00000110: e19d d53d 09e3 a93e 0a5c 0d3e 99bf 0e3e
00000120: 6b02 b3be 5b21 6abd 8364 f53d edf7 47be
00000130: 4a14 a8bc 3fa5 9b3d 0fa6 0bbe f344 70bc
00000140: eb50 643e 9b36 89bd 1a3c c7bd d633 aa3d
00000150: 1009 1abc cbc5 79bd 4b01 a2bd d629 acbc
00000160: 337f 91bd fc6e 06be 6d02 c3bc 0105 ad3d
00000170: 2eea 5e3e 6e2c 39be 0d94 e5bc 843f 8d3d
00000180: ae84 07bd ddca 9ebc 0d81 b3bd bf35 5c3e
00000190: 80f8 babb d107 643d a715 f73b d1de 3dbd
000001a0: 1388 683d 55c8 e1bc 74c1 8dbd 7216 813d
000001b0: 9131 f23d a9af 1f3d b400 df3d 037c 2d3d
000001c0: 1f5a 983d 44ad 573e e509 953d b95d c33d
000001d0: c411 3b3e fdc3 ca3d ca51 8e3c a8fb dabd
000001e0: 34dd d43d d823 0c3d b7f4 e0bb bd17 8c3e
000001f0: 9afa 3b3e 4e85 213e 2ecb da3a 9513 483d
00000200: 527d 88bd fced 90bd d461 7a3d 8d38 96bd
00000210: aa0b 77be d6cd b53d 35b3 563e 932f 2d3e
00000220: b98b 613d 1833 50bd 896a ff3d 1cb6 213e
00000230: b862 da3c 3877 5c3c d003 0f3e e9e1 053e
00000240: 1fb9 9c3e 354d ba3e 2cdf d93e 7943 ee3d
00000250: a932 293e 0bfc 7f3e 42c5 a83e 7b78 0b3e
00000260: d6a5 333e afa1 45be 23ef 02be 042a 8cbc
00000270: 1a68 debd cf21 05be ed33 0bbd b1dc 8bba
00000280: 87ff 61be 1e3d 84be a949 03bf 518d 9dbe
00000290: 6fa4 c8be ce3f a8be 97d8 a2be 1909 adbe
000002a0: c6ad bdbd dc9a 9ebd 6e25 89be ef5d 25bd
000002b0: e25a 06be 10b9 9dbe 22be 013d c5b0 d23b
000002c0: 6dba 54be ca7d 0ebc c3ac 8d3d 802e bb3b
000002d0: 6563 4cbe 7c9d 8cbe eca6 0bbe 4084 2eb9
000002e0: 555d 3abe 2a92 a5bc 9fd7 e63d dfa9 04be
000002f0: f611 d73d 818e 5c3e 15f0 023e a2cb dc3d
00000300: 8fb3 1f3c b51b 343d 38a2 173e 38ae bbbd
00000310: 63be 05bd 42e1 fa3d 6185 063e 73ef 073e
00000320: cad2 123e 7ed5 643b f15a 3abd 3f6e 153d
00000330: a158 373c dbcd be3b bdc2 e5bd 041a 3ebe
00000340: 2233 70be cf0c bfbe dcbf 30be e73c c7bd
00000350: 0602 42be d2a0 d1bd 95fb eb3b 3a6a b13d
00000360: e574 8dbd d704 d53d 0f16 b13e 6ab2 66be
00000370: 71de 9fbd 952b d53d 1ae3 433d 62e3 c73d
00000380: 1572 273e d9c2 14be d7eb 09be 44a7 b0bd
00000390: 53fa 99bd 9886 59bd a040 0b3d 61b4 f33d
000003a0: ba51 69bd 3b7d ecbb bdd6 493d 5c37 7b3d
000003b0: 038f c73c 50ec 94bd 46e3 eebc e35b 01be
000003c0: d43c b3bd fab5 15be 2cea 45be 03b1 373e
000003d0: f6cc 2a3d cff6 2cbe a048 45bc c7a3 a83a
000003e0: 4ab4 26bd 5346 bcbc 828f 7fbd e7ad a1bc
000003f0: 8442 68be fbdb a9be 034c afbe d2c8 f23d

conv5.bias f4 [32]
0.00028746857 3.6644164e-05 0.00013750327 6.841207e-05 0.00025067013 0.0001955471 0.00064353435 -0.0007056443
-0.0005828076 0.00021713694 -0.00027120323 0.00041923096 0.0006435445 -0.0002753034 0.0001211595 0.00057487184
0.0002417006 9.886308e-05 0.0003948997 0.00030744798 5.0372705e-06 -0.00017365524 0.00013951842 0.00065561367
-0.00048843125 9.8205084e-05 0.0005693912 -5.853162e-05 -6.983619e-05 -0.00037685427 0.00067041354 0.00022919169
00000000: 61b7 9639 5fb2 1938 c12e 1039 7378 8f38
00000010: 606c 8339 c60b 4d39 dcb2 283a fdfa 38ba
00000020: 8ec7 18ba 41af 6339 4830 8eb9 3acc db39
00000030: 8ab3 283a 9956 90b9 0317 fe38 ffb2 163a
00000040: 0371 7d39 b654 cf38 8a0a cf39 f830 a139
00000050: d305 a936 3917 36b9 b14b 1239 7ddd 2b3a
00000060: 110a 00ba 74f3 cd38 3243 153a d97f 75b8
00000070: 0575 92b8 8694 c5b9 b1be 2f3a 2d53 7039

bn5.weight f4 [32]
0.68704695 0.9259272 0.6981211 0.78233206 0.9344215 0.87199575 0.98652107 0.8125024
0.78877544 0.7913958 0.8528414 0.96761656 0.7793994 0.9615251 0.7542696 0.78443134
0.83543414 0.7021253 0.9586809 0.62458485 1.0006626 0.8148453 0.68628544 0.9006893
0.8175633 1.2651513 0.93544006 0.8100684 0.8592949 0.8703741 0.8650391 0.85820454
00000000: 4fe2 2f3f 9109 6d3f 10b8 323f ea46 483f
00000010: 3f36 6f3f 1d3b 5f3f a58c 7c3f 2800 503f
00000020: 30ed 493f ea98 4a3f d053 5a3f b8b5 773f
00000030: b886 473f 8226 763f d017 413f 7ed0 483f
00000040: 03df 553f 7cbe 333f 1d6c 753f cbe4 1f3f
00000050: b615 803f b499 503f 67b0 2f3f 9393 663f
00000060: d44b 513f 7af0 a13f 0079 6f3f a560 4f3f
00000070: c0fa 5b3f d6d0 5e3f 3473 5d3f 4bb3 5b3f

bn5.bias f4 [32]
0.52001613 0.03872089 0.43864778 0.11699324 -0.06111146 0.18800627 0.29029033 0.25321904
0.3266015 0.21728474 0.08826863 -0.10464504 0.14957853 0.0127974395 0.3152161 0.2779769
0.22627452 0.24375622 0.22268514 0.63769495 -0.4857049 0.24266104 0.5470232 -0.031955134
-0.0012598558 -0.84886146 0.014610269 0.4483945 0.029491173 -0.015711118 0.06466027 0.2708588
00000000: c71f 053f cc99 1e3d 7196 e03e 279a ef3d
00000010: 0350 7abd b784 403e efa0 943e eda5 813e
00000020: 5038 a73e e47f 5e3e 2fc6 b43d 2450 d6bd
00000030: 1d2b 193e 5aac 513c 0164 a13e fd52 8e3e
00000040: 82b4 673e 3b9b 793e 9307 643e fa3f 233f
00000050: 50ae f8be 237c 783e b609 0c3f 63e3 02bd
00000060: bf21 a5ba fc4e 59bf e95f 6f3c f793 e53e
00000070: 7997 f13c 9ab4 80bc 9b6c 843d 01ae 8a3e

bn5.running_mean f4 [32]
-0.6638905 -0.85784316 -2.7021954 1.996404 0.5159462 -2.4849737 -2.661414 -1.623343
-0.6384973 -0.1862316 -2.1526625 -1.7715566 -3.1929882 1.74988 -2.7802274 -0.36993143
-0.69160265 3.9398887 0.35228884 -1.1177801 -2.0067117 -1.0896872 0.53948116 0.57449716
-0.8910296 -0.65421295 -2.5117557 -1.1605705 -0.00010224305 -3.1501858 -1.1696526 2.2283404
00000000: baf4 29bf 9c9b 5bbf c5f0 2cc0 2b8a ff3f
00000010: 0d15 043f cf09 1fc0 9b54 2ac0 b4c9 cfbf
00000020: 8f74 23bf 7fb3 3ebe 39c5 09c0 5ec2 e2bf
00000030: eb59 4cc0 11fc df3f 3fef 31c0 a767 bdbe
00000040: df0c 31bf 2327 7c40 345f b43e 6b13 8fbf
00000050: f76d 00c0 df7a 8bbf 701b 0a3f 3f12 133f
00000060: 841a 64bf 807a 27bf 9bc0 20c0 938d 94bf
00000070: 526b d6b8 a59c 49c0 2db7 95bf 219d 0e40

bn5.running_var f4 [32]
3.6892357 3.3937762 3.2961206 3.1779082 3.311438 3.642603 4.648129 2.891698
4.91352 2.56988 3.6304529 4.1657324 3.3184958 3.9410782 3.9768028 3.1529365
4.0929823 2.838292 4.883345 3.9752254 3.030059 3.792213 3.7591727 3.6871066
2.8421824 2.4939744 4.392005 4.024512 3.7465827 3.8140466 4.524238 3.3107011
00000000: 701c 6c40 a133 5940 a4f3 5240 d962 4b40
00000010: 9aee 5340 6820 6940 79bd 9440 9411 3940
00000020: 8e3b 9d40 ea78 2440 5759 6840 ae4d 8540
00000030: 3c62 5440 a03a 7c40 f083 7e40 b6c9 4940
00000040: b6f9 8240 93a6 3540 5d44 9c40 186a 7e40
00000050: 7dec 4140 9eb3 7240 4996 7040 8ef9 6b40
00000060: 51e6 3540 479d 1f40 4e8b 8c40 cdc8 8040
00000070: 03c8 6f40 5719 7440 8fc6 9040 87e2 5340
